artifacts/territory/lstm/328__329__0/model.pt (torch, 23217 bytes, 7 tensors)

lstm.weight_ih_l0 f4 [128, 1]
000000 dd 01 ef 3d 93 f9 33 3e 40 6d a9 bb cf 66 4a 3e
       0.11670277 0.17575674 -0.0051704943 0.19765781
000010 e2 6c 5c 3c 7e d5 5d 3c d0 81 31 3d 4c c5 84 3d
       0.013453694 0.01353967 0.04333669 0.06482944
000020 ef ee 2e 3e f9 8b 24 be 59 12 9d bc 10 24 46 3c
       0.17083333 -0.1606902 -0.019173788 0.012093559
000030 2f b3 81 3c fa 55 0d 3d fd d3 4f 3d 52 0c f0 3d
       0.015832512 0.03450582 0.050739277 0.117211
000040 9a 11 9c bd d8 74 94 3c d9 fa bb 3d 60 81 eb 3d
       -0.07620545 0.018122122 0.09178705 0.11499286
000050 5d 3c 49 3c 26 ca 26 be 5d 38 5f 3c de 57 3b 3e
       0.012282458 -0.16288051 0.013624278 0.18295237
000060 ad b4 1e 3e dd 4d 3d 3d 69 9e 52 bc 06 45 2e 3e
       0.1549861 0.046216834 -0.012855151 0.17018518
000070 b2 5b 21 3e 3a 42 9f 3d bc 72 96 bc 3b d5 40 3c
       0.15757635 0.077763036 -0.018365256 0.011769588
000080 e0 a0 16 3e 1e 84 2f bb f5 d2 a9 bd f1 54 12 bd
       0.14709806 -0.002678163 -0.0829219 -0.035725538
000090 c7 4a 8e bd ed 6f d6 3d 30 55 85 3c 69 a8 29 3e
       -0.069478564 0.10470567 0.016275972 0.1656815
0000a0 a3 8e 35 3c 0f 4d 2d 39 9b 79 30 3d 76 5d 2d 3d
       0.0110813705 0.00016527272 0.043084722 0.04232546
0000b0 70 dc ad bd d5 dc d3 3d 7e d3 44 3c 67 8d a5 3c
       -0.08489311 0.10344855 0.012013314 0.020209027
0000c0 d2 0e 38 be 5f e0 36 3c 85 1d af bd c7 26 a5 3d
       -0.17974404 0.011161893 -0.08550552 0.08064037
0000d0 c5 32 55 3d 2f 89 12 3e 04 03 24 3e 3d c9 75 3d
       0.05205037 0.14310144 0.16016775 0.06000637
0000e0 02 ad d5 bd b7 3e 90 bd fc 34 68 3e e6 91 3c 3e
       -0.10433389 -0.07043212 0.22676462 0.18415031
0000f0 85 7f 68 3c 63 9e bd 3c 60 eb 6c bd d1 9f 85 3d
       0.014190559 0.023146814 -0.05784166 0.06524623
000100 8e 4d 1a be d2 eb 2e 3e 44 91 55 bc 32 24 bf bd
       -0.15068647 0.17082146 -0.013035122 -0.093330756
000110 43 f2 30 3e 1b e4 ee bd 13 8d 1a be e0 aa 09 3e
       0.17279916 -0.116646014 -0.15092878 0.1344409
000120 f5 59 bf 3d 43 e2 71 bd 16 b5 2d be 64 6b 0d be
       0.0934333 -0.05905367 -0.1696361 -0.13810498
000130 b1 de b1 bd 58 7a 99 3d 82 0f d0 3d 9c 59 39 be
       -0.08685053 0.07494038 0.10159208 -0.1810059
000140 59 23 08 be ae 0e 64 3d 02 d3 12 3e e2 18 d1 3d
       -0.13294734 0.055678062 0.14338306 0.10209824
000150 3f a7 43 3e 46 31 3f 3c 02 94 2b be fc 75 8c bd
       0.19106768 0.011669463 -0.16755679 -0.06858441
000160 c3 d7 61 bd 47 41 11 3e b4 e9 b7 3d c6 76 a2 3d
       -0.055137407 0.14185058 0.08980122 0.079328105
000170 a8 11 2f 3e 4e 15 01 3e 53 d3 33 be 63 94 1a 3e
       0.17096579 0.12605783 -0.17561083 0.15095668
000180 4b 14 87 3c 1e 3b b6 3d 9c c7 70 3d 82 44 92 bd
       0.016489169 0.088979945 0.058784112 -0.07141973
000190 8d be 17 3d 4d 91 db 3d 25 6a 46 bd d2 4b 16 ba
       0.037046958 0.10721073 -0.04844107 -0.0005733344
0001a0 2a ed 2d 3e 1f 2e d0 bd 9a 3a 30 bc 0f 6f 6e 3e
       0.16985002 -0.10165047 -0.010756159 0.23284553
0001b0 85 14 c6 3c 85 18 89 3c 60 ea ca 3d 79 a0 81 3d
       0.024179706 0.016735325 0.09907985 0.06329436
0001c0 51 34 9e 3d 29 dc ce 3d b4 90 5f 3c e1 6b 1e 3e
       0.07724822 0.10100586 0.01364534 0.1547084
0001d0 a6 1b 54 3e 8b 29 99 bd 7d 49 be 3d ac 11 86 bc
       0.20713672 -0.07478627 0.092913605 -0.016365848
0001e0 7e 85 0a be 5a 04 a9 3a ad 65 f1 3b 49 66 75 3d
       -0.13527486 0.0012894974 0.007366857 0.059912
0001f0 f9 f2 16 bc 7b 15 bf 3d d0 c6 4b bd a5 41 3a 3e
       -0.009213203 0.09330269 -0.04975015 0.18189104

lstm.weight_hh_l0 f4 [128, 32]
000000 33 55 00 3a e4 57 c5 bd 3b 1a eb bd b9 ea f2 3d
       0.0004895508 -0.096359044 -0.114796124 0.11861176
000010 c4 8a 28 be 9a 53 1e bc 5b 14 5c bd 49 dc f1 3d
       -0.16459185 -0.009663487 -0.05373035 0.11809594
000020 3f 86 44 bd 90 a8 b4 bd ff 8d e2 3d 8e 11 5d bd
       -0.04797959 -0.08821213 0.1106224 -0.05397182
000030 56 0d e1 bd fe 5b 01 be 37 9b 34 bd 59 93 2e be
       -0.10988872 -0.12632748 -0.044093337 -0.17048396
000040 5c c3 63 bc ce ec d6 3d 30 96 a5 3c 35 f6 96 bc
       -0.013901558 0.10494386 0.020213217 -0.018427948
000050 14 54 0b 3d e0 4a 0b bc 20 9e c6 3d 1e 34 b5 bd
       0.03401573 -0.008501738 0.09698129 -0.08847831
000060 70 f9 c6 3c 9f 7d 08 be 64 64 3c 3c 6a d6 3a 3e
       0.024288863 -0.1332917 0.011498544 0.18245855
000070 64 6b 66 bd 82 f4 30 3e ed a2 f2 3c c2 f1 65 bc
       -0.05625476 0.17280772 0.029618705 -0.01403469
000080 33 b4 de 3d 39 b8 28 be 9a 68 90 bd 1f 64 31 3e
       0.10874214 -0.16476525 -0.07051201 0.1732335
000090 1a f7 8e 3d 63 e3 a1 3b 7c 22 af bd 18 0c 17 be
       0.06980725 0.0049404367 -0.08551499 -0.14750707
0000a0 44 a0 14 3e c6 38 af bc 57 25 0f 3d 4e 0a ac 3d
       0.14514261 -0.021389376 0.03494772 0.08400403
0000b0 e5 8d f6 3c f8 38 f1 bc 8f 97 6d 3c d1 b4 e5 3d
       0.030096957 -0.02944611 0.014501466 0.112161286
0000c0 c6 9e ed 3d fa 4b fe bd 66 62 00 3d e7 28 eb 3d
       0.11602549 -0.12416835 0.03134384 0.11482411
0000d0 46 f0 86 3d 7c 8b 69 3b 1e 04 b6 3d ad 2a f1 3d
       0.06588797 0.0035636118 0.08887504 0.11775718
0000e0 38 eb e4 bd 59 48 0d be 1e e2 01 3d c5 1f 80 3b
       -0.11177677 -0.1379713 0.031709783 0.003910037
0000f0 1f e1 3a 3e 3b 2a ef 3a 82 c3 31 be f9 b7 4c 3e
       0.1824994 0.0018246839 -0.17359737 0.19992055
000100 3d f3 c8 3d 37 2b 5b bd 9f 48 f3 bd bb 1b 99 bc
       0.09812019 -0.05350801 -0.11879086 -0.01868998
000110 61 4f 68 3e 59 e3 7a 3d 37 d8 9c bd e9 4a e0 3d
       0.2268653 0.061251972 -0.07658427 0.10951788
000120 62 2f 32 be d1 d9 63 3d fe e2 90 bd e1 ba 2d be
       -0.17400888 0.055627648 -0.07074545 -0.1696582
000130 11 a7 7f 3d 4a d9 de bd ea b2 05 be a4 75 01 bd
       0.062415186 -0.10881288 -0.13056532 -0.03160633
000140 a5 0c d0 bd 8e 30 88 3d 01 00 fc bd 74 5c 1f be
       -0.10158662 0.06649886 -0.12304688 -0.15562612
000150 b6 22 8b bc 39 d0 c6 3d 86 56 0c 3d d5 28 c6 ba
       -0.016984325 0.09707684 0.034262203 -0.001511837
000160 8e 05 97 bd 3e 9a f0 bd 6a 67 1f 3e fe 38 fe 3d
       -0.07374106 -0.11748169 0.15566793 0.12413214
000170 aa 27 c7 3c b9 e1 fd bc 4d e1 f6 3d ad 7e 0f be
       0.024310905 -0.030991422 0.120546915 -0.14013167
000180 c8 dc fe bc c7 dd 9f 3d 8c e5 2c 3e 3d 25 1f 3e
       -0.031111136 0.078059725 0.1688444 0.15541549
000190 39 5b 35 bd 11 cc c1 3d 21 7f f1 3d c3 33 13 be
       -0.04427645 0.09462751 0.11791826 -0.14375214
0001a0 13 09 e4 3c da 88 9d 3d 77 7d 96 bd 1a 0b d8 bc
       0.027836358 0.07692118 -0.07348149 -0.026372481
0001b0 b6 39 2c be da 9a 91 3d d1 87 03 bc 65 cb ff bd
       -0.1681889 0.07109614 -0.008027987 -0.12489966
0001c0 dd 78 13 3e 29 b7 20 3e 21 99 84 bd 89 83 a2 3d
       0.14401574 0.1569487 -0.064745195 0.079352446
0001d0 8e f8 e6 3c 26 14 b0 3d 11 5e f6 bd 98 61 b7 bd
       0.028194692 0.08597593 -0.120296605 -0.089541614
0001e0 b2 65 f9 bd 97 57 e2 bd 6f a6 8c 3d 80 24 34 3e
       -0.121776 -0.11051863 0.06867682 0.17592049
0001f0 ec 2f 03 3d b7 be 2e bd 96 36 e5 3d f1 30 df 3d
       0.032028124 -0.04266235 0.11192052 0.10898007
000200 c3 3b 16 be a4 30 29 3e 96 40 02 be 9d 9f cf 3c
       -0.14671235 0.16522461 -0.1271995 0.025344664
000210 43 77 2b 3d 0c b3 27 bc af ed 07 be 36 a5 d7 b9
       0.041861784 -0.010235559 -0.13274263 -0.00041131087
000220 c2 70 85 3d 4c b2 ab bd ba ad 87 be 0f 16 6d be
       0.065156475 -0.08383617 -0.2649973 -0.23152946
000230 99 d2 4f 3d 18 cf 61 3e 36 37 7f 3e 49 01 13 be
       0.05073795 0.22051656 0.24923405 -0.14355959
000240 2e 42 ec bb 6e 6e 4a 3e a9 8a bd bc df 47 68 bd
       -0.0072100377 0.19768688 -0.023137407 -0.056709167
000250 d8 33 d5 3d 59 74 53 bb 95 ee 4c bd 23 8e 02 3c
       0.10410279 -0.0032265394 -0.050032217 0.007968458
000260 9a ea fe 3d 9f e3 39 3e 56 3c 03 3d e6 d9 18 3e
       0.124470904 0.18153237 0.032039963 0.14926872
000270 e7 36 26 3e 87 e8 78 3d e5 e4 d4 bc db 53 93 3e
       0.16231881 0.06076863 -0.025988052 0.28774914
000280 91 82 22 be 2b dc 2c bd 24 67 9f 3d 6e cf ea bd
       -0.1587012 -0.042202156 0.077833444 -0.11465345
000290 95 c0 84 bd 0b c3 2a bd 5c 03 47 be 92 d3 54 3e
       -0.064820446 -0.041689914 -0.19434875 0.20783833
0002a0 d4 d3 ae bc f0 aa 17 bc 9e 74 4b be bc b0 e5 3d
       -0.021341242 -0.009257063 -0.19868705 0.1121535
0002b0 a5 5f 11 be 40 3a b0 3d 58 18 eb bd 86 16 07 be
       -0.14196642 0.0860486 -0.114792526 -0.13192186
0002c0 c1 7a dd bd 30 26 65 3d 80 b5 b9 bd 8b 51 d9 bd
       -0.10814429 0.05594462 -0.090678215 -0.10611256
0002d0 82 13 c1 bc d3 ab 8c bd 7d fc c2 bd 43 44 67 be
       -0.023568872 -0.0686871 -0.095208146 -0.22584634
0002e0 ee 96 86 3d b4 4d 95 3c e1 3a 4e 3e 32 b6 2f 3e
       0.06571756 0.018225528 0.20139648 0.17159346
0002f0 dd 7a 23 3e 0f 2c bc bd ea 3b e2 3d a1 be 9c 3d
       0.15964837 -0.09188091 0.11046584 0.07653547
000300 32 91 32 3e e2 fb 11 3e 18 27 18 3e 56 df ac 3d
       0.174382 0.14256242 0.14858663 0.084410354
000310 21 46 9a bd da 6b 05 bc 26 e6 1b be 34 9f ac 3d
       -0.07532907 -0.00814339 -0.15224513 0.08428803
000320 2f 61 4f 3d f6 57 22 be 90 54 39 be 5a 6e 0e be
       0.05062979 -0.15853867 -0.18098664 -0.13909283
000330 1a 3f 3c 3d 3a 8b 29 bd a6 d0 2e bd 7b ee 1a 3d
       0.045958616 -0.041392542 -0.04267945 0.03782509
000340 46 01 82 3d 0e 57 2d bd e7 2c 83 bd 12 5a 55 3d
       0.06347899 -0.04231935 -0.06405049 0.05208785
000350 ee 68 ad bd 1b b3 af bd 32 0f 83 bd 81 05 37 be
       -0.084672794 -0.085790835 -0.06399383 -0.17873193
000360 b4 da 2e be d4 0a ec bd e0 97 27 3e ff 42 22 bd
       -0.17075616 -0.11525503 0.1636653 -0.039614674
000370 e3 89 91 bd 59 1a 60 3d d1 45 16 bd d1 c4 31 3e
       -0.07106378 0.054712627 -0.036687676 0.17360236
000380 a0 39 47 3d cd 5b 87 bc de 1f 90 3d ca c4 1b be
       0.04863894 -0.016523266 0.07037328 -0.15211788
000390 80 99 13 be 6c 09 41 be c9 e2 19 3e 38 a6 e5 bd
       -0.14414024 -0.1885125 0.15027918 -0.11213344
0003a0 ad e8 3b 3e 56 54 d4 bd c8 3c b1 bd c6 52 f8 3d
       0.18350478 -0.10367648 -0.08654171 0.12125163
0003b0 1d b9 ee bd d4 41 c5 3d 48 96 1f be 54 ad 1a be
       -0.11656401 0.09631696 -0.15584671 -0.15105182
0003c0 61 c4 78 3d 9d f4 db 3a 96 85 96 3d 18 f5 36 3c
       0.060734157 0.0016781274 0.07349698 0.011166833
0003d0 da e2 48 3e a1 f9 1c 3e 72 64 7c bb e5 a3 92 3d
       0.19617787 0.15329601 -0.0038512019 0.07160167
0003e0 03 e2 2e be 93 76 83 3c 5b 95 e2 3d 7b 17 26 3e
       -0.17078404 0.016047752 0.110636435 0.16219895
0003f0 fe c4 03 3e f6 a4 86 bd df e2 09 3e c7 3b 4d 3e
       0.12868115 -0.065744326 0.1346545 0.20042334

lstm.bias_ih_l0 f4 [128]
000000 12 2f af bd db 01 c8 bd a2 e6 88 bc 28 62 a2 3d
       -0.085539 -0.09765979 -0.016711537 0.07928878
000010 1a 8b 1e 3e 67 a3 a2 bd e1 ab 22 3e 41 0e b3 bd
       0.1548275 -0.07941323 0.15885879 -0.08742953
000020 fb 86 a4 3d e8 e4 c9 bd 60 5e c2 ba f1 1a 44 3e
       0.08033558 -0.098581135 -0.0014829151 0.19150902
000030 75 95 8a 3d ba f5 29 3e c0 78 35 3e 7d 49 30 bd
       0.06766788 0.16597643 0.17721844 -0.043038834
000040 2d 59 de bd ed 2c a3 3d df 30 34 3e b6 25 4d 3e
       -0.10856853 0.07967553 0.17596768 0.20033917
000050 76 3c d7 bd 10 14 d6 3d b7 b9 c7 bc b8 9f 61 3d
       -0.10509579 0.10453045 -0.024380548 0.05508396
000060 cc e4 a9 ba 5d e0 5b 3e a4 6c 40 3b 24 28 d5 bd
       -0.0012961864 0.21472307 0.002936163 -0.10408047
000070 a0 27 fb bd ea 16 1e be 09 e2 10 3e 25 6e 41 3e
       -0.12263417 -0.15438429 0.14148726 0.18889673
000080 ab f1 19 be 8a 8c ad 3c 89 56 93 3c 85 fa 4b 3e
       -0.15033595 0.021185178 0.0179856 0.19919784
000090 9a 05 7a bd e0 ce f4 3d 3a 06 48 bb c5 bc 92 bc
       -0.0610405 0.11953521 -0.003052129 -0.017912278
0000a0 f2 29 b4 3d f9 1f a0 3d ae d6 c2 3b c3 84 5d bc
       0.08797063 0.07818598 0.005946002 -0.013520422
0000b0 b3 84 40 3e aa 47 ae 3d 7a cb 25 3d 10 43 40 3e
       0.1880062 0.085097626 0.040477253 0.18775582
0000c0 f6 e4 ff bd 6e f7 6b 3c 56 01 e2 bd 86 b1 06 3e
       -0.12494843 0.014402254 -0.11035411 0.13153657
0000d0 e9 72 98 3d 70 52 59 bd a0 1c 03 be c6 26 c8 bd
       0.074437924 -0.053057134 -0.12803888 -0.097730204
0000e0 35 fa cd bc 4e 0e 1c bd c7 d9 83 3d 2e 55 b3 bd
       -0.025143722 -0.03809958 0.06438022 -0.08756481
0000f0 31 9d d0 3d e4 e7 eb 3d dd d6 e0 3d a1 f6 b9 3c
       0.10186232 0.11518839 0.10978482 0.02270061
000100 79 a6 01 3e 1a 7d 6c 3b bd 1c ad bd 21 e7 df bd
       0.1266116 0.0036085309 -0.08452747 -0.10932756
000110 49 bb 3d 3e b1 4d 49 be 25 71 c7 bc 85 82 2b 3e
       0.18528475 -0.19658543 -0.024345944 0.16749008
000120 cc 46 96 bc e7 c3 71 bd a5 9b c0 3b 5a 69 99 bd
       -0.018344305 -0.059024718 0.0058779293 -0.07490797
000130 28 92 a9 3d 52 39 c8 3d d9 b9 10 3e 22 9a 23 be
       0.0827983 0.09776558 0.14133395 -0.15976766
000140 4d 00 b8 3d 3b 9e 6b bd 0e 89 f4 3c da 3f b4 bd
       0.08984432 -0.057523947 0.029850509 -0.08801241
000150 e9 38 05 3d 55 26 63 bc 9f 56 86 3d 06 46 2c 3d
       0.032524977 -0.01386412 0.065594904 0.042058967
000160 c6 1f 27 bd 44 bf 07 3d 13 45 77 3d c9 c4 24 3e
       -0.040801786 0.03314139 0.06036861 0.16090693
000170 ee b0 96 3d d5 22 8c bd c3 12 78 3d 4a 75 7f bd
       0.073579654 -0.06842581 0.060564768 -0.062367715
000180 5e 38 d3 ba 9e f6 0c bc 7b 40 db bd 40 51 d6 bd
       -0.0016114821 -0.00860372 -0.10705658 -0.10464716
000190 b7 88 18 3c 24 73 6e 3e 8a 2e 8e 3d 3a 76 75 3d
       0.009309939 0.2328611 0.0694247 0.059927203
0001a0 32 0a 07 bc d4 63 de 3d 08 b7 cd bd 42 85 97 3d
       -0.008242177 0.108588845 -0.10044676 0.07398464
0001b0 6b f5 01 3e f8 25 12 3e 5b ec f8 3c 8b 8c 39 3e
       0.12691276 0.14272296 0.03038614 0.18120019
0001c0 e7 78 af 3c aa e3 87 bd 10 2a 63 bd 0e 57 65 3e
       0.021419955 -0.0663522 -0.055460036 0.2239649
0001d0 5b f8 ae 3c a2 5a b3 bd 9d 39 a8 3d 62 69 40 be
       0.02135866 -0.08757521 0.08214114 -0.187902
0001e0 0d c6 07 be 97 52 65 3e 5d 0f 05 3e aa 48 ee bd
       -0.13259144 0.22394787 0.12994142 -0.11634953
0001f0 04 c5 8c 3b f8 86 27 3e 5a e2 8a 3e c2 a1 66 3e
       0.004295947 0.1636008 0.27125818 0.22522643

lstm.bias_hh_l0 f4 [128]
000000 53 5b 9e 3d 10 50 b1 bd ee d8 e1 bd 6a 36 d0 3d
       0.077322625 -0.08657849 -0.11027704 0.10166629
000010 ed ca ff 3d e8 17 b0 bd 19 f7 b3 3c f3 0a fc bd
       0.12489877 -0.0859831 0.021968411 -0.12306776
000020 3c 68 0e be e4 90 35 bd bf 3b 93 3c 55 b6 7b 3d
       -0.1390695 -0.04432763 0.017972825 0.061453182
000030 2a ed 3a 3e be 29 67 3d 25 12 fb bd 4b da 70 bc
       0.18254533 0.056436293 -0.1225932 -0.014700483
000040 13 02 14 3e 88 6b 29 3e bd 41 91 bd 2f 5b eb 3a
       0.14453916 0.16544926 -0.07092617 0.0017956252
000050 d0 80 88 bd 71 de df 3d a4 39 c7 3d 23 6d 39 3e
       -0.06665194 0.10931099 0.09727791 0.18108039
000060 ae 83 0d 3e 3d ee ab 3d 4b ef 11 3e 09 86 a2 bd
       0.13819763 0.0839505 0.1425144 -0.079357214
000070 a6 6c 8a 3c 4c c3 18 3e a9 25 6f bd f7 39 43 3e
       0.01689751 0.1491825 -0.058385525 0.1906508
000080 ce d4 ea 3c 16 12 49 bc b0 1d c4 3c 04 17 ba 3d
       0.028665926 -0.012272378 0.023939937 0.09086421
000090 bf cc 85 3d af 48 ba bd a2 37 b3 bd 3f 94 f7 bd
       0.06533193 -0.090958945 -0.087508455 -0.120888226
0000a0 cb 9b 1d 3b 1f ec 0f 3e 7a 92 1a be db 82 95 3c
       0.0024049159 0.14054917 -0.15094939 0.018250873
0000b0 16 f2 3a bd c9 13 9a 3c 13 c7 a0 3d d3 64 e4 3d
       -0.045641027 0.018808262 0.078504704 0.11152043
0000c0 ed 03 77 3d b4 fc 2c bc 4d db 25 3e 3f ae b1 3c
       0.06030648 -0.010558296 0.16196938 0.021689532
0000d0 03 36 e4 bd 2b f8 08 3e 8c 75 46 3e 94 ab a2 3d
       -0.111431144 0.13375919 0.19380778 0.07942882
0000e0 13 ba 4f 3d 45 f9 26 3e 41 be 0b be c8 b1 f2 3c
       0.050714564 0.16306026 -0.13646795 0.029625788
0000f0 d2 ed 32 3e f0 23 26 bd 29 d4 01 be 0a dd c5 3c
       0.17473534 -0.040561616 -0.12678589 0.024153251
000100 31 00 f9 bd c4 13 27 3e 79 45 0b 3e 77 25 fa 3d
       -0.1215824 0.16316134 0.1360072 0.12214177
000110 fb 9f 61 3d da 24 df 3d ef 7c 14 be 83 63 19 3e
       0.05508421 0.10895701 -0.14500783 0.14979367
000120 15 f1 d6 3d 69 a1 07 3e 4b 09 43 bd 0b bc 52 be
       0.104952015 0.13245167 -0.047616284 -0.20579545
000130 78 08 db bd b1 cf 5b bd e5 8e 5b 3d 34 ed 1f 3e
       -0.10694975 -0.053664867 0.05360307 0.1561783
000140 ec 90 26 3d e9 8f 6c 3d b1 2a 3b 3e d6 ce 8f 3c
       0.040665552 0.05775443 0.18278004 0.017554682
000150 b3 c9 2f 3e 28 d2 e0 3c be 07 0f bd 52 75 7c 3d
       0.17166786 0.02744396 -0.034919493 0.061635323
000160 3d 63 8e bd f8 1f 77 3e 95 72 79 bd f9 dd 37 3e
       -0.06952522 0.24133289 -0.06090029 0.1795577
000170 34 39 d5 bd 5b 69 2e 3b ea 8b 9a bc da cd 5d bb
       -0.10411301 0.002661309 -0.018865544 -0.003384462
000180 c7 73 09 bc 2c d2 25 3e a9 18 04 3e b7 6b 60 bd
       -0.00838942 0.16193455 0.12900032 -0.054790225
000190 e4 50 92 3e d5 08 fc 3b 0c ae 71 3c c7 41 c8 3d
       0.2857734 0.0076914825 0.014750969 0.09778171
0001a0 5f 0b 61 3e f3 34 2c 3e df 13 b7 3d d2 06 8b 3d
       0.21976994 0.16817074 0.08939337 0.0678841
0001b0 f2 28 39 3d c7 62 bf 3d df 3e e2 bc ab 08 e9 bd
       0.045205064 0.09345012 -0.02761787 -0.113786064
0001c0 a1 7d 4a be b8 ac 58 3e 64 bf b6 bd 09 13 9f bd
       -0.19774486 0.21159637 -0.089232236 -0.077673025
0001d0 a9 9a e3 bd 0e 46 2e be e6 62 03 be 3f 4a 9e 3d
       -0.111134835 -0.17018911 -0.12830696 0.07729005
0001e0 8d 8e f0 bd 0a 3a 8f 3e 9d 01 32 bd ea fb fb 3d
       -0.117459394 0.27973968 -0.04345857 0.12303908
0001f0 79 52 cb 3d 98 34 5a 3e 64 80 85 bd 51 d2 eb 3d
       0.0992784 0.21309125 -0.06518629 0.11514724

fc1.weight f4 [16, 32]
000000 43 81 c9 bd fc ef 89 bd 97 e2 19 3e d8 76 31 be
       -0.09839108 -0.067352265 0.15027843 -0.17330492
000010 de 0a 97 3d 86 3e e5 bd ea 72 b1 bd ab 3b be bd
       0.073751196 -0.11193566 -0.08664496 -0.092887245
000020 f0 e4 32 3d 56 ce 32 be 18 5d 68 3d fc 8a 5c bd
       0.043675363 -0.17461523 0.056729406 -0.053843483
000030 0b f0 2a 3e 14 eb 1a be ad 1b b7 bd 68 27 85 3d
       0.16693132 -0.15128738 -0.089408256 0.06501657
000040 1a 74 c8 3d 3a 16 0a be c0 2d 8c 3c 81 02 d1 bd
       0.097877696 -0.13485041 0.017111659 -0.10205556
000050 d2 4e a3 3d b8 f5 dd bd d8 4e f6 3c 6e 79 e4 bd
       0.07974018 -0.10837883 0.030066893 -0.111559734
000060 a0 37 48 3c 72 b6 cf 3d 08 56 cf bd c8 16 7d bd
       0.012220293 0.101422206 -0.10123831 -0.061789304
000070 06 9f c2 3d 6d 20 ab bd 8b e2 1c 3e fc 94 0f bd
       0.095029876 -0.08355794 0.15320794 -0.035054192
000080 6c 52 95 bd 9e 43 85 3e b0 25 2b 3d ff bf 2a be
       -0.07291111 0.2602815 0.04178399 -0.16674803
000090 40 82 c8 bc 5f f6 0d be 56 8a 89 be c4 f3 ff bc
       -0.02447617 -0.13863514 -0.26863354 -0.031244166
0000a0 2c 17 eb 3d 0e 5f 1d 3d 86 1b 85 3d a3 ed 91 be
       0.11479029 0.03842073 0.0649939 -0.28501615
0000b0 76 b3 22 be 9c da f0 3d 15 6e 42 3e 68 a2 1a be
       -0.15888771 0.117604464 0.18987305 -0.15101016
0000c0 10 a0 4d bd 9d 6f 87 3e 34 04 b2 3d 98 32 9e 3d
       -0.050201476 0.26452342 0.08692208 0.07724494
0000d0 7e de 6f 3c 89 bc a1 bc 81 ef 41 be f4 c9 9f 3d
       0.014640449 -0.01974322 -0.1893902 0.078021914
0000e0 14 2f 30 be 05 eb 89 3e de fa ae 3d c5 85 8b 3d
       -0.17205459 0.26937118 0.08543943 0.06812624
0000f0 a2 ce 85 3e 9a b6 b8 3d 11 fa 2f be 20 44 01 3e
       0.2613421 0.090192035 -0.17185237 0.12623644
000100 c1 fb d9 bd 34 39 4c be c8 1c 56 3c c4 d7 62 3d
       -0.10643721 -0.19943696 0.013068385 0.05538155
000110 f7 25 64 3d b8 4c be bd bd 68 b1 bd 5f e9 0c be
       0.05570027 -0.09291977 -0.08662555 -0.13760899
000120 a5 a4 d3 bd e4 00 90 3d 09 c1 22 3e a1 2a 23 3e
       -0.10334138 0.0703142 0.1589395 0.1593423
000130 c2 c6 2f 3e 74 77 04 bc 7d 6d 41 3b 25 ec c5 3c
       0.17165664 -0.0080851205 0.0029514723 0.024160454
000140 e3 c7 b0 3c d1 cd 8c bd df 5d 15 bd 07 e9 ca 3d
       0.021579688 -0.06875194 -0.036466476 0.09907728
000150 d7 a6 a1 3c bf b1 05 be 57 c0 60 bd ed ca 3b 3e
       0.019732876 -0.13056086 -0.05487093 0.18339129
000160 c5 d9 52 bc 6b 54 be bd 4a 8f 48 3d 09 bb 36 3d
       -0.012869303 -0.09293445 0.048964776 0.044611964
000170 d3 ab 40 bd dd 84 e8 3d 7f 04 da 3d 71 af 12 be
       -0.047038864 0.11353467 0.10645389 -0.14324738
000180 38 f2 0b ba 50 94 b1 3d 7a 09 39 be 6e 47 2a be
       -0.00053385226 0.086708665 -0.18070021 -0.16628811
000190 14 97 67 bd 57 a1 72 be c8 b1 10 be a0 37 f6 3d
       -0.056540564 -0.23694359 -0.14130318 0.120223284
0001a0 2f c5 d8 3d f2 46 a1 3d ca a9 f5 3c ae 17 8a be
       0.10584485 0.0787486 0.029988188 -0.2697119
0001b0 ff bb a4 bd 5a 2e 64 bd 96 e9 82 3d 5e 7b 28 3d
       -0.0804367 -0.055708267 0.06392209 0.041133277
0001c0 9c b8 06 be d0 87 1a 3e d7 13 b5 bc 92 b6 82 3d
       -0.1315636 0.15090871 -0.022104187 0.06382479
0001d0 0e 07 74 3e 9c 28 bf 3d 87 7c cc bd 48 7b 07 be
       0.23830816 0.093339175 -0.09984689 -0.13230622
0001e0 f9 bc 95 bd a1 9b 78 3c 3d aa a2 3c 98 87 3c b9
       -0.07311434 0.015173824 0.019856567 -0.0001797959
0001f0 8e 20 63 3d 3a 99 fb bc 41 a1 6b be d6 fa 36 3e
       0.05545097 -0.030712713 -0.23010732 0.17869124
000200 f2 64 66 be 02 5d cd bc 5d a6 b0 bd 1b 19 bb 3c
       -0.22499445 -0.025068764 -0.08625481 0.02283912
000210 19 a7 8b 3e ab a8 c7 bd b3 c9 27 be de b6 3f 3e
       0.27275923 -0.09748968 -0.16385536 0.18722102
000220 1b 56 38 3d 2d f9 4a 3d 54 17 c9 bd 48 fe 2b be
       0.04500399 0.04955404 -0.098189026 -0.1679622
000230 3b 56 10 be cd 7d 7e 3e eb e5 4f 3e 23 b8 42 be
       -0.14095394 0.24852677 0.2030255 -0.19015555
000240 1f 5a 43 3d 6d a3 83 3e 1f 85 e1 3d 18 3a 8c 3e
       0.047693368 0.2571062 0.11011719 0.27388072
000250 1f 73 9b 3e 6b 1f bf 3d 08 e6 d6 bd d6 a0 8c 3d
       0.30361268 0.093321644 -0.10493094 0.068666145
000260 6f 3d 6e 3d 2c 74 46 3e 42 c8 cc 3d e2 7d 76 3e
       0.058164056 0.19380254 0.09999134 0.24071458
000270 2f 88 30 3e e7 d5 84 3e 56 10 e9 bc a2 77 8a 3e
       0.1723945 0.25944445 -0.028450172 0.27044398
000280 02 50 de bd ac 9a c9 bd 5d af 0d 3e c0 58 34 3d
       -0.10855104 -0.098439544 0.13836427 0.04402995
000290 2e 08 c9 3d 0e 51 4c 3e 23 06 e2 3d 61 c8 b6 3b
       0.09816013 0.19952795 0.11036327 0.0055780862
0002a0 1c 19 5b bd c8 cf f0 3d 12 a5 46 ba 46 39 44 bd
       -0.053490743 0.11758381 -0.0007577698 -0.047906183
0002b0 69 8f 5f 3d 74 11 91 3d 85 4f 52 bc 7a 21 f6 3d
       0.054580126 0.07083407 -0.012836342 0.12018104
0002c0 81 ba 85 bd b0 2a 08 be 16 ed ae bd 53 91 7d 3d
       -0.065297134 -0.13297534 -0.08541314 0.06190617
0002d0 34 81 51 bd a5 a5 ad 3b d5 bb 01 3e ee 6a 29 3e
       -0.05114861 0.0052992874 0.12669308 0.16544697
0002e0 21 3d 80 3c a5 3c 8e 3d 26 8b 01 be aa 5c c4 bb
       0.015654149 0.06945161 -0.12650737 -0.0059924917
0002f0 b1 02 f1 bc 1c 47 10 3d 85 22 15 3e bd ce 19 be
       -0.029420229 0.035224065 0.1456395 -0.1502027
000300 68 81 03 3d ae ba 55 3d a6 e5 9c 3d 18 1d 1c 3e
       0.032105833 0.052179985 0.076609895 0.15245473
000310 2a ef 38 bd 6a ff 23 bd cb 38 f9 bd 94 9c f8 3d
       -0.04514996 -0.040038504 -0.121690355 0.1213924
000320 86 0f fb bd 70 45 20 3e 7b a5 10 be 00 05 82 3d
       -0.1225882 0.15651488 -0.14125626 0.0634861
000330 f0 af 2e 3e 60 89 cb 3d 56 d8 54 3c 7b d1 b3 bd
       0.17059302 0.099383116 0.012991032 -0.087801896
000340 b4 3c 3f bc dd 2e d8 bd 27 77 2b bc 17 25 29 be
       -0.011672188 -0.105558135 -0.01046542 -0.16518055
000350 02 f8 83 3b ae af b2 3d a8 67 3a bd 70 08 14 3c
       0.0040273676 0.087249145 -0.04550901 0.009035215
000360 01 53 3f 3e 35 b3 0f be 94 26 47 be f7 f7 9e 3d
       0.18684007 -0.14033206 -0.1944831 0.07762139
000370 9b 72 9d bc 36 c0 af bd 53 a7 3c 3d a0 40 13 bd
       -0.019219687 -0.08581583 0.04605801 -0.035950303
000380 eb 95 00 be 09 3d 18 3e 7a 0f b0 bd c6 66 da 3c
       -0.12557189 0.14867033 -0.08596702 0.026660334
000390 ea 46 71 bd 22 41 3b 3d 46 13 32 3b 4a a9 70 3d
       -0.05890552 0.045716412 0.0027172132 0.058755197
0003a0 c5 47 4e 3d 80 d4 69 3d b7 d5 cf 3d 33 7e 34 3e
       0.050361414 0.05708742 0.10148185 0.17626266
0003b0 fe 0a 8c bd fd 13 79 bd b2 eb 10 bd b9 b5 1f 3e
       -0.06838034 -0.060810078 -0.035381027 0.15596665
0003c0 ad 8a 93 bd 6d 69 15 be e9 f1 bd 3d 57 3f 00 3e
       -0.07204185 -0.14590998 0.09274656 0.12524162
0003d0 25 1c 2b 3d 98 f2 df 3d 8d 14 01 be cf dc 06 be
       0.041774888 0.10934943 -0.12605496 -0.1317017
0003e0 60 ca b5 3d a2 d6 9f bd 35 07 17 bd 66 85 83 bd
       0.088764906 -0.0780461 -0.036872108 -0.06421928
0003f0 f4 50 30 3b 2b 8c 5e 3d e8 5a 25 3e c5 44 c8 3c
       0.002690372 0.054332893 0.16147959 0.024446854

fc1.bias f4 [16]
000000 3a 06 2a be 2c 00 5e 3e 81 e8 8f 3c bf 7b 57 3e
       -0.16603938 0.21679753 0.017566921 0.21043299
000010 6b cc 7b 3e 43 75 04 3e 36 21 07 3e 82 99 08 be
       0.24589698 0.12935357 0.13196263 -0.13339809
000020 ba 85 01 bd d0 5e 9c 3c 25 db 83 bd 3a 82 02 3e
       -0.031621672 0.019088179 -0.06438283 0.1274499
000030 47 62 3c be 2d d4 42 3d 56 4c cc bd 32 c2 e9 bc
       -0.18396865 0.047565628 -0.099754974 -0.028534982

out.weight f4 [1, 16]
000000 40 fc 36 3c ac 79 54 3e c2 63 62 bd ca 1f 56 3e
       0.0111685395 0.20749539 -0.055270918 0.20910564
000010 70 5c b2 3e 53 d5 5d bd 2b 94 35 be ae 80 49 be
       0.3483615 -0.05415852 -0.17732303 -0.19677994
000020 ed 68 0e be da 94 1c be 70 62 f7 bc 94 92 7d bd
       -0.13907214 -0.15291157 -0.030198306 -0.061907366
000030 bc 4a f3 bd c0 c4 9a 3b c0 7e 40 3e 6e 7b 5f bb
       -0.11879489 0.0047231615 0.18798351 -0.003410067
