artifacts/territory/lstm/328__342__344/model.pt (torch, 23217 bytes, 7 tensors)

lstm.weight_ih_l0 f4 [128, 1]
0.11824994 0.006013057 -0.01155261 -0.10147709 0.16266647 0.13483927 -0.027596101 0.117841154
-0.156553 -0.0469865 0.16970147 -0.02002799 0.0049773715 -0.15029559 0.19992912 0.09786402
0.008627482 -0.069305286 -0.10610228 0.044605117 -0.033035852 -0.13791865 0.15595369 -0.022425337
0.15828098 -0.08250877 -0.0021178352 -0.05246918 0.17126325 -0.065293394 -0.08765858 0.03865318
0.17077962 0.15822929 -0.10923115 -0.10040891 -0.15639168 -0.065160446 0.06236269 0.13599654
0.1554058 0.048393253 -0.11136655 -0.124132104 0.054952517 -0.054040134 0.17948057 -0.104583725
0.07054463 -0.14939481 -0.15372117 -0.11190774 -0.041669533 0.026209936 -0.069570355 0.06608201
0.12015226 -0.018370964 -0.0025327005 0.18982485 0.19430634 0.17019887 0.12316781 0.1753198
0.14010254 0.16093402 0.11961576 -0.0655604 -0.17481202 -0.102069356 -0.08488045 0.056195177
0.17374663 -0.09330046 -0.051980555 0.1721363 0.10969254 -0.099551335 0.07853006 -0.06881354
-0.17001908 0.16606912 -0.14987813 -0.117706716 -0.059706524 -0.070467435 0.15557323 -0.037477996
-0.07313883 0.1274675 -0.113451645 0.04822491 0.08358339 -0.14879398 -0.12817885 0.15713891
-0.08243514 -0.0469308 0.123285696 0.07326256 0.12964548 -0.17460673 0.08991869 0.13853431
-0.15596855 -0.045955922 0.13629243 -0.012556331 0.04168972 0.020635799 0.08169927 0.17578158
0.1195766 -0.021812465 -0.13975237 -0.16725698 -0.12912412 -0.09476868 -0.100317195 0.1135577
-0.083810635 0.026391882 -0.13521244 0.05712746 0.073427446 -0.070170015 -0.03246293 -0.07819697
00000000: 062d f23d 2e09 c53b 2947 3dbc 38d3 cfbd
00000010: 0a92 263e 4e13 0a3e 3811 e2bc b456 f13d
00000020: 6e4f 20be eb74 40bd 39c6 2d3e bd11 a4bc
00000030: 3819 a33b 16e7 19be 38ba 4c3e ee6c c83d
00000040: 485a 0d3c eeef 8dbd 274c d9bd dbb3 363d
00000050: 9a50 07bd 8c3a 0dbe 53b2 1f3e 57b5 b7bc
00000060: 6914 223e 5cfa a8bd 61cb 0abb ece9 56bd
00000070: a25f 2f3e 8bb8 85bd 5786 b3bd cc52 1e3d
00000080: dae0 2e3e dc06 223e 95b4 dfbd 30a3 cdbd
00000090: 2425 20be d772 85bd 0570 7f3d ad42 0b3e
000000a0: b322 1f3e 0138 463d 2514 e4bd f938 febd
000000b0: e415 613d 3059 5dbd c1c9 373e fe2f d6bd
000000c0: b479 903d f4fa 18be 1569 1dbe e32f e5bd
000000d0: acad 2abd 38b6 d63c e77a 8ebd 0156 873d
000000e0: 6312 f63d b47e 96bc aafb 25bb 7261 423e
000000f0: 3ef8 463e 9d48 2e3e 683f fc3d 0987 333e
00000100: 0a77 0f3e e3cb 243e 1cf9 f43d 8844 86bd
00000110: ec01 33be bd09 d1bd cdd5 adbd ea2c 663d
00000120: a3ea 313e 5014 bfbd 90e9 54bd 8044 303e
00000130: 7ba6 e03d 92e1 cbbd 5ed4 a03d 1dee 8cbd
00000140: 7b19 2ebe 060e 2a3e a779 19be 3810 f1bd
00000150: d48e 74bd 3b51 90bd 974e 1f3e 8782 19bd
00000160: d0c9 95bd d786 023e 5659 e8bd 7c87 453d
00000170: c52d ab3d 735d 18be 5141 03be 06e9 203e
00000180: c1d3 a8bd 833a 40bd 367d fc3d ae0a 963d
00000190: c9c1 043e 1bcc 32be 4a27 b83d f0db 0d3e
000001a0: 38b6 1fbe 473c 3cbd 3e90 0b3e 12b9 4dbc
000001b0: d7c2 2a3d 680c a93c f251 a73d 1600 343e
000001c0: 94e4 f43d 0eb0 b2bc 3f1b 0fbe 6a45 2bbe
000001d0: 1d39 04be 1516 c2bd 1a73 cdbd f090 e83d
000001e0: e9a4 abbd ca33 d83c 2175 0abe 7cfe 693d
000001f0: 2161 963d 4cb5 8fbd d9f7 04bd bc25 a0bd

lstm.weight_hh_l0 f4 [128, 32]
-0.17109509 0.041832015 -0.0024470326 0.1255035 0.019079367 -0.1531772 -0.16368437 -0.021511767
-0.1685009 0.13036771 -0.09870304 -0.09396242 -0.07071988 -0.10612113 0.169547 -0.05880116
0.11078733 0.16635261 -0.122384265 0.03635724 -0.1619349 -0.00085920095 0.11945163 -0.010117738
-0.13457406 -0.0029649884 -0.0918674 0.024317022 0.09898437 0.12905721 -0.037284285 -0.07237933
-0.15504105 -0.0065032532 -0.10849865 0.113314524 0.18479301 0.029988533 0.09263188 -0.11304468
0.14437501 -0.031214867 -0.12611218 -0.031699535 -0.13885601 -0.1388779 0.10130456 0.14301777
0.019396456 0.031306088 0.17101829 -0.0107574295 0.0029807086 0.09103042 0.017498245 0.14638649
0.05573429 0.16602866 0.07435618 0.04663921 -0.02600341 0.0015696465 -0.008041093 -0.094009
0.1941759 0.004989932 -0.11856723 -0.0904054 -0.07187956 0.113387294 0.16102201 -0.03545267
-0.057722613 -0.01767302 -0.088500716 0.19332711 -0.04894389 -0.046061326 -0.088171065 0.14804561
-0.006014436 0.18908325 -0.16653335 -0.006748368 0.0491979 -0.030794112 0.03388939 -0.1374116
-0.15970832 -0.13206016 -0.067431435 -0.12708892 -0.14180279 -0.12791789 -0.08693201 -0.1266011
0.05817178 0.1616706 -0.18344417 -0.019556861 -0.108710274 0.035073176 -0.02784686 0.025020735
0.06008549 -0.0052421973 0.015850388 -0.09980799 0.12547424 -0.047247082 -0.12299624 0.12151511
-0.098882735 -0.08894965 -0.16349572 -0.10197942 0.1332436 0.1740204 0.059062377 0.07475693
-0.028928248 0.14578734 0.04290147 -0.12158203 0.050513573 0.13134246 -0.10636452 0.018344829
-0.15321362 0.16542666 -0.12025779 -0.017038714 -0.090951234 -0.06555167 0.16757187 -0.10819297
-0.044351444 0.12320472 -0.17655735 -0.17518243 0.14499557 0.09080316 -0.007734256 0.16359383
0.059552733 0.049954593 0.036852717 -0.008509055 0.007498637 -0.16498193 0.09321855 -0.10956382
-0.009190589 0.10895257 -0.12460155 0.12038043 0.15840583 0.12550561 -0.07119492 -0.17574492
0.13808735 -0.032216415 -0.0696387 0.036779046 -0.16090614 -0.09644063 -0.06318785 -0.112144634
0.04889205 -0.053165786 -0.057690665 0.11602278 0.09561517 0.10158594 0.076912686 -0.0007084721
-0.085675575 -0.1345984 0.10149129 0.15582953 -0.08391785 -0.024547562 -0.031221136 -0.088018276
0.09526552 0.0067830533 -0.108136 -0.023970991 -0.09692057 0.08457677 -0.03214304 0.14883812
-0.10335628 -0.02953929 0.15510865 0.12359932 -0.04012217 0.026109088 -0.020776961 -0.023561822
0.14844403 0.009261357 0.10150111 0.18520086 0.117704704 0.06276929 0.08308046 -0.038856674
-0.23432355 0.04557382 -0.008528635 -0.009468847 -0.16883443 0.05330874 -0.09083261 -0.17722605
-0.08823499 -0.096001066 -0.00045897404 -0.067421526 0.16351162 -0.09231702 0.1601957 0.09786576
0.16541587 -0.1706685 -0.08494004 0.1037433 0.055080324 0.084059164 0.03123976 0.1542647
-0.045156613 -0.12920827 -0.124667645 0.060221564 0.09889911 -0.032429934 -0.022799404 -0.070764855
-0.14525697 0.12829767 0.07516782 0.09771331 0.12300955 0.09605135 -0.15222125 0.16391513
0.1318468 -0.13419609 -0.055135958 -0.06498912 0.029420432 -0.14225546 -0.11718252 0.05483618
00000000: 8d33 2fbe 0c58 2b3d 655e 20bb fd83 003e
00000010: 554c 9c3c 7cda 1cbe e09c 27be 7239 b0bc
00000020: 808b 2cbe 1d7f 053e d224 cabd 5f6f c0bd
00000030: 96d5 90bd 0956 d9bd bb9d 2d3e 7cd9 70bd
00000040: 78e4 e23d 5758 2a3e 9aa4 fabd 54eb 143d
00000050: 43d2 25be 003c 61ba 0ea3 f43d dec4 25bc
00000060: c8cd 09be 4050 42bb fa24 bcbd 7e34 c73c
00000070: 51b8 ca3d 9327 043e 68b7 18bd 9d3b 94bd
00000080: 15c3 1ebe 3e19 d5bb 8a34 debd 7211 e83d
00000090: 613a 3d3e 83aa f53c c8b5 bd3d f883 e7bd
000000a0: 0bd7 133e 52b6 ffbc 8d23 01be 5fd7 01bd
000000b0: 4530 0ebe 0236 0ebe c478 cf3d 4073 123e
000000c0: 51e5 9e3c d03a 003d 6b1f 2f3e ee3f 30bc
000000d0: fe57 433b 286e ba3d 7b58 8f3c 57e6 153e
000000e0: a449 643d 6b03 2a3e 0e48 983d c208 3f3d
000000f0: 1a05 d5bc 99bc cd3a cabe 03bc ca87 c0bd
00000100: 0cd6 463e 9582 a33b 60d3 f2bd 7726 b9bd
00000110: 9735 93bd 9937 e83d f4e2 243e d236 11bd
00000120: 8c6e 6cbd 02c7 90bc dd3f b5bd 8bf7 453e
00000130: 6379 48bd cdaa 3cbd 0893 b4bd 4599 173e
00000140: bf14 c5bb 0a9f 413e b887 2abe 6a21 ddbb
00000150: bd83 493d ef43 fcbc 9acf 0a3d a0b5 0cbe
00000160: 948a 23be c73a 07be 7e19 8abd 9923 02be
00000170: c034 11be e8fc 02be 6909 b2bd b8a3 01be
00000180: 8845 6e3d fa8c 253e cad8 3bbe b635 a0bc
00000190: 7ea3 debd e4a8 0f3d 191f e4bc 49f8 cc3c
000001a0: 341c 763d bdc6 abbb acd8 813c 2268 ccbd
000001b0: 527c 003e 2886 41bd 74e5 fbbd eadc f83d
000001c0: 0883 cabd 3c2b b6bd 6c6b 27be 96da d0bd
000001d0: 0371 083e 6732 323e 64eb 713d 291a 993d
000001e0: effa ecbc 4749 153e 74b9 2f3d 0000 f9bd
000001f0: 52e7 4e3d a37e 063e a4d5 d9bd e547 963c
00000200: 08e4 1cbe 9b65 293e b749 f6bd c694 8bbc
00000210: a444 babd f43f 86bd f697 2b3e 4794 ddbd
00000220: dca9 35bd c252 fc3d 73cb 34be 0663 33be
00000230: b879 143e 02f7 b93d a46f fdbb 2485 273e
00000240: 91ed 733d 309d 4c3d e0f2 163d 9069 0bbc
00000250: 20b7 f53b 06f1 28be 5ee9 be3d ff62 e0bd
00000260: 2094 16bc 8622 df3d 192f ffbd 048a f63d
00000270: 2335 223e 8b84 003e a4ce 91bd 7af6 33be
00000280: c566 0d3e 5cf5 03bd bc9e 8ebd a0a5 163d
00000290: 94c4 24be aa82 c5bd a268 81bd 16ac e5bd
000002a0: 0843 483d 5ec4 59bd 0c4d 6cbd 5a9d ed3d
000002b0: e3d1 c33d 4a0c d03d 6684 9d3d c2b8 39ba
000002c0: ad76 afbd 2ad4 09be aada cf3d c791 1f3e
000002d0: 1fdd abbd f817 c9bc 78c3 ffbc ed42 b4bd
000002e0: 921a c33d 6044 de3b 6876 ddbd d05e c4bc
000002f0: 4b7e c6bd 9636 ad3d 6ca8 03bd 0569 183e
00000300: 75ac d3bd 62fc f1bc cdd4 1e3e a421 fd3d
00000310: 2557 24bd bae2 d53c 7234 aabc b904 c1bc
00000320: b601 183e f2bc 173c d0df cf3d 4ba5 3d3e
00000330: 2a0f f13d 2f8d 803d 1726 aa3d 2d28 1fbd
00000340: 83f2 6fbe 9dab 3a3d b0bb 0bbc 3923 1bbc
00000350: efe2 2cbe 445a 5a3d 7306 babd bf7a 35be
00000360: 8cb4 b4bd 359c c4bd 74a2 f0b9 4c14 8abd
00000370: 976f 273e b510 bdbd 570a 243e d86d c83d
00000380: c762 293e b9c3 2ebe 0bf5 adbd 5e77 d43d
00000390: e89b 613d 3627 ac3d 86ea ff3c 91f7 1d3e
000003a0: 24f6 38bd 2c4f 04be c051 ffbd e3aa 763d
000003b0: 9e8b ca3d 40d5 04bd d1c5 babc 2aed 90bd
000003c0: 3ebe 14be 7760 033e 96f1 993d ea1d c83d
000003d0: 6eec fb3d 92b6 c43d e3df 1bbe 5ed9 273e
000003e0: d902 073e b36a 09be 3ed6 61bd 0419 85bd
000003f0: 1e03 f13c 6aab 11be 64fd efbd e79b 603d

lstm.bias_ih_l0 f4 [128]
-0.060844153 0.049452435 0.084219135 0.13520022 -0.15091117 -0.005913423 -0.01001072 0.12174371
-0.023117507 0.022614036 0.16645546 -0.12216261 -0.051901728 -0.06115304 0.04435844 -0.054234553
-0.072918914 0.06309531 0.14264378 0.050428376 0.09399688 -0.1367621 -0.1602193 0.17231023
-0.029717213 -0.13854632 -0.10369214 0.054323334 -0.09396298 0.13650459 -0.025437186 0.15246235
0.154588 -0.14213264 -0.15873311 0.15842226 -0.138226 -0.06666189 0.019986918 0.15445882
0.15318225 0.14095584 -0.102019146 -0.11298793 0.078301854 -0.053874183 0.048451092 -0.12577753
0.02281397 -0.117300406 -0.039953604 -0.15717 -0.08366399 0.00752604 0.11658109 -0.058474775
0.15397416 -0.07387409 -0.15418077 0.17159863 0.16544695 0.07450165 -0.16541527 -0.06559907
0.1722862 0.110780746 -0.13027737 0.048845246 0.13140295 0.062373158 0.02643952 -0.13653757
0.16712676 -0.15733172 -0.03157928 -0.15335041 -0.040250972 0.06477817 0.14586098 0.15779872
0.033371896 -0.052560903 0.16838117 -0.11578095 -0.027033174 0.037153114 -0.1489319 -0.045135032
0.030157581 0.032859437 0.10066623 -0.01488253 -0.0039533786 0.16398232 0.10696071 0.08252984
0.18480653 -0.045456465 0.16064654 -0.024516294 -0.12064003 -0.09996298 0.09246894 -0.06675708
-0.06129326 -0.106759734 -0.031847738 0.102836356 0.09037133 0.076181985 -0.08308521 0.024684543
0.15422343 -0.034782305 -0.0660315 0.10465273 0.013085382 0.15240064 0.20017071 0.1503614
-0.086190194 0.10409842 0.16997796 0.101760715 -0.051493354 -0.089905135 0.12904626 -0.015820878
00000000: b837 79bd a38e 4a3d 157b ac3d ed71 0a3e
00000010: 7588 1abe 63c5 c1bb 0104 24bc c454 f93d
00000020: ed60 bdbc 1241 b93c 4d73 2a3e 6430 fabd
00000030: e896 54bd 9c7b 7abd 32b1 353d 0d25 5ebd
00000040: 8356 95bd 1d38 813d 3611 123e fc8d 4e3d
00000050: 7081 c03d 5d0b 0cbe 8710 24be 1872 303e
00000060: 8371 f3bc 16df 0dbe 8b5c d4bd 2582 5e3d
00000070: aa6f c0bd dcc7 0b3e a561 d0bc 171f 1c3e
00000080: 514c 1e3e 388b 11be ef8a 22be 7239 223e
00000090: 1e8b 0dbe 0786 88bd 9bbb a33c 742a 1e3e
000000a0: cfdb 1c3e ba56 103e 6aef d0bd 3766 e7bd
000000b0: b95c a03d 2dab 5cbd a774 463d d3cb 00be
000000c0: 5de4 ba3c 323b f0bd 64a6 23bd 2cf1 20be
000000d0: 0758 abbd 009d f63b 11c2 ee3d 3f83 6fbd
000000e0: 67ab 1d3e 4d4b 97bd 90e1 1dbe 8db7 2f3e
000000f0: ed6a 293e 5294 983d 9f62 29be ce58 86bd
00000100: cb6b 303e 04e1 e23d 6e67 05be f411 483d
00000110: 7f8e 063e ff7a 7f3d b197 d83c 81d0 0bbe
00000120: 4723 2b3e 911b 21be 4659 01bd e407 1dbe
00000130: 34de 24bd 6baa 843d 955c 153e fd95 213e
00000140: f8b0 083d 1a4a 57bd 1d6c 2c3e 901e edbd
00000150: ad74 ddbc dd2d 183d 9b81 18be 83df 38bd
00000160: 080d f73c 9e97 063d 192a ce3d dbd5 73bc
00000170: 588b 81bb fbea 273e 370e db3d 6805 a93d
00000180: ec3d 3d3e 8f30 3abd 8780 243e 65d6 c8bc
00000190: 1f12 f7bd 64b9 ccbd 5b60 bd3d f0b7 88bd
000001a0: a40e 7bbd d9a4 dabd c672 02bd de9b d23d
000001b0: 9b14 b93d 4d05 9c3d 9428 aabd 3d37 ca3c
000001c0: bfec 1d3e e477 0ebd 863b 87bd 2c54 d63d
000001d0: 1264 563c ea0e 1c3e 8df9 4c3e 57f8 193e
000001e0: 7c84 b0bd 8d31 d53d b40e 2e3e ec67 d03d
000001f0: b2ea 52bd 2f20 b8bd b424 043e c99a 81bc

lstm.bias_hh_l0 f4 [128]
0.020568233 0.111322455 0.15500866 0.11691222 0.16413851 -0.16968192 -0.03197842 -0.0357999
0.08602251 0.11064786 0.14427526 0.057529308 0.03493627 0.041764088 0.18081495 -0.065817975
0.052055176 -0.053976167 0.12075026 0.05638507 0.125505 -0.01950651 0.034537528 -0.117286585
-0.0009453042 -0.133042 0.042757746 -0.040892344 0.053864222 0.22617412 0.1208507 0.044139642
0.017927326 -0.17118727 0.018717242 -0.10105176 -0.09307899 0.03903884 0.12457682 0.18669626
-0.019088537 0.101311244 0.010621015 -0.16812016 -0.020834925 0.092212185 -0.1123789 0.09170894
-0.0445872 -0.08401547 -0.06623729 0.1321295 -0.018424002 0.07928273 -0.1250403 0.045723945
0.15995003 0.07513948 -0.12195228 -0.11229672 0.10254905 -0.13297594 0.044835456 -0.09874065
0.00870581 0.15862188 0.1461529 0.016088236 -0.039678432 0.13733327 -0.016089095 -0.023057794
0.054004714 0.12738605 0.100030996 0.07590309 -0.11469196 0.17003395 0.11968085 -0.08730097
0.07455331 -0.08821069 -0.13905585 0.012010127 -0.04226828 -0.044321146 0.11176692 0.035245847
-0.05626461 0.1611669 0.015716374 0.21979883 0.20389625 0.08983797 -0.0073232907 -0.043861344
0.11283367 0.046255272 0.026191466 0.11594683 0.11422944 -0.19890438 0.05467822 0.16429734
-0.019002935 -0.08203466 -0.057557482 0.031908903 0.08699273 -0.14575428 -0.060315486 -0.07585706
0.05467519 0.024629252 0.0987888 -0.11371394 -0.026620738 -0.00850575 0.11852889 0.13646995
0.07619009 -0.10251798 -0.0051065814 -0.07216333 0.21268941 -0.12007116 -0.041631855 0.013427635
00000000: b67e a83c 07fd e33d 97ba 1e3e ad6f ef3d
00000010: ed13 283e 19c1 2dbe cefb 02bd eaa2 12bd
00000020: 922c b03d 589b e23d e5bc 133e daa3 6b3d
00000030: 5619 0f3d d210 2b3d 8e27 393e 93cb 86bd
00000040: cf37 553d 1d16 5dbd ea4b f73d 08f4 663d
00000050: 6284 003e 1ecc 9fbc 3977 0d3d f333 f0bd
00000060: 4ace 77ba 293c 08be bf22 2f3d bb7e 27bd
00000070: bba0 5c3d 309a 673e 9280 f73d c5cb 343d
00000080: 54dc 923c b74b 2fbe e754 993c 3af4 cebd
00000090: 33a0 bebd 31e7 1f3d 2222 ff3d 4e2d 3f3e
000000a0: 905f 9cbc 457c cf3d c403 2e3c b127 2cbe
000000b0: 01ae aabc bed9 bc3d e926 e6bd e6d1 bb3d
000000c0: 11a1 36bd 4e10 acbd 6ba7 87bd f54c 073e
000000d0: efed 96bc fc5e a23d 900a 00be 0849 3b3d
000000e0: f1c9 233e bae2 993d 1ec2 f9bd d3fb e5bd
000000f0: 3c05 d23d d82a 08be 62a5 373d 8a38 cabd
00000100: d0a2 0e3c c66d 223e 1ba9 153e 7acb 833c
00000110: da85 22bd 18a1 0c3e 47cd 83bc b3e3 bcbc
00000120: 0c34 5d3d 7d71 023e 0ddd cc3d 1473 9b3d
00000130: 9ee3 eabd 611d 2e3e 3c1b f53d daca b2bd
00000140: 68af 983d cea7 b4bd a864 0ebe 20c6 443c
00000150: 8121 2dbd 178a 35bd 0ee6 e43d f35d 103d
00000160: b875 66bd f008 253e a0bf 803c f212 613e
00000170: 2eca 503e f8fc b73d 37f8 efbb f4a7 33bd
00000180: 5715 e73d 2b76 3d3d 7c8f d63c 8875 ed3d
00000190: 20f1 e93d 97ad 4bbe 45f6 5f3d 903d 283e
000001a0: 0bac 9bbc ca01 a8bd 65c1 6bbd e9b2 023d
000001b0: 3f29 b23d 9c40 15be 5f0d 77bd f25a 9bbd
000001c0: 18f3 5f3d 49c3 c93c c851 ca3d dbe2 e8bd
000001d0: bc13 dabc b45b 0bbc 46bf f23d c7be 0b3e
000001e0: 8d09 9c3d f2f4 d1bd 1c55 a7bb 5eca 93bd
000001f0: 41cb 593e dee7 f5bd 2a86 2abd 95ff 5b3c

fc1.weight f4 [16, 32]
0.20026875 -0.07234566 -0.07469247 0.038345583 -0.15690137 -0.07559308 -0.20425323 0.111554936
0.109729975 -0.029863823 0.096018694 0.22300693 0.11705707 -0.13486199 -0.019916339 -0.014344864
-0.21342215 -0.012050381 -0.12247559 -0.15588686 -0.05839049 -0.09209563 0.17191336 0.08618887
-0.02004234 -0.028139241 -0.03537152 -0.024400778 0.14362381 -0.20558509 -0.14764962 -0.09437824
0.13372543 -0.032990217 0.057224452 0.08204979 -0.1281936 0.13791527 -0.11580998 0.05198086
-0.13341108 -0.10825193 -0.12367708 0.036301434 -0.14285433 -0.06545642 -0.012856363 0.02792199
0.09281818 -0.058156945 0.1078379 -0.090788506 -0.13217615 0.04558479 -0.16180077 -0.029571788
0.058142193 -0.06124162 0.14841644 0.01409854 0.040015686 0.16869983 -0.057933208 -0.01666825
-0.16623482 -0.17479472 0.045066983 -0.049468517 0.017919652 0.08933836 0.1886825 0.08489775
0.12500243 0.1863109 0.16463716 -0.008362112 0.038441576 0.12379902 -0.1569637 0.14310375
-0.047138214 -0.09938816 0.104903325 -0.09606353 0.12864132 -0.016264236 0.04500223 -0.014681085
-0.07211626 -0.0022430695 -0.12630771 -0.025528172 0.06449054 -0.0020628513 -0.12401888 -0.14823243
0.15137361 0.08950268 -0.07664478 0.063550204 0.1657422 -0.1411977 -0.01482147 -0.06683046
-0.02210766 -0.15981172 -0.13086104 -0.106050804 -0.0428499 -0.079661295 0.12289114 -0.027523533
-0.15996194 -0.009752914 0.030964911 -0.11411021 -0.12767127 -0.12181002 0.050115973 -0.021491691
0.14143018 -0.011451051 0.14295934 -0.044259757 -0.14929263 0.05045013 0.042043254 -0.06801315
-0.10163163 0.07391895 -0.073368646 0.14286952 -0.049639434 0.017243564 0.054056242 0.07871826
0.14840479 -0.081626706 0.07966696 0.025578246 -0.015785336 -0.05225221 -0.04076861 0.110788986
-0.011638343 -0.024959981 0.08394529 0.14671631 -0.15099972 0.0049057305 -0.09304716 -0.04089488
-0.06648482 0.01397723 -0.054877475 -0.08230649 -0.14439744 0.12038045 0.029228017 -0.14445122
0.042625364 -0.19199267 -0.006626495 -0.014362838 0.19379449 0.13165157 -0.099589415 0.05918774
-0.07953545 -0.117114 -0.014373926 0.07153572 0.08163852 -0.040536202 0.14075334 -0.12389127
0.20027804 -0.056988582 0.15484218 -0.12081871 -0.11800599 0.07085135 -0.18669717 -0.0317413
0.1544584 -0.09502888 0.07678375 -0.12173353 -0.12845899 0.17714237 -0.05909557 0.015183391
-0.041171 0.10396136 -0.05471845 0.13853876 0.076341525 0.026753485 -0.035963252 -0.0806473
-0.1030514 0.07904126 0.100351974 0.07991038 -0.030931145 -0.14617695 -0.044950694 -0.17424834
-0.08423775 0.12979658 0.027603239 0.07174967 0.06232652 -0.09660953 0.13751213 0.16504483
-0.09430612 0.0004978329 0.14332424 -0.037111357 -0.16771309 -0.14102004 0.14657123 -0.06184443
0.01627438 0.10252427 -0.12816769 0.0641581 -0.044961475 -0.10929431 -0.18460318 0.07391632
-0.05195294 0.12072397 -0.072309405 -0.0111194085 -0.08223925 0.108192444 0.14004333 0.11713308
0.11614969 -0.055573456 -0.13196905 0.14085083 -0.045283407 0.083226286 0.09681944 -0.17825918
-0.14731176 0.14013259 0.08278743 0.07391965 0.15240054 0.04567946 0.054514796 0.053108647
00000000: 4013 4d3e f629 94bd 5ef8 98bd 4210 1d3d
00000010: c1aa 20be 8bd0 9abd c227 51be ea76 e43d
00000020: 1cba e03d faa4 f4bc 73a5 c43d ee5b 643e
00000030: 9ebb ef3d 4319 0abe 9727 a3bc b806 6bbc
00000040: 568b 5abe f66e 45bc 7bd4 fabd cea0 1fbe
00000050: de2a 6fbd a29c bcbd 0e0a 303e ca83 b03d
00000060: d52f a4bc 4484 e6bc bae1 10bd 24e4 c7bc
00000070: 1f12 133e e684 52be 7631 17be 6149 c1bd
00000080: 52ef 083e c020 07bd 3064 6a3d b809 a83d
00000090: 2f45 03be a939 0d3e c82d edbd e2e9 543d
000000a0: ea9c 08be 30b3 ddbd 694a fdbd d0b0 143d
000000b0: 6848 12be 040e 86bd 7fa3 52bc a8bc e43c
000000c0: 7517 be3d fa35 6ebd 1eda dc3d 53ef b9bd
000000d0: 2f59 07be 1eb7 3a3d 1aaf 25be 8940 f2bc
000000e0: 8226 6e3d 7ed8 7abd 7bfa 173e 90fd 663c
000000f0: 7de7 233d a6bf 2c3e 5f4b 6dbd db8b 88bc
00000100: 7639 2abe 63fd 32be 2898 383d 809f 4abd
00000110: 3ccc 923c 08f7 b63d fc35 413e dfde ad3d
00000120: a300 003e 49c8 3e3e a596 283e 3d01 09bc
00000130: ea74 1d3d 578a fd3d 18bb 20be ca89 123e
00000140: 0014 41bd 058c cbbd 8ed7 d63d f5bc c4bd
00000150: 8dba 033e 933c 85bc 4254 383d ef88 70bc
00000160: b1b1 93bd 7600 13bb cf56 01be 7520 d1bc
00000170: 9e13 843d e730 07bb 9cfd fdbd 3eca 17be
00000180: af01 1b3e 2e4d b73d f0f7 9cbd 9c26 823d
00000190: 53b8 293e 2196 10be c0d5 72bc 69de 88bd
000001a0: 201b b5bc afa5 23be 7000 06be 2a31 d9bd
000001b0: 6083 2fbd 7625 a3bd 5aae fb3d 0879 e1bc
000001c0: 10cd 23be b0ca 1fbc 20aa fd3c 9db2 e9bd
000001d0: 42bc 02be 8877 f9bd 6846 4d3d 580f b0bc
000001e0: 13d3 103e 309d 3bbc ef63 123e b849 35bd
000001f0: 2be0 18be cca4 4e3d 8c35 2c3d 7a4a 8bbd
00000200: 3e24 d0bd d262 973d 4d42 96bd 634c 123e
00000210: b852 4bbd 6042 8d3c 146a 5d3d 0a37 a13d
00000220: 6df7 173e e72b a7bd 6e28 a33d 7889 d13c
00000230: 4050 81bc 6a06 56bd fcfc 26bd 56e5 e23d
00000240: c0ae 3ebc e078 ccbc 82eb ab3d cd3c 163e
00000250: ac9f 1abe 40c0 a03b 828f bebd 6481 27bd
00000260: 3129 88bd c000 653c 34c7 60bd 4e90 a8bd
00000270: ecdc 13be 068a f63d 986f ef3c 05eb 13be
00000280: ef97 2e3d ba99 44be 1223 d9bb 1c52 6bbc
00000290: 1072 463e abcf 063e 89f5 cbbd d86e 723d
000002a0: 7be3 a2bd 77d9 efbd 9e80 6bbc 5281 923d
000002b0: 1932 a73d 4a09 26bd a521 103e b5ba fdbd
000002c0: b015 4d3e dc6c 69bd f38e 1e3e cd6f f7bd
000002d0: 20ad f1bd 831a 913d 8b2d 3fbe 2a03 02bd
000002e0: 582a 1e3e 809e c2bd cc40 9d3d 6e4f f9bd
000002f0: c18a 03be cf64 353e 320e 72bd c2c3 783c
00000300: eca2 28bd b2e9 d43d 7420 60bd 1bdd 0d3e
00000310: f258 9c3d 202a db3c 344e 13bd 692a a5bd
00000320: 9d0c d3bd 62e0 a13d 5685 cd3d 0ea8 a33d
00000330: 5063 fdbc 69af 15be 381e 38bd 286e 32be
00000340: d784 acbd 65e9 043e 3020 e23c 7ef1 923d
00000350: 184a 7f3d 38db c5bd fbcf 0c3e 8301 293e
00000360: 9123 c1bd 0081 023a 97c3 123e 1402 18bd
00000370: fbbc 2bbe 8f67 10be c516 163e 9650 7dbd
00000380: d951 853c 3ff8 d13d 643e 03be 5265 833d
00000390: 8629 38bd b2d5 dfbd 9e08 3dbe 7161 973d
000003a0: 9bcc 54bd 213e f73d f416 94bd 2e2e 36bc
000003b0: 0d6d a8bd 0094 dd3d 8567 0f3e 78e3 ef3d
000003c0: e3df ed3d fea0 63bd e522 07be 333b 103e
000003d0: 187b 39bd 8b72 aa3d 4549 c63d 9389 36be
000003e0: e5d8 16be eb7e 0f3e 758c a93d 2f63 973d
000003f0: e30e 1c3e 631a 3b3d e84a 5f3d 7488 593d

fc1.bias f4 [16]
0.04390959 -0.111214064 0.101889 -0.12406135 0.14356823 0.04153907 0.114395544 0.16657487
-0.17014 0.12504317 -0.12334036 0.1401817 0.03467819 0.04664068 0.09162985 -0.082959875
00000000: 8bda 333d 33c4 e3bd 2eab d03d e113 febd
00000010: 8d03 133e df24 2a3d 3648 ea3d 9a92 2a3e
00000020: 2e39 2ebe 510b 003e df99 fcbd cb8b 0f3e
00000030: b80a 0e3d 4c0a 3f3d 6ea8 bb3d dee6 a9bd

out.weight f4 [1, 16]
0.20100084 -0.1829567 -0.08535794 0.0324741 0.01695919 -0.0037642955 -0.029007584 0.26641247
0.04591322 0.27271092 -0.19566263 0.091175094 0.008525729 -0.039771095 -0.12952395 0.015357971
00000000: 2ad3 4d3e 0059 3bbe 25d0 aebd 9003 053d
00000010: 00ee 8a3c 66b2 76bb 50a1 edbc 3767 883e
00000020: 800f 3c3d c4a0 8b3e c95b 48be 02ba ba3d
00000030: 80af 0b3c 04e7 22bd eda1 04be 00a0 7b3c
