artifacts/territory/lstm/107__108__0/model.pt (torch, 23217 bytes, 7 tensors)

lstm.weight_ih_l0 f4 [128, 1]
0	0x3de37912	0.11107077
1	0x3d460efd	0.048354138
2	0xbdb94dc7	-0.09048038
3	0x3d4dfa5a	0.050287582
4	0xbdcf8a6d	-0.101338245
5	0xbd631ece	-0.0554493
6	0x3dfee3e2	0.12445809
7	0x3dec29c8	0.11531407
8	0xbd86c571	-0.06580628
9	0xbe0806c1	-0.13283826
10	0x3b3bd3b2	0.0028660116
11	0x3d9ff9bf	0.07811307
12	0xbcb36ccf	-0.02190247
13	0x3be8da6b	0.0071061156
14	0x3db0d8de	0.08635114
15	0xbbdffd3d	-0.0068356083
16	0x3def059b	0.11670991
17	0x3c22dc1d	0.009940174
18	0xbc6b367e	-0.014356254
19	0xbdb475f2	-0.08811559
20	0xbe14fc67	-0.14549409
21	0x3d5bf24d	0.053697873
22	0x3deff0a0	0.117158175
23	0x3ca8f66d	0.020625317
24	0x3e0bae42	0.13640693
25	0x3d7fd095	0.06245478
26	0xbd8df6af	-0.06931817
27	0xbddd62f4	-0.108098894
28	0xbe0f62b6	-0.14002499
29	0x3c9f128a	0.01941802
30	0xbd29910f	-0.041398104
31	0x3e36ed43	0.17863946
32	0x3dbff99b	0.0937378
33	0x3da2cdbb	0.07949396
34	0xbc8ddc43	-0.017316943
35	0x3e220700	0.15822983
36	0xbe03700e	-0.12835714
37	0xbd343baa	-0.044002213
38	0xbc17adb2	-0.009257721
39	0xbe31c8cf	-0.17361759
40	0xbd3d7478	-0.04625365
41	0xbe3dd646	-0.1853877
42	0x3d81206d	0.06305013
43	0xbd9bb4d6	-0.07602851
44	0x3b801d3d	0.0039097355
45	0x3e266b4f	0.16251872
46	0x3d057a52	0.032587357
47	0xbda487cf	-0.08033716
48	0xbdf65b4f	-0.120291345
49	0xbd94babb	-0.072621785
50	0x3da2b3f4	0.079444796
51	0x3c1bb406	0.00950337
52	0xbe14d1de	-0.14533183
53	0x3d8b7e44	0.06811193
54	0xbe37bec4	-0.17943865
55	0x3d4fdb68	0.05074635
56	0x3dd0822e	0.1018108
57	0xbd850f24	-0.064970285
58	0xbc8129e9	-0.015767055
59	0x3e41391f	0.18869446
60	0xbe1b1002	-0.15142825
61	0x3c340e62	0.010989757
62	0x3e0bbd98	0.13646543
63	0xbcbfc965	-0.023411462
64	0xbd6237df	-0.055229064
65	0x3d4a453a	0.049382426
66	0xbd9442a8	-0.07239276
67	0x3e1ae041	0.15124609
68	0xbdf0f25d	-0.11764977
69	0xbda0739a	-0.07834549
70	0xbc7e4d03	-0.015521291
71	0x3d8688e9	0.06569082
72	0xbdd056da	-0.101728156
73	0x3e016e14	0.12639648
74	0xbdb4b321	-0.088232286
75	0xbe15ea82	-0.14640239
76	0x3c8268e3	0.015919155
77	0x3d3c6319	0.045992944
78	0xbd30a7a9	-0.043128643
79	0xbddd05c9	-0.10792119
80	0x3dc03e45	0.09386877
81	0x3da26b91	0.07930673
82	0x3e11bc56	0.14232
83	0x3e5e913a	0.21735087
84	0xbe2dc6d3	-0.16970377
85	0x3de0019a	0.109378055
86	0x3de9b2c1	0.11411048
87	0x3e3cb691	0.18429019
88	0x3e2e97fb	0.17050163
89	0xbda70c53	-0.081566475
90	0x3dfb766b	0.12278446
91	0x3d60b3eb	0.054859083
92	0x3c61287f	0.013742565
93	0x3e117a4b	0.14206807
94	0x3e16e23f	0.14734744
95	0xbe10b295	-0.14130624
96	0xbdef4052	-0.1168219
97	0xbd3b040d	-0.04565816
98	0x3c0ba12e	0.008522315
99	0xbe008f51	-0.12554671
100	0x3de4cf9b	0.1117241
101	0x3cc858f4	0.024456479
102	0xbd944b33	-0.072409056
103	0xbc7668d9	-0.015039646
104	0x3cfdda8e	0.030988004
105	0x3e0600a7	0.13086186
106	0x3d4473ca	0.047961988
107	0xbc148c22	-0.009066613
108	0x3e228f96	0.15875086
109	0x3dbefddc	0.093257636
110	0x3cb67596	0.022272866
111	0x3ddfd62a	0.109295204
112	0xbcb4fe5c	-0.022093944
113	0x3a4da6a4	0.0007844961
114	0x3e2534b5	0.16133387
115	0x3e0849fc	0.13309473
116	0xbd95b1c6	-0.07309298
117	0xbd1f821a	-0.038942434
118	0xbe375459	-0.1790327
119	0x3dfeab7c	0.12435052
120	0x3e5ee888	0.21768391
121	0xbd43f2c9	-0.04783896
122	0xbc7fcab1	-0.01561229
123	0xbd849178	-0.064730585
124	0x3d996a77	0.0749101
125	0x3e3cf152	0.18451431
126	0xbdf071e2	-0.117404714
127	0xbcc00d04	-0.023443706

lstm.weight_hh_l0 f4 [128, 32]
0	0xbd6313d2	-0.055438824
1	0xbd2705b7	-0.040776934
2	0x3dd2d415	0.10294358
3	0xbe31b1a9	-0.17352928
4	0x3e1cf853	0.15329103
5	0x3e0047a2	0.12527326
6	0x3ddf65e2	0.109081045
7	0x3e00224b	0.12513082
8	0x3c18e5d3	0.009332138
9	0x39da7618	0.00041668187
10	0xbdd387e5	-0.10328654
11	0x3e077b90	0.13230729
12	0x3dffd52c	0.12491831
13	0x3e167d73	0.14696293
14	0xbd2805ad	-0.041021038
15	0x3dc71804	0.097213775
16	0x3e17f9b7	0.14841352
17	0xbd9d74cd	-0.076882936
18	0xbd09fcf8	-0.033688515
19	0x3e15bc57	0.14622627
20	0x3c6e8300	0.0145576
21	0x3dd0c198	0.10193175
22	0x3d3d88fc	0.046273217
23	0x3cafd8f5	0.021465758
24	0x3df96ce2	0.12178971
25	0x3e0eef24	0.13958412
26	0xbde72872	-0.11287011
27	0xbdecc20b	-0.11560448
28	0x3e0ffbef	0.14060949
29	0x3db6b602	0.08921434
30	0xbc6165c0	-0.013757169
31	0xbc090c33	-0.008364725
32	0xbe23d290	-0.15998292
33	0x3dfac168	0.122439206
34	0x3d0f5cd6	0.035000645
35	0x3dd5f697	0.10447424
36	0xbde37ed5	-0.11108176
37	0x3c3591f9	0.011082166
38	0x3b2e208b	0.002656969
39	0x3d47fb2a	0.048823513
40	0xbdc7cd60	-0.09755969
41	0xbc8eb6c6	-0.017421138
42	0x3d99d379	0.07511038
43	0xbe32174a	-0.17391697
44	0x3cd08821	0.025455536
45	0xbd244fff	-0.040115353
46	0xbe3d4a80	-0.1848545
47	0xbba91ade	-0.0051606735
48	0x3d7d0ae1	0.061777953
49	0xbdf87e7c	-0.121335
50	0xbdf7db96	-0.121024296
51	0xbe19f074	-0.15033132
52	0xbdda36fb	-0.10655018
53	0xbdb0f1e8	-0.0863989
54	0x3dc86ae9	0.097860165
55	0xbe10a398	-0.14124906
56	0xbdd7805c	-0.105225295
57	0x3e2deabd	0.16984077
58	0xbdc7bd4c	-0.097529024
59	0x3c9341fc	0.0179758
60	0xbd7c625e	-0.061617248
61	0xbd98c1c2	-0.07458831
62	0xbbd604f5	-0.0065313526
63	0xbe224f08	-0.1585046
64	0xbde9861c	-0.114025325
65	0xbc76ffa0	-0.015075594
66	0x3d783177	0.06059405
67	0xbe1f17ff	-0.15536498
68	0x3ddb73cc	0.10715446
69	0x3e53689d	0.20645376
70	0xbc363e86	-0.011123305
71	0x3db01554	0.08597818
72	0xbdef5b4f	-0.116873376
73	0x3db31641	0.08744479
74	0xbe0bff98	-0.1367172
75	0x3e13bb80	0.14426994
76	0xbdbc0bd0	-0.091819406
77	0xba31e4e3	-0.0006786121
78	0x3e6e10c6	0.23248586
79	0x39515ad8	0.00019965635
80	0xbdf6e794	-0.12055889
81	0xbe3aba97	-0.18235241
82	0xbcfb4942	-0.03067458
83	0xbda6d1df	-0.081454985
84	0xbdd22c19	-0.10262317
85	0x3c9d5941	0.019207599
86	0x3ce25b1d	0.027631337
87	0xbe3fd95e	-0.18735263
88	0xbdfdc472	-0.123909846
89	0xbc9f912a	-0.0194784
90	0x3decbc42	0.11559345
91	0x3dc610a5	0.096711434
92	0x3e331083	0.17486767
93	0x3bbf5344	0.0058387835
94	0xbba51baf	-0.0050387005
95	0xbe0c2db5	-0.13689311
96	0x3d2bdd8b	0.041959327
97	0xbe0a6eae	-0.13518783
98	0xbdfb51f8	-0.12271494
99	0xbd7ec50f	-0.06219965
100	0xbcf6b6e6	-0.03011651
101	0xbe31bf40	-0.17358112
102	0xbe196447	-0.14979659
103	0x3e28e171	0.16492249
104	0x3e19d311	0.15021922
105	0x3e117ca5	0.14207704
106	0x3e0d338c	0.13789195
107	0x3c9395ae	0.018015709
108	0xbd5d1c12	-0.053981848
109	0x3df40634	0.11915246
110	0xbe2cd6b1	-0.16878773
111	0x3b130530	0.0022433512
112	0xbdc5448b	-0.09632214
113	0xbddefce2	-0.10888077
114	0x3e1c95da	0.15291539
115	0x3b5c53f2	0.0033619371
116	0x3e2c6a89	0.16837515
117	0x3dd8cd21	0.10586
118	0xbe348bbc	-0.1763143
119	0x3dc0394b	0.09385928
120	0x3d5bfc17	0.05370721
121	0x3e01a5a3	0.12660842
122	0x3d8609b6	0.06544821
123	0x3d91bd8a	0.0711623
124	0x3d11ebb5	0.03562518
125	0x3e305695	0.17220528
126	0x3d25851f	0.040410157
127	0xbd47b828	-0.04875961
128	0xbe269126	-0.16266307
129	0xbd4a4e85	-0.04939129
130	0x3dd948a3	0.106095575
131	0x3cd860e0	0.026413381
132	0x3da69037	0.081329755
133	0x3d849711	0.06474126
134	0xbdcfe690	-0.10151398
135	0xbd80b26e	-0.06284033
136	0xbe044875	-0.12918265
137	0xbc7102b6	-0.014710119
138	0xbb51c365	-0.0032007333
139	0xbdb37f4e	-0.08764516
140	0x3de00aff	0.10939597
141	0xbe29fc7a	-0.16600218
142	0x3e2b6415	0.16737397
143	0xbb5c7647	-0.0033639835
144	0x3e066e09	0.13127913
145	0xbe169630	-0.1470573
146	0x3db70801	0.089370735
147	0x3ce24ca8	0.027624443
148	0x3dbc289f	0.09187435
149	0xbcd9d19c	-0.026589207
150	0xbe2737ad	-0.16329832
151	0x3dffd853	0.124924324
152	0x3c302214	0.010750312
153	0xbda9c614	-0.082897335
154	0xbdfe9ead	-0.12432609
155	0xbcaeeef3	-0.021354174
156	0x3d9efc4f	0.07762968
157	0xbd598c34	-0.053112224
158	0x3e1b7c4d	0.15184136
159	0xbdb67549	-0.08909089
160	0xbd5c3469	-0.05376092
161	0x3d4c546b	0.049885195
162	0xbdd15f37	-0.10223239
163	0x3cbc859a	0.023012925
164	0x3d5bb13c	0.05363582
165	0xbe588c36	-0.21147236
166	0xbc80cb9a	-0.015722085
167	0x3dcdbc94	0.10045734
168	0xbe13a3d7	-0.14417969
169	0x3e339efb	0.17541115
170	0xbe5c3828	-0.21505797
171	0x3ba29ff9	0.004962918
172	0xbdda8f9f	-0.10671925
173	0x3dca14ca	0.098672464
174	0xbe47ab4a	-0.19498935
175	0x3ddc1a33	0.107471846
176	0x3e1d20ed	0.15344591
177	0x3dd1fd42	0.10253383
178	0xbd81f861	-0.06346203
179	0x3dfbdf87	0.12298494
180	0x3d65ada7	0.05607381
181	0xbd4b5a56	-0.049646698
182	0x3d1d1f96	0.0383602
183	0xbdad9f11	-0.08477605
184	0xbd3c0d2c	-0.045911
185	0xbdaf9048	-0.08572441
186	0x3dd249ce	0.102679834
187	0xb783e200	-1.5721656e-05
188	0x3b840aa7	0.00402959
189	0x3e488f7f	0.1958599
190	0x3c2d3be0	0.010573357
191	0xbbb2983d	-0.005450277
192	0x3e1d3dbc	0.15355581
193	0x3b7d8366	0.0038683056
194	0x3e1f5819	0.1556095
195	0xbdf8b19e	-0.12143253
196	0xbd4016b3	-0.046896648
197	0xbd809cc1	-0.062798984
198	0xbdc6f19d	-0.09714053
199	0x3d9544dd	0.07288525
200	0xbe046326	-0.12928447
201	0x3d88752c	0.06662974
202	0xbe1a346c	-0.1505906
203	0xbdf7d982	-0.12102033
204	0xbe25397e	-0.16135213
205	0x3d5677c9	0.05236033
206	0x3e00f3ba	0.12592974
207	0xbe1f9422	-0.15583852
208	0x3e49fff9	0.19726552
209	0x3d4dc108	0.050232917
210	0x3e369e10	0.17833734
211	0x3e0ba713	0.13637953
212	0x3e2b158f	0.16707443
213	0x3e062818	0.13101232
214	0xbda44659	-0.0802123
215	0xbb307101	-0.0026922824
216	0x3bdd1aba	0.006747571
217	0x3dd4d93e	0.10392998
218	0x3d535c75	0.051601846
219	0xbe26ac4a	-0.1627666
220	0x3db709b7	0.089374
221	0xbbc773b9	-0.0060867933
222	0xbe13e122	-0.1444135
223	0x3de60e17	0.11233156
224	0xbcfb154e	-0.030649807
225	0xbdffd60c	-0.12491998
226	0x3d6d216a	0.057893194
227	0xbd63eca6	-0.055645607
228	0xbdb2114a	-0.08694704
229	0x3c485a60	0.012228578
230	0xbe1cb2bf	-0.15302561
231	0xbe4428ce	-0.19156191
232	0xbc2e5c1e	-0.01064208
233	0x3c5c83b8	0.013459139
234	0xbe010208	-0.12598431
235	0xbd1282db	-0.035769325
236	0xbd8fe7c5	-0.070266284
237	0x3d926c29	0.07149536
238	0xbe378142	-0.17920402
239	0x3e287999	0.16452636
240	0x3dc20e7a	0.094754174
241	0x3e1b42c7	0.15162192
242	0x3df8776a	0.121321514
243	0xbddf76be	-0.1091132
244	0x3db91de5	0.09038905
245	0x3da9ca27	0.082905106
246	0xbe41d26d	-0.18927927
247	0xbe16e2c8	-0.14734948
248	0x3e185e28	0.14879668
249	0x3cc09f4b	0.023513457
250	0xbdcbac7a	-0.09945007
251	0xbdf119bb	-0.11772486
252	0xbc1ad86b	-0.009451012
253	0x3e1c19fe	0.1524429
254	0x3d8f57c6	0.06999163
255	0xbda6f5ef	-0.08152377

lstm.bias_ih_l0 f4 [128]
0	0x3df5b56f	0.11997496
1	0x3dceeea1	0.101041086
2	0xbe1c6fb5	-0.15276988
3	0x3e004aa0	0.12528467
4	0xbe0d2069	-0.13781895
5	0x3df16e37	0.117886
6	0xbcf425d6	-0.029803198
7	0xbc257d19	-0.010100626
8	0xbda16209	-0.07880027
9	0x3e08bd65	0.13353498
10	0xbdadf241	-0.08493472
11	0x3e0f86a2	0.14016202
12	0x3d8e8342	0.06958629
13	0x3d897292	0.06711306
14	0x3e3d44e0	0.18483305
15	0x3e4c79e2	0.1996837
16	0x3d9a7f0b	0.07543763
17	0xbd158c4a	-0.036510743
18	0xbb80b6d2	-0.003928044
19	0x3e1879a9	0.1489016
20	0x3dbab4e4	0.091165334
21	0xbda30e45	-0.07961706
22	0x3d0646b0	0.032782257
23	0xbe1e97b6	-0.1548756
24	0x3d7f64e1	0.062352065
25	0x3d3c1013	0.045913767
26	0xbde47e1c	-0.11156866
27	0x3e5eabcb	0.21745221
28	0xbe2ae20c	-0.16687793
29	0xbdb04424	-0.08606747
30	0x3da72346	0.08161025
31	0x3ddcd255	0.10782305
32	0xbd86a7d0	-0.065749764
33	0x3e076e9a	0.13225785
34	0x3ca12298	0.019669816
35	0x3e00c555	0.12575276
36	0x3e121952	0.14267471
37	0xbde63e7f	-0.11242389
38	0xbe0b6e24	-0.13616234
39	0xbdad92da	-0.08475275
40	0x3b0044d4	0.0019572275
41	0xbe333b97	-0.175032
42	0x3d887005	0.06661991
43	0x3e4fa3ab	0.20277278
44	0x3de178e1	0.11009384
45	0x3e37a7e8	0.17935145
46	0x3d9f1b83	0.07768919
47	0x3dccb385	0.09995178
48	0xbdba76e0	-0.09104705
49	0x3dd10426	0.102058694
50	0x3d45c8f5	0.04828735
51	0xbd1c004a	-0.038086213
52	0x3d0cc9b8	0.03437206
53	0xbbb6218d	-0.005558199
54	0xbdee22df	-0.11627745
55	0x3d4a2ad6	0.049357258
56	0x3d7c2d04	0.061566368
57	0xbd5de44c	-0.0541728
58	0xbbee31ee	-0.0072691357
59	0x3d0935eb	0.033498686
60	0x3d78f891	0.060783926
61	0xbd123012	-0.035690375
62	0x3d33bad2	0.043879338
63	0xbb7ae629	-0.0038284159
64	0x3d94b96d	0.0726193
65	0x3e1dbdc8	0.15404427
66	0x3e0fd81d	0.14047284
67	0xbe05bf3c	-0.13061231
68	0xbce2fa01	-0.027707102
69	0x3ddbea9c	0.107381076
70	0xbe1fa053	-0.15588503
71	0xbdaed93d	-0.08537529
72	0xbda3e6ed	-0.0800303
73	0xbe425d4d	-0.18980904
74	0x3e1fa35b	0.15589659
75	0xbd9b6ef8	-0.07589525
76	0xbdf751ec	-0.12076172
77	0xbdaf1fab	-0.08550962
78	0xbe246ab7	-0.16056333
79	0xbe4f4c9e	-0.20244071
80	0xbc0b0358	-0.008484684
81	0xbd5fe1d7	-0.054658737
82	0xbdba9177	-0.091097765
83	0x3e2f3983	0.17111783
84	0x3bee5c71	0.0072742035
85	0x3dd9a092	0.106263295
86	0x3c8748ee	0.016514268
87	0x3de1ad26	0.110193536
88	0x3e2f7874	0.17135793
89	0x3c95755a	0.018244434
90	0xbe515895	-0.20443948
91	0x3dedce42	0.11611606
92	0xbdd473f4	-0.10373679
93	0xbda9168e	-0.08256255
94	0xbdbfc26e	-0.093632564
95	0xbdd6b66e	-0.104840145
96	0x3e5afc71	0.21385361
97	0x3d457810	0.048210204
98	0xbdbee850	-0.09321654
99	0xbe1125dc	-0.14174598
100	0x3d45427d	0.04815911
101	0xbd6ea00c	-0.0582581
102	0x3df19982	0.117968574
103	0x3cc03622	0.023463313
104	0xbca5ebdb	-0.020254066
105	0xbd4c6594	-0.04990156
106	0x3d3788a3	0.04480804
107	0x3ca445ea	0.020052869
108	0x3dbea6c6	0.09309153
109	0x3de629d1	0.112384446
110	0x3d803221	0.06259561
111	0x3d7bf41e	0.061512105
112	0xbd4b162f	-0.049581703
113	0xbdb3417a	-0.08752723
114	0x3e41332a	0.18867174
115	0x3db77953	0.08958688
116	0xbde048e8	-0.10951406
117	0x3d0ad821	0.033897523
118	0x3df729cd	0.1206852
119	0x3e4b6643	0.19863228
120	0xbdc6939e	-0.096961245
121	0x3d6615fb	0.056173306
122	0x3d95f080	0.07321262
123	0xbde85dfe	-0.113460526
124	0xbd8c8080	-0.06860447
125	0xbda669e6	-0.08125667
126	0x3df44f13	0.11929145
127	0x3e458f2b	0.19292895

lstm.bias_hh_l0 f4 [128]
0	0xbd5a7f18	-0.053343862
1	0xbe12b584	-0.14327055
2	0xbd337c06	-0.04381945
3	0xbc8968a4	-0.01677353
4	0xbd57b43e	-0.052662127
5	0x3e0d4e62	0.13799432
6	0xbce6bf92	-0.02816752
7	0x3dfb1a60	0.1226089
8	0x3e1fc08a	0.15600792
9	0xbe2477bc	-0.160613
10	0xbd244617	-0.040105905
11	0x3e3072b3	0.17231254
12	0x3d926228	0.07147628
13	0xbdb25df5	-0.08709327
14	0xbe212ad2	-0.15738991
15	0x3e4f61f4	0.2025221
16	0x3e2699d8	0.16269624
17	0x3e38c9d7	0.18045746
18	0x3d8284df	0.063729994
19	0xbd808d34	-0.06276932
20	0xbe1a0520	-0.15041018
21	0x3da3e9a7	0.0800355
22	0x3dbe1d00	0.09282875
23	0xbdaf1d0b	-0.085504614
24	0xbd35abf9	-0.04435346
25	0xbda39415	-0.07987229
26	0xbdaff1ca	-0.085910395
27	0xbddb7442	-0.10715534
28	0xbe387ba3	-0.18015914
29	0x3bf7920b	0.0075552515
30	0x3df3af0f	0.11898624
31	0x3e40fc37	0.18846212
32	0x3ded01af	0.11572587
33	0x3e1682d0	0.14698339
34	0xbda9ca7f	-0.08290576
35	0xbe101e85	-0.14074142
36	0x3d68f775	0.05687662
37	0x3e307cb4	0.1723507
38	0xbe0aa101	-0.1353798
39	0xbe39cf1e	-0.18145415
40	0x3db49d64	0.088190824
41	0xbd7509e9	-0.059823904
42	0x3c1da793	0.009622472
43	0x3c0700d8	0.008239947
44	0x3deafd89	0.11474139
45	0x3e13268e	0.14370176
46	0x3e16ae3a	0.147149
47	0x3e34df41	0.1766329
48	0xbc39f696	-0.011350295
49	0x3dab98e2	0.083787695
50	0x3df8fe50	0.12157881
51	0xbcc509cd	-0.024052525
52	0x3d78b9f8	0.06072423
53	0xbdf50e27	-0.1196559
54	0xbd51c435	-0.05121251
55	0x3dbc73c5	0.09201769
56	0xbde146a9	-0.109998055
57	0x3dbdce13	0.09267821
58	0x3d84705f	0.064667456
59	0x3e6ad8c5	0.22934254
60	0x3dcc47f9	0.09974665
61	0x3ddb7460	0.10715556
62	0x3e011b0a	0.12607971
63	0x3e19b3fa	0.15010062
64	0xbe02c72d	-0.12771292
65	0x3e1c0c32	0.15239027
66	0xbc8e7cbc	-0.017393462
67	0xbc645b20	-0.0139377415
68	0xbe0b4a54	-0.13602573
69	0x3bc9f3dc	0.0061631035
70	0x3ce7b857	0.028286142
71	0x3c3238dd	0.010877815
72	0xbc61bd17	-0.013777993
73	0x3de0bf2b	0.109739624
74	0x3de92db7	0.113856725
75	0xbcf38624	-0.02972705
76	0x3d94f825	0.07273892
77	0xbd84baa1	-0.06480909
78	0xbdb45808	-0.08805853
79	0xbe24606c	-0.16052407
80	0x3db9ffb7	0.09081977
81	0x3e3d89b7	0.18509565
82	0x3e2d7373	0.16938572
83	0x3e140c68	0.14457858
84	0x3dc15130	0.094393134
85	0x3e3c02e5	0.18360479
86	0xbe3fdfb7	-0.18737684
87	0xbc3bcf41	-0.011462987
88	0xbd89cd10	-0.06728566
89	0x3dbf6f79	0.093474336
90	0xbd3a7f0e	-0.045531325
91	0x3e174909	0.14773954
92	0xbe054ed7	-0.13018356
93	0x3e16c7fc	0.14724725
94	0xbe1d4cc5	-0.15361317
95	0x3df42d2b	0.119226776
96	0x3d91ff66	0.071287915
97	0x3df813fb	0.12113186
98	0x3d2ee922	0.0427028
99	0x3e338ee6	0.1753498
100	0x3e02bbfa	0.1276702
101	0x3e0e7b1c	0.1391415
102	0x3e22471c	0.15847439
103	0x3db2c8ec	0.08729729
104	0x3ce9d105	0.028542051
105	0xbdb5a4a7	-0.088692956
106	0x3d9c94f5	0.07645599
107	0xbdee495f	-0.11635088
108	0x3cc9e83f	0.024646876
109	0xbdccd552	-0.10001625
110	0xbdae6e86	-0.085171744
111	0x3c2de7b4	0.010614324
112	0x3df0c480	0.117562294
113	0x3d1b788b	0.037956756
114	0xbc727974	-0.0147994645
115	0x3c931213	0.017952954
116	0xbd91c04b	-0.07116755
117	0xbe29fbe5	-0.16599996
118	0x3d41c0e8	0.04730311
119	0x3e547231	0.20746686
120	0x3e0c25d0	0.136863
121	0x3dcec2b0	0.100957274
122	0xbe15bfb7	-0.14623915
123	0x3ce52cdf	0.027975498
124	0x3e135abf	0.14390086
125	0x3d53b416	0.051685415
126	0x3e1f99c7	0.15586005
127	0xbd7b30ab	-0.06132571

fc1.weight f4 [16, 32]
0	0xbe157474	-0.14595205
1	0x3c789df3	0.015174377
2	0x3d1a59d3	0.03768332
3	0x3e403311	0.1876948
4	0xbcf0d41c	-0.029398017
5	0xbdefb996	-0.117053196
6	0xbe17e3c1	-0.14832975
7	0x3d7ae6a9	0.06125513
8	0xbe3068cf	-0.17227481
9	0xbe0518b7	-0.12997709
10	0x3d05a806	0.032630943
11	0xbdee9a34	-0.11650506
12	0x3e25dbe0	0.16197157
13	0x3e3eebba	0.1864461
14	0xbe031d64	-0.1280418
15	0xbe507f50	-0.20361066
16	0x3bcd4d9e	0.006265356
17	0x3e3bbdf3	0.18334179
18	0x3e1fa0e8	0.15588725
19	0x3dcae232	0.099064246
20	0xbe1b89b1	-0.15189244
21	0x3bfae8ae	0.007657132
22	0xbe01b6ab	-0.12667339
23	0x3d7d4157	0.06182989
24	0x3dbdb663	0.09263303
25	0x3cdd8fe2	0.027046148
26	0xbdeaddf7	-0.11468118
27	0x3e4edbe9	0.20201077
28	0x3d455b40	0.048182726
29	0x3e4f17c6	0.20223913
30	0x3e35cbb9	0.17753495
31	0xbe190ced	-0.14946337
32	0x3d6088a4	0.05481781
33	0xbe22d434	-0.15901262
34	0x3bdbd700	0.0067089796
35	0xbd1a7450	-0.03770858
36	0xbdc00d99	-0.093775935
37	0x3dc05e1a	0.093929484
38	0xbe070fc8	-0.13189614
39	0xbe0510c6	-0.1299468
40	0xbcaa7940	-0.02080977
41	0xbd0a0b40	-0.033702135
42	0xbdef9c5a	-0.116997436
43	0xbd8cdd73	-0.068781756
44	0x3d04ded0	0.032439053
45	0xbdb72013	-0.089416645
46	0xbc250c20	-0.010073692
47	0x3d598fb0	0.053115547
48	0x3c96ca40	0.018406987
49	0x3d3a216c	0.04544203
50	0xbd7c2be8	-0.06156531
51	0xbe0c04f6	-0.13673767
52	0x3d91d20c	0.071201414
53	0xbdc371c2	-0.09543182
54	0xbe22e10b	-0.1590616
55	0xbe0bb0ed	-0.1364171
56	0xbd913c59	-0.070915885
57	0x3dfac416	0.12244432
58	0xbd892040	-0.06695604
59	0xbda0fd3b	-0.078608
60	0xbdf97f9e	-0.12182544
61	0x3da79832	0.08183326
62	0xbd006608	-0.031347305
63	0xbd86668b	-0.06562527
64	0x3dafeb76	0.085898325
65	0xbde47a89	-0.11156184
66	0xbd2bc2bc	-0.04193376
67	0xbe29e25f	-0.1659026
68	0xbd37a6a4	-0.044836655
69	0xbda17048	-0.07882744
70	0xbde13c45	-0.109978236
71	0xbca87f80	-0.02056861
72	0xbde76e55	-0.11300341
73	0xbd9bd699	-0.07609291
74	0xbd7d1c04	-0.061794296
75	0xbd0e7a28	-0.034784466
76	0x3d1e9458	0.03871569
77	0xbc847868	-0.016170695
78	0x3db61a6e	0.0889176
79	0xbd39164c	-0.04518728
80	0xbe20356d	-0.1564538
81	0x3d788518	0.060673803
82	0x3de5a3ce	0.11212884
83	0xbce50128	-0.027954653
84	0xbdc86f3c	-0.09786841
85	0xbce05940	-0.027386308
86	0x3e054363	0.13013987
87	0xbe3029e9	-0.17203487
88	0xbda54564	-0.08069876
89	0x3d7c4124	0.06158556
90	0x3de128f6	0.10994141
91	0xbddb7abd	-0.1071677
92	0xbe0cb0c0	-0.137393
93	0x3d1b5398	0.037921518
94	0xbdc3d90d	-0.095628835
95	0xbcc634a8	-0.02419503
96	0xbe26b096	-0.162783
97	0x3cbb2128	0.022842959
98	0xbe1481ae	-0.14502594
99	0xbdd9fccd	-0.10643921
100	0xbc95c5d0	-0.0182828
101	0x3e005b1d	0.12534757
102	0x3e1e8e1b	0.15483896
103	0xbe2cfba1	-0.16892864
104	0x3e0db9e7	0.13840447
105	0xbdd0c935	-0.10194627
106	0xbd8048db	-0.06263896
107	0x3d98a25a	0.07452841
108	0xbdc831df	-0.09775137
109	0x3dc2f276	0.09518902
110	0x3d69dab4	0.057093337
111	0x3deaab2e	0.11458431
112	0x3cc7eae0	0.02440399
113	0xbe021970	-0.12705016
114	0x3d9ecd3a	0.077539876
115	0xbdbde6e5	-0.09272555
116	0x3df03876	0.11729519
117	0xbd6937da	-0.05693803
118	0xbe274746	-0.16335782
119	0xbbb77e80	-0.005599797
120	0xbdc363c6	-0.09540515
121	0xbdd4d225	-0.103916444
122	0x3d171cf8	0.03689286
123	0xbdbaa77e	-0.09113978
124	0x3d84e888	0.06489664
125	0x3bf5d620	0.0075023323
126	0x3dda4f12	0.10659613
127	0xbe16157c	-0.14656633
128	0xbdfb7ad6	-0.122792885
129	0x3c22ace0	0.009928912
130	0xbdc2915d	-0.09500382
131	0xbcd78a40	-0.02631104
132	0xbd8f3958	-0.06993359
133	0x3e09ba27	0.13449918
134	0x3d15423c	0.03644012
135	0xbd74957c	-0.059712872
136	0x3e03a3c7	0.12855445
137	0x3e2df853	0.1698926
138	0xbdf3c98e	-0.11903678
139	0xbe192d16	-0.14958605
140	0xbdd60743	-0.10450604
141	0xbdd0d2cc	-0.10196456
142	0x3c592610	0.013253704
143	0xbdfa81b9	-0.12231774
144	0xbcda5af8	-0.026654705
145	0xbd33a104	-0.04385473
146	0x3d9cdfe6	0.07659893
147	0x3dd5874e	0.10426198
148	0xbd8fbc77	-0.07018369
149	0xbdc8aa89	-0.09798152
150	0x3dde5b4e	0.10857259
151	0xbe20b588	-0.15694249
152	0xbddb9acd	-0.10722885
153	0xbd85990e	-0.065233335
154	0xbdcd725c	-0.10031578
155	0x3e2b6981	0.16739465
156	0xbd2d5b74	-0.042323545
157	0xbd5c453e	-0.053776972
158	0xbdce5b1e	-0.10075973
159	0x3d239a98	0.039942354
160	0xbc9d2ac6	-0.019185435
161	0xbe08d623	-0.13362937
162	0x3db7bed9	0.08971948
163	0x3e0cc3b9	0.13746537
164	0x3c9dfe50	0.019286305
165	0x3dd00002	0.101562515
166	0x3c054b75	0.008135666
167	0xbc7c45c4	-0.015397493
168	0xbe1e3959	-0.15451564
169	0xbe350e44	-0.17681223
170	0x3d25b9ba	0.040460326
171	0x3d4f1d6b	0.050565165
172	0x3c847e8c	0.016173624
173	0x3e105990	0.14096665
174	0x3d5acbc5	0.053416986
175	0xbc0ab551	-0.008466081
176	0xbda63fc6	-0.081176326
177	0xbe35b861	-0.17746116
178	0x3d1b2b5b	0.037883144
179	0x3dfbf1e8	0.12301999
180	0x3dd45361	0.10367466
181	0x3e1565a7	0.14589559
182	0xbdd023a1	-0.10163046
183	0xbde1fbb8	-0.1103434
184	0x3e01c5c0	0.12673092
185	0x3c36465e	0.011125175
186	0x3c399a51	0.011328296
187	0x3e0528b8	0.13003814
188	0x3b22409b	0.0024757746
189	0xbdb93a50	-0.09044325
190	0xbdc881e9	-0.097904034
191	0x3dda3a59	0.1065566
192	0xbd6380f0	-0.055542886
193	0x3e027b8f	0.12742446
194	0x3df1eb72	0.11812486
195	0x3d9ef3be	0.07761334
196	0xbc9d5a68	-0.019208148
197	0x3d20fe6c	0.039305136
198	0xbd037248	-0.03209141
199	0xbe1ebd22	-0.15501836
200	0x3cd6e758	0.02623336
201	0xbdf21b64	-0.118216306
202	0x3e245137	0.16046606
203	0xbe1e5d17	-0.15465198
204	0xbc648e70	-0.013949975
205	0x3e34a039	0.17639245
206	0x3d1f3038	0.038864344
207	0xbde9fc6b	-0.11425098
208	0xbdfb3918	-0.12266749
209	0xbe1c1c22	-0.15245107
210	0xbde0d55d	-0.10978196
211	0x3d5729c4	0.052530065
212	0xbd9c15dd	-0.076213576
213	0xbd990fd3	-0.07473721
214	0xbe00cf73	-0.12579136
215	0xbde6eb6b	-0.11275371
216	0xbcad1660	-0.021128833
217	0xbd134404	-0.035953537
218	0xbe31bc89	-0.17357077
219	0xbe11d388	-0.14240849
220	0xbdd4ce5b	-0.10390922
221	0xbd4aa894	-0.049477175
222	0x3d98506e	0.07437216
223	0xbd546db4	-0.051862434
224	0xbd6445c2	-0.05573059
225	0xbda88ee4	-0.08230379
226	0xbe2cf198	-0.16889036
227	0xbd8c6b2d	-0.0685638
228	0x3c2ec720	0.010667592
229	0x3e1acc7b	0.15117066
230	0x3e064583	0.13112454
231	0xbd716538	-0.05893442
232	0xbd6e1e16	-0.05813416
233	0x3da81ca2	0.08208586
234	0x3d392738	0.045203418
235	0x3e1ede3b	0.15514462
236	0x3cbaab20	0.022786677
237	0xbe0b2981	-0.13590051
238	0xbe0dd297	-0.13849865
239	0xbbf67560	-0.0075213164
240	0xbe0d4bb0	-0.13798404
241	0xbe2a6a33	-0.16642074
242	0x3db30fc6	0.08743243
243	0xbdd92084	-0.10601905
244	0xbda3ea12	-0.0800363
245	0xbdccf76f	-0.10008132
246	0x3e133feb	0.14379852
247	0x3dac0b22	0.08400561
248	0x3df075b2	0.117411986
249	0x3e254213	0.16138487
250	0xbdb48e66	-0.08816223
251	0xbd8945f5	-0.06702796
252	0xbe2115d5	-0.15730985
253	0xbde32972	-0.110918894
254	0x3e01005b	0.12597792
255	0x3e17b3c5	0.1481467

fc1.bias f4 [16]
0	0x3e36ee2c	0.17864293
1	0xbd428e08	-0.047498733
2	0x3cf97f80	0.030456305
3	0xbe1f66d2	-0.15566567
4	0x3d14d214	0.03633316
5	0xbc83dcd5	-0.016096512
6	0x3c04c900	0.008104563
7	0xbe2821f3	-0.164192
8	0x3e225bf9	0.15855397
9	0xbe20c3d6	-0.15699705
10	0x3e0dc115	0.13843186
11	0x3df207b3	0.11817875
12	0x3e1095d1	0.1411965
13	0xbd002570	-0.031285703
14	0xbe0800f8	-0.1328162
15	0xbcd44de0	-0.02591604

out.weight f4 [1, 16]
0	0x3e04e0fb	0.12976448
1	0x3da06808	0.078323424
2	0xbd9c985c	-0.07646248
3	0x3d54c058	0.051941246
4	0x3d3a8878	0.045540303
5	0x3bbe9ace	0.005816794
6	0x3e1c0056	0.15234503
7	0xbc0701c0	-0.008240163
8	0x3d8ad2bf	0.06778478
9	0xbd142f70	-0.036178052
10	0x3caec2f0	0.021333188
11	0xbd1fb902	-0.038994797
12	0xbdbb2582	-0.091380134
13	0xbe496ec8	-0.19671166
14	0x3d6f5230	0.05842799
15	0x3c1ae5a0	0.009454161
