artifacts/territory/lstm/370__371__0/model.pt (torch, 23217 bytes, 7 tensors)

lstm.weight_ih_l0 f4 [128, 1]
000000 be ab cc bd cf b3 a1 3d b1 6c b5 bd 84 60 03 3e
       -0.09993695 0.07895624 -0.08858622 0.12829787
000010 40 7d ff 3c 28 7a 84 bd da 78 a1 3d a6 4b cc 3d
       0.031187654 -0.06468612 0.07884379 0.09975366
000020 0a 79 e4 bd 8b 8f 3b 3e 66 67 ce bd 36 f5 36 bd
       -0.11155899 0.18316476 -0.100783154 -0.044667445
000030 96 e4 e5 3c 9f bf 90 3d a1 90 4c 3e c7 af 79 bd
       0.0280631 0.07067799 0.19977047 -0.06095865
000040 59 2c 25 3c 99 99 4a 3e ff 88 4a 3e d0 68 7d bd
       0.010081374 0.19785155 0.19778822 -0.061867535
000050 63 a8 0e 3e d1 bf b0 3d f6 0f f7 bd 58 0f 5b 3d
       0.13931422 0.08630336 -0.12063591 0.05348143
000060 d7 13 f8 bd e1 0b e2 3a fb c2 ec 3c bb c6 2e be
       -0.12113159 0.0017245972 0.028901568 -0.17067997
000070 c2 bb b3 3b 84 8c 33 3b dc 62 16 3e bc e2 1b 3e
       0.005485029 0.0027396986 0.1468615 0.15223211
000080 93 aa b0 3d 6f cb 47 bd 1d 6a 25 be 46 4f 17 3e
       0.086262845 -0.048777994 -0.1615376 0.14776334
000090 e5 21 96 bd c0 41 c1 3c 1c fc b6 bd b9 40 df bd
       -0.073306836 0.023590922 -0.08934805 -0.10901017
0000a0 97 04 03 bd c3 3e 0f 3e 61 76 8e bd 29 c9 00 3e
       -0.0319868 0.13988785 -0.06956173 0.12576737
0000b0 8e bf 3f 3c 89 7f 06 3e 57 95 94 bd 0a b9 c6 3d
       0.011703385 0.13134588 -0.07255047 0.09703262
0000c0 0c 3b d0 bc a3 89 ef 3b 40 28 c3 bd 44 9c 30 be
       -0.02541878 0.0073101087 -0.095291615 -0.1724711
0000d0 31 bb 56 3d 38 90 81 3d 25 fe 00 3e 6c b4 86 3d
       0.052424613 0.06326336 0.12596948 0.065773815
0000e0 16 02 02 3d 98 01 cd 3d b0 e8 89 bd 90 e4 e3 bd
       0.03174027 0.100100696 -0.06733835 -0.11127579
0000f0 75 d1 cb 3d 1b f9 29 3e ec d9 98 bd 19 0b 6d 3d
       0.0995206 0.16598932 -0.0746344 0.05787191
000100 6c aa ab bd 1b 77 21 3e 1a e3 c1 3d d1 b2 34 3e
       -0.08382115 0.15768091 0.09467144 0.17646338
000110 87 a5 24 3e 93 b8 08 3d f4 98 c0 3c eb 15 ae 3d
       0.16078769 0.03337915 0.023510434 0.08500274
000120 09 b9 8d bd 59 15 44 3d f2 30 ea 3d f0 f3 e6 bd
       -0.06920058 0.04787192 0.11435117 -0.11276996
000130 8e 9a 6b bd 10 62 04 3d 2f fc 6f bd d6 a8 fd 3b
       -0.05752044 0.032320082 -0.05859011 0.007741074
000140 5d 5c 25 3e 88 aa 2d be 91 8b 1f 3e 03 49 08 be
       0.16148515 -0.16959584 0.15580584 -0.13309102
000150 6b 30 03 be 2e 80 66 bd 5e 71 e6 3d cf 19 31 bd
       -0.12811439 -0.056274585 0.11252092 -0.043237504
000160 55 fa 1c be f6 d7 f3 bd a2 17 c7 bd 15 81 c8 bd
       -0.15329869 -0.11906426 -0.097213045 -0.097902454
000170 87 59 0d 3e 51 8f 60 bd 11 70 25 be 23 2d 31 3e
       0.13803683 -0.054824177 -0.16156031 0.17302375
000180 41 a5 be 3c aa b7 ef 3d b0 ab 72 3d c3 31 73 3d
       0.023272159 0.11704953 0.059245765 0.05937363
000190 ac 9a df bb 3d 48 39 bd ff 50 48 3d 9c 37 98 bd
       -0.0068238582 -0.045234907 0.04890537 -0.07432482
0001a0 6b 3b 17 3e 5e 85 9a 3d 13 92 eb 3d 6e ab a6 3a
       0.1476876 0.07544969 0.11502471 0.0012715885
0001b0 e3 82 93 3d c2 71 99 3c 6b a0 33 3e 8d 32 b5 3d
       0.07202699 0.018731002 0.17541663 0.088475324
0001c0 b2 1d 49 3d 17 68 7a 3c d6 7b ed bc d1 3b 3b 3e
       0.049100585 0.015283606 -0.028989714 0.18284537
0001d0 96 b3 2b bd e7 1b 11 be c2 19 32 be 52 58 d3 3d
       -0.041919313 -0.141708 -0.17392638 0.1031958
0001e0 96 b7 28 3e 78 1b 5d bd 43 6a fb 3d a7 d4 16 bc
       0.16476282 -0.053981274 0.12276127 -0.009205974
0001f0 0f 87 2b 3d 25 25 91 bd 8a 0f 33 3e cd 30 3e 3e
       0.04187685 -0.07087163 0.17486396 0.18573304

lstm.weight_hh_l0 f4 [128, 32]
000000 70 c8 fb bc 8e 36 23 bd cb fb 23 3e 54 bd 7c bc
       -0.030735224 -0.03984695 0.1601402 -0.015425999
000010 5d 51 bf 3d d4 dd 0d be fb eb a0 3d 7e 76 da 3d
       0.09341691 -0.13854152 0.0785751 0.10667132
000020 85 e9 12 3e 80 9f c6 bd bd 8d 88 bd 72 49 1a be
       0.14346893 -0.09698391 -0.066676594 -0.1506708
000030 e7 83 f0 bd 93 5f 55 3d d9 d7 f3 bc ad 93 03 3e
       -0.117439084 0.0520931 -0.02976601 0.12849303
000040 8c f7 59 3d 37 df 20 be 04 90 40 3a e6 09 07 3e
       0.053214595 -0.1571015 0.0007345679 0.1318737
000050 27 40 a9 bd 72 eb e7 bd e8 cd 73 bd a0 f9 ef bd
       -0.08264189 -0.113242045 -0.05952254 -0.11717534
000060 19 37 4d bd 13 84 10 be fe 2f 04 bd 70 4f 40 bc
       -0.050101373 -0.14112882 -0.03227233 -0.011737689
000070 0c 9c 30 3e 2c 27 92 bd ab f3 26 be a6 ff 01 3e
       0.17247027 -0.07136378 -0.1630389 0.12695178
000080 a0 63 95 bc 7e 13 fd bd 4e a1 d5 bc a7 df 92 3c
       -0.018235981 -0.123572335 -0.026077893 0.017928911
000090 70 4d 19 3d c3 e2 a3 bc bf e9 29 bd 46 5e bb bd
       0.037427366 -0.02000559 -0.041482683 -0.091488406
0000a0 39 54 df 3d 93 f6 11 3e 10 f8 17 bc 77 4d 07 be
       0.10904736 0.14254217 -0.009275451 -0.13213144
0000b0 47 00 e6 3d 96 2f a0 3d fa 04 73 bd 58 6b b4 3d
       0.11230522 0.07821576 -0.059330918 0.08809537
0000c0 5b 83 10 3e 50 d3 e1 3d c6 2c ea bc ea 03 38 3d
       0.14112608 0.11026633 -0.028585803 0.044925608
0000d0 f0 62 08 3e f5 ab 27 3d 18 ad 81 3d 9a 3a a4 bd
       0.13318992 0.040935475 0.06331843 -0.0801899
0000e0 a3 83 f5 3d 13 24 22 be 54 e6 8f bd c2 08 e5 3d
       0.11987998 -0.15834074 -0.070263535 0.11183311
0000f0 d1 da 0c 3e 7a 6a 24 be ac be 31 be 11 d8 ec 3b
       0.13755347 -0.16056243 -0.17357892 0.0072279056
000100 d6 bf 84 3c be 77 36 3d fc 0a 9a bd 0c 59 32 3e
       0.016204756 0.04454779 -0.07521626 0.17416781
000110 fe b8 1a 3e d8 47 11 3e cf e6 67 3e 48 66 2a 3d
       0.15109631 0.14187562 0.2264664 0.04160145
000120 67 ef e7 bd 92 2f 6f bd b6 08 cd bc b0 83 ab bd
       -0.11324959 -0.058394976 -0.025028568 -0.08374727
000130 7d de 14 3d 73 7e b3 3c 0f ac 5a be 3c dc 1d be
       0.036344994 0.021910882 -0.21354698 -0.15416044
000140 e5 cb a6 3d da 38 9d bd 04 1a 2f 3d 0a fc 44 bd
       0.081443585 -0.07676859 0.04274942 -0.048091926
000150 7b ce 39 be d4 5f 26 3d 54 a7 73 3d 8d 4f ae 3d
       -0.18145172 0.040618733 0.05948575 0.08511267
000160 a8 1b bb 3d 4d 5e a1 bd 7a e6 9c bd ee 71 06 be
       0.091361344 -0.078793146 -0.076611474 -0.13129398
000170 5b 24 60 bd 0b be 29 3e 3c 61 2e 3d 47 91 2d 3d
       -0.05472217 0.16576402 0.0425732 0.042374875
000180 ac d6 2d be 77 51 20 3e 0d 89 2b 3e 04 b3 90 3d
       -0.16976422 0.15656076 0.167515 0.070653945
000190 61 aa 30 be 98 ea 3a 3d 40 3e 16 bd c3 eb 10 3e
       -0.17252494 0.045633882 -0.03668046 0.14152436
0001a0 06 d6 e6 3d 04 7d e1 bc 23 f5 05 be 50 d2 1a bd
       0.112712905 -0.027525432 -0.13081793 -0.037798226
0001b0 b6 35 c3 bd 7a 09 0f 3e f4 09 b2 3c ac 46 6e 3d
       -0.09531729 0.13968459 0.021733262 0.058172867
0001c0 c8 ee 05 3d 8d d7 1f be 58 77 3f bd 37 33 c5 bd
       0.032698423 -0.1560957 -0.046744674 -0.09628909
0001d0 3c 52 e3 bd d1 90 e9 bd fc 8f 8d bd dd 04 81 bb
       -0.11099669 -0.11404575 -0.069122285 -0.0039373473
0001e0 f6 31 87 3d 76 9e 97 bd 4d cc 12 bd 90 f0 6e bc
       0.06601326 -0.07403271 -0.035839368 -0.014583722
0001f0 71 c8 01 be 46 e5 79 bd 07 d5 f3 3d 0b f3 b5 bd
       -0.12674119 -0.061009668 0.11905866 -0.088842474
000200 5c 42 2f 3d 97 c6 4e bd 1d 0e a1 3c 13 21 e9 3d
       0.042787895 -0.05048236 0.01966005 0.113832615
000210 69 e0 fc bd a2 bd aa bd d8 1e 20 3e a5 33 22 3a
       -0.1234749 -0.08336951 0.15636766 0.0006187505
000220 da 36 fe bd 0e be 24 3d 9c 59 c9 bb 06 64 22 be
       -0.12412806 0.040220313 -0.0061447155 -0.15858468
000230 c1 18 07 be 8e 8d ca 3d 6d b3 01 bd 49 8a db 3c
       -0.13193037 0.09890281 -0.031665254 0.026799338
000240 67 34 00 3e 43 4d 08 3e 00 9d fc 3c de bf 86 bd
       0.1251999 0.13310723 0.030836582 -0.065795645
000250 bb 90 26 be 8d ac 67 bd 13 8b 19 3e e0 46 59 b8
       -0.16266148 -0.05656104 0.14994459 -5.180284e-05
000260 13 3c f4 3d b6 c0 ed 3d c5 4a e5 bc 37 a8 e3 bd
       0.11925521 0.11609022 -0.027989754 -0.11116069
000270 01 cc d3 bd 94 c9 b0 3a d5 38 23 bd 02 9e 6e 3d
       -0.10341645 0.0013487809 -0.03984912 0.058256157
000280 25 4e 48 3d a7 79 30 be 5b b2 0b 3e 9e 9e 87 3c
       0.04890265 -0.17233907 0.13642256 0.016555127
000290 8a 64 5f bd 20 70 2c 3e 18 9a 30 be bf 0e 0c 3e
       -0.05453924 0.16839647 -0.17246282 0.136775
0002a0 91 d2 18 be 8b 81 64 bd e5 de ba bd b7 4f 36 3d
       -0.14924075 -0.055787604 -0.09124545 0.044509616
0002b0 a5 5f 13 3e 2e ce 05 be ba f2 05 3e d0 9c 10 be
       0.14391954 -0.13066933 0.13080874 -0.14122319
0002c0 f3 07 7a 3d a1 9a 04 3e 78 b0 14 3e 21 a0 da bc
       0.061042737 0.12949611 0.14520442 -0.026687684
0002d0 80 a8 42 3c c0 04 31 3d 46 70 a7 3d 52 70 c6 3d
       0.011880994 0.04321742 0.08175711 0.09689392
0002e0 21 ef 21 bd 65 a1 9c 3d 21 93 74 3d 16 6b 82 3d
       -0.03953469 0.07647971 0.059710626 0.06368081
0002f0 f8 eb 23 bd 4d b2 12 3d 2c a3 fb 3d c4 30 b9 bd
       -0.04001996 0.035814572 0.12286982 -0.090425044
000300 d6 f7 e8 bd e5 0f 0a be 11 ff 1f be e0 bc 4f bd
       -0.11375396 -0.13482626 -0.15624644 -0.050717235
000310 78 5f e2 3d ac fa ae bd 40 72 33 3a d0 b2 06 3e
       0.110533655 -0.085439056 0.00068453327 0.13154149
000320 49 6c 68 bc 53 9c 81 3d 7e 1a cc 3b 90 f6 88 3d
       -0.014185973 0.063286446 0.006228744 0.06687653
000330 7a 0e 05 3e 2a 5a 1e bd 21 6c 61 bd 46 45 10 bd
       0.12993804 -0.038660206 -0.05503476 -0.035222314
000340 8b 36 bb bc 49 e5 9c 3d 4b 4c 3a be 8f 44 22 3c
       -0.022853157 0.0766092 -0.18193166 0.009904041
000350 84 69 cb bc 58 83 39 bd a8 92 be bd e7 26 25 bd
       -0.024830587 -0.045291275 -0.09305316 -0.040320303
000360 3b 83 3e 3d 29 f8 4e 3d d6 fc d8 3d 0e 10 b2 3d
       0.04651187 0.050529633 0.105951 0.086944684
000370 29 83 a1 3d ad e8 e2 3d be 21 d4 3c 31 32 e8 3d
       0.07886345 0.11079536 0.025894996 0.11337698
000380 5e 66 25 be 19 0c 81 bd cb 8d 32 3e 3e 30 1c 3e
       -0.16152331 -0.063011356 0.17436902 0.15252778
000390 57 a6 39 3d c0 2c 6e 3d 37 f5 c3 3d af b5 ea 3d
       0.04532465 0.058148146 0.095682554 0.11460435
0003a0 87 f8 07 3e da 29 34 3c 86 82 1a be 0f 28 ca bd
       0.132784 0.010996306 -0.15088853 -0.09870922
0003b0 3f d8 ea 3d e2 d2 d9 3d f7 63 da 3d 3a 9a 06 3e
       0.11467027 0.10635926 0.10663598 0.1314477
0003c0 6a 52 14 be 59 bd 8e bc 19 ae 25 be a1 d4 14 3e
       -0.14484563 -0.017424272 -0.16179694 0.14534236
0003d0 40 a4 c6 bd 65 c4 8e bd 14 63 6c 3d 18 cf 50 be
       -0.09699297 -0.06971053 0.057711676 -0.203915
0003e0 c2 82 cb 3d e4 80 01 3e 01 67 8d bd 8f af c4 bd
       0.099370494 0.12646824 -0.06904412 -0.09603798
0003f0 19 d9 19 be 6d 20 05 be 95 18 3f be ec fa be bd
       -0.15024222 -0.1300065 -0.18661721 -0.09325203

lstm.bias_ih_l0 f4 [128]
000000 37 bd 8c bd bd f3 d1 bd a4 ae 83 bd 46 61 8c 3d
       -0.06872027 -0.102515675 -0.064297944 0.06854491
000010 4b 41 9b bd 5e c5 9b bd 02 28 3b 3d 3c 7d 37 3e
       -0.07580813 -0.07606004 0.04569245 0.17918867
000020 c2 35 9f 3d ef 97 b5 3d e2 51 77 bc fa a7 62 bc
       0.07773925 0.0886687 -0.015095206 -0.013833994
000030 d2 77 ee bd 43 af eb bd 2e 8f c8 bd 3f 9a 4d be
       -0.11643948 -0.11508038 -0.09792934 -0.20078371
000040 f6 f9 da bd 6b c2 a4 3c dd ca 8e 3c a4 32 f8 bb
       -0.106922075 0.020112237 0.017430717 -0.007574396
000050 d5 be 13 3d 60 75 ed 3d dc 9a a1 bd 16 cf e2 bc
       0.036070663 0.11594653 -0.07890865 -0.027686637
000060 77 bb 2e be fa 4b 63 3e 03 77 8d 3d 80 47 48 bd
       -0.170637 0.22196952 0.06907465 -0.048896313
000070 54 da ed 3d 75 5c f5 3d 1c c0 4c bd c2 0f 27 3e
       0.116139084 0.119805254 -0.049987897 0.16314605
000080 1b 5f d2 bc b5 d6 36 bd 05 9b f3 3d fb 12 9e 3d
       -0.025680115 -0.044638354 0.11894802 0.07718464
000090 e3 42 28 3e 64 9a dc 3c 4e 8f 49 3c 5d f5 4e 3d
       0.16431765 0.026929088 0.012302233 0.050526965
0000a0 2b 06 83 bd cf 25 bc 3d c4 88 18 be cd 23 ec 3c
       -0.06397661 0.09186899 -0.14895922 0.028825665
0000b0 39 e9 d4 bd 26 46 d6 3c 70 95 3f 3d 5a 70 82 3c
       -0.10396046 0.026156496 0.046773374 0.015922714
0000c0 d9 86 fe bd 78 66 6b 3e c7 8c 03 be 46 92 a9 bd
       -0.12428064 0.22988307 -0.12846671 -0.082798526
0000d0 ad 5e 1c 3a d4 df 0f be 70 9a 6c 3d d9 38 2b 3e
       0.00059650355 -0.14050227 0.05776447 0.16720904
0000e0 53 a3 18 be f7 da 2c 3e 1d 6b 67 3e 80 52 b9 3c
       -0.14906053 0.16880403 0.22599454 0.022622347
0000f0 c1 ea d0 3d b3 a2 ab bd f7 c2 8f bb 22 69 b9 3d
       0.10201026 -0.08380642 -0.0043872553 0.090532556
000100 4d bb 44 be 3d ce 25 3e a1 4e ff 3d 82 a3 d5 3d
       -0.19212075 0.16191955 0.12466169 0.10431577
000110 79 01 16 be 66 4d 5b bb 05 6d 74 bc 12 e7 c0 3d
       -0.14649 -0.003346288 -0.01491857 0.09419073
000120 75 8e fb bd 06 5d 31 3e 0a 0a 15 bd 92 6b c3 bd
       -0.12283031 0.17320642 -0.036386527 -0.09542002
000130 3e ee 29 be 0c 17 0f 3d 5d 72 4d be f0 18 24 bb
       -0.16594788 0.03493409 -0.20063157 -0.0025039278
000140 61 40 11 3e 10 64 6f 3d 23 f4 c6 bd ff d0 06 be
       0.14184715 0.058445036 -0.09714534 -0.13165663
000150 01 0b b3 bd d7 24 b8 bd 40 23 a6 3b 6c 53 ad 3d
       -0.08742333 -0.08991402 0.00507012 0.08463177
000160 6b 63 2a be 1b 88 cc bd 73 05 0d be d6 04 10 be
       -0.16639487 -0.099868976 -0.1377161 -0.14064345
000170 0d c2 03 3e f5 4a 07 3c 88 75 b1 bd 0c fd 6a 3d
       0.12866993 0.008257617 -0.086649954 0.05737023
000180 58 c0 62 bd 32 5a 28 3e 69 37 5e 3d 41 d0 4e 3e
       -0.055359215 0.16440657 0.054252062 0.2019663
000190 d1 c0 d0 3d 6e bb 93 ba 81 2b 4d be dc 3b 81 3d
       0.10193027 -0.0011271068 -0.20036127 0.063102454
0001a0 15 15 db bd 98 9c 97 3d 3f 6a 08 bd e1 62 95 3a
       -0.106973805 0.07402915 -0.03330445 0.0011397266
0001b0 3c 8f 7a bd 2c 02 59 3e 53 aa fd bd a6 15 4f be
       -0.061171755 0.21192235 -0.123860024 -0.20223102
0001c0 a8 d8 82 bd 48 9b 09 3e 51 c8 0b 3e 4b ee e9 3d
       -0.0638898 0.13438141 0.13650633 0.11422404
0001d0 91 9e 58 3e 09 14 4d 3e 0d 19 2a be 7b 74 cc bd
       0.21154238 0.20027174 -0.16611119 -0.099831544
0001e0 71 54 e4 bd 9e 67 ae bc fe 81 fd 3d 05 fe f1 bd
       -0.111489184 -0.021289643 0.1237831 -0.118160285
0001f0 40 73 81 3d 61 55 69 3e 82 2c 66 bd 6d b7 40 3e
       0.0632081 0.22786476 -0.05619479 0.18819971

lstm.bias_hh_l0 f4 [128]
000000 c9 42 e5 3c 08 3c 37 3e 35 51 16 bd d2 00 0f be
       0.027985947 0.17893994 -0.03669854 -0.13965157
000010 32 66 ae 3c 2f c8 c2 3d 54 b5 31 bd fd dd c1 3d
       0.021288965 0.09510838 -0.04338582 0.09466169
000020 91 ab 43 3e 12 dc 7f 3d db 8c 8b bd 70 1b e6 3d
       0.19108416 0.062465735 -0.068139754 0.11235702
000030 00 94 b8 bd 77 77 9a 3d 27 97 25 3e 74 a6 2a be
       -0.09012604 0.07542317 0.16170941 -0.1666506
000040 58 4e 1c bd ad 54 95 3d 3b 44 30 3e d8 f0 f1 bd
       -0.038160652 0.07291541 0.17213528 -0.118135154
000050 61 ab 92 bd 69 e4 28 3e e4 6b 43 bd 4e 34 aa 3d
       -0.07161594 0.16493382 -0.047710314 0.083107576
000060 19 4d bb 3d b8 46 54 3e c3 2f 39 3e 3a c1 b4 3c
       0.091455646 0.20730102 0.18084626 0.022064794
000070 91 05 23 3e a7 a2 e6 3d 01 7b c0 3d 3c 42 d3 3d
       0.15920092 0.11261492 0.09398461 0.103153676
000080 33 19 a4 bb e4 80 4a 3e dd ab c6 bd 33 c7 02 ba
       -0.005007887 0.1977573 -0.09700749 -0.00049887894
000090 f6 f9 10 3d fc bb a2 bd da 8f 65 bd 16 aa 33 3e
       0.03539463 -0.079460114 -0.05604539 0.17545351
0000a0 0d 98 da bd 88 56 11 be 4e cf 61 bc 86 f5 0a bc
       -0.10673533 -0.14193165 -0.013782335 -0.008481389
0000b0 98 ee f6 3d c4 64 27 3e 25 c4 01 3d f9 78 c9 bd
       0.12057227 0.16347033 0.0316812 -0.09837527
0000c0 ac 59 28 3d e8 82 de 3b 85 11 ad 3d 6c 6d 29 be
       0.041101143 0.0067905076 0.08450607 -0.16545647
0000d0 60 ac 84 bd 92 89 27 bc d0 bb 8c bc 10 a7 01 3e
       -0.064781904 -0.01022567 -0.0171794 0.12661386
0000e0 08 c0 2e be f7 5f 32 3e c8 79 ba bd 5e b2 b9 bd
       -0.17065442 0.1741942 -0.09105259 -0.09067224
0000f0 61 ba 38 3e 4a e5 a3 bd f1 2b c1 3d e3 b4 0c be
       0.18039848 -0.08002718 0.09432209 -0.13740878
000100 09 b7 b6 bd 5d 9b 87 bd a9 1b ea 3d 37 fa 2b 3e
       -0.0892163 -0.0662143 0.11431057 0.16794668
000110 8b 92 13 3e a5 20 1e be 79 8b 60 be 91 e0 06 3e
       0.1441137 -0.1544214 -0.21928205 0.13171603
000120 5c 30 7f 3d d5 c3 d8 3d 16 b3 c8 3c 06 43 1d 3e
       0.06230198 0.10584227 0.024499457 0.15357599
000130 59 2e 70 3c 69 6a cc bd fa f7 08 be 7b a4 a9 bd
       0.014659488 -0.099812336 -0.13375846 -0.08283325
000140 8a 6b ad 3d c8 5e 38 bd cb 18 0a 3e cb 7e 87 bd
       0.08467777 -0.045012265 0.1348602 -0.06615981
000150 fa b3 89 3d 16 2b 2e be 00 4f 51 ba de 0a bc bd
       0.06723781 -0.17008623 -0.0007984489 -0.0918176
000160 00 dd 12 ba fa 12 2d bd 45 db ec bc e3 85 11 bd
       -0.00056023896 -0.042254426 -0.02891315 -0.035528075
000170 3d 3b 13 be 53 d1 2c be 88 90 fb 3c 6c ea c5 bd
       -0.14378066 -0.16876726 0.030708566 -0.09663853
000180 34 20 19 3d e1 20 a6 bd 1f 89 03 3e b0 e4 34 3d
       0.037384227 -0.0811174 0.12845276 0.044163406
000190 7f 38 b4 bd aa f9 c4 bd 09 39 a4 bc cb 33 37 3e
       -0.08799838 -0.09617932 -0.020046728 0.17890851
0001a0 60 cd 07 3e e3 2e 10 bc 1c dc 2d bc d4 8c 04 bd
       0.13261938 -0.008800241 -0.01061156 -0.032360867
0001b0 a4 f4 da 3c 03 6f 07 be a0 d1 74 3d ed 5d 72 3d
       0.026727982 -0.13225941 0.059770226 0.059171606
0001c0 30 34 ae 38 fc c6 dd 3d 5d a3 bb 3c 3a b6 c3 bd
       8.306687e-05 0.10828969 0.022905046 -0.09556241
0001d0 e3 8f 3c 3c 1d 79 09 be 16 4c 5a bb 74 ea 11 bd
       0.011508915 -0.13425107 -0.003330951 -0.035623983
0001e0 10 5a 20 3e 16 4e af bc 56 44 18 bd 4b 42 8e bd
       0.15659356 -0.021399539 -0.037174545 -0.06946238
0001f0 2c 80 00 bd a7 fb 03 3e 57 49 65 3d 77 99 21 3e
       -0.031372234 0.12888967 0.055978145 0.15781198

fc1.weight f4 [16, 32]
000000 76 c0 a4 bd 96 48 4d bc ab 13 1e be 0a bb 80 3d
       -0.080445215 -0.012529513 -0.1543719 0.06285675
000010 b2 f1 02 be bf 9b 75 3d 74 85 05 3e 2c db b6 bd
       -0.12787512 0.059962984 0.1303919 -0.089285225
000020 51 94 0d bd e4 07 a8 bb 77 01 6c bc 4c 75 14 be
       -0.034565274 -0.0051278938 -0.014404646 -0.1449787
000030 f8 bb ac 3d 9b c7 15 be ca a6 68 3d 69 31 15 3e
       0.0843429 -0.14626925 0.056799687 0.1456963
000040 f2 92 39 be 9a 3f e7 3c 4c 6d db bd 88 18 2a 3e
       -0.18122461 0.02822857 -0.10714206 0.1661092
000050 b1 5a 41 3e a3 60 91 3d ac 1a 01 3e f1 28 17 bd
       0.18882252 0.0709851 0.12607831 -0.03690428
000060 ea 0e 53 bb b4 80 40 3e 29 de 59 3d bf 00 e8 3d
       -0.0032204934 0.18799096 0.053190384 0.11328267
000070 0a c2 7b 3d 1c 9d f4 bc 13 2c a7 bd 74 7c 41 be
       0.061464347 -0.029860072 -0.08162703 -0.18895131
000080 6c 24 04 be 2e c5 a6 3d 25 a1 d6 bd 80 0a 47 3b
       -0.12904519 0.08143078 -0.10479955 0.0030371249
000090 20 7b 1c be e8 23 95 bc ee 3d be 3d eb 80 18 3e
       -0.15281343 -0.018205598 0.09289156 0.14892928
0000a0 30 1f 1a be c8 fa 8c bc ca fb 2e be 1d e9 cc bd
       -0.1505096 -0.017209426 -0.17088237 -0.100054
0000b0 9a 39 a3 3d 55 cc 89 bd b3 cd 11 3e ae af b3 3d
       0.07969971 -0.06728426 0.14238624 0.087737426
0000c0 40 06 08 3d e0 f5 cf bb eb e4 08 3e 86 93 14 be
       0.033209085 -0.0063464493 0.13368575 -0.145094
0000d0 4a e7 1f be cc 90 10 3d 10 63 20 3d 25 aa 16 3e
       -0.15615574 0.03529434 0.039156973 0.14713342
0000e0 0a 72 a2 3d 88 a6 f5 bd 1c 37 6d 3d 25 5f de bd
       0.079319075 -0.11994654 0.057913885 -0.10857991
0000f0 68 1e 25 bd d3 b3 29 3e 07 6c 92 bd 2c e2 62 bd
       -0.0403122 0.16572504 -0.07149511 -0.055391476
000100 f7 1b e7 bd 11 3d 82 bd 7f 40 1d 3e 7f 84 2c be
       -0.11284631 -0.06359304 0.15356635 -0.16847418
000110 56 28 e3 3d 43 c3 08 3e 5b 07 26 3e f0 2f 33 bd
       0.11091678 0.13355736 0.16213743 -0.04374689
000120 7b 6f 14 be 10 95 24 3d 11 ab 18 be 48 c9 78 bd
       -0.14495651 0.04018122 -0.14909007 -0.06073883
000130 c2 b0 bf 3d 80 45 85 3d 33 b1 1b be 14 92 20 bd
       0.09359886 0.06507397 -0.15204315 -0.03920181
000140 0b 22 c3 bd ba c1 9d 3d 61 2c 33 3e fa 56 e8 3d
       -0.095279776 0.07702966 0.17497398 0.113447145
000150 50 52 b7 bd 34 75 29 3d 1e ea 04 be 02 4c c2 3d
       -0.08951247 0.04137154 -0.12979934 0.094871536
000160 5a 27 f6 3d 2c 91 08 be 08 6d 03 bd 18 da 95 bc
       0.120192245 -0.13336629 -0.032086402 -0.018292472
000170 e6 98 be 3d 4d b9 90 bd 48 cd 31 3d 1e 16 93 3d
       0.09306507 -0.07066593 0.043408662 0.07181953
000180 e0 86 5b 3d f8 80 45 3e 64 ec 5c 3e 25 9a 60 3e
       0.053595424 0.19287479 0.21574551 0.21933801
000190 29 64 db 3d 0f c2 de bc 89 ba d9 bd f3 00 c9 3c
       0.107124634 -0.027192144 -0.10631282 0.024536585
0001a0 3b da 71 bd d4 a6 39 3e 2c 4e 8f 3c d2 01 14 be
       -0.05904601 0.18130046 0.01749333 -0.1445382
0001b0 ad 41 05 bd 69 3e 4b 3e fd 99 b5 bd cf 3f 9b 3d
       -0.032533336 0.19848026 -0.088672616 0.0758053
0001c0 c2 27 67 3e 31 71 4c be 7d cf 6b 3e 2f d0 22 be
       0.2257376 -0.19965054 0.23028369 -0.15899728
0001d0 9d f3 25 be 07 fb 0c be a6 04 1c be 86 dc 14 be
       -0.16206212 -0.13767634 -0.15236148 -0.14537248
0001e0 3c 85 cc 3d 23 05 e6 3c 98 67 c6 3d f0 60 04 3e
       0.0998635 0.028078621 0.09687728 0.12927604
0001f0 47 4d 25 3e b4 b8 26 be 95 c8 99 3d b6 9f 2f 3e
       0.1614276 -0.16281396 0.07508961 0.17150769
000200 04 d1 70 be 97 1f 81 bd ee 6c a4 3d 8a f3 58 3e
       -0.23517233 -0.063048534 0.08028589 0.21186653
000210 52 33 78 3b 6e d6 7e 3d 34 6e 49 3d 41 45 c7 3d
       0.0037872386 0.062216215 0.049177364 0.09730006
000220 93 b4 df bd df ed c9 bd 67 77 e5 bd a5 d8 53 be
       -0.10923114 -0.098598234 -0.11204415 -0.20688112
000230 bb 1d 44 be fc d7 36 3e e8 6d 4a be 69 79 91 3d
       -0.19151966 0.17855829 -0.19768488 0.07103235
000240 d0 1c 04 3d 62 87 d6 bd 17 aa 07 3e ef 1f a1 bc
       0.03225404 -0.10475041 0.13248478 -0.019668547
000250 5e 2b 0b bd 4f 1e 27 3d 40 e7 1d be f1 fc ba bd
       -0.033976905 0.04080039 -0.15420246 -0.09130276
000260 68 0a 29 3d 56 a5 28 be 2a c4 2b be a7 e7 c6 bd
       0.04126969 -0.1646932 -0.1677405 -0.09712153
000270 45 d2 9f 3d 75 ee ff bd c6 aa 0c be cb 12 f4 3d
       0.078037776 -0.12496654 -0.1373702 0.11917647
000280 3b 62 26 3e b9 78 c0 bd fe 2b c1 3d a6 e1 fe bd
       0.1624841 -0.09398026 0.09432219 -0.12445383
000290 69 d6 a8 bd 98 e2 a0 3c a8 fd 4d bd 46 97 5b bd
       -0.082440205 0.019639298 -0.050290734 -0.053611062
0002a0 59 8c dd bd 00 44 89 3d ff 51 15 3e 80 69 f0 3b
       -0.10817785 0.06702423 0.1458206 0.0073367953
0002b0 8c 89 61 bd 80 90 1a bd b2 a1 f7 3d c9 41 0d 3e
       -0.055062816 -0.037735462 0.12091388 0.13794626
0002c0 67 e9 a6 bd 3a 92 da 3d e0 7a 9f bd d0 2d 1c bd
       -0.08149987 0.10672422 -0.077871084 -0.038129628
0002d0 ab 51 27 be 60 17 af bc 6a 7e 04 be 08 37 8f 3d
       -0.16339748 -0.02137345 -0.12938848 0.06992918
0002e0 1f 21 1c be 10 52 ba bc 81 29 16 3e 96 48 31 be
       -0.1524701 -0.022744209 0.1466427 -0.17312846
0002f0 d5 df 2a 3e 30 6b 67 bc b6 8e ad bd 72 6d 9e bd
       0.16686948 -0.014124677 -0.084744856 -0.07735719
000300 c7 24 d1 bd 2a 9b 79 bd a2 ee d8 3d d4 af 0f bd
       -0.10212093 -0.06093899 0.105923906 -0.035079792
000310 50 4e 56 3d e2 fb 9d 3d 00 b2 fd 3c 29 ab 14 3e
       0.05232078 0.077140585 0.030968666 0.14518417
000320 52 f2 d7 3d f6 a4 6b bd 87 26 27 3e 3a eb f4 3d
       0.10544266 -0.057530366 0.16323291 0.119589284
000330 a2 e5 27 be e0 38 81 3b f3 93 27 3e 2f b1 87 bd
       -0.16396192 0.0039435476 0.16365032 -0.06625592
000340 31 ae 1b 3e 82 8e c9 3d e8 98 e7 bc f4 81 95 3d
       0.15203167 0.09841634 -0.028271154 0.07300177
000350 16 5d b6 3d 1d 64 1f 3e fc 67 29 3d 62 04 55 bd
       0.089044735 0.15565534 0.041358933 -0.052006133
000360 00 69 31 bd 36 07 cb 3d 30 dc 82 3c ac de 30 3d
       -0.043313026 0.09913485 0.015974134 0.043181106
000370 91 4a 0b be 90 25 18 3d 0f c4 0b 3e d1 66 12 3e
       -0.13602664 0.037145197 0.13649009 0.14297034
000380 36 69 21 3d 69 92 66 3e 8a 7d 10 bd 8e f2 3a 3e
       0.039406978 0.22516789 -0.035275973 0.1825659
000390 31 56 09 3e 07 78 3b 3e 64 8c da bd 09 48 88 3c
       0.13411786 0.18307506 -0.10671309 0.016635912
0003a0 0b 38 2f 3c 07 3b 90 3d 12 2a 2a 3e d2 b7 c1 bc
       0.010694514 0.070425086 0.16617611 -0.023647223
0003b0 1b 62 e4 bd c5 3d b5 bd ac 1b d0 3d 90 19 da bd
       -0.11151525 -0.08849672 0.10161528 -0.10649407
0003c0 15 25 a3 bc 64 b0 7b bd c3 89 39 3e 9e b6 d2 bd
       -0.019915143 -0.061447516 0.18118958 -0.10288738
0003d0 ed fb 2c bd 51 eb d3 3d 2a f0 54 bc 12 cd 9e 3d
       -0.042232443 0.103476174 -0.012996713 0.07753958
0003e0 5d 7b 9c bc 16 65 60 be 04 72 64 be 63 fb 13 3e
       -0.019101793 -0.21913561 -0.22309119 0.14451365
0003f0 6b 8e c5 3d 27 ee ab bd 31 a5 6b be d4 5c 2a 3e
       0.09646305 -0.08395033 -0.23012234 0.16636974

fc1.bias f4 [16]
000000 a9 92 97 3d 6e e0 ef 3d bc 46 22 be 9d 88 1e 3e
       0.0740102 0.117127284 -0.15847296 0.15481801
000010 30 50 f5 bc 13 01 0d 3e a1 b0 ba bd ce c4 db 3d
       -0.029945463 0.13769941 -0.091157205 0.10730897
000020 c5 a8 d8 bd 4d 43 71 3d 0d a8 fe 3d 2e 26 3b 3e
       -0.10579065 0.058902074 0.12434397 0.18276283
000030 b8 37 16 be 94 56 2d bd fd c9 9b bd e5 a5 00 bd
       -0.14669693 -0.042318895 -0.076068856 -0.03140821

out.weight f4 [1, 16]
000000 38 b0 ab bd d8 d5 1f 3e 6a 6b 3c 3e 55 12 25 3e
       -0.083832204 0.15608919 0.1840035 0.16120274
000010 da 84 54 3e 4c f9 10 3e 1c 60 32 be f9 78 ab 3d
       0.20753804 0.14157599 -0.17419475 0.08372683
000020 1c bc 58 3e ff 03 00 be 6c 6a ce bd 9f 5e 1f 3d
       0.21165508 -0.12501524 -0.10078892 0.038908597
000030 58 41 59 be 30 09 8f bd a5 b2 4f 3e 4f 93 9d 3b
       -0.21216333 -0.06984174 0.20282991 0.0048088203
