artifacts/territory/lstm/992__1005__1006/model.pt (torch, 23217 bytes, 7 tensors)

lstm.weight_ih_l0 f4 [128, 1]
000000 59 7e 25 bd 04 8c 7f bc 35 fe c1 3d 54 6c 15 3e
       -0.040403698 -0.015597347 0.09472314 0.14592105
000010 ef 70 e2 bd 66 30 15 3e bc 89 4d 3b 28 2d 7c bd
       -0.110566966 0.14569244 0.0031362614 -0.0615665
000020 ad 38 4a 3d 0c fb 71 3d db f6 d3 bd d4 c6 c4 bd
       0.049370456 0.059077308 -0.10349818 -0.09608236
000030 0e 65 2e be 30 ae bb bd 2e c9 3b 3e fa 6f 85 3d
       -0.17030737 -0.09164083 0.18338463 0.065154985
000040 fa 16 b8 bc ac 80 df 3d 31 01 be 3c 94 c5 05 3e
       -0.022471894 0.10913214 0.023193927 0.13063651
000050 d5 c3 9b bd 54 21 3b 3d 32 55 32 bd 20 2f 70 bd
       -0.07605711 0.04568608 -0.04353828 -0.058638692
000060 ce e8 00 be 68 6b 19 be bd bb 9e bd 38 3c 23 3e
       -0.12588808 -0.14982378 -0.07750652 0.1594094
000070 0f 55 e9 bd d0 d6 1d 3e de 70 08 3e 2b c3 a8 3d
       -0.11393177 0.15413976 0.13324305 0.0824035
000080 0a 55 b3 bd 9b f7 26 3e 31 7d c3 bc 68 5a 05 3e
       -0.08756454 0.16305391 -0.023863407 0.13022768
000090 e5 9e 2d bd 89 5b 2a 3e c2 9b ad 3d 52 c4 20 be
       -0.04238786 0.1663648 0.08476974 -0.1569989
0000a0 46 04 cf 3d 92 01 8d bc 76 67 94 3d 49 53 cb bd
       0.10108237 -0.017212663 0.07246296 -0.09927995
0000b0 73 e3 be bd 6f ee 87 3d 91 25 f3 bd 85 9a 83 3d
       -0.09320726 0.066372745 -0.118723996 0.06425957
0000c0 67 16 21 be 95 16 09 3e ed 3c af 3d 64 10 1f be
       -0.15731202 0.1338752 0.085565425 -0.15533596
0000d0 71 2d f4 3d e2 36 37 bc c7 04 02 be ff 34 d5 3d
       0.1192273 -0.011182519 -0.12697135 0.10410499
0000e0 8c 14 48 3c 5e dc a6 3d 03 34 43 3d 4c f5 0c 3e
       0.01221193 0.081475005 0.047657024 0.13765448
0000f0 47 f3 27 bb 35 b8 0c be 06 b8 01 3e 2a e0 c5 bd
       -0.0025627182 -0.13742144 0.12667856 -0.096618965
000100 7e 01 bc bd 7b fa 44 bd 4d a7 16 3e 79 76 dd 3d
       -0.09179972 -0.04809044 0.14712258 0.108136125
000110 60 9c c9 3c ac 67 19 be 90 be 93 3d 2b 92 80 bc
       0.024610698 -0.14980954 0.07214081 -0.015694698
000120 fb 4b 01 3d e0 57 13 bc 99 2a fa 3d 35 da d9 3d
       0.0315666 -0.008993119 0.12215156 0.10637323
000130 41 c5 01 3e a0 ac 18 be 52 44 f9 bc bd 51 12 bc
       0.12672903 -0.14909601 -0.030428085 -0.008930621
000140 10 93 0f 3e 02 0a ef bc e6 01 00 3e 91 a2 f9 bd
       0.14020944 -0.029179577 0.12500724 -0.1218921
000150 5b 36 21 3d 97 58 37 3d fa 5a 1b 3b 8f dc 13 be
       0.039358478 0.04476222 0.002370535 -0.14439605
000160 3a 06 0a 3e 4a 1c c7 3d 4b 0c 2a 3e 5b f3 f8 bd
       0.13478938 0.097221926 0.16606252 -0.12155791
000170 13 40 5e 3c 60 60 ad bd e4 2f b4 3a be b4 f3 3d
       0.013565081 -0.08465648 0.0013747183 0.11899708
000180 12 e4 12 be 0f 43 3f 3e 3a cc 1f bd 87 1a 26 3d
       -0.14344814 0.18677925 -0.039013125 0.040552642
000190 54 6c 00 3e 8e 34 d1 3d e8 0b 23 3e fe a2 c6 3d
       0.12541324 0.10215102 0.1592251 0.09699057
0001a0 8a 60 09 bd 68 42 ca bd 85 dd b9 3c 63 0e cb 3d
       -0.033539332 -0.09875947 0.022688637 0.099148534
0001b0 53 d4 3c bd ca ae be bd 07 67 ef bc 89 d3 d6 3c
       -0.046100926 -0.09310682 -0.029223932 0.026223915
0001c0 98 06 93 bc 68 4a d6 bd 46 6e 15 3e 7a 0e 19 3e
       -0.01794748 -0.104634106 0.14592847 0.14946929
0001d0 b7 01 80 bd 85 2a 46 bd 96 d5 c6 bc 95 d2 34 3c
       -0.06250327 -0.048380394 -0.024271768 0.011036535
0001e0 3b 64 63 bd 03 1f 21 be 82 31 d2 bd 53 a0 ce 3d
       -0.05551551 -0.15734486 -0.10263349 0.10089173
0001f0 3b 42 57 bc 3d da ec 3d 21 79 29 3c 76 6e d7 3d
       -0.013138349 0.11565063 0.010343821 0.105191156

lstm.weight_hh_l0 f4 [128, 32]
000000 92 f7 e0 3d 20 c7 f1 3d 73 11 e1 3d a8 50 38 3e
       0.1098472 0.11805558 0.10989656 0.17999518
000010 10 e0 df bd 08 52 a7 3d 1f 2a 5a bd c4 e2 a6 3d
       -0.109314084 0.08169943 -0.053262826 0.08148721
000020 d1 53 8c bd ce f0 5d 3d 48 ed 08 3d 82 36 65 bd
       -0.06851924 0.054184727 0.033429414 -0.055960186
000030 32 38 fa 3d 04 21 78 bd db 5c 80 3d fa d2 a8 3c
       0.1221775 -0.06057836 0.06267711 0.020608414
000040 5a 6d a6 3d f1 0a 8a bd 05 8c 2c ba bb b1 1b 3e
       0.08126326 -0.06740368 -0.0006582144 0.15204518
000050 5b 13 1a 3e b7 f3 e8 3c dc 57 c5 bc b1 e5 04 3e
       0.15046446 0.028436525 -0.024089746 0.12978245
000060 37 e7 01 3e fa 99 78 bd f0 fe 78 3c 1c e4 fc 3d
       0.12685858 -0.06069372 0.015197501 0.12348196
000070 e9 3e a6 bd 17 00 28 3d e3 a6 d5 bd 79 98 b5 bd
       -0.08117468 0.04101571 -0.10432222 -0.088669725
000080 e0 49 a4 bd 1a 87 d3 3d 45 83 5e 3e 2d 71 30 3e
       -0.08021903 0.10328503 0.21729763 0.17230673
000090 6a cd b5 3c 88 b9 be bc 55 f2 64 3e 09 ef 30 3d
       0.022192676 -0.023281828 0.22358067 0.04319671
0000a0 73 ea dc 3d 54 a1 a4 3d 6d f9 9b 3b b2 1a c1 3d
       0.10786905 0.080385834 0.0047599585 0.0942892
0000b0 25 ef 00 be 79 46 93 3a ca 35 1f be 61 10 98 3d
       -0.12591226 0.0011236212 -0.15547863 0.07424999
0000c0 20 f5 90 3d bf bf e8 3d 73 ce 2f 3e cc 8c b9 ba
       0.07078004 0.11364698 0.17168598 -0.0014156341
0000d0 35 f7 85 3d 64 26 95 3c bf f6 13 3d 98 ec 13 3d
       0.065412916 0.018206783 0.036123987 0.036114305
0000e0 25 47 01 bc 37 e4 15 bd ea f4 c9 3d 77 a4 6b be
       -0.007890497 -0.036594596 0.09861167 -0.23011957
0000f0 58 69 da 3d c5 d8 78 3b c0 ad 85 bd 52 a3 19 3e
       0.10664624 0.0037971002 -0.06527281 0.15003708
000100 be 60 1e 3b 54 dd 2c be 56 88 07 3c 12 ac 09 3e
       0.002416655 -0.16881305 0.008272251 0.13444546
000110 00 20 2e be ac ba d0 3d 7e 86 18 bd 12 8e ba 3d
       -0.17004395 0.10191855 -0.037237637 0.09109129
000120 85 7e 5f 3d 58 ca 7c 3d 05 76 7f bc 1c 50 43 3c
       0.054564018 0.061716408 -0.015592103 0.011920955
000130 06 da bc 3d 10 d9 34 be 1e ca cf 3c 0b e7 29 bc
       0.09221272 -0.17660928 0.025364932 -0.010370026
000140 a7 10 82 bd 90 48 a5 bd 7a ea ad 3c 1c 31 a2 bd
       -0.063508324 -0.08070481 0.021229971 -0.07919523
000150 73 d4 09 3e 0b df 24 3e 5c b7 7d bc 0a ba c8 3d
       0.13459949 0.16100709 -0.015485611 0.09801109
000160 92 7d d5 3d c0 42 53 bb 5a ed c7 3d c4 e9 14 be
       0.10424341 -0.003223583 0.09762068 -0.145423
000170 84 40 2d 3e 7e 53 53 be ff 96 a5 bd 3b 37 0d 3c
       0.16919142 -0.20637318 -0.08085441 0.008619125
000180 34 27 20 bd 96 13 f2 bd c8 e9 05 3e 58 17 d4 bb
       -0.039099887 -0.11820142 0.13077462 -0.0064725094
000190 61 6f d8 3d a8 60 3e be 0d 0c a0 3c b3 04 2e be
       0.10568119 -0.18591559 0.019536996 -0.1699398
0001a0 0f 50 1c be 04 65 19 3c 89 f1 12 3e 66 a6 15 be
       -0.15264915 0.009362463 0.14349951 -0.14614257
0001b0 be 0b c2 bd 1c 14 3f ba 61 1b 78 3d a7 05 6c bc
       -0.09474896 -0.00072890683 0.060572986 -0.0144056445
0001c0 51 be 93 3d 62 a2 0f be 64 62 70 3d fe 86 03 bd
       0.07214034 -0.14026788 0.058687583 -0.03211116
0001d0 3c 17 64 3d 6b ec 31 b9 95 b5 6c 3c 31 66 24 be
       0.05568622 -0.00016968108 0.014447589 -0.16054608
0001e0 54 6c 7f 3d 8d 6e a0 bd 80 52 dc 3c 68 9a 85 bc
       0.06235917 -0.07833586 0.026894808 -0.016308978
0001f0 4d 54 a3 3c 52 0a 1d 3e 94 35 08 3e 25 b1 16 3d
       0.019937659 0.15335968 0.13301688 0.036790032
000200 ef 2b 8b bd 7d da 90 3c 79 f5 3d bb 44 7d 8e 3d
       -0.06795489 0.017682308 -0.0028985424 0.06957486
000210 d6 4b d4 3d 28 3d 20 be db 9f 37 be 37 6d 06 be
       0.10366027 -0.1564833 -0.17932074 -0.131276
000220 ad ae 0b 3e 97 0e 4e bd 13 5b bf 3c 49 7f 31 3e
       0.13640852 -0.050306883 0.023358857 0.17333712
000230 ac ad 16 3d 4f 33 f9 bd a7 4a 1a 3e e9 3e 1f be
       0.03678672 -0.121679895 0.1506754 -0.15551342
000240 a1 48 e2 bd 51 23 04 be b0 89 a6 3d fd f4 7c 3d
       -0.11049009 -0.12904097 0.081317306 0.061757077
000250 b2 31 26 3e 98 36 a0 3c 5c 92 86 3d 26 ba 9b 3d
       0.16229895 0.019557282 0.065708846 0.07603864
000260 30 54 12 be 5e 86 ba bd 24 b6 24 be c4 a2 a2 bd
       -0.14289927 -0.0910766 -0.16085106 -0.07941201
000270 42 20 16 3d 77 9d 31 bd 68 56 8d bd d8 2c 14 be
       0.036651857 -0.04336306 -0.06901246 -0.14470232
000280 b8 42 61 bd 8e eb 31 bd 5b ec 83 bd ec 3b 4e bd
       -0.05499527 -0.043437533 -0.064415656 -0.050350115
000290 e4 89 75 3d b5 52 d0 bd 57 cb 15 3e 77 97 8c 3d
       0.059945956 -0.10172025 0.14628349 0.06864827
0002a0 00 5c 10 3d 32 97 0c 3e 60 73 6c 3d 38 82 08 3e
       0.035243988 0.13729551 0.057727218 0.13330925
0002b0 fd a1 19 3e 76 f9 a1 bd 0e 66 24 bc 3e 7d 7e bd
       0.150032 -0.07908909 -0.010034097 -0.06213116
0002c0 e6 ca 99 bd 12 8b cb 3d 84 5b 46 3e 44 fa ba 3c
       -0.07509403 0.09938635 0.19370848 0.022824414
0002d0 bc 35 31 bd 79 4e 27 be a6 bf 40 3d 30 e9 a6 3d
       -0.043264136 -0.16338529 0.04705777 0.08149946
0002e0 b2 06 f1 3d 27 b4 b4 bd c7 8b 2e 3e 01 84 d5 3d
       0.11768855 -0.08823424 0.17045508 0.10425568
0002f0 ba 53 10 be 8c 22 80 bd c2 1d d3 bd c6 bd d5 bd
       -0.14094439 -0.06256589 -0.1030841 -0.10436587
000300 a8 b4 6c bc 69 69 2b be 6d d3 2f 3e fb 30 37 bc
       -0.014447369 -0.1673943 0.17170496 -0.011181111
000310 ae 76 e1 bd c6 a9 c6 bd 79 24 8a bd 9c 4b 3f be
       -0.110089645 -0.097003505 -0.06745238 -0.18681186
000320 5b 32 30 3e b9 cd 09 be 40 2f 36 3c 40 05 47 3e
       0.17206709 -0.13457383 0.011119664 0.19435596
000330 eb 33 6e bb 1e 0d 73 bd 5b a7 17 bc c8 51 30 bd
       -0.0036346863 -0.05933868 -0.009256209 -0.043046743
000340 b9 e0 91 bd 9f e7 1d be 2e 51 5c bd 66 16 39 3d
       -0.071229406 -0.15420388 -0.053788356 0.045187376
000350 31 a1 c9 3c 25 42 0b be dd b2 bc bd c5 0e bc bd
       0.024612995 -0.13599451 -0.09213803 -0.091825046
000360 a9 99 d1 bb de 7c 0e be 1b 16 03 3e 8f 0f d9 bd
       -0.0063964915 -0.1391482 0.12801401 -0.10598671
000370 18 99 00 3e f3 06 37 bd 8e 55 a4 bd f6 6e 36 3e
       0.125584 -0.04468436 -0.08024131 0.17815766
000380 f4 4f 37 bc d3 d8 e6 bd db d3 01 3e 0c 7b 57 3d
       -0.011188496 -0.11271825 0.12678473 0.05260758
000390 d0 18 1d be 9e 99 9b bd 53 b2 ed 3d 53 a9 8c bd
       -0.15341496 -0.075976595 0.11606278 -0.068682335
0003a0 6d d6 ab bd dc b0 8a 3d c3 ee b6 3c 74 a2 32 be
       -0.08390508 0.067720145 0.022330647 -0.17444783
0003b0 8d 3a ba 3d 52 a3 0f 3c ea b3 11 be ce 5e 01 3e
       0.09093199 0.008766966 -0.14228788 0.12633821
0003c0 a4 19 f1 bb 22 6b f7 3d b4 6e 18 be a1 54 1c 3e
       -0.007357793 0.12080981 -0.1488598 0.15266658
0003d0 b5 01 26 3e 7a d8 8e 3d 4c ae 12 3d a3 74 d9 bd
       0.16211589 0.069748834 0.035810754 -0.1061795
0003e0 50 25 99 3d 73 17 1a 3e e0 ec c7 bd 5f f5 ac bd
       0.0747782 0.15048008 -0.09761977 -0.08445238
0003f0 05 82 79 3d 4a 3a 01 3d f0 46 50 bd 20 1d a4 bc
       0.060915012 0.03154973 -0.0508489 -0.02003342

lstm.bias_ih_l0 f4 [128]
000000 c2 c4 cd bd a0 a3 d3 3d 79 8a ee bb cf ab d4 3c
       -0.10047294 0.10333943 -0.007279691 0.025960831
000010 a3 a6 04 be 33 51 3e 3e a0 b0 07 3d e4 14 64 3d
       -0.12954192 0.18585663 0.033127427 0.055683985
000020 6a 34 12 3e ee da 35 3e ba 03 6a 3d 5f f4 e4 bc
       0.14277807 0.17759296 0.05713246 -0.027948556
000030 2d 19 82 3d 23 ec 7e 3d d7 f9 1e bd e9 63 49 bd
       0.06352458 0.062236916 -0.038812485 -0.049167547
000040 42 41 82 bd 8b e6 bd 3d 64 2e db 3c 12 f8 e1 bd
       -0.06360103 0.09272488 0.02675552 -0.11033644
000050 d4 0f e0 3d 11 3e e6 bc 0a 33 ba bc 74 6d f8 3c
       0.10940519 -0.028105767 -0.022729415 0.030325629
000060 2d 4d dd bd d3 eb 24 3e 9e a1 00 be d1 c6 c6 bd
       -0.10805736 0.16105585 -0.12561652 -0.0970589
000070 d3 fe fe 3d 2b 40 03 be 34 32 fa 3d 72 3f 0a 3e
       0.124509476 -0.12817447 0.12216607 0.13500765
000080 a3 7a 1f 3e 9c e4 67 3e d8 da 1c 3e 9b 08 bb 3c
       0.15574126 0.22645801 0.15317857 0.022831252
000090 ec e5 0a 3e d6 84 f2 bd 79 c1 84 3c 2f 98 c1 3d
       0.1356427 -0.11841743 0.016205536 0.09452855
0000a0 f0 a5 94 3d 9e 39 b6 3d 6b be 87 bc 2d 41 39 3c
       0.072582126 0.08897708 -0.01657029 0.011307043
0000b0 73 19 6d 3c 4c e4 13 be 8a 2d d6 bd 2b 17 1c be
       0.0144714 -0.14442557 -0.10457905 -0.15243213
0000c0 24 06 00 3e ab 7c de 3d 9b c7 b3 bd 33 bf 47 3d
       0.12502342 0.10863622 -0.08778306 0.048766326
0000d0 85 03 2a be a6 23 eb bd 0a 09 35 be f4 2e f3 bd
       -0.16602905 -0.11481409 -0.1767923 -0.1187419
0000e0 f4 48 06 be 75 98 28 be 86 50 5b 3c 23 12 da bd
       -0.13113767 -0.16464408 0.0133858975 -0.106479906
0000f0 b2 41 14 3d b6 08 d9 bd cb bc 2a bd e2 e7 04 3e
       0.036195464 -0.105973646 -0.041683953 0.12979081
000100 26 30 98 3c e6 59 3d bd 24 20 86 bd 72 28 75 ba
       0.018577646 -0.046228312 -0.06549099 -0.0009352035
000110 35 87 f3 3d 76 b5 17 3e ab d0 e4 bd b3 89 03 be
       0.11891023 0.14815316 -0.11172613 -0.12845497
000120 d6 8d 2d 3d f1 61 2a be 0f 5b 2d bd 3e 05 ed 3d
       0.042371593 -0.16638924 -0.04232317 0.115732655
000130 8c e9 ae bc b0 15 ca bd 8b 14 fd 3d c0 9d 12 3e
       -0.021351598 -0.09867418 0.12357434 0.1431799
000140 15 e4 8e bd 81 f0 41 bd 8c e0 04 be 2b 8c c7 3c
       -0.06977097 -0.047348503 -0.12976283 0.02435883
000150 b2 2e 26 3d b4 b7 4e be 16 57 bb bb 4a 17 16 3e
       0.040571876 -0.20187265 -0.0057171686 0.14657322
000160 d2 b2 71 3c d4 94 d1 3d 1c 24 1c 3e 07 35 23 be
       0.014752107 0.10233465 0.1524815 -0.15938197
000170 13 59 d5 bd ee a0 f3 3b b2 76 45 be 31 14 32 3d
       -0.1041738 0.007434956 -0.1928356 0.043476287
000180 e6 b0 1b 3c a6 29 b5 3c 60 b2 95 bd 1f 80 26 be
       0.009502625 0.022114586 -0.07309413 -0.16259812
000190 07 2a d8 bc 3a 78 12 3e fb 8c 36 be 7c cd 90 bd
       -0.026387228 0.14303675 -0.17827217 -0.07070443
0001a0 c7 8d 2e be f0 49 3f 3d e2 07 60 3d d2 02 7b 3b
       -0.17046271 0.04670137 0.054695018 0.0038301242
0001b0 ee d1 06 bd dd 3a 26 bd 7c dd b7 bc e4 c7 f6 3d
       -0.03291505 -0.04058348 -0.02244448 0.12049845
0001c0 a1 c5 fc 3c a4 78 cf 3d 5c 6b 0e bd 28 5f 9c 3c
       0.030855956 0.10130432 -0.034770355 0.019088343
0001d0 c6 0a fe bc 53 b0 a0 3d 5a fd 34 be 51 a6 1f 3e
       -0.031010997 0.07846131 -0.17674771 0.15590788
0001e0 5e 57 b6 bd 67 89 0c be 0f d4 69 3a 91 f0 d5 3d
       -0.08903383 -0.1372429 0.0008919844 0.10446275
0001f0 85 d0 0f 3e 27 be a9 3d fc b2 96 3d 61 c4 2e 3e
       0.14044388 0.08288222 0.07358357 0.170671

lstm.bias_hh_l0 f4 [128]
000000 94 7e b0 bd e6 bc 9c 3d 2e 38 43 3d 57 41 86 bd
       -0.08617893 0.07653217 0.047661 -0.06555431
000010 84 fa 08 3e cb 78 b5 3d bf 61 b3 bd 24 c4 81 bd
       0.13376814 0.0886093 -0.08758878 -0.06336239
000020 fe 2c d6 3d 65 e7 98 bd 22 d4 60 bd 9a 88 36 3e
       0.104578 -0.0746601 -0.054889806 0.17825547
000030 c4 10 3b 3c fc ec 50 3d 7e 1b 8f bd f2 6e 1d be
       0.011417571 0.051007256 -0.069876656 -0.15374354
000040 88 43 f5 bd 82 7d 31 3e 24 81 b3 3d 61 03 2e bc
       -0.11975771 0.17333034 0.08764866 -0.010620923
000050 30 24 db 3d d2 ea 1e be a6 6e 80 3c 4f 87 db bd
       0.107002616 -0.15519264 0.015677761 -0.107191674
000060 1d 43 1b 3e bb 4d 98 bd 97 be 08 3e 1b 1d 2b 3e
       0.1516232 -0.07436701 0.13353954 0.16710322
000070 b9 ad f5 bd c0 61 85 bc 71 99 08 be 22 51 cf 3d
       -0.119960256 -0.016281962 -0.13339783 0.10122897
000080 78 98 3b 3d 30 71 7c 3d 70 2f 81 3c 4b 4b 14 3e
       0.045799702 0.06163138 0.01576969 0.14481847
000090 ed 03 3b bd 69 67 33 3e 47 ed 48 3e 07 19 09 bd
       -0.04565804 0.17519917 0.19621764 -0.033471134
0000a0 9e 3b 4d bd 39 a9 7e bb 2d 1d 41 3e 50 0c 9a 3d
       -0.050105684 -0.0038858189 0.18858786 0.0752188
0000b0 e2 6b b1 3d 5e 01 11 bc 10 bb 25 3d 5f 28 a0 3d
       0.08663155 -0.008850424 0.0404616 0.078202
0000c0 0c fd 33 be 0e b8 27 bd 38 91 a6 bd 83 fd c9 3d
       -0.17576998 -0.040947013 -0.08133167 0.09862807
0000d0 b2 54 11 3e ac 3a 15 be aa b1 92 bb a3 a2 46 bd
       0.14192465 -0.14573163 -0.0044767456 -0.048494946
0000e0 f9 47 10 3e 34 c6 af bd e1 b0 a6 bd 68 23 dc 3d
       0.14089955 -0.08582726 -0.08139206 0.10748941
0000f0 f9 ff 3a be 89 50 35 3d 0d 36 97 3d bb 38 9d 3c
       -0.18261708 0.044266257 0.07383356 0.01919209
000100 91 9b bd bd 3d db f2 bc 11 9b 02 be ad 10 0d be
       -0.092581876 -0.029645557 -0.12754466 -0.13775893
000110 69 95 bb 3d cd 77 b7 3d 64 90 16 3d 46 9c ef 3d
       0.09159357 0.08958397 0.036758795 0.11699729
000120 cf 04 d1 bc 3c 0d 49 be d7 1c 42 3e 3c 2e 9c bd
       -0.025514988 -0.19633955 0.18956314 -0.07626006
000130 04 39 28 be f6 f8 24 bd 05 a9 01 bd 0e 55 02 3e
       -0.16428 -0.04027649 -0.03165533 0.12727758
000140 ce b9 ad bd d8 e3 c5 bd cb fc 75 3d 54 31 a2 3d
       -0.08482705 -0.09662598 0.060055535 0.07919565
000150 e1 85 f5 bc 51 83 46 3c 28 20 8f bd 1e 48 1c bd
       -0.029971065 0.012116269 -0.06988555 -0.038154714
000160 fb ea 24 3e be b9 0d 3e 0f da d4 bd 2a aa 86 3c
       0.16105263 0.13840386 -0.10393154 0.016438562
000170 e0 16 6e 3b 29 81 80 3d cf 24 e6 3d 92 17 06 3e
       0.0036329553 0.06274635 0.112374894 0.13094929
000180 08 d6 d4 3d 36 2e 11 bd 97 09 13 3d a9 cf b1 bd
       0.10392386 -0.03544446 0.035897817 -0.08682186
000190 ab 3f 08 be 6d e5 f3 bd 29 e8 f1 3d 02 90 7b 3c
       -0.13305537 -0.11908994 0.11811859 0.015354158
0001a0 7f b8 23 3e 17 07 24 be 28 95 1c bd 1a 05 41 3d
       0.15988348 -0.1601833 -0.038228184 0.047124006
0001b0 a3 00 1e be 3e d8 81 bc f0 f1 1d be ed 91 cd bc
       -0.1542993 -0.015850183 -0.15424323 -0.025093997
0001c0 c6 ad 11 be 2a 56 c9 3c 80 c5 b0 3d e1 2e 5b bc
       -0.14226446 0.024577219 0.0863142 -0.013377876
0001d0 85 94 26 be be e4 01 be 42 f7 a5 bd 0e 68 d8 bd
       -0.16267593 -0.12684914 -0.08103801 -0.10566722
0001e0 4e 2a 01 be bc 39 c6 3d c9 f2 1c 3e a7 94 1b 3d
       -0.12613794 0.09678981 0.1532699 0.037983563
0001f0 00 9b 77 bd b3 ff d9 3c df 1a fa bd 7b 9c ee 3d
       -0.060450554 0.026611185 -0.122121565 0.1165094

fc1.weight f4 [16, 32]
000000 e0 7b d0 bc b8 7d af bc d8 24 18 be 00 e3 d6 ba
       -0.025449693 -0.021422252 -0.14857805 -0.0016394556
000010 bb 4b 06 be 29 3c bd bd 70 f7 70 3c 70 9b e9 bc
       -0.13114826 -0.0923999 0.014707431 -0.028516501
000020 b2 17 98 3d 50 f5 53 bd cf ca 28 be 67 ec be bd
       0.074263945 -0.05174762 -0.16483615 -0.09322434
000030 b2 a8 9f 3d f8 d4 e4 bc b0 06 37 3d 67 54 19 3e
       0.07795848 -0.027933583 0.044684112 0.14973603
000040 a5 2a 1a be 95 d3 27 be a7 30 0f be 9e 24 e0 3d
       -0.1505533 -0.16389306 -0.13983403 0.10944484
000050 d4 cf 0f 3d 5e 72 09 be 0e 2f c7 3d f6 65 e8 3d
       0.03511031 -0.13422534 0.09725772 0.113475725
000060 00 d1 31 bd ad 80 e0 bd 4d b0 03 3e 8c f5 4c bd
       -0.04341221 -0.10962043 0.12860222 -0.05003886
000070 e2 48 de 3d ca 78 f8 3d e4 41 2d be 24 6f c9 bd
       0.10853745 0.12132414 -0.16919667 -0.098356515
000080 d2 ce 88 3d 1e 94 a3 3d c7 96 0a be 0f 84 22 be
       0.06680073 0.079872355 -0.1353408 -0.15870689
000090 e8 b6 db 3c 41 b9 0a 3e 80 57 88 3b e8 5c 12 be
       0.026820615 0.13547231 0.0041608214 -0.14293253
0000a0 ce be 19 be 50 39 31 3c 1a 66 75 bd 18 f8 01 bd
       -0.15014192 0.010816887 -0.059911825 -0.03173074
0000b0 ff 26 2c 3e b2 81 a6 3d 38 ca 02 be a4 02 60 3d
       0.16811751 0.08130206 -0.12772453 0.05469002
0000c0 c0 bf 6d bd e8 de ae bd e4 5d 0b 3d bc 25 33 bd
       -0.058044195 -0.0853861 0.034025088 -0.04373716
0000d0 b4 c4 4e bd a4 26 7d 3d ce e4 de 3d fe af da 3d
       -0.05048056 0.06180443 0.10883485 0.10678099
0000e0 7f 8b b1 bd 70 8c 35 bc ff d9 1b 3e 06 3c d1 3d
       -0.08669185 -0.011080846 0.15219878 0.10216527
0000f0 96 9b 0f be 81 67 bd bd 20 f8 93 3b cb 76 12 3e
       -0.14024195 -0.092482574 0.004515663 0.14303128
000100 69 f3 1d 3e 7d 34 a0 bd e1 28 e0 bd 95 1b 25 3d
       0.15424885 -0.07822511 -0.10945297 0.040309507
000110 25 df 14 3d 76 f3 6d bd c2 b1 9f 3d 3e ba ed bd
       0.03634562 -0.05809351 0.077975765 -0.116077885
000120 76 23 28 3d 5a bd 2f be 98 c6 ab 3d d7 4b 32 3e
       0.041049443 -0.17162076 0.08387488 0.17411743
000130 26 8b d8 3d 44 dc b3 bd 07 59 a1 bd a3 97 95 3d
       0.105734155 -0.08782247 -0.07878309 0.07304313
000140 c1 a0 cb 3b 86 2b 6c bd 33 f9 a3 bd 75 14 3f 3e
       0.0062142317 -0.057658695 -0.08006515 0.18660147
000150 26 c9 46 bd 64 cd 3d be 4b 7f c6 3d 39 b5 20 be
       -0.048531674 -0.18535382 0.09692248 -0.15694131
000160 b8 51 12 3e e9 df 8b bd 39 d2 47 bc c2 be 54 bc
       0.14288986 -0.06829817 -0.012196117 -0.012984933
000170 f1 14 1c be f7 fe d1 3d 8f a0 80 bd 24 61 e0 3c
       -0.15242364 0.10253709 -0.06280624 0.02739007
000180 df da e1 bd 08 a3 91 3c 48 c5 a6 3c 04 21 35 3d
       -0.110280745 0.017777935 0.020357743 0.04422094
000190 6e 97 d2 3d 82 c9 a6 3d 2a 90 cc 3d 4c 56 76 bd
       0.10282789 0.08143903 0.099884346 -0.060140893
0001a0 8a 50 96 bd 84 88 2c bd f0 17 db 3c 38 57 b9 3c
       -0.0733958 -0.04212238 0.026744813 0.022624597
0001b0 82 cd d8 3d 6a d9 c4 3d b4 9a 25 bd 50 24 d3 bc
       0.105860725 0.09611781 -0.04043074 -0.025774151
0001c0 72 d7 a2 3d c3 0a aa bd ce b7 d6 bd 13 3f 29 3e
       0.07951249 -0.08302834 -0.10484277 0.16527967
0001d0 85 b9 17 be 10 d8 2a 3c e8 34 0e be 5c 30 21 be
       -0.14816864 0.01042749 -0.1388737 -0.15741104
0001e0 00 f4 6b ba d8 eb 16 3d 2a 49 a7 3d 20 38 96 3b
       -0.00090008974 0.036846012 0.08168252 0.0045843273
0001f0 e1 32 06 3e 6c a1 49 3d 90 14 dd bc 75 90 08 3e
       0.13105346 0.04922621 -0.026987344 0.13336356
000200 06 74 d2 bd 86 b3 b1 bb 9c 33 c7 bd fd 8d 4a 3c
       -0.10276036 -0.005423012 -0.097266406 0.012362954
000210 12 99 03 be e2 88 b2 3d a9 0a d5 bd 80 0e 11 be
       -0.1285136 0.087175146 -0.10402424 -0.14165688
000220 ea 93 19 3d da ca 2a 3e 91 e3 41 3c 54 7c 4f 3b
       0.037494577 0.16678944 0.011834041 0.0031659799
000230 82 2d 8b bd 95 a1 d2 bd 3b f6 1a 3e 35 64 87 bd
       -0.06795789 -0.102847256 0.15132992 -0.0661091
000240 d4 ad 37 be f9 9a ff 3c 18 7a d1 bd 36 72 d9 bd
       -0.17937404 0.031201826 -0.10228366 -0.10617487
000250 59 b5 21 3e 60 de 9b bd 2a a7 75 3d 34 66 c8 3d
       0.15791835 -0.07610774 0.059973873 0.09785119
000260 e6 c1 c8 bc b8 cf e8 bc f4 76 0c be 80 d4 32 bd
       -0.02450652 -0.02841936 -0.13717252 -0.043659687
000270 bb 1a f3 3d a1 f7 29 bd 9a 93 a5 bd b4 70 ff bb
       0.11870333 -0.041495923 -0.080847934 -0.0077954177
000280 fa aa b8 3d c1 ed 4b be 87 df e6 3d 84 dc 03 3e
       0.09016986 -0.19914915 0.11273103 0.12877089
000290 c4 c0 90 3d 47 90 81 3c 75 ac 85 3b 79 ba 51 be
       0.07068017 0.015815867 0.0040793964 -0.2048129
0002a0 41 2d be 3d ba 97 a9 bd 0d f6 f9 3d d7 91 8a 3d
       0.09285975 -0.08280893 0.122051336 0.06766098
0002b0 0e 7e f8 bd 03 0b 29 be cc a1 ec bc b9 54 1f be
       -0.12133418 -0.16508107 -0.028885745 -0.15559663
0002c0 9f e5 01 bd af 02 12 be e0 ae 6a 3d 5c 1c 34 be
       -0.031713124 -0.14258836 0.05729568 -0.17588943
0002d0 ab 36 e6 3d 6e a7 2c 3d ed 03 3f bc c9 5a e4 3d
       0.11240896 0.04215186 -0.011658651 0.111501284
0002e0 dc 92 e4 3d ee 3b bf bd 88 02 f4 3c f8 6d 22 be
       0.11160824 -0.093376026 0.029786363 -0.15862262
0002f0 22 02 a7 bd e6 73 59 be 8e 15 0e 3e ab 94 09 bc
       -0.08154704 -0.21235618 0.1387541 -0.008397262
000300 4a cc f5 3d f8 cc 25 3d 72 3a b0 3d 8f 76 17 3e
       0.12001856 0.040478677 0.086048976 0.1479132
000310 09 87 2b 3e 28 ec 7f 3d b8 df a4 bc 1a 26 d6 3d
       0.1675073 0.062481076 -0.020126209 0.10456486
000320 7b 82 21 3e e6 b5 99 3d 98 91 a2 bc 26 92 85 3d
       0.1577243 0.075053975 -0.019844815 0.06522016
000330 c6 03 e3 3d 83 d7 2c 3e 93 e8 0e 3e e9 eb d2 bd
       0.11084704 0.16879086 0.13955908 -0.102989025
000340 9c 01 24 bd 10 f9 35 3d f6 c4 a2 bd 68 9b 56 3d
       -0.040040597 0.044426978 -0.079477236 0.0523943
000350 c8 c0 a1 bc 5c 3a 80 3d 8a b7 6c bd 1b 4a 24 3e
       -0.019745246 0.06261131 -0.057792224 0.16043894
000360 b0 1c 1c 3c 02 bf df 3d 00 4e 31 3c 71 64 05 3e
       0.009528324 0.10925104 0.010821819 0.13026597
000370 c3 22 b2 bd 80 58 c6 3c b6 cd d8 3d 78 01 44 3d
       -0.086980365 0.024212122 0.10586111 0.047852963
000380 20 e6 4c bd 01 22 09 3e 5c 48 5d bd 38 14 99 bc
       -0.05002415 0.13391878 -0.054024085 -0.018686399
000390 a3 fa 0d be 00 f0 3b b8 3a fd 1d be da 90 ee 3d
       -0.13865142 -4.480779e-05 -0.1542863 0.11648722
0003a0 40 21 18 bb 36 51 df 3d 44 6a 1f bd 6f 65 2d 3e
       -0.0023213178 0.10904162 -0.038919702 0.16933225
0003b0 5d 26 18 be 05 b2 e6 bd e8 db 0c be 73 67 2d 3e
       -0.14858384 -0.11264423 -0.13755763 0.16933994
0003c0 5e bd e6 3d c6 f2 a6 3d 00 1e f5 ba b8 ee e5 3c
       0.11266588 0.08151774 -0.0018700957 0.028067932
0003d0 70 e5 1b bc e0 92 6c 3d 40 1d 84 3b 94 4d 3b bd
       -0.009515151 0.05775726 0.004031807 -0.04572828
0003e0 9e 39 f8 bd c6 c8 b8 3d 20 b7 2d bc 06 45 a7 3d
       -0.121203646 0.090226695 -0.010602742 0.08167462
0003f0 d0 6a 09 bd 8a 8d b4 3d 87 56 21 3e 92 d6 5d bd
       -0.03354913 0.08816059 0.15755664 -0.05415971

fc1.bias f4 [16]
000000 cc c7 50 bd f2 44 9e 3d 11 c3 ad 3d 7f e8 fa bd
       -0.05097179 0.07727994 0.084844716 -0.12251376
000010 7b fb 82 bd 9f 12 8b bc 2b 8d 0d be b0 1b c1 bc
       -0.06395622 -0.016976653 -0.13823383 -0.023572773
000020 00 98 f0 ba 55 0a f5 3c 1a 8c 65 3e e0 04 65 3d
       -0.0018355846 0.029912153 0.22416726 0.055912852
000030 90 d2 e1 bd b2 31 1d be 40 34 0e bd 56 1c 27 3e
       -0.1102649 -0.15350989 -0.0347178 0.16319403

out.weight f4 [1, 16]
000000 62 d9 0e be de 4e 44 3e 70 6d 0e be 44 e9 65 be
       -0.13950112 0.1917071 -0.13908935 -0.22452265
000010 90 d9 40 be c7 b1 da 3d 44 fa 6d be 60 3f 24 bd
       -0.18832994 0.106784396 -0.2324 -0.0400995
000020 80 52 69 bc 05 fb 2d be 98 6d 37 3e 4a 88 13 be
       -0.014240861 -0.16990288 0.179129 -0.14407459
000030 ec b8 91 bd d8 7a 04 3e 3c 62 20 3e b1 35 49 3e
       -0.07115349 0.12937486 0.15662473 0.19649388
