artifacts/territory/lstm/370__394__0/model.pt (torch, 23217 bytes, 7 tensors)

lstm.weight_ih_l0 f4 [128, 1]
0.06818173 0.003815417 -0.18582238 0.007964054 0.112298444 0.19572136 0.10881986 -0.10675746
-0.057903606 -0.0026104324 0.10347445 -0.08279891 0.06152269 0.09486111 -0.073753774 -0.060764927
-0.030283108 0.15336765 0.03762256 0.1869445 0.037092797 0.13350752 0.10280495 -0.13279338
0.047686927 0.076033406 0.05761747 0.17455785 -0.010013132 -0.010556361 -0.012194846 0.04307174
0.0933702 0.03986948 0.11702408 0.03878987 0.00053733506 -0.054849807 0.18564877 0.11557896
-0.14270562 -0.013331813 0.1501814 -0.0292439 -0.13726963 -0.11280674 -0.025460815 0.13159586
0.05132608 -0.02371085 -0.048881058 0.09055825 0.013258104 0.013102621 0.11045515 -0.0024175087
0.091423705 0.0105218785 0.01209327 -0.063358635 -0.03550959 0.13270217 -0.16357784 -0.093480885
-0.08023022 -0.10417138 0.055565584 0.15366681 -0.022038369 -0.021343587 0.16574569 -0.1301415
0.11340408 -0.09398575 0.14763148 -0.11441007 -0.16855519 0.06293544 -0.12024608 -0.13952073
0.12772872 0.13215981 0.005794565 0.13751377 0.16908471 0.08389816 0.11614763 -0.08894923
-0.11425981 -0.01138274 -0.045740053 0.09578619 0.16047649 -0.1060513 0.083333805 -0.07633946
-0.11583833 0.21215877 -0.13961197 -0.036655504 -0.122816086 0.022731226 0.08590685 0.12266563
-0.011159649 0.007342648 -0.119559966 0.02390228 -0.050562136 0.18119673 -0.15179034 0.011320675
0.0268119 0.024384 -0.018590655 0.001632276 0.13851923 0.19108078 -0.02443472 -0.15410858
0.14822488 0.016842766 0.10914381 0.037597764 0.15475875 0.040779732 0.08508228 0.0907248
00000000: dda2 8b3d 130c 7a3b 3948 3ebe aa7b 023c
00000010: bafc e53d 2e6b 483e f2dc de3d a8a3 dabd
00000020: 552c 6dbd ca13 2bbb 6aea d33d 7a92 a9bd
00000030: 37ff 7b3d 8b46 c23d 380c 97bd a5e4 78bd
00000040: 4814 f8bc 690c 1d3e 1d1a 1a3d 616e 3f3e
00000050: 9eee 173d 32b6 083e 678b d23d fdfa 07be
00000060: 5e53 433d 67b7 9b3d 4c00 6c3d 4bbf 323e
00000070: 1f0e 24bc 96f4 2cbc e4cc 47bc fe6b 303d
00000080: e038 bf3d 2e4e 233d 52aa ef3d 20e2 1e3d
00000090: f2db 0c3a 31aa 60bd b61a 3e3e a9b4 ec3d
000000a0: 6c21 12be ad6d 5abc 27c9 193e e790 efbc
000000b0: 6990 0cbe 3807 e7bd 3393 d0bc 11c1 063e
000000c0: 4c3b 523d 423d c2bc 8137 48bd 9b76 b93d
000000d0: 8538 593c 60ac 563c 4f36 e23d 116f 1ebb
000000e0: 5a3c bb3d f563 2c3c da22 463c 2cc2 81bd
000000f0: 8172 11bd 14e3 073e f380 27be e872 bfbd
00000100: be4f a4bd ce57 d5bd bd98 633d d55a 1d3e
00000110: cf89 b4bc bfd8 aebc 3db9 293e d043 05be
00000120: 6640 e83d 9a7b c0bd b52c 173e d44f eabd
00000130: bb99 2cbe 4ce4 803d 9443 f6bd 86de 0ebe
00000140: 51cb 023e e754 073e 56e0 bd3b 69d0 0c3e
00000150: 8b24 2d3e ccd2 ab3d cfde ed3d 042b b6bd
00000160: 0c01 eabd ac7e 3abc ec59 3bbd 8d2b c43d
00000170: f353 243e 6d31 d9bd eaaa aa3d dd57 9cbd
00000180: a53c edbd 2640 593e 71f6 0ebe 1524 16bd
00000190: 0087 fbbd d636 ba3c eeef af3d 1e38 fb3d
000001a0: f6d6 36bc 999a f03b dbdb f4bd b7ce c33c
000001b0: 3e1a 4fbd a38b 393e ed6e 1bbe 5a7a 393c
000001c0: a1a4 db3c f4c0 c73c 6e4b 98bc 18f2 d53a
000001d0: fcd7 0d3e aeaa 433e 522b c8bc a4ce 1dbe
000001e0: 43c8 173e d7f9 893c ca86 df3d 1d00 1a3d
000001f0: 1479 1e3e a608 273d 9e3f ae3d edcd b93d

lstm.weight_hh_l0 f4 [128, 32]
-0.105446756 0.1315732 -0.06979552 -0.04649174 0.096028194 -0.16609307 0.050159365 0.08055191
0.14749236 0.12883608 -0.122604884 0.1224346 0.0063608233 0.034972705 -0.07732358 0.033763263
-0.08664798 0.14838734 0.07359178 0.15169643 0.046794638 -0.018304292 -0.004891294 -0.098837435
-0.07007886 0.07302331 0.09507452 -0.017953567 -0.12428546 -0.07278442 -0.12100382 -0.1809621
-0.14187244 -0.08090514 -0.13874277 0.11912681 -0.10086213 0.061427362 0.10639543 0.037783958
0.010040729 0.07505402 -0.11558145 0.10503419 -0.13550699 -0.1320323 -0.047168307 -0.15080804
0.1310158 0.17858438 -0.13362086 0.014461091 -0.12953912 -0.10358471 0.18164943 -0.04945798
-0.016989162 -0.072931215 -0.11900181 0.05991677 0.035368614 -0.17936826 0.12063544 -0.07381764
0.026697822 0.0128635345 0.071839005 -0.113923304 -0.010766879 0.06317174 -0.005599553 -0.15050577
-0.08952984 0.07136666 0.0661609 -0.10801533 0.17350766 0.10307525 -0.02577135 0.02675955
-0.015451738 -0.16270849 -0.090990365 -0.026358062 0.13226745 -0.086213306 0.13038687 -0.15799744
0.060423218 0.119505726 0.056585714 0.034330472 -0.08213171 0.05575276 -0.04520353 -0.08416196
0.07863051 -0.07669401 0.12386855 -0.13462223 0.1293293 0.11754988 -0.019742526 0.028671805
0.14982079 -0.15139857 0.0520303 -0.19892928 0.020711243 0.012994201 -0.013102568 0.08229631
-0.007589824 0.17559527 0.21495783 0.14621453 0.13441592 0.00064882525 0.1814525 0.054717008
0.087742105 -0.07594628 0.11747852 0.22379209 -0.052124105 -0.0011404094 -0.054179635 -0.21176627
0.112025455 -0.007700983 0.14060019 -0.10253247 -0.06164611 -0.016349103 0.013640976 0.10983884
-0.11752856 0.12297133 -0.12653287 -0.11708701 0.05391855 0.15451789 0.04656592 -0.13293226
-0.052668583 -0.1329461 0.15480208 -0.12342308 0.113388665 0.026042448 -0.12944336 -0.17058729
0.026788613 0.021245342 -0.10593975 0.17960154 0.16363482 0.013199453 0.123281665 -0.14542773
0.17217417 -0.15745628 0.15302847 0.14329022 0.044014696 0.0450817 0.03390619 -0.044427276
-0.1594427 0.04841392 0.11661932 -0.14165543 -0.15909107 0.018378234 0.12693863 0.15999325
0.102625094 -0.092915915 0.17771405 -0.102764964 0.16801478 0.09648542 -0.066662446 -0.0738389
-0.06499734 -0.01998657 0.13406605 0.06505528 -0.1650478 -0.16923122 -0.020584378 0.030563558
-0.14229824 0.054711 0.059671268 0.09688162 0.15133311 0.04990132 -0.12095254 0.0074753235
0.093445174 -0.09939035 -0.0818445 0.124111965 0.13411196 0.18752638 0.1608664 0.106824316
0.17284226 0.18317033 0.014818221 0.04534961 -0.09908798 -0.007197373 -0.07425941 -0.06403906
-0.14908019 -0.14758104 0.03938191 0.21369505 -0.03871237 -0.017312052 0.09462259 0.09373287
-0.19483252 -0.05583591 0.030091606 0.15754578 0.04504044 -0.22560719 -0.048894756 0.13488999
0.08808071 -0.15239465 -0.0733692 -0.1161843 0.059744798 0.0512669 0.13398609 -0.18483725
0.006456973 0.07455578 0.0007112094 0.048881102 0.19389515 -0.08498653 -0.02415388 -0.07118106
0.06226219 0.022605492 -0.21083646 -0.01738756 0.22553743 0.095286526 0.2133506 -0.13941902
00000000: 78f4 d7bd 20bb 063e f4f0 8ebd 1f6e 3ebd
00000010: 6eaa c43d 4d14 2abe e873 4d3d 66f8 a43d
00000020: 3d08 173e 9bed 033e 4518 fbbd febe fa3d
00000030: 746e d03b 8a3f 0f3d d35b 9ebd 594b 0a3d
00000040: 7f74 b1bd daf2 173e 4ab7 963d 4f56 1b3e
00000050: bcab 3f3d e2f2 95bc 2647 a0bb 486b cabd
00000060: 8185 8fbd 3f8d 953d 6eb6 c23d 5c13 93bc
00000070: 6089 febd ff0f 95bd dad0 f7bd 214e 39be
00000080: 0247 11be 98b1 a5bd 9612 0ebe c2f8 f33d
00000090: ce90 cebd 429b 7b3d d9e5 d93d 5ac3 1a3d
000000a0: df81 243c ecb5 993d f8b5 ecbd 2a1c d73d
000000b0: 58c2 0abe 7a33 07be 8e33 41bd 6c6d 1abe
000000c0: 0229 063e d3de 363e e8d3 08be 36ee 6c3c
000000d0: e7a5 04be 3824 d4bd 4f02 3a3e 7394 4abd
000000e0: db2c 8bbc f65c 95bd 39b7 f3bd 496b 753d
000000f0: aede 103d 50ac 37be b70f f73d b42d 97bd
00000100: 64b5 da3c 93c1 523c 5420 933d 9f50 e9bd
00000110: 9067 30bc 2f60 813d 757c b7bb 2f1e 1abe
00000120: 6c5b b7bd af28 923d 5e7f 873d 2437 ddbd
00000130: feab 313e 1e19 d33d 701e d3bc d836 db3c
00000140: 4929 7dbc 0e9d 26be 2859 babd ddec d7bc
00000150: 1e71 073e 9a90 b0bd 2384 053e 15ca 21be
00000160: 567e 773d 6bbf f43d 6cc6 673d 1c9e 0c3d
00000170: ac34 a8bd 025d 643d 5627 39bd 1b5d acbd
00000180: 0809 a13d c011 9dbd cbae fd3d 69da 09be
00000190: e66e 043e febd f03d 14bb a1bc 22e1 ea3c
000001a0: 9f6a 193e 3a08 1bbe b91d 553d 1eb4 4bbe
000001b0: a0aa a93c a1e5 543c 27ac 56bc f88a a83d
000001c0: 0fb4 f8bb 3fcf 333e e81d 5c3e 43b9 153e
000001d0: 54a4 093e ed15 2a3a afce 393e f11e 603d
000001e0: 22b2 b33d b989 9bbd 9498 f03d c129 653e
000001f0: 1680 55bd ca79 95ba 77eb 5dbd 42d9 58be
00000200: 9a6d e53d 8758 fcbb 7ff9 0f3e 8bfc d1bd
00000210: a280 7cbd 8eee 85bc 667e 5f3c 30f3 e03d
00000220: d0b2 f0bd 65d8 fb3d d591 01be 50cb efbd
00000230: b3d9 5c3d f039 1e3e e8bb 3e3d 651f 08be
00000240: 03bb 57bd 0623 08be 7084 1e3e 3dc5 fcbd
00000250: 5138 e83d f956 d53c cd8c 04be 6fae 2ebe
00000260: cb73 db3c b60a ae3c f1f6 d8bd 77e9 373e
00000270: e38f 273e 8542 583c 197b fc3d 02eb 14be
00000280: 6d4e 303e 383c 21be 7fb3 1c3e acba 123e
00000290: c148 343d 97a7 383d 38e1 0a3d 60f9 35bd
000002a0: f244 23be ad4d 463d 1cd6 ee3d 1f0e 11be
000002b0: c5e8 22be f38d 963c 33fc 013e 45d5 233e
000002c0: 1b2d d23d b34a bebd acfa 353e 7076 d2bd
000002d0: 110c 2c3e 269a c53d 5286 88bd d938 97bd
000002e0: 531d 85bd e0ba a3bc 9c48 093e b43b 853d
000002f0: 4a02 29be f34a 2dbe 92a0 a8bc 6d60 fa3c
00000300: a1b6 11be a418 603d dc69 743d df69 c63d
00000310: 11f7 1a3e 5465 4c3d f7b5 f7bd 8ff3 f43b
00000320: 2f60 bf3d 2b8d cbbd 179e a7bd 6a2e fe3d
00000330: a554 093e ea06 403e 29ba 243e b5c6 da3d
00000340: 90fd 303e 0191 3b3e 20c8 723c 83c0 393d
00000350: a4ee cabd f1d7 ebbb 5115 98bd e926 83bd
00000360: 7aa8 18be 7c1f 17be ed4e 213d e0d2 5a3e
00000370: dd90 1ebd 01d2 8dbc 7dc9 c13d 05f7 bf3d
00000380: 2d82 47be 32b4 64bd ac82 f63c ae53 213e
00000390: 537c 383d 9205 67be de45 48bd 9a20 0a3e
000003a0: a963 b43d 580d 1cbe 9742 96bd 09f2 edbd
000003b0: f6b6 743d 3efd 513d a633 093e fa45 3dbe
000003c0: 0495 d33b b3b0 983d 7470 3a3a 8d37 483d
000003d0: 738c 463e 6b0d aebd 5cde c5bc 60c7 91bd
000003e0: a306 7f3d 272f b93c 83e5 57be 5b70 8ebc
000003f0: 49f3 663e 9525 c33d 9478 5a3e dcc3 0ebe

lstm.bias_ih_l0 f4 [128]
-0.06473851 -0.10080322 -0.12139989 -0.121846266 -0.00093839323 0.18351024 -0.08591491 -0.0033974047
0.13450666 0.079302154 0.116900675 0.17187007 0.08475904 0.049991883 -0.03560112 0.07521575
0.016874589 -0.05760458 -0.16994677 -0.028810384 0.043569405 0.16935943 -0.06114633 0.029341402
-0.044095647 -0.13886906 0.05790808 0.1783538 -0.10293999 0.06701906 -0.007391068 0.06378338
0.06056192 0.028244104 0.03439266 0.150211 -0.017035976 -0.11056128 0.1236242 -0.002875105
-0.0011584276 -0.016392723 0.02127259 -0.07190765 0.021172883 0.026270004 -0.17574878 0.015350768
-0.035895053 -0.06634088 -0.14063106 -0.07415827 -0.016769258 -0.10980017 -0.087362155 -0.0757578
-0.06105601 0.16499099 0.16651744 0.09736857 0.08684544 0.08483492 -0.106628984 0.17567633
-0.02312274 0.02502634 -0.12872007 -0.046646953 -0.04289953 -0.08909583 0.09635563 -0.055326886
0.1564298 -0.1727823 -0.065005526 -0.17046595 0.02919069 -0.010280451 0.13466214 -0.01643607
0.02280958 0.11334182 0.056353226 0.16816477 -0.16903484 0.18429416 -0.013098625 0.013712285
0.028293876 0.105138935 0.040448863 0.16184379 0.14411555 -0.043893244 0.06882959 0.05450632
0.06283141 -0.115513 0.07316637 -0.05395224 -0.046876095 0.017738374 0.07337752 0.012498203
-0.10134331 -0.0076219644 -0.15047222 -0.10876245 -0.05815923 0.12259493 -0.03941217 -0.053818736
0.062033232 -0.022976222 -0.047613136 0.0080468105 0.09448159 0.07511509 -0.1033471 -0.023159748
-0.09468337 -0.05958701 0.034136325 -0.04615799 0.023428096 -0.09682388 0.034836717 -0.0006413104
00000000: a095 84bd eb71 cebd 81a0 f8bd 898a f9bd
00000010: 81fe 75ba 1cea 3b3e 28f4 afbd fea6 5ebb
00000020: 1dbc 093e 2b69 a23d 9f69 ef3d b5fe 2f3e
00000030: 2696 ad3d 4ac4 4c3d 7bd2 11bd b70a 9a3d
00000040: 943c 8a3c c8f2 6bbd 8706 2ebe c103 ecbc
00000050: d575 323d 8f6c 2d3e 9374 7abd 615d f03c
00000060: a39d 34bd b133 0ebe 0631 6d3d 61a2 363e
00000070: 34d2 d2bd 4a41 893d c630 f2bb dca0 823d
00000080: c70f 783d 2e60 e73c 51df 0c3d ead0 193e
00000090: 088f 8bbc f46d e2bd af2e fd3d 426c 3cbb
000000a0: 61d6 97ba 084a 86bc db43 ae3c 5144 93bd
000000b0: c172 ad3c 3134 d73c 7df7 33be ca81 7b3c
000000c0: b106 13bd badd 87bd 9701 10be 4be0 97bd
000000d0: af5f 89bc e9de e0bd eeea b2bd e826 9bbd
000000e0: de15 7abd 66f3 283e 8c83 2a3e 2c69 c73d
000000f0: 06dc b13d eebd ad3d 4c60 dabd 7fe4 333e
00000100: e76b bdbc 0a04 cd3c 32cf 03be e010 3fbd
00000110: 6bb7 2fbd e077 b6bd 1a56 c53d 729e 62bd
00000120: 222f 203e d8ed 30be 9e21 85bd a08e 2ebe
00000130: 5021 ef3c 566f 28bc dfe4 093e f0a4 86bc
00000140: 28db ba3c c21f e83d a4d2 663d 6333 2c3e
00000150: 7817 2dbe 9cb7 3c3e 9d9b 56bc 7ea9 603c
00000160: 8fc8 e73c 1553 d73d b5ad 253d 61ba 253e
00000170: 0793 133e 67c9 33bd 87f6 8c3d 0542 5f3d
00000180: c1ad 803d 1492 ecbd 40d8 953d 06fd 5cbd
00000190: 2601 40bd 1150 913c f446 963d 43c5 4c3c
000001a0: 158d cfbd acc1 f9bb 6415 1abe d9be debd
000001b0: 5f38 6ebd 0d13 fb3d a86e 21bd 0971 5cbd
000001c0: 8f16 7e3d a138 bcbc fe05 43bd c5d6 033c
000001d0: 907f c13d f1d5 993d a5a7 d3bd 83b9 bdbc
000001e0: 5be9 c1bd 8211 74bd 88d2 0b3d 2910 3dbd
000001f0: 47ec bf3c 994b c6bd f2b0 0e3d 9d1d 28ba

lstm.bias_hh_l0 f4 [128]
-0.12875964 0.16886584 0.04485999 -0.032862913 -0.0014060517 -0.062405724 0.1298746 -0.103988916
-0.1908445 0.12282945 0.098827206 -0.09632076 -0.12069938 0.13356209 -0.13685946 0.03600066
0.18752375 0.013685458 -0.19000515 -0.12663569 -0.12744564 -0.0831617 -0.10570468 0.024067746
-0.07774137 -0.054233164 0.052633233 0.12193718 0.08460202 -0.057035893 -0.053518906 0.11598751
0.01690678 -0.017767373 0.11497279 0.13402641 -0.120057255 0.14231218 -0.025273383 0.027535284
-0.13740517 -0.04492907 0.11142717 -0.0021985762 -0.011914005 -0.11295961 -0.023941657 0.1441996
0.096333355 0.08547817 0.15598747 -0.01431897 0.06579378 0.15900436 -0.03218882 -0.024397638
-0.006970361 0.19021198 0.13686302 0.07847641 0.12499652 0.010094645 0.05190363 0.18465625
0.16640535 0.073067725 -0.17514087 0.14337324 -0.015159873 -0.046057288 -0.08455865 0.089503184
0.14498886 -0.16097033 -0.06481766 0.009499618 0.021338 -0.017898025 0.12881951 0.112610236
-0.15397857 -0.035840303 -0.19118486 -0.11057904 -0.147567 0.12506083 0.06926179 0.04264966
-0.10321883 -0.08310481 -0.028501045 -0.04178026 -0.14360535 6.3265965e-05 -0.093656294 0.06598743
0.040281992 0.17142534 0.10103637 -0.034217067 0.022488479 -0.053907394 0.085231036 0.06789102
0.045719203 0.21965206 -0.042503856 0.08824047 -0.17706509 -0.026681606 0.12903666 0.18650393
0.06756389 0.1450345 -0.016630724 0.20402302 0.040609833 0.10551708 0.029642666 -0.13096943
-0.12637758 0.08171421 0.059828155 0.12562665 0.11523006 0.07145424 -0.030732282 -0.052555308
00000000: 91d9 03be 2beb 2c3e 1cbf 373d 439b 06bd
00000010: 444b b8ba 259d 7fbd d9fd 043e 24f8 d4bd
00000020: be6c 43be 028e fb3d eb65 ca3d d243 c5bd
00000030: 3d31 f7bd 80c4 083e e324 0cbe 6e75 133d
00000040: 3a06 403e f938 603c b690 42be c9ac 01be
00000050: 1c81 02be ae50 aabd b27b d8bd b929 c53c
00000060: de36 9fbd 9823 5ebd f295 573d 33ba f93d
00000070: d343 ad3d 789e 69bd a436 5bbd dc8a ed3d
00000080: 1680 8a3c e28c 91bc db76 eb3d 383e 093e
00000090: 94e0 f5bd 49ba 113e 200a cfbc ad91 e13c
000000a0: f1b3 0cbe 8b07 38bd ee33 e43d fd15 10bb
000000b0: f532 43bc 5e57 e7bd 4b21 c4bc 0fa9 133e
000000c0: 6c4a c53d 2e0f af3d 2ebb 1f3e 1d9a 6abc
000000d0: e4be 863d 0ad2 223e 6dd8 03bd 8edd c7bc
000000e0: a067 e4bb eec6 423e d225 0c3e 3db8 a03d
000000f0: 2dfe ff3d 0364 253c e798 543d 8716 3d3e
00000100: 2a66 2a3e 88a4 953d 2158 33be 6fd0 123e
00000110: 1e61 78bc 91a6 3cbd 162d adbd 724d b73d
00000120: f677 143e 68d5 24be 1fbf 84bd 49a4 1b3c
00000130: 08cd ae3c e19e 92bc 43e9 033e 32a0 e63d
00000140: 8fac 1dbe 48cd 12bd f7c5 43be 4477 e2bd
00000150: ce1b 17be f20f 003e 20d9 8d3d 69b1 2e3d
00000160: 6564 d3bd db32 aabd 067b e9bc c721 2bbd
00000170: 480d 13be a8ad 8438 dfce bfbd 6b24 873d
00000180: bbfe 243d 208a 2f3e 28ec ce3d 3227 0cbd
00000190: c239 b83c 00ce 5cbd 9c8d ae3d 720a 8b3d
000001a0: 0f44 3b3d 78ec 603e 8618 2ebd 6bb7 b43d
000001b0: 8d50 35be 6293 dabc 3022 043e e3fa 3e3e
000001c0: f05e 8a3d ed83 143e 283d 88bc 69eb 503e
000001d0: 7f56 263d 5719 d83d 2dd5 f23c da1c 06be
000001e0: 2069 01be c859 a73d 5e0e 753d 46a4 003e
000001f0: bdfd eb3d 9a56 923d 44c2 fbbc 3c44 57bd

fc1.weight f4 [16, 32]
-0.114615425 -0.07633114 0.12499373 0.14430638 0.00863718 0.12983282 -0.121568635 -0.088606656
0.014635261 0.07576495 -0.14174199 -0.14650433 -0.0048311087 -0.17719424 -0.116902 0.0029082922
-0.11753363 -0.080807924 -0.030494269 -0.04525078 -0.040922962 0.05735429 -0.050334472 0.069794
-0.029831 0.08738187 0.06493154 0.12794402 0.008309505 -0.02733894 -0.08724008 -0.1343701
0.105935186 0.045415293 -0.11333758 0.16301322 0.039834395 0.16282769 -0.015498481 0.10250896
0.0801087 -0.086281605 -0.16318077 -0.15275186 -0.014495217 0.11967391 0.03614966 0.0004441017
0.022600519 0.14706415 0.020658566 0.04160198 0.12172916 -0.010006691 0.037022468 -0.07027892
0.079502575 0.07111545 -0.02581917 -0.11805888 0.031618133 -0.07788255 -0.017754894 0.14506146
-0.01731704 0.046418913 -0.16147977 -0.059286073 -0.019389756 -0.008536967 0.1470356 -0.14008771
-0.057123184 0.08943386 0.04632212 -0.07214819 -0.09891558 0.056095738 0.0026163575 0.036684044
0.19261524 0.10248655 -0.13877279 0.17722026 0.19185083 -0.11155475 0.05030026 -0.15696685
0.030811843 0.04975439 -0.16651663 -0.085683 0.01394994 -0.13368452 0.075004965 -0.07743347
-0.035885174 -0.11198938 -0.085990034 -0.06038301 -0.16642717 -0.06505305 0.20414253 -0.09248259
0.0362094 -0.049447462 0.2279928 0.10215379 0.1273501 0.13945009 0.122504435 -0.13156585
0.04429359 -0.03305737 0.0703424 0.22315541 0.17041427 -0.060305726 0.12221293 -0.01972944
-0.22298247 -0.17301698 -0.0469091 -0.046856713 0.03836067 -0.1737878 -0.12430959 -0.0011625139
-0.054183714 0.15258266 -0.02809298 -0.08162139 0.07183342 0.13695468 0.054529354 0.09040825
0.122090176 -0.05368571 -0.02885206 0.13330166 0.00035889447 -0.16834477 -0.09132965 -0.02513136
-0.0021972805 0.06695177 -0.011617437 -0.009915739 0.029404655 -0.13628851 0.030488 -0.17309828
-0.06141647 -0.081599645 -0.15115759 -0.03275244 -0.07692103 -0.05541613 0.016259417 0.14204134
-0.029860226 0.08108218 -0.1377372 -0.01756536 -0.039289333 -0.0795516 -0.06853218 0.15702718
-0.11102075 -0.14147848 -0.0847137 0.032786656 -0.057940144 0.009189767 -0.12112601 -0.16677618
0.16727556 -0.08363533 -0.04746651 0.16032292 0.016568387 -0.016246578 0.017856244 -0.15809838
-0.020800227 0.14428063 -0.04629579 -0.13352884 0.011807358 -0.022646872 -0.16519877 0.17357844
0.104876146 0.10797186 -0.05849129 -0.04000677 0.15422918 0.07428427 -0.07010371 -0.124830976
0.06800786 0.08575843 0.052297935 0.08473049 -0.024673507 0.011903554 0.056783184 -0.12068385
-0.050589427 0.045539126 -0.12220527 -0.012955308 0.10741933 0.12132113 0.09662427 -0.00043728948
0.015370801 -0.040402323 -0.01751931 -0.031217605 -0.07408078 0.039304405 -0.09678467 0.14891033
0.04402855 -0.030563876 0.049343362 -0.143164 -0.036621436 -0.17605543 0.029165402 -0.005127102
0.05978079 0.12827529 -0.15994978 -0.12427339 0.1646664 0.010039628 0.13980712 -0.16500938
0.037389264 -0.1291546 -0.06826605 0.13686384 -0.16125858 0.063727364 0.105274454 -0.026355922
0.036403745 0.067800805 -0.08750697 -0.02829291 -0.09598822 0.008708537 -0.06180498 0.10714404
00000000: 7ebb eabd 8053 9cbd b6fc ff3d 0dc5 133e
00000010: f582 0d3c e5f2 043e faf8 f8bd 6877 b5bd
00000020: bcc8 6f3c a72a 9b3d d024 11be 3b05 16be
00000030: 474e 9ebb 6872 35be 516a efbd 0c99 3e3b
00000040: 79b5 f0bd a07e a5bd 1ecf f9bc e258 39bd
00000050: d69e 27bd 55ec 6a3d 852b 4ebd 28f0 8e3d
00000060: 2460 f4bc 44f5 b23d d4fa 843d c203 033e
00000070: 9724 083c eaf5 dfbc edaa b2bd 5198 09be
00000080: 8cf4 d83d 6305 3a3d 881d e8bd f0ec 263e
00000090: 6429 233d 4dbc 263e 57ed 7dbc 38f0 d13d
000000a0: 0810 a43d 69b4 b0bd dc18 27be fc6a 1cbe
000000b0: 597d 6dbc 9817 f53d aa11 143d 52d6 e839
000000c0: b924 b93c fc97 163e 273c a93c d666 2a3d
000000d0: 234d f93d 1bf3 23bc dfa4 173d 65ee 8fbd
000000e0: 3fd2 a23d faa4 913d b982 d3bc dbc8 f1bd
000000f0: 0482 013d e380 9fbd b672 91bc fe8a 143e
00000100: 77dc 8dbc c221 3e3d f45a 25be f4d5 72bd
00000110: 44d7 9ebc a3de 0bbc 8090 163e 2773 0fbe
00000120: 00fa 69bd 1929 b73d 43bc 3d3d 6ec2 93bd
00000130: 4094 cabd a5c4 653d 3277 2b3b 0242 163d
00000140: ee3c 453e 78e4 d13d 741a 0ebe 3a79 353e
00000150: 8b74 443e d176 e4bd a507 4e3d ebbb 20be
00000160: 1e69 fc3c 42cb 4b3d 5683 2abe 927a afbd
00000170: 4a8e 643c 98e4 08be 349c 993d 7095 9ebd
00000180: 55fc 12bd b05a e5bd 8b1b b0bd 2d54 77bd
00000190: e26b 2abe 893a 85bd bd0a 513e 8367 bdbd
000001a0: 4f50 143d 6c89 4abd f276 693e 0236 d13d
000001b0: 1168 023e 01cc 0e3e 9be3 fa3d 33b9 06be
000001c0: 326d 353d 2a67 07bd ad0f 903d da82 643e
000001d0: 1481 2e3e 2303 77bd c64a fa3d a29f a1bc
000001e0: 8455 64be 5d2b 31be c223 40bd d3ec 3fbd
000001f0: 1420 1d3d 6ef5 31be 0796 febd 7e5f 98ba
00000200: beef 5dbd a13e 1c3e 4023 e6bc 1e29 a7bd
00000210: 661d 933d d93d 0c3e 2c5a 5f3d f627 b93d
00000220: 6a0a fa3d 8ce5 5bbd 285b ecbc 3b80 083e
00000230: 002a bc39 9262 2cbe 0a0b bbbd 48e0 cdbc
00000240: 4000 10bb 021e 893d 1057 3ebc a075 22bc
00000250: 08e2 f03c 378f 0bbe f8c1 f93c ad40 31be
00000260: d68f 7bbd b71d a7bd 0ec9 1abe 6c27 06bd
00000270: c688 9dbd 06fc 62bd 7832 853c 4973 113e
00000280: 6f9d f4bc 6a0e a63d fb0a 0dbe 3be5 8fbc
00000290: daed 20bd f3eb a2bd 995a 8cbd bccb 203e
000002a0: d95e e3bd bcdf 10be 607e adbd 4d4b 063d
000002b0: a552 6dbd ad90 163c ea10 f8bd 60c7 2abe
000002c0: 494a 2b3e 0049 abbd 3e6c 42bd b12b 243e
000002d0: 6dba 873c 8b17 85bc 4247 923c 8be4 21be
000002e0: 3d65 aabc 4dbe 133e a7a0 3dbd c9bb 08be
000002f0: a673 413c ef85 b9bc de29 29be 8cbe 313e
00000300: 4ec9 d63d 5a20 dd3d 9094 6fbd 24de 23bd
00000310: 41ee 1d3e 5a22 983d 8992 8fbd 62a7 ffbd
00000320: b447 8b3d 1ea2 af3d 5c36 563d 2e87 ad3d
00000330: 1820 cabc 2007 433c 7c95 683d 1829 f7bd
00000340: dc36 4fbd 3c87 3a3d c246 fabd 8042 54bc
00000350: aafe db3d 3677 f83d f2e2 c53d 0044 e5b9
00000360: d0d5 7b3c e87c 25bd a884 8fbc 10bc ffbc
00000370: aab7 97bd a8fd 203d 0b37 c6bd f37b 183e
00000380: 4857 343d 1861 fabc 441c 4a3d 9599 12be
00000390: 5c00 16bd e047 34be 48ec ee3c 4001 a8bb
000003a0: b4dc 743d 995a 033e e0c9 23be 0c83 febd
000003b0: 4f9e 283e 407d 243c 9929 0f3e 38f8 28be
000003c0: 7c25 193d 1a41 04be 12cf 8bbd 0926 0c3e
000003d0: f820 25be 7e83 823d 229a d73d 60e8 d7bc
000003e0: 181c 153d 26db 8a3d db36 b3bd 88c6 e7bc
000003f0: 7995 c4bd 40ae 0e3c 3827 7dbd 566e db3d

fc1.bias f4 [16]
0.0892893 -0.038983908 -0.06989835 0.08334713 0.041111514 0.12123503 -0.011202365 -0.14311425
-0.16609319 -0.11201979 -0.07410515 -0.023500571 -0.004731516 -0.16302009 -0.01591061 0.14072321
00000000: 4fdd b63d 97ad 1fbd de26 8fbd e6b1 aa3d
00000010: 8c64 283d 124a f83d 208a 37bc 8b8c 12be
00000020: 5514 2abe a26a e5bd 71c4 97bd 4584 c0bc
00000030: d50a 9bbb bdee 26be f856 82bc bf19 103e

out.weight f4 [1, 16]
-0.11872392 -0.0015027542 0.041539304 0.118727095 -0.011603981 -0.104845196 0.009268701 0.08589783
-0.05484864 -0.045961823 -0.119670436 0.20163873 -0.076808445 -0.07631433 -0.23505628 0.19375393
00000000: 8725 f3bd 10f8 c4ba 1e25 2a3d 3127 f33d
00000010: a01e 3ebc 14b9 d6bd c0db 173c 34eb af3d
00000020: f8a8 60bd 7742 3cbd c615 f5bd 627a 4e3e
00000030: bf4d 9dbd b04a 9cbd 98b2 70be 6e67 463e
