artifacts/territory/lstm/107__116__1243/model.pt (torch, 23217 bytes, 7 tensors)

lstm.weight_ih_l0 f4 [128, 1]
000000 d0 66 32 be 88 38 cb bd 9c 0b c2 bd a2 60 15 3d
       -0.17422032 -0.09922892 -0.094748706 0.03646911
000010 9b 8d 4c 3b f1 01 2c be 1d fd 1d 3e ad 8c 45 bd
       0.0031212333 -0.16797616 0.15428586 -0.048229862
000020 35 69 0f 3e 8f c9 ba 3d 07 ca 8a bd 61 22 3a 3e
       0.14004977 0.091204755 -0.06776815 0.18177177
000030 05 13 66 bc d0 4c 9a bd 0e 2c 46 3c b9 49 fc bd
       -0.014042621 -0.07534182 0.012095464 -0.12318749
000040 90 e2 3a be c3 6d 47 3d 4f 07 da 3d 09 04 b5 bc
       -0.18250489 0.04868866 0.10645925 -0.02209665
000050 c5 5e 26 bc 92 ac 2c 3d e1 a4 e1 3d 3a d7 50 3c
       -0.010154431 0.042156763 0.11017776 0.0127466265
000060 a4 e8 a3 3d 07 12 74 3c e3 08 35 be 2e 2f a9 3d
       0.08003357 0.014896876 -0.17679171 0.08260952
000070 7b 63 a9 bd 9f 4a ba bc 09 73 0d 3e 7f 73 6c bd
       -0.082709275 -0.02274066 0.13813414 -0.057727333
000080 87 ec 00 bc cd e2 bb 3c fd f4 e3 bd 23 8a 09 3c
       -0.0078688925 0.022935295 -0.11130712 0.008394751
000090 f2 6d 99 3d b4 76 03 be b8 10 94 bd 43 ea 56 3d
       0.074916735 -0.1283825 -0.07229751 0.052469503
0000a0 e0 5b 0b 3e a6 0c 83 3c 24 a5 1b be d3 3d 0d bd
       0.13609266 0.015997242 -0.15199715 -0.03448279
0000b0 bb 6c 6c 3e 7e 4c 12 3e 3b 3c 5e bd 76 88 23 be
       0.23088352 0.14286992 -0.05425666 -0.15970024
0000c0 03 f4 73 bd 10 40 48 b9 dd 84 18 bc 44 89 1f be
       -0.05955888 -0.00019097351 -0.009309021 -0.15579706
0000d0 dd e0 e3 ba 37 48 b7 3d 86 96 04 be 35 2d d4 3d
       -0.001738574 0.08949321 -0.12948045 0.10360185
0000e0 6f 79 bb bd 4f a6 34 3c f6 26 bb 3d b5 78 62 3d
       -0.09154021 0.011025979 0.091382906 0.055290896
0000f0 f0 c5 5f bd 02 30 bb bd e6 96 50 3c 61 40 c8 3d
       -0.054632127 -0.09140016 0.0127312895 0.09777904
000100 92 c5 47 3d 88 ee bd 3d e2 02 cb 3d 49 8e 30 3e
       0.048772402 0.09274012 0.09912659 0.17241777
000110 d8 02 c5 bd 3e d8 59 3d 67 2e 06 3e 81 bc 0d 3e
       -0.09619683 0.05318474 0.13103639 0.1384144
000120 e2 fc 4c bd 75 2c 05 3e 54 79 6a bd 09 e2 d1 3d
       -0.050045855 0.1300524 -0.057244614 0.10248191
000130 b7 68 ba bd 43 08 22 3e 9d d7 14 bd 4b 11 2a bd
       -0.09102004 0.15823464 -0.036338437 -0.041520398
000140 04 39 28 be 87 14 ef bd d1 2f b6 bd 9b 39 f4 3d
       -0.16428 -0.11673837 -0.08895839 0.1192505
000150 82 d2 63 3d 41 95 c9 bd c2 b5 0f bc f7 87 02 be
       0.055620678 -0.09842921 -0.008771362 -0.12747179
000160 38 14 0b be 44 68 df 3d 5e 55 b6 bd df 81 8f bb
       -0.13581932 0.10908559 -0.08903001 -0.0043794955
000170 5a a4 05 be 85 29 db bd 2d 38 9d bd 24 3f 6c 3d
       -0.13050976 -0.107012786 -0.0767673 0.057677403
000180 fe a7 22 3d d2 0a 29 be 96 78 25 be 77 a4 97 3c
       0.03971099 -0.16508034 -0.16159281 0.01851104
000190 a9 e1 28 bd da 14 dc bd 1e 74 b4 3b c5 1a 27 bd
       -0.04123083 -0.107461646 0.0055070063 -0.040797014
0001a0 c5 63 0f 3e 6d 5b 9b 3c 6b 3b 9b bd 46 cd 70 bd
       0.14002903 0.018964494 -0.075796925 -0.058789514
0001b0 a3 5e b1 3c 88 25 29 bd a4 b0 2a 3e 8d 81 6d bd
       0.021651572 -0.04129556 0.16668946 -0.057984877
0001c0 04 81 0c 3e b1 11 25 3e 8c ca f7 bc d1 07 84 bc
       0.1372109 0.1612003 -0.030247949 -0.016117008
0001d0 f5 a6 4c 3e 39 32 b5 3d 78 61 cd 3d 4b 99 ce 3d
       0.19985564 0.0884747 0.10028356 0.10087832
0001e0 51 28 25 be 19 01 4c 3e 0a 8b 03 be bc 3a cf bd
       -0.1612866 0.19922294 -0.12846008 -0.101186246
0001f0 4a eb 1f be ae 6c ce bd 8b f0 11 bd 2e e0 4c 3e
       -0.156171 -0.10079323 -0.03562979 0.20007393

lstm.weight_hh_l0 f4 [128, 32]
000000 af 95 f1 3d 29 52 0c 3e f8 1b ac 3c 35 d8 ef bc
       0.11796128 0.13703217 0.02100943 -0.0292779
000010 f2 a2 eb bd 1c 56 5a 3d cd 4d 4b bc ec 2b 0c bc
       -0.11505689 0.053304777 -0.012408686 -0.008555394
000020 12 c7 07 be ad d0 25 be 98 f3 ff 3c 0c 85 f3 3d
       -0.13259533 -0.16192885 0.031244084 0.11890611
000030 59 2c 96 3d 1b 55 12 be 6a d1 e8 bd 10 e6 6e bd
       0.073326774 -0.14290278 -0.113680676 -0.058324873
000040 e9 6b ba bd de 26 e4 bb a0 a9 0d bd 99 19 01 be
       -0.091026135 -0.006962641 -0.034585595 -0.12607421
000050 fd f1 21 be 94 61 30 3e dc 99 70 bd 4e 23 de 3d
       -0.15814967 0.17224723 -0.05874048 0.108465776
000060 22 71 fc bd 9f 5f 0f be f2 1a af bd 18 fa cb 3c
       -0.12326266 -0.1400132 -0.08550061 0.024899527
000070 9a 21 dd 3d 78 e6 2e be de d9 07 3e d2 1f 2b bd
       0.107974246 -0.17080104 0.13266703 -0.041778393
000080 ff a5 01 3e 03 75 0f 3e 7e d2 f6 3d f1 9e 28 3e
       0.12660979 0.1400948 0.12051867 0.16466881
000090 70 4f b9 3d a0 9a 84 3d 9d 0a e8 3d 44 9a 0d 3e
       0.090483546 0.06474805 0.11330149 0.13828379
0000a0 23 ae 23 3e 51 e4 1a be d2 24 d4 3d f3 ac ad bd
       0.15984397 -0.15126158 0.103585854 -0.08480253
0000b0 52 a4 8c bc 1e 49 17 be b9 cb 15 be 16 7f ea bd
       -0.017168198 -0.14773986 -0.14628495 -0.11450021
0000c0 64 10 59 3d 5d 90 78 3d 8b 0b d4 3d f2 9b 24 be
       0.052994147 0.06068455 0.10353764 -0.16075113
0000d0 c0 79 e9 3d a9 1b a7 3d ad 0e 0d be b4 35 ab 3c
       0.11400175 0.08159573 -0.1377513 0.020899631
0000e0 40 57 f9 3b c6 10 2f be b0 8a 3f 3c 20 de fa 3c
       0.007609278 -0.17096242 0.0116907805 0.030623496
0000f0 5a 1b cc 3d d2 07 6c bd 64 b9 8d 3d 92 7b 2b be
       0.099661544 -0.057624646 0.06920126 -0.16746357
000100 e5 1d 33 3e 9c d8 2a be f1 2b 26 3e f5 ed 09 be
       0.17491873 -0.16684192 0.162277 -0.1346968
000110 85 4d 25 be 2c 4d 0d bd 8a d1 2f 3e 5a da 2d be
       -0.16142853 -0.034497425 0.17169777 -0.16977826
000120 cb c1 47 bd b3 dc 19 3e 6a 8d d9 3d 3f 59 f9 bd
       -0.0487688 0.15025596 0.10622676 -0.121752255
000130 ce 2a 2a 3d fd 35 d7 3d 1a c5 0b 3e 35 37 20 3e
       0.041544728 0.10508344 0.13649407 0.1564606
000140 04 d9 12 be 25 e0 6a bd e4 17 d6 3d 4f a5 7d 3c
       -0.14340597 -0.057342667 0.104537755 0.015481307
000150 4c 2e 03 be b9 a4 33 3d 04 f5 7c bd e6 df 92 bd
       -0.1281063 0.043858264 -0.061757103 -0.071716115
000160 43 4f db bd 0a c4 0b bc c0 ee 00 bb 91 70 24 3e
       -0.10708477 -0.008530626 -0.0019673556 0.16058566
000170 a3 27 20 be 58 04 07 bd 9c 8f d7 bd ab c8 66 bd
       -0.1564012 -0.032963127 -0.10525438 -0.056343716
000180 c6 32 0c be 94 3e 1d bd 94 73 26 bd dd e1 fc 3d
       -0.13691244 -0.038389757 -0.040637568 0.123477675
000190 2a 04 b3 3d 0b ec 23 3e 09 cd 24 be e3 68 ed 3c
       0.087410286 0.16008012 -0.1609384 0.028980678
0001a0 2d ca c7 3d 75 89 c1 3c 9e 7d 17 be 7f 19 15 3e
       0.09755359 0.023625115 -0.14794013 0.14560507
0001b0 20 ae 14 be 92 9d 14 be cf f5 2d 3d ea a2 da 3d
       -0.14519548 -0.14513233 0.04247075 0.10675605
0001c0 fc 4e 20 be 6c be 08 be dd e4 2c bd b2 99 c4 bd
       -0.1565513 -0.1335389 -0.04221045 -0.095996276
0001d0 91 5f 1a be f9 c1 6e bd b9 14 f4 bc 13 fe 66 bd
       -0.15075518 -0.058290455 -0.029795038 -0.056394648
0001e0 0f bc 07 3e 55 04 a0 3d 01 b1 1f 3e 37 8f 17 3e
       0.13255332 0.07813326 0.15594865 0.14800726
0001f0 d6 7b a0 3d 84 61 99 3d 33 99 ce bd 46 2d 3b 3e
       0.0783612 0.07489303 -0.10087814 0.18278989
000200 e7 5c 57 3d 86 f1 c3 3d d6 37 42 3d 8f 61 0b bd
       0.052578833 0.09567551 0.04741653 -0.034028586
000210 46 3f 7d bd 2c 98 30 be 69 51 11 be 7b f7 03 3e
       -0.06182792 -0.17245549 -0.14191212 0.12887375
000220 80 08 77 bd ca 21 21 bd dd e6 01 be e8 6a d3 bd
       -0.06031084 -0.039338864 -0.12685724 -0.10323125
000230 51 ef 15 3e 8f 7b d0 bd de 16 08 be 5d 3f 75 3c
       0.14642073 -0.10179817 -0.13289973 0.01496872
000240 80 7b c7 3d 9b 3a 42 be 3b 13 d7 3b 5a c3 1c 3e
       0.09740353 -0.18967669 0.0065635717 0.15308896
000250 20 5b 1d 3e b2 a7 3f be 01 9d 23 be 7d 95 a9 bd
       0.15366793 -0.18716314 -0.15977861 -0.08280466
000260 3c 38 34 be 71 46 f5 3d 90 b1 fc bd fb fe ec 3d
       -0.17599577 0.11976326 -0.12338555 0.11572071
000270 6f 56 34 3e ea ab b9 bd 49 bf 42 3d 45 0a 10 3e
       0.17611097 -0.09065993 0.047545705 0.14066418
000280 f3 4a a9 bd 8e 38 11 be a0 c9 df 3c 3f 06 b1 3d
       -0.082662486 -0.1418173 0.027317822 0.086437695
000290 c4 89 22 be ee 05 26 be 47 cf f8 bc ba 86 0a 3e
       -0.15872866 -0.162132 -0.030372275 0.13527957
0002a0 23 3e 1e 3e 52 13 c3 bb f5 59 80 bd 04 71 8d 3d
       0.15453391 -0.005953231 -0.06267158 0.06906322
0002b0 6e 4d a6 3d 3d e1 e8 bd f3 e5 29 3e ea f8 e3 3d
       0.08120237 -0.11371086 0.16591625 0.11131461
0002c0 d0 46 9b bd 52 0f 9d bd 15 a3 29 be 2f e2 86 3d
       -0.07581866 -0.07668938 -0.16566117 0.0658611
0002d0 66 ba 2d be ae c6 83 bc 26 07 29 3e 75 b4 87 3d
       -0.16965637 -0.016085949 0.16506633 0.06626216
0002e0 64 94 43 3d 9f 17 8f 3b 95 04 2e be 00 ae 83 3d
       0.04774894 0.0043668295 -0.16993935 0.06429672
0002f0 00 5a 41 3d 94 b0 49 bd e8 7d 6a 3d dc 15 d4 3d
       0.04720497 -0.049240664 0.05724898 0.10355732
000300 a5 04 09 3c b3 29 1f 3e 69 40 af bd ca 70 02 3d
       0.008362924 0.1554325 -0.08557207 0.031845845
000310 cc 01 cd 3d 55 8e 0b 3e 97 54 7d bd f2 8f f2 bd
       0.10010108 0.13628514 -0.06184825 -0.11843862
000320 9a 58 ee 3c 16 2b 26 3e 99 2e e0 bd 18 05 91 3c
       0.029094983 0.16227373 -0.10946388 0.017702624
000330 eb 16 df 3c 13 1c 11 3e f8 d7 f0 bd 10 76 50 bd
       0.027232608 0.14170866 -0.11759943 -0.050893843
000340 4c cb 86 3d 37 31 6b be 86 8c a3 bd fc 65 ed 3c
       0.065817446 -0.22967993 -0.07985787 0.028979294
000350 ce 92 60 bc 49 03 5b bb b4 3b 4a be 26 5c 95 bd
       -0.013706876 -0.0033418706 -0.19749337 -0.072929665
000360 b6 8d bd bd 50 af f0 bd 6f ad 21 3e d9 46 d3 3d
       -0.09255545 -0.11752188 0.15788816 0.103162475
000370 d9 7a 9e bd b1 03 12 3e 42 45 0f be 72 be 34 3e
       -0.07738275 0.1425922 -0.13991264 0.17650774
000380 d9 9b 91 3d 75 d1 44 bd 1d 4f e3 3d 7f ac 95 3d
       0.07109804 -0.048051316 0.11099074 0.07308292
000390 b9 63 52 3e 20 76 12 3e 73 76 c3 bb e1 65 51 bd
       0.20545854 0.14302874 -0.005965048 -0.05112255
0003a0 40 0a 36 3e cd 2e a5 3d 44 7a e8 3d 12 0f 45 be
       0.17777348 0.08065567 0.11351445 -0.1924403
0003b0 7f b8 3b 3e 41 58 c8 3c 79 53 a0 3d 57 5b 11 3e
       0.18332098 0.024456145 0.07828421 0.14195
0003c0 12 b0 10 3e 2e 1e 05 3d 0c 2f 86 3d d7 70 34 be
       0.14129665 0.032499485 0.06551942 -0.1762117
0003d0 7b 40 c3 3d a2 2f f7 bd e8 00 37 3e f0 e4 1a 3e
       0.09533783 -0.12069632 0.1787144 0.15126395
0003e0 36 8e a9 3d 5d 95 5f 3c 2f 55 01 bd 84 91 b2 3d
       0.08279078 0.013646451 -0.031575378 0.08719161
0003f0 cf c6 10 bd d7 c3 b5 3d 3a 39 aa 3b 09 a8 f9 3d
       -0.03534585 0.08875244 0.00519481 0.12190253

lstm.bias_ih_l0 f4 [128]
000000 a9 1b 8e 3d 3b f3 02 be 41 42 53 3d 78 2a 5c 3d
       0.069388695 -0.12788098 0.051576857 0.05375144
000010 e0 fc aa bd 4e 10 d2 3d 2a 36 c5 3d ba 8b e5 bd
       -0.08349013 0.10257016 0.096294716 -0.11208291
000020 cf ab 95 3c 78 76 f4 bd 1a 44 4a 3e 2d a7 fd bc
       0.018270401 -0.119366586 0.19752541 -0.030963505
000030 72 19 d1 3d 51 d4 cb 3d 40 ae f5 3d 71 2a 3e 3e
       0.102099314 0.099526055 0.11996126 0.18570878
000040 a6 5a 18 3e 33 28 1e 3e 62 b6 82 3d 29 55 47 bd
       0.1487833 0.15445022 0.06382443 -0.0486652
000050 6e 7d 4b 3e eb 1e da bc 58 85 20 3e be c8 f8 3d
       0.19872066 -0.026626071 0.15675867 0.121476635
000060 1f c1 a4 bd 2a 4e 50 3e ea 8f b9 3d 9b ca 0f 3e
       -0.080446474 0.20342317 0.090606526 0.14042132
000070 f8 1b 3f bd e3 ff 95 bd c2 5f 51 3d 62 df a7 bc
       -0.046657532 -0.07324197 0.051116712 -0.02049226
000080 68 64 c1 3b 01 b0 5e bd 08 59 fd ba fe ab 82 3d
       0.005901862 -0.05436707 -0.0019328902 0.06380461
000090 cc bd b5 3c e7 85 1a 3e c7 5a 59 3e fd 9e 9c 3d
       0.022185229 0.15090142 0.21226035 0.07647512
0000a0 3f 24 9e 3d 13 cc 34 bd a6 ef 56 bc 12 2b 39 bc
       0.07721757 -0.044139933 -0.01311866 -0.011301773
0000b0 96 06 31 3e 26 f5 31 be 00 1e 02 be 5d 7a 24 3e
       0.17287669 -0.17378673 -0.12706757 0.16062303
0000c0 3f 18 bf 3d a9 10 19 3e 82 52 33 3e 91 ed cf bd
       0.093307965 0.14947762 0.17511943 -0.10152734
0000d0 fd 8a 09 3e ce ed d6 bd ec bd 45 3d a7 86 88 3d
       0.13431926 -0.104945764 0.048276827 0.06666308
0000e0 a8 ba 29 bd 01 56 3b bd c6 d1 20 3e 14 f4 78 3d
       -0.041437775 -0.045736317 0.15705022 0.060779646
0000f0 02 93 a6 ba ab f6 1d be a6 a9 97 bd a1 d6 4e 3d
       -0.0012708607 -0.15426128 -0.07405405 0.050497655
000100 62 8a f5 bd 1e 15 8c 3d e4 7e 20 be b8 6f f2 bc
       -0.11989285 0.06839965 -0.15673405 -0.029594287
000110 06 88 cb 3d eb 1e 20 3d 6f 6d 9e bd c5 9c 12 be
       0.09938054 0.039091986 -0.077357166 -0.14317615
000120 ce 17 6b 3d 80 8c ef ba 86 0e 0e 3d 00 18 3a ba
       0.05739575 -0.0018276125 0.03468182 -0.0007098913
000130 9d 2f 59 3d a0 25 81 3b 31 f2 26 be c6 f1 f8 bd
       0.053023923 0.003941253 -0.16303326 -0.121554896
000140 70 b6 bd 3c a0 72 15 3e 1c f1 0f be 12 5f a3 3d
       0.023158282 0.14594507 -0.1405682 0.079771176
000150 87 d9 16 3e b6 67 0d 3d 01 8e e4 3c 64 7e 47 bd
       0.14731418 0.034522735 0.027899744 -0.04870452
000160 ce 3b 9f 3d 73 2d 1f 3e e3 5b 0f 3e a7 dd 1e be
       0.07775079 0.15544681 0.13999896 -0.15514241
000170 f0 e3 06 3d a3 fb 71 3c 4c 59 e2 bd c6 9d 93 3d
       0.032932222 0.0147694675 -0.11052188 0.07207827
000180 30 ea ef bd 49 21 21 be 08 3e 42 bd 69 42 2a 3e
       -0.117145896 -0.15735354 -0.04742244 0.16626896
000190 fc 5b b7 3d 0a a7 91 bd e8 2f d7 bd 5e 11 75 3d
       0.089530915 -0.07111938 -0.10507184 0.059831016
0001a0 b2 5c 38 bb 7a 45 4f 3e eb 50 ce 3d e9 b0 a9 3d
       -0.0028131423 0.20241347 0.10074028 0.08285696
0001b0 15 bd 0e 3e f3 1c c5 bd 35 72 9e bd 2f d7 18 be
       0.13939317 -0.09624662 -0.07736627 -0.14925836
0001c0 75 24 08 be d5 da d1 3d fc 6e 40 3e ed 03 14 bd
       -0.13295157 0.10246817 0.18792337 -0.036136556
0001d0 d2 14 4d bd c1 37 c9 bd e0 bb b3 3d a7 e3 12 be
       -0.050068684 -0.09825087 0.08776069 -0.14344655
0001e0 ac 74 ed bd 25 b2 bc bc ad 75 ac 3d 6b e8 c2 3d
       -0.11594519 -0.023034165 0.084208824 0.095169865
0001f0 05 1f 20 be 81 e7 24 bd ee 12 02 3d 11 db 05 bd
       -0.15636833 -0.04025984 0.031756334 -0.03267962

lstm.bias_hh_l0 f4 [128]
000000 15 3c b2 bc 73 da 2c 3d 95 9d 0a 3d 59 50 0a be
       -0.021757165 0.042200517 0.03384169 -0.13507213
000010 a0 d7 9a bd a7 88 24 be 9c 1e dc 3c fd c5 7d bc
       -0.075606585 -0.16067754 0.026870064 -0.015489099
000020 f2 72 2d 3e 54 ae 26 3d 33 2f b4 3d 33 13 d0 bd
       0.1693838 0.040693596 0.08798065 -0.10159912
000030 39 08 07 3e a7 3a 47 be b6 35 26 3d 25 fe 1c 3e
       0.1318673 -0.19455968 0.040578566 0.15331323
000040 81 69 a4 bd ab 5a 94 bd 8f 42 3e 3e c3 6a e8 bc
       -0.08027936 -0.07243856 0.18580078 -0.02837122
000050 7e c9 15 bb a5 f0 e2 bd f4 b1 ad ba 37 d8 bd bb
       -0.0022855694 -0.110810556 -0.0013251887 -0.005793597
000060 40 d0 14 3d c2 c4 33 3e 87 f9 6d bd 62 47 1d 3c
       0.036331415 0.17555526 -0.058099296 0.0095995385
000070 43 1b bb bd db 20 54 3e de d1 38 3d 83 80 f7 3d
       -0.09136059 0.20715658 0.04512202 0.120850585
000080 ec b1 1d be 6e ad 84 3b 7e 3a a4 bd 0a 91 0c be
       -0.15399903 0.0040489947 -0.08018969 -0.13727203
000090 30 c7 2d 3e 92 e4 5b bd 49 0d 02 bd a2 5b 52 3d
       0.16970515 -0.05368478 -0.03175095 0.05135692
0000a0 cd a1 aa bd ea 6c 16 3d 32 2e 89 3d ec ea 4f 3e
       -0.08331642 0.036724962 0.06698264 0.2030446
0000b0 a2 73 4e 3d 33 e5 ce bc b6 44 35 3d 7a 21 96 3a
       0.050403245 -0.025255775 0.04425498 0.0011454069
0000c0 d9 aa f4 bd 23 3b 9f bd 73 65 17 bd ac fb 27 be
       -0.11946649 -0.07774951 -0.036961984 -0.16404599
0000d0 c1 60 4a 3e 72 4d d5 bd 5f 1f 12 3e f3 1f ef 3d
       0.19763471 -0.10415162 0.1426978 0.11676016
0000e0 b8 04 59 3d d2 9e fb bd 1c 62 28 3e 69 93 26 be
       0.052983016 -0.12286152 0.16443676 -0.1626717
0000f0 55 d0 8e bd 48 44 4b 3c 0b c2 3a 3e 36 fc fc 3c
       -0.0697333 0.012406416 0.18238084 0.030881982
000100 25 39 f1 3d 25 e2 02 3c 1a 79 ec 3d bd 06 32 be
       0.117784776 0.007988487 0.11546536 -0.17385383
000110 d2 26 8e bd 03 7b 25 be c0 33 2b bc a0 63 cd 3c
       -0.06940998 -0.16160206 -0.01044935 0.025071919
000120 ef 03 2d be f4 55 2c bd b1 b8 b0 bd af 4d 09 3c
       -0.16896032 -0.04207416 -0.08628977 0.008380338
000130 ab 20 6d 3d 0f 60 10 3e e1 55 1a 3c bc 7d 10 3e
       0.057892483 0.14099143 0.009419889 0.14110464
000140 f0 6b 22 bd eb 22 a9 bd 72 0a 9b 3b 69 4c 8c bd
       -0.03965372 -0.08258613 0.00473147 -0.068505116
000150 30 ee 0f 3e 83 1d de 3d b5 7f ad 3d d2 4e 9b 3d
       0.14055705 0.10845473 0.08471624 0.07583393
000160 7d 5c 02 3e c3 3f f9 3c c1 90 31 3e 52 84 21 be
       0.12730594 0.030425912 0.17340375 -0.15773132
000170 30 84 03 bc ad af 24 3e 3b e9 e8 bc 4c b1 b2 bc
       -0.008027121 0.1608264 -0.028431525 -0.021813057
000180 c5 1f 2f 3d d2 91 8d 3d 94 ff 07 be ce 77 a0 3d
       0.042754907 0.06912579 -0.13281089 0.07835351
000190 0f ea 07 3e bc 59 38 3d 54 f6 ec bd db 28 16 be
       0.1327288 0.045007452 -0.11570421 -0.14664023
0001a0 6f e0 d6 3d 3a a2 2b bd 43 03 6c 3c 5f 7b c1 3c
       0.10492026 -0.04190276 0.0144050745 0.023618398
0001b0 5f 48 6e 3d ac c9 95 bd 57 09 ae bc 1f 70 bb bd
       0.058174487 -0.073138565 -0.021244688 -0.09152245
0001c0 e3 2c 23 3e 0f 94 bf 3d fa 66 f8 3d 21 bf 5e 3d
       0.15935092 0.09354412 0.12129016 0.054381493
0001d0 5d b9 45 ba 2f de 81 3d 36 42 f5 3d 48 f3 de bd
       -0.0007542575 0.06341206 0.11975519 -0.10886246
0001e0 d4 c3 a4 3b f4 f1 ab 3d 86 7b fe 3c 57 fc 94 bd
       0.0050282273 0.08395758 0.03106476 -0.072746925
0001f0 c1 62 a9 bd 09 8e 91 bd a3 0c 39 3e 9d e5 33 3e
       -0.08270789 -0.07107169 0.18071227 0.1756806

fc1.weight f4 [16, 32]
000000 c9 fa b8 bd e1 46 2c be f3 67 28 3e 1e f8 ff 3d
       -0.090322085 -0.16823913 0.16445903 0.124984965
000010 f6 d0 9c 3d 2b f0 2f 3e 5a ef 00 be c0 32 a0 3b
       0.07657044 0.1718146 -0.12591305 0.0048888624
000020 3b ba 09 3e 5f d9 9d bd d2 7d b1 3d 44 d5 0e 3d
       0.13449948 -0.07707476 0.086665764 0.034871355
000030 37 30 98 bd 12 c0 ac bd bf 32 b9 bd e0 84 07 3c
       -0.07431071 -0.08435072 -0.09042882 0.008271426
000040 b0 38 48 3d 1c 3d 4c 3d 9c a7 33 bd 7d f7 0e be
       0.048882186 0.049862966 -0.043861017 -0.13961597
000050 a0 65 57 3c 7e fc b9 bd b7 fd 0e 3e 2f 9a ae bd
       0.013146788 -0.09081362 0.13963972 -0.08525502
000060 49 ec b9 bd 2d 05 23 be 83 ca 30 be 84 9d 2b 3d
       -0.09078271 -0.15919943 -0.17264752 0.041898265
000070 22 4c ea 3d 73 46 2f 3e 7e a2 eb bd f7 87 2e 3e
       0.114403024 0.17116718 -0.11505602 0.17044054
000080 17 6f a9 3d 9a 70 e9 bd 83 fe 1b be 09 3e 85 3d
       0.08273142 -0.1139843 -0.15233807 0.06505973
000090 dd 3b 6a 3d 74 7d 1d be 2b ee 34 be f5 67 41 be
       0.057185996 -0.15379888 -0.17668979 -0.18887313
0000a0 3b 29 58 3e 52 82 47 be ca 68 d3 3d 30 b5 89 3d
       0.21109478 -0.19483307 0.10322721 0.06724012
0000b0 1e cb 80 3d 8c 8a b4 bd 09 f9 16 3d 5c bd 29 3e
       0.062887415 -0.08815488 0.036858592 0.16576141
0000c0 19 29 c2 3d 77 22 be 3c 70 85 56 bd 77 0d 15 3e
       0.09480495 0.023209793 -0.05237335 0.14555918
0000d0 7f d2 8a bd 25 09 a1 bc 40 9b a2 bd 06 e8 0a be
       -0.0677843 -0.01965768 -0.07939768 -0.13565072
0000e0 54 54 d1 bd e2 6c 3e bd af 07 b2 bd 39 26 f1 3d
       -0.102211624 -0.046490557 -0.08692872 0.117748685
0000f0 c6 67 95 bc 06 9b bd 3d 78 ee 2d 3c 68 91 83 bc
       -0.01823796 0.09258084 0.010615937 -0.016060546
000100 10 68 1d bc ea 82 b0 3d a0 76 19 bd 8e 8b e1 bd
       -0.00960733 0.0861872 -0.037466645 -0.11012946
000110 72 e5 87 3d 3b 04 14 3e 02 6a af 3d 45 5c 00 3e
       0.0663556 0.14454739 0.08565141 0.12535198
000120 d6 eb fc 3d a0 be 9b 3b 13 c7 2f 3e 80 35 17 3d
       0.1234967 0.004752949 0.17165785 0.036916256
000130 02 2f 0c be 34 5e b2 bd 01 43 1e 3e 3d 16 25 3e
       -0.13689807 -0.08709374 0.15455247 0.16121764
000140 dc ca 23 3d d9 1d 07 3e 00 91 63 3d f8 81 25 3d
       0.039988384 0.1319498 0.055558205 0.04040715
000150 ff a8 19 be e4 7b 88 3d 7a d6 ae 3d 98 89 29 3d
       -0.15005873 0.06664255 0.08537002 0.041390985
000160 70 ef 4b 3d 66 a0 11 be 34 79 4e bd 6d ee 09 3e
       0.049788892 -0.14221343 -0.050408557 0.13469858
000170 5c 83 1b be b9 a1 28 3e ba 54 f8 3d b3 5f 29 3e
       -0.15186828 0.16467942 0.12125535 0.16540413
000180 c0 23 0f bd c0 73 e0 bc 9e 39 20 3d 82 94 4e 3d
       -0.034946203 -0.027398944 0.039117448 0.050434597
000190 7f f7 c1 bc 48 ff 02 3e 6b 4b 30 3d 80 7d 8f bd
       -0.023677586 0.12792695 0.043040674 -0.07006359
0001a0 93 33 a4 bd 5a d9 16 bd d2 40 e2 3d 1f 20 fb 3c
       -0.080176495 -0.036828376 0.1104752 0.030654965
0001b0 15 f7 1b bc 17 1c a4 bd 0d c8 4c 3d 14 6c 49 bd
       -0.009519358 -0.0801317 0.04999547 -0.049175337
0001c0 21 12 e4 3d 2a 76 94 bd e8 f1 01 3d b6 d5 cd 3d
       0.1113627 -0.072491005 0.03172484 0.10050528
0001d0 9a bc 5e 3d 08 a7 96 bd 52 f9 74 3c df d8 ba 3d
       0.054379083 -0.073560774 0.014952021 0.09123396
0001e0 07 8f d5 bd 5d 6b 37 bd 22 59 2a be df ea c0 3d
       -0.10427671 -0.044780124 -0.16635564 0.09419798
0001f0 bd 6a 29 3e 98 0f 14 3e 36 60 21 bd ca de 55 be
       0.16544624 0.14459074 -0.039398395 -0.20885769
000200 6b c7 27 3e 77 d8 da 3d 8f af 01 3e de af 47 3e
       0.16384666 0.10685819 0.12664627 0.19500682
000210 5f 3d 71 3d 30 59 93 3d e9 74 19 3e 68 3a 6f bd
       0.05889642 0.071947455 0.14986004 -0.05840531
000220 34 d9 65 bd 90 3c 4e bb 57 a1 07 be e6 1f 5d 3c
       -0.056115344 -0.0031469204 -0.1324514 0.013496375
000230 ee 80 9a bd 73 7c d8 bd 70 fd 95 39 79 da b4 bd
       -0.07544123 -0.10570612 0.0002860832 -0.08830733
000240 46 4b c8 bc 98 f9 38 be 7e e9 b9 3d ea 9e 95 3c
       -0.024449956 -0.18063962 0.09077738 0.018264253
000250 2f 1c 76 bd 4a 00 16 3d bc 7d cd 3d 9a fc 56 bd
       -0.06008547 0.03662137 0.100337476 -0.052486993
000260 66 dc 54 bd 19 b0 ef bd 10 7b 40 3d 14 8c ac bd
       -0.051968 -0.1170351 0.04699236 -0.08425155
000270 eb 89 4e 3b 10 28 3d 3d 1a 61 12 3c a3 cb 56 3d
       0.003151531 0.046180785 0.008934284 0.052440297
000280 c7 24 cb bc 58 6b 72 bd 55 46 f3 3d b8 f4 46 3e
       -0.02479781 -0.059184402 0.11878649 0.1942929
000290 a1 5c 5e be f8 6f d6 3d ba 35 fa 3d ac da fd bd
       -0.21715023 0.10470575 0.12217279 -0.12395224
0002a0 2c c2 0f 3d 1a 8b b6 3d 26 b4 b1 bd c4 2d 15 3e
       0.035097286 0.0891325 -0.08676939 0.1456824
0002b0 00 3f 41 be 14 4a 6c bd 46 17 2f 3d b9 70 48 3d
       -0.18871689 -0.057687834 0.042746805 0.048935626
0002c0 8c 50 1f 3d 67 ef 1a be ed ac f2 bd 5e 77 2c bd
       0.038895175 -0.15130387 -0.11849389 -0.042106025
0002d0 48 db 19 3e 1a ee 90 3b 70 ec 8f 3c a3 ec 28 be
       0.15025055 0.004422915 0.017568797 -0.1649652
0002e0 9d db 67 bd c4 de 67 3e 91 25 46 3d 82 7a 51 be
       -0.056605924 0.22643572 0.04837567 -0.2045689
0002f0 11 34 9a 3d 6a 36 22 be 9a cc 28 be c2 db 66 3e
       0.07529462 -0.1584107 -0.164843 0.22544768
000300 9f cc a7 3c bc 22 67 3d 0e 1a 99 3d 4b e8 a9 3d
       0.020483313 0.05642961 0.07475673 0.082962595
000310 80 d4 59 3d f4 b7 1e 3d 37 6f 21 be 80 3f 87 bd
       0.05318117 0.03874965 -0.15765081 -0.066039085
000320 51 ad 18 3d b0 8d d8 bb 8b dd fd bd 06 28 d9 3d
       0.037274662 -0.0066086873 -0.123957716 0.10603337
000330 ca e4 fe 3c 89 a6 15 be 73 9b a4 3c 64 03 0a bd
       0.031114955 -0.1461431 0.020093655 -0.03369464
000340 62 f1 c5 3d a4 e8 b8 3d 3e 1f 96 3d 0e fb 18 3e
       0.09665181 0.09028748 0.07330178 0.1493952
000350 3d e1 09 3e b7 99 c9 bd 1c 0e 24 be 81 cf 08 3e
       0.13464828 -0.09843772 -0.16021007 0.13360406
000360 a0 e8 be 3c ed bf c5 bd 1a 4b ef bd b8 47 58 3d
       0.023304284 -0.096557476 -0.11684246 0.05280277
000370 0c 46 b5 bd 4c 80 6a 3d ec 99 3b 3d 1c 50 09 be
       -0.08851251 0.05725126 0.04580109 -0.13409466
000380 b8 e6 f3 3c a9 37 23 3e 95 6a 2f be 3c 7b 68 bd
       0.029773101 0.15939201 -0.17130502 -0.05675815
000390 86 1e bb 3d f8 58 d1 bd 90 ed 40 3c 84 dd 33 3d
       0.09136681 -0.102220476 0.011775389 0.043912426
0003a0 60 26 65 bd 14 3c 37 3d 0e cd fd 3d 65 0f 27 3e
       -0.0559448 0.04473503 0.12392627 0.16314466
0003b0 c8 d6 e6 3c c7 03 12 3e 80 17 33 3d 92 5c 06 be
       0.028178588 0.14259253 0.043723583 -0.1312125
0003c0 d8 88 fb bc 9d 5e 12 3e a2 b0 b8 3d 19 96 2f be
       -0.0307049 0.14293905 0.09018065 -0.17147101
0003d0 60 d7 dd bc 60 75 9a 3c 00 c2 83 bc 5c 74 a3 bd
       -0.027080238 0.018854797 -0.016083717 -0.07981178
0003e0 c2 ec bc 3d 06 51 05 be dc 0e 24 be 34 7b 8f bd
       0.092248455 -0.13019189 -0.16021293 -0.07005921
0003f0 9a 43 59 bd c0 93 86 bc 71 12 2c 3e 5a db c8 3d
       -0.053042985 -0.016427875 0.1680391 0.09807463

fc1.bias f4 [16]
000000 00 1f b7 3c 3f c2 09 3e 76 1f 92 3d b9 d1 ab 3d
       0.02235365 0.13453005 0.07134907 0.08389611
000010 89 0e 4f 3e c1 62 3c 3e d3 0b a7 bc 80 c7 82 ba
       0.20220388 0.18397047 -0.02039138 -0.0009977669
000020 d4 a6 22 3e c8 22 c6 bd 11 6b ba bd 56 25 11 be
       0.15883952 -0.09674603 -0.091024525 -0.14174399
000030 a8 bb 35 3e 68 e3 31 bd a1 50 d8 bd 71 8b 3b bd
       0.17747366 -0.043429762 -0.10562254 -0.04578728

out.weight f4 [1, 16]
000000 78 64 2f 3d cd f9 f0 bc 58 92 01 be 61 bc dc bd
       0.042820424 -0.02941599 -0.12653482 -0.10778118
000010 5c 30 2d 3e 66 88 90 3e a2 41 3d 3c 6c 7f e8 bd
       0.16912979 0.28229064 0.011551293 -0.11352429
000020 b3 9f 50 3e 84 44 5d 3e 3c 02 dc 3c 46 2c 4c be
       0.2037342 0.21608168 0.026856534 -0.19938764
000030 30 a4 89 3e 70 c3 5b bd bd 98 a9 3d 04 8c 7f 3e
       0.26883078 -0.05365318 0.08281086 0.24955755
