artifacts/territory/lstm/625__644__0/model.pt (torch, 23217 bytes, 7 tensors)

lstm.weight_ih_l0 f4 [128, 1]
-0.029506812 -0.19311589 -0.1055706 0.12283937 -0.12480498 0.12570623 -0.084550306 0.007543214
-0.007132509 0.027506417 -0.086196706 -0.04495533 -0.114983894 -0.026393915 0.10504259 0.0045408006
0.17492096 -0.053916454 -0.10624596 0.19036296 0.11190203 0.04668432 -0.1438605 0.10748345
-0.07888803 -0.0004869874 -0.112064205 -0.17628632 0.091721945 -0.1163577 -0.17705159 -0.07915329
0.11288038 -0.053406484 0.16986404 -0.07313151 -0.06913931 0.04428571 0.15202309 0.056136772
0.13459015 0.0104499 -0.07743337 -0.17670456 -0.016047971 0.0020047133 -0.103834726 0.105614424
0.13576894 -0.13997541 0.124189325 -0.06749524 0.10858628 0.02881282 -0.15653308 -0.06278762
-0.063664466 0.038848173 -0.09676961 -0.05728574 0.12066393 0.1567566 -0.17375615 -0.021361377
-0.14834157 0.11539413 0.08314426 -0.15412539 0.05677205 -0.005895063 -0.010068586 -0.1145105
0.11855912 0.15200464 0.118533336 -0.12134175 -0.019046199 -0.14301224 -0.009942684 0.048424687
0.083566844 -0.00842404 0.047487598 -0.1358676 -0.14697373 -0.17606068 0.15401511 0.05902989
0.1479978 -0.08014609 -0.1634621 -0.16240202 -0.0945219 0.15294348 0.16631569 0.14740203
0.08488733 -0.15112585 -0.026899422 -0.080517076 0.1735562 0.14072336 -0.12892276 -0.0466579
-0.112515256 0.1358043 -0.06933019 -0.093348615 0.026526645 0.15945825 -0.08722187 -0.020630863
-0.08988872 -0.1357486 0.10510158 0.11597083 -0.12457983 -0.01690397 0.11437308 -0.055927284
0.066599414 0.069257155 0.0061954153 -0.08386335 0.116722845 0.17992274 -0.1100509 0.0800682
00000000: 45b8 f1bc 2cc0 45be 6635 d8bd 3593 fb3d
00000010: c199 ffbd 22b9 003e b628 adbd 112d f73b
00000020: d2b7 e9bb 2355 e13c e687 b0bd 1523 38bd
00000030: ad7c ebbd 0d38 d8bc 9220 d73d ffca 943b
00000040: 7b1e 333e 80d7 5cbd 7b97 d9bd 82ee 423e
00000050: e42c e53d 0f38 3f3d 2b50 13be 4820 dc3d
00000060: 0c90 a1bd 5852 ffb9 eb81 e5bd 6784 34be
00000070: b7d8 bb3d f24c eebd 034d 35be 1f1b a2bd
00000080: d42d e73d c2c0 5abd d7f0 2d3e f9c5 95bd
00000090: e998 8dbd ef64 353d f1ab 1b3e acef 653d
000000a0: 00d2 093e 0f36 2b3c 6395 9ebd 0af2 34be
000000b0: 0977 83bc 8261 033b 4da7 d4bd 604c d83d
000000c0: 0307 0b3e b755 0fbe f956 fe3d f23a 8abd
000000d0: 7c62 de3d dd08 ec3c 354a 20be cc96 80bd
000000e0: 8462 82bd 431f 1f3d 252f c6bd 74a4 6abd
000000f0: a71e f73d cd84 203e 22ed 31be 0efe aebc
00000100: dae6 17be c253 ec3d 8a47 aa3d 0cd3 1dbe
00000110: cf89 683d 5f2b c1bb b6f6 24bc 7b84 eabd
00000120: 20cf f23d 1ba7 1b3e 9bc1 f23d 0682 f8bd
00000130: c606 9cbc cd71 12be a4e6 22bc f758 463d
00000140: 1825 ab3d fc04 0abc 5b82 423d e020 0bbe
00000150: 4880 16be 4049 34be 23b6 1d3e 53c9 713d
00000160: bc8c 173e a223 a4bd 9c62 27be b74c 26be
00000170: b394 c1bd 379d 1c3e a94e 2a3e 8ff0 163e
00000180: 69d9 ad3d bcc0 1abe 2d5c dcbc 23e6 a4bd
00000190: b7b8 313e c919 103e 5404 04be 5b1c 3fbd
000001a0: 666e e6bd 4810 0b3e fdfc 8dbd 8f2d bfbd
000001b0: 684e d93c 0649 233e 61a1 b2bd 0e02 a9bc
000001c0: 9417 b8bd ae01 0bbe 7f3f d73d 1d82 ed3d
000001d0: b623 ffbd 327a 8abc 6f3c ea3d 0214 65bd
000001e0: 4665 883d b2d6 8d3d e902 cb3b 8cc0 abbd
000001f0: 630c ef3d ab3d 383e 5e62 e1bd ccfa a33d

lstm.weight_hh_l0 f4 [128, 32]
-0.04802397 -0.09041738 0.020206003 -0.08562621 0.12975608 -0.061453026 0.01999116 0.0654679
0.08698462 0.013102812 0.14602672 -0.012029454 -0.15701269 0.01002671 0.007445959 0.19023964
0.031197973 0.02413322 -0.056975033 -0.01671022 0.14619298 0.008914833 -0.072930865 0.06459631
0.019322718 0.038182147 0.15210788 0.07899986 0.044768266 0.007952065 -0.16937703 -0.0040757344
0.09878132 0.04016438 0.10632108 0.03611386 0.0890563 -0.16409823 -0.121585205 0.08745848
0.041831195 -0.11957332 0.07466082 0.00047786534 -0.022585288 0.017893538 0.049587414 0.09819909
0.04756403 0.05983247 -0.04842189 0.13168427 -0.06654056 0.15657073 0.062325478 -0.1464425
0.09401484 0.008485241 -0.10549533 -0.14430314 0.07505347 -0.09571202 -0.14613399 0.1327775
0.055912714 0.14183979 0.14963415 -0.066601984 -0.10006692 -0.10060963 -0.101947516 -0.0039054619
0.012549207 -0.12528747 0.17049296 0.051719517 0.09464057 -0.14922212 -0.078131765 -0.08724139
0.00397034 0.14077418 0.17205273 0.075143576 -0.027510256 0.007722278 0.13161026 0.09433151
-0.07303432 -0.13338427 0.13894866 0.17428543 0.014102903 0.016130252 -0.112971425 -0.15953237
-0.107718594 0.0797994 0.14810286 0.10923059 0.04460761 -0.19516625 0.022003442 0.1031256
-0.13253509 0.20192403 0.029736623 -0.17043446 -0.07818135 0.10076489 0.079628244 -0.024577716
-0.12446706 -0.16046405 -0.006852031 0.07384171 -0.09620054 -0.12182006 -0.0701139 0.034544468
-0.13535672 -0.031022193 -0.06689624 0.09374119 -0.1284481 0.08941373 -0.09840598 0.16310789
0.043956783 0.027892694 0.100098506 0.08993657 -0.16851957 -0.12374459 0.13243575 -0.14380862
-0.075325266 0.119658604 0.09744267 0.04942563 0.045457393 0.008273436 -0.13117537 0.16103326
0.15236224 -0.17531233 0.09490223 -0.11439854 -0.14788526 0.11052582 0.11596604 0.046800207
0.09107672 0.15125856 -0.04594402 -0.09344799 -0.14867304 0.009740455 0.15544344 -0.12583902
-0.144003 0.032334298 0.07552065 -0.059687562 -0.11435464 0.15148282 -0.097232565 0.06951845
-0.07239258 -0.05202146 -0.037502035 -0.014593288 -0.11075912 -0.052411642 -0.016746879 -0.12231288
-0.07440428 -0.044110343 0.12216474 0.0064517646 0.049436316 -0.03175 0.10626282 0.034491673
0.031491473 0.12630145 0.17176728 0.13737975 0.0030529625 -0.0543932 -0.0423968 0.114092246
-0.12478716 -0.1751888 0.06410329 0.04445736 -0.104177184 0.0135986395 -0.0656218 0.040730774
-0.121809214 -0.017779294 0.15008242 -0.14020309 0.02440542 0.041058764 0.035327137 0.11731622
-0.15899469 0.06488618 0.10235611 -0.11188509 0.1390474 -0.12784708 0.08438377 -0.11386873
-0.06711687 -0.14844918 -0.17006049 0.10072504 -0.10833166 0.14751129 -0.0017148256 0.0604268
-0.026696635 -0.13992333 -0.12776299 0.02090487 -0.17011248 -0.032020513 -0.15274306 -0.02090184
0.014839225 0.16614284 0.028556399 -0.06559895 0.07912909 0.0684124 0.08761286 0.08784856
0.14917235 -0.087157145 0.0985508 -0.116693415 0.10889261 -0.107497394 -0.0777333 -0.050922025
-0.16562787 -0.13068835 -0.11990348 0.1558866 0.11283874 0.0034802086 0.15358613 -0.12671167
00000000: c8b4 44bd bf2c b9bd 0f87 a53c cb5c afbd
00000010: c7de 043e 2bb6 7bbd 80c4 a33c 0914 863d
00000020: fe24 b23d 2dad 563c 0788 153e 3017 45bc
00000030: efc7 20be 1247 243c 3bfd f33b 2ece 423e
00000040: e492 ff3c 08b3 c53c a75e 69bd dfe3 88bc
00000050: 9db3 153e 850f 123c c75c 95bd 124b 843d
00000060: ad4a 9e3c e264 1c3d 2bc2 1b3e aeca a13d
00000070: ee5e 373d 6149 023c 2c71 2dbe bd8d 85bb
00000080: dc4d ca3d 6883 243d debe d93d 20ec 133d
00000090: 2663 b63d 5e09 28be aa01 f9bd 6e1d b33d
000000a0: 3057 2b3d dbe2 f4bd c6e7 983d 008a fa39
000000b0: c804 b9bc 7895 923c 2c1c 4b3d 9b1c c93d
000000c0: 80d2 423d e412 753d 0856 46bd 3ed8 063e
000000d0: 6b46 88bd 1454 203e 0049 7f3d 06f5 15be
000000e0: da8a c03d ae05 0b3c f00d d8bd 34c4 13be
000000f0: a2b5 993d aa04 c4bd 26a4 15be d3f6 073e
00000100: bb04 653d 733e 113e b239 193e 9f66 88bd
00000110: e3ef ccbd 6c0c cebd dcc9 d0bd c7f2 7fbb
00000120: 309b 4d3c 5c4b 00be b595 2e3e d8d7 533d
00000130: ead2 c13d afcd 18be 8c03 a0bd 9dab b2bd
00000140: a019 823b 1b27 103e 972e 303e e0e4 993d
00000150: 305d e1bc 2a0b fd3b d7c4 063e e130 c13d
00000160: 0493 95bd e395 08be 8f48 0e3e e177 323e
00000170: dd0f 673c 9723 843c 905d e7bd 745c 23be
00000180: 919b dcbd de6d a33d 47a8 173e 4ab4 df3d
00000190: 78b6 363d a9d9 47be 9040 b43c 8433 d33d
000001a0: 47b7 07be 2cc5 4e3e 389a f33c 5f86 2ebe
000001b0: 8b1d a0bd d35d ce3d 2214 a33d 3557 c9bc
000001c0: 96e8 febd b050 24be 0187 e0bb 533a 973d
000001d0: ca04 c5bd cc7c f9bd e097 8fbd 807e 0d3d
000001e0: f49a 0abe 4122 febc e500 89bd 62fb bf3d
000001f0: e687 03be 8c1e b73d 1389 c9bd c105 273e
00000200: 070c 343d 387f e43c 7200 cd3d aa30 b83d
00000210: 6590 2cbe ce6d fdbd 3d9d 073e 9142 13be
00000220: 2244 9abd 920f f53d 0690 c73d 8872 4a3d
00000230: 8831 3a3d 4e8d 073c d652 06be e7e5 243e
00000240: d904 1c3e 1385 33be 1a5c c23d c849 eabd
00000250: 3c6f 17be 5c5b e23d 9a7f ed3d 93b1 3f3d
00000260: 6e86 ba3d 86e3 1a3e cc2f 3cbd a961 bfbd
00000270: bf3d 18be 6e96 1f3c 912c 1f3e f2db 00be
00000280: 8675 13be f870 043d 92aa 9a3d f27a 74bd
00000290: c432 eabd 501e 1b3e de21 c7bd b05f 8e3d
000002a0: 9042 94bd 7414 55bd bc9b 19bd b018 6fbc
000002b0: add5 e2bd 97ad 56bd c030 89bc 2d7f fabd
000002c0: 4561 98bd 0cad 34bd 8231 fa3d 5369 d33b
000002d0: bc7d 4a3d 4a0c 02bd 52a0 d93d 2447 0d3d
000002e0: 34fd 003d 2b55 013e c3e3 2f3e 47ad 0c3e
000002f0: 3614 483b 67cb 5ebd 44a8 2dbd 32a9 e93d
00000300: 6990 ffbd b164 33be 9648 833d ec18 363d
00000310: d95a d5bd d4cc 5e3c b964 86bd 50d5 263d
00000320: 1c77 f9bd e2a5 91bc 35af 193e 6691 0fbe
00000330: e0ed c73c 3c2d 283d 30b3 103d 7d43 f03d
00000340: 81cf 22be 0ce3 843d 15a0 d13d 0324 e5bd
00000350: 7162 0e3e 58ea 02be 66d1 ac3d 0234 e9bd
00000360: 9274 89bd 1003 18be 5624 2ebe ee48 ce3d
00000370: fddc ddbd 330d 173e 00c4 e0ba 1882 773d
00000380: e7b2 dabc 1048 0fbe 4dd4 02be b140 ab3c
00000390: f731 2ebe f127 03bd ad68 1cbe 563a abbc
000003a0: 3920 733c 5921 2a3e 1cef e93c be58 86bd
000003b0: 6f0e a23d cd1b 8c3d 5f6e b33d f2e9 b33d
000003c0: a3c0 183e 727f b2bd 00d5 c93d f5fc eebd
000003d0: 1703 df3d 9827 dcbd a332 9fbd 9d93 50bd
000003e0: 5a9a 29be 2bd3 05be f58f f5bd bda0 1f3e
000003f0: ff17 e73d 3614 643b af45 1d3e b4c0 01be

lstm.bias_ih_l0 f4 [128]
0.21241412 -0.109646685 0.13491216 0.07094492 0.13661847 0.17042507 0.101019576 -0.12029581
0.12383984 -0.10819856 -0.015648179 0.122030474 -0.09396265 0.1717684 -0.051316977 0.22352067
0.118576586 0.1309698 -0.10709821 0.18351866 -0.15766951 -0.084370084 0.039284863 -0.11824999
-0.09316447 0.08413567 -0.06660214 -0.18967526 -0.078732125 0.17409126 0.03284012 0.021686664
-0.029573774 -0.11663169 -0.078842215 -0.05524353 0.09954326 -0.057689734 -0.098652914 -0.09487069
0.10891572 0.18199249 0.05832672 0.11975519 0.13599156 0.04457033 0.107751735 -0.06515151
0.051256474 -0.08770221 0.05213076 -0.033466026 0.024515102 -0.13366558 -0.022543997 -0.019037914
-0.1756156 0.009789831 0.02704911 0.0132332 0.012044928 0.17545216 0.060618296 -0.14658214
-0.023479572 0.13004224 -0.005385276 0.12753636 0.052931204 0.08808575 -0.026127616 0.031702675
-0.117737904 -0.046639055 -0.03745627 0.16910826 -0.050241232 -0.15520202 0.07819314 0.17369923
-0.16259614 0.19699685 0.0951285 -0.16828595 0.092148885 0.10840444 -0.10809501 0.10563348
0.09712405 -0.18416637 -0.046484813 0.020897925 0.16089416 0.10990621 0.10495539 0.063802585
0.102507666 -0.049120985 0.08517124 0.14245999 -0.12726669 0.14911735 0.01376815 -0.003127885
0.164923 -0.10436726 -0.08119941 -0.071684234 0.13165987 0.16467956 -0.15585741 0.16145329
0.13951905 -0.12863606 0.11191426 0.11166852 0.031943116 -0.049641136 0.06443074 -0.116709754
0.0023930417 0.130767 -0.16558918 0.14396673 0.12037809 0.01504801 -0.06921163 0.03442017
00000000: 1683 593e 718e e0bd 6a26 0a3e 924b 913d
00000010: b6e5 0b3e e983 2e3e 5ae3 ce3d a65d f6bd
00000020: be9f fd3d 3597 ddbd 9c30 80bc 1deb f93d
00000030: 7d6f c0bd 0ee4 2f3e c031 52bd 9ae2 643e
00000040: 48d8 f23d f21c 063e 4e56 dbbd 51ec 3b3e
00000050: 1e74 21be 39ca acbd 2ae9 203d 0d2d f2bd
00000060: 03cd bebd 524f ac3d b466 88bd 3b3a 42be
00000070: 4f3e a1bd fb44 323e 5d83 063d 3ba8 b13c
00000080: b344 f2bc 98dc eebd 0778 a1bd 0a47 62bd
00000090: 56dd cb3d 124c 6cbd 8a0a cabd 904b c2bd
000000a0: 340f df3d 3d5c 3a3e 00e8 6e3d 3642 f53d
000000b0: 5f41 0b3e 618f 363d f1ac dc3d 286e 85bd
000000c0: 4ff2 513d 379d b3bd 1087 553d ac13 09bd
000000d0: e5d3 c83c a1df 08be 30ae b8bc 66f5 9bbc
000000e0: 93d4 33be 8765 203c 1896 dd3c 10d0 583c
000000f0: 1758 453c bba9 333e e44a 783d a119 16be
00000100: 3b58 c0bc cb29 053e f876 b0bb e498 023e
00000110: 64ce 583d 4d66 b43d 9509 d6bc aada 013d
00000120: 9220 f1bd 9808 3fbd bf6b 19bd b72a 2d3e
00000130: c0c9 4dbd 47ed 1ebe ba23 a03d 36de 313e
00000140: 9a7f 26be 8bb9 493e bbd2 c23d 2753 2cbe
00000150: 8eb8 bc3d 2603 de3d eb60 ddbd 5e56 d83d
00000160: f9e8 c63d 1c96 3cbe dc66 3ebd 2032 ab3c
00000170: 70c1 243e 8216 e13d daf2 d63d eeaa 823d
00000180: 8aef d13d 1633 49bd 426e ae3d 08e1 113e
00000190: 3352 02be 38b2 183e ce93 613c 34fd 4cbb
000001a0: 93e1 283e 81be d5bd e04b a6bd 2fcf 92bd
000001b0: d8d1 063e c2a1 283e 1699 1fbe 0354 253e
000001c0: 15de 0e3e 2cb9 03be 4e33 e53d 77b2 e43d
000001d0: c9d6 023d 8154 4bbd 44f4 833d 8605 efbd
000001e0: 94d4 1c3b c9e7 053e 3690 29be 046c 133e
000001f0: ca88 f63d ee8b 763c d4be 8dbd 2afc 0c3d

lstm.bias_hh_l0 f4 [128]
0.13412952 0.00070847594 0.1276638 -0.029897826 0.08259822 0.084437855 -0.008014105 0.020462181
-0.027056713 -0.15522118 0.23560694 0.07864549 0.01087393 0.0604353 -0.048980564 -0.048931435
-0.13440312 -0.0957798 -0.017011698 -0.037715543 0.006831229 -0.11849013 0.17245373 0.052553598
0.17526357 -0.15194947 -0.18021849 0.053755816 -0.037355866 -0.14641804 -0.03267741 0.21341701
0.12648341 0.089367494 0.13660808 0.0029462066 -0.16931245 0.07368338 0.12847705 0.16177304
0.16029662 -0.12461041 -0.121615976 -0.11970052 -0.09250022 0.09313562 -0.13749374 -0.06636094
-0.04859427 -0.119919725 0.020576099 0.16186167 0.07306914 0.10953379 0.003681764 0.1606858
0.12808128 -0.10434492 0.17037432 0.08543058 0.03334536 -0.059539262 0.10471563 -0.079359725
-0.0020859926 0.0059511205 -0.035338487 -0.023696592 -0.07207325 0.055522192 -0.043817695 -0.09160945
-0.15721917 -0.049155474 0.000876734 -0.03531858 -0.06619534 0.030315105 -0.050794534 0.05956545
-0.13277562 0.16923521 0.16020243 -0.06651437 -0.12950061 0.16363175 -0.05751837 -0.019954685
-0.087698236 -0.18408811 -0.10423171 0.059121847 -0.15384462 -0.14919348 0.008164629 -0.03689493
0.05406745 0.028851891 0.17563497 0.069879524 0.09412955 0.17207116 -0.0179601 0.129942
0.04903431 0.10865929 0.15047887 0.19272499 0.091806285 0.1985665 -0.14200906 0.18569557
-0.14654455 0.09028227 -0.111707196 -0.13328935 0.07216776 -0.05021471 0.18121952 -0.027220147
-0.08177768 -0.13439704 0.0069659506 0.025134824 0.1474554 0.04348854 -0.10097467 0.094188675
00000000: 4059 093e 04b9 393a 4dba 023e 49ec f4bc
00000010: 4129 a93d c1ed ac3d 984d 03bc 4ea0 a73c
00000020: 0aa6 ddbc 4df2 1ebe f242 713e e310 a13d
00000030: 9128 323c 018b 773d d89f 48bd 546c 48bd
00000040: f9a0 09be 3328 c4bd 1e5c 8bbc 9d7b 1abd
00000050: 81d8 df3b f4aa f2bd b697 303e 7142 573d
00000060: 4b78 333e a498 1bbe 328b 38be 0f2f 5c3d
00000070: 7702 19bd 9cee 15be bfd8 05bd fd89 5a3e
00000080: de84 013e 4e06 b73d fde2 0b3e 2515 413b
00000090: 3e60 2dbe 50e7 963d 7d8f 033e d5a7 253e
000000a0: cc24 243e be33 ffbd cc11 f9bd 8c25 f5bd
000000b0: c170 bdbd e3bd be3d 29cb 0cbe 3fe8 87bd
000000c0: c90a 47bd 7998 f5bd 358f a83c 11bf 253e
000000d0: 46a5 953d 4053 e03d c049 713b d18a 243e
000000e0: bd27 033e cab2 d5bd 9b76 2e3e 3af6 ae3d
000000f0: 2595 083d 71df 73bd 2675 d63d 5a87 a2bd
00000100: 26b5 08bb 9e01 c33b 17bf 10bd 5b1f c2bc
00000110: 249b 93bd 3d6b 633d 2f7a 33bd bc9d bbbd
00000120: 10fe 20be 4057 49bd 9fd4 653a 37aa 10bd
00000130: 6c91 87bd 6257 f83c ee0d 50bd e7fa 733d
00000140: 55f6 07be ff4b 2d3e 1b0c 243e b038 88bd
00000150: cf9b 04be 158f 273e 6298 6bbd 0278 a3bc
00000160: 229b b3bd 9881 3cbe 6f77 d5bd c029 723d
00000170: 7289 1dbe 2dc6 18be f0c4 053c 231f 17bd
00000180: d575 5d3d cd5a ec3c a7d9 333e ff1c 8f3d
00000190: fec6 c03d 6c33 303e 0f21 93bc 840f 053e
000001a0: 33d8 483d c388 de3d 2217 1a3e b359 453e
000001b0: ef04 bc3d 0455 4b3e d36a 11be fb26 3e3e
000001c0: c60f 16be e9e5 b83d bec6 e4bd 017d 08be
000001d0: b1cc 933d f1ad 4dbd 9c91 393e c9fc debc
000001e0: 0e7b a7bd 619f 09be a142 e43b 8ce7 cd3c
000001f0: 8cfe 163e 0a21 323d cfcb cebd fee5 c03d

fc1.weight f4 [16, 32]
-0.028849185 0.11430399 0.100332275 -0.1736861 -0.15315728 0.08474971 0.06402612 -0.104857504
-0.14264333 0.09550513 -0.03855084 -0.14604478 -0.0019811094 -0.1413915 0.021519125 0.11064507
-0.14070004 -0.07452616 0.1756529 0.12689857 -0.0660211 -0.09570668 0.13423838 -0.054372698
-0.074074455 0.11679448 0.063099 0.066378206 0.1547354 -0.07489379 -0.06872444 0.11513637
0.11767939 -0.049507853 0.015129196 -0.010243732 -0.17040697 -0.0022912358 0.11470283 0.14190593
0.05759517 -0.056071848 -0.02392092 0.033647187 -0.15940638 0.09782563 0.017562218 0.010516542
-0.09098218 -0.10767258 -0.17139298 0.003860569 0.008450993 -0.009552555 -0.032306664 0.002749896
0.05715304 -0.023291225 0.18373331 0.074983254 0.05570645 -0.1392074 -0.043141317 0.00546748
-0.19220845 0.12580267 0.14212687 -0.12863837 -0.00048117962 -0.14536437 -0.010113655 -0.18799657
-0.070977576 0.053668417 0.040977634 -0.01766317 0.0053107133 0.02594998 0.1234735 0.103494816
0.2156946 -0.108767174 0.23009866 -0.17920779 -0.0047238804 -0.05553136 0.15770687 0.079074815
0.09730841 -0.0058783027 0.048920546 0.02817769 -0.12369386 -0.09382937 0.121041656 0.120643415
0.0075492915 -0.095263734 0.205733 -0.15131006 0.0769248 -0.13484265 -0.15843415 -0.08243769
0.21746354 0.13644236 0.15292737 -0.20832641 -0.13928539 -0.22107875 -0.02566092 -0.0003101225
0.035986137 0.14555553 0.10928192 -0.14486794 -0.04933465 -0.20336476 0.11751318 0.19551611
0.18529686 -0.047021974 0.11170689 -0.047039792 -0.21860889 -0.018236926 -0.13364425 0.15691072
0.03744833 0.015186369 0.0046733916 0.045973122 0.064813405 0.02591528 -0.04309757 0.04340984
-0.085837685 -0.17635189 0.0955293 0.12511952 -0.16695644 0.14440338 0.088054076 0.001748547
0.043860734 0.03636025 0.114396855 0.097214654 0.15595149 0.16807066 0.113551155 0.047930896
-0.020079091 -0.0010513812 -0.16562189 0.05120495 -0.09352946 -0.11729023 0.1576883 0.029919103
-0.19249713 0.0756578 -0.003955704 0.017654683 0.022665627 -0.105421744 0.019093199 -0.1428996
-0.09793661 0.12996404 0.12331962 0.045657992 -0.14450103 -0.095540464 -0.10743704 -0.067478456
-0.07076995 -0.032699652 0.10547149 0.06724742 0.05712382 -0.13210326 0.08609452 -0.11986572
0.22973083 -0.14777346 -0.1397614 0.13125595 0.009542154 0.06345339 -0.051944774 0.057918344
0.119608946 0.09581184 0.18229982 -0.1528846 -0.15200241 0.18322109 -0.13746719 -0.031681377
-0.0016866783 -0.08548982 0.00119385 0.03549791 -0.15223663 0.16050807 0.12188944 -0.03408381
-0.14143184 -0.122736916 0.12627743 -0.12649721 0.045348678 0.06917119 0.023737637 0.12680227
0.12923813 -0.047244698 -0.06866686 -0.11978642 -0.041305225 0.008760038 0.16965221 0.06827373
-0.074794516 0.038050205 0.021736296 -0.04062886 -0.0052545946 -0.1369524 0.054143533 -0.13775522
-0.0043771095 -0.1089951 0.037407286 0.05183891 0.07046783 0.19095753 -0.08470904 -0.08567977
-0.06637891 -0.13866203 -0.07875485 0.15857993 0.04508723 -0.07982275 0.04558544 0.1303149
-0.13527407 0.039987396 -0.14056878 -0.045856103 -0.0989442 0.014027871 0.1030928 0.091540396
00000000: 2055 ecbc 3618 ea3d 027b cd3d c5da 31be
00000010: 43d5 1cbe 4291 ad3d 2020 833d 88bf d6bd
00000020: 1811 12be 3298 c33d 7ce7 1dbd c38c 15be
00000030: 80d5 01bb efc8 10be e048 b03c e299 e23d
00000040: ac13 10be 2ca1 98bd 5bde 333e b3f1 013e
00000050: 1236 87bd dd01 c4bd c975 093e e8b5 5ebd
00000060: 59b4 97bd f231 ef3d 0c3a 813d 4cf1 873d
00000070: f572 1e3e ea61 99bd 66bf 8cbd 9ecc eb3d
00000080: e401 f13d bfc8 4abd 73e0 773c 53d5 27bc
00000090: 2a7f 2ebe 8f28 16bb 51e9 ea3d ca4f 113e
000000a0: eae8 6b3d 98ab 65bd cef5 c3bc a2d1 093d
000000b0: 6d3b 23be ce58 c83d a4de 8f3c 934d 2c3c
000000c0: dd54 babd 7183 dcbd a481 2fbe 9a01 7d3b
000000d0: 0976 0a3c 5282 1cbc fe53 04bd 9937 343b
000000e0: 4e19 6a3d 3dcd bebc 9624 3c3e d290 993d
000000f0: 722c 643d 628c 0ebe f3b4 30bd 8c28 b33b
00000100: 4bd2 44be 6ad2 003e b589 113e c7b9 03be
00000110: d646 fcb9 66da 14be beb3 25bc 2c82 40be
00000120: b15c 91bd 6ad3 5b3d 2ad8 273d 5ab2 90bc
00000130: 7e05 ae3b 0d95 d43c addf fc3d 17f5 d33d
00000140: 0cdf 5c3e 53c1 debd fc9e 6b3e 3f82 37be
00000150: c8ca 9abb da74 63bd e97d 213e faf1 a13d
00000160: a249 c73d c79e c0bb e960 483d e6d4 e63c
00000170: 3553 fdbd 9d29 c0bd b0e4 f73d e513 f73d
00000180: 0c60 f73b a219 c3bd acab 523e 06f1 1abe
00000190: c08a 9d3d 3114 0abe 903c 22be 17d5 a8bd
000001a0: c3ae 5e3e 8cb7 0b3e fe98 1c3e 8553 55be
000001b0: d4a0 0ebe 7862 62be da36 d2bc f097 a2b9
000001c0: 3366 133d 820c 153e 33cf df3d 4358 14be
000001d0: 2113 4abd da3e 50be c0aa f03d 6035 483e
000001e0: 76be 3d3e 1d9a 40bd 95c6 e43d ccac 40bd
000001f0: 02db 5fbe 9b65 95bc 0ada 08be 34ad 203e
00000200: 6c63 193d 40d0 783c 4023 993b 504e 3c3d
00000210: e4bc 843d 484c d43c 1487 30bd 84ce 313d
00000220: abcb afbd 9795 34be dea4 c33d 551f 003e
00000230: a1f6 2abe 7bde 133e b255 b43d 802f e53a
00000240: 50a7 333d 7cee 143d e648 ea3d 7a18 c73d
00000250: bfb1 1f3e b71a 2c3e 828d e83d 3053 443d
00000260: e87c a4bc 80ce 89ba c998 29be 48bc 513d
00000270: 608c bfbd dc35 f0bd 0b79 213e e818 f53c
00000280: f81d 45be 7af2 9a3d da9e 81bb 8ea0 903c
00000290: 44ad b93c 5be7 d7bd 5769 9c3c 4654 12be
000002a0: fd92 c8bd 4b15 053e ff8e fc3d e003 3b3d
000002b0: 14f8 13be b8aa c3bd f307 dcbd 2532 8abd
000002c0: d6ef 90bd 12f0 05bd 7001 d83d 04b9 893d
000002d0: abfa 693d 1446 07be 5352 b03d 297c f5bd
000002e0: 8f3e 6b3e ed51 17be 9d1d 0fbe f667 063e
000002f0: b256 1c3c daf3 813d 0bc4 54bd c93b 6d3d
00000300: 89f5 f43d ff38 c43d ceac 3a3e c88d 1cbe
00000310: 85a6 1bbe 4f9e 3b3e 33c4 0cbe 55c4 01bd
00000320: 8813 ddba 4915 afbd f57a 9c3a 4266 113d
00000330: ebe3 1bbe 3a5c 243e 2ca1 f93d 779b 0bbd
00000340: 82d3 10be 7e5d fbbd df4e 013e 7c88 01be
00000350: 89bf 393d a0a9 8d3d 6f75 c23c 74d8 013e
00000360: 0057 043e a883 41bd 36a1 8cbd 9552 f5bd
00000370: ab2f 29bd 4386 0f3c 4fb9 2d3e 19d3 8b3d
00000380: de2d 99bd 88da 1b3d 5110 b23c 736a 26bd
00000390: bc2e acbb 403d 0cbe 9cc5 5d3d b40f 0dbe
000003a0: db6d 8fbb d338 dfbd 6238 193d 0955 543d
000003b0: 7051 903d 5f8a 433e ef7b adbd e078 afbd
000003c0: aaf1 87bd 6bfd 0dbe 394a a1bd c762 223e
000003d0: 63ad 383d 1c7a a3bd ccb7 3a3d 4571 053e
000003e0: 4985 0abe d3c9 233d 43f1 0fbe 9cd3 3bbd
000003f0: 42a3 cabd 28d5 653c 5122 d33d 8879 bb3d

fc1.bias f4 [16]
-0.012233838 0.04115513 0.10166756 0.068130486 -0.17182867 0.023039397 0.017220518 -0.019391883
0.038760945 0.030072298 0.10619115 -0.026050946 -0.092399925 0.00072608923 0.08017943 -0.06592429
00000000: 7070 48bc 4892 283d 1537 d03d ff87 8b3d
00000010: dbf3 2fbe 1ebd bc3c 0b12 8d3c badb 9ebc
00000020: ccc3 1e3d 2e5a f63c bf7a d93d cb68 d5bc
00000030: 2c3c bdbd 0657 3e3a 1d35 a43d 5003 87bd

out.weight f4 [1, 16]
-0.04224348 -0.18825516 0.19883348 0.17545034 0.14082 0.110725075 0.044643108 -0.14588003
0.18691918 -0.11297522 0.15531862 0.28833938 0.1102069 0.14361665 -0.20432971 0.13499701
00000000: 8007 2dbd f6c5 40be 019b 4b3e 41a9 333e
00000010: 1e33 103e d4c3 e23d b1db 363d 9361 15be
00000020: be67 3f3e 8d5f e7bd d80b 1f3e 38a1 933e
00000030: 28b4 e13d 3e10 133e cf3b 51be a83c 0a3e
