artifacts/territory/lstm/107__116__1242/model.pt (torch, 23217 bytes, 7 tensors)

lstm.weight_ih_l0 f4 [128, 1]
0	0xbd6e40fb	-0.05816744
1	0x3e0da83f	0.13833712
2	0xbdbf27c4	-0.093337566
3	0x3e269a4e	0.162698
4	0x3d71670e	0.05893617
5	0xbdc0c9b2	-0.0941347
6	0x3dee596d	0.1163815
7	0xbc85b6df	-0.016322551
8	0x3d8ae377	0.06781667
9	0x3e015221	0.12628986
10	0x3debc750	0.11512625
11	0xbe11b74d	-0.1423008
12	0x3da3fdfe	0.080074295
13	0x3ba00a6a	0.004884054
14	0xbe1d6231	-0.15369488
15	0x3dec36aa	0.11533864
16	0xbd88548a	-0.066567495
17	0xbe2d8cb0	-0.169482
18	0x3e0e0d1e	0.13872191
19	0xbce8e0b0	-0.028427452
20	0xbe2c0f0a	-0.16802612
21	0xbc888b23	-0.016667908
22	0xbb827d50	-0.0039822236
23	0x3d67b35d	0.05656754
24	0x3e19480f	0.14968894
25	0x3e2b8a0b	0.16751878
26	0x3e55a207	0.2086259
27	0xbe0d03ae	-0.13770935
28	0x3e06ccf9	0.13164128
29	0x3e47f4b8	0.19526947
30	0xbd04149a	-0.03224621
31	0xbcc0fd25	-0.023558209
32	0x3dced6ed	0.100995876
33	0xbcf981fd	-0.030457491
34	0x3db1bc26	0.086784646
35	0x3d706214	0.058687285
36	0xbd871cf6	-0.06597321
37	0xbe1fa652	-0.1559079
38	0x3e1b13a8	0.15144217
39	0xbde96180	-0.1139555
40	0x3c72586a	0.014791587
41	0x3ca16175	0.019699791
42	0xbd8c7aa9	-0.06859333
43	0xbe1079e4	-0.14108998
44	0x3e163dde	0.14672038
45	0x3e2e8db1	0.17046238
46	0xbe1979cd	-0.1498787
47	0x3c0d45f8	0.008622639
48	0xbe0f445c	-0.13990921
49	0x3d3c9e6d	0.046049524
50	0x3e027040	0.12738132
51	0xbe005c8e	-0.12535307
52	0xbcf77ff4	-0.03021238
53	0xbe2f4fae	-0.17120239
54	0xbdb09b7a	-0.08623405
55	0x3caac95b	0.020847967
56	0x3c3035b7	0.010754994
57	0xbe3eb365	-0.18623121
58	0xbd864cdc	-0.065576285
59	0xbe104845	-0.14090069
60	0x3c1c26cf	0.009530737
61	0xbdbc56e1	-0.09196258
62	0xbdb5e148	-0.088808596
63	0x3d56b0db	0.052414756
64	0xbe0c1604	-0.13680273
65	0xbd651b7a	-0.055934407
66	0xbdd4b848	-0.10386711
67	0xbd8fba82	-0.070179954
68	0xbdcb7105	-0.09933666
69	0xbddde86e	-0.10835348
70	0x3dfeb6ee	0.12437235
71	0x3c8523e7	0.016252471
72	0xbdcaee04	-0.09908679
73	0x3e2065dd	0.15663858
74	0x3da66204	0.08124164
75	0x3e1afddd	0.15135904
76	0x3d4417fc	0.047874436
77	0xbe00cdc6	-0.12578496
78	0x3de83cca	0.113397196
79	0xbd3bcdb5	-0.045850474
80	0xbb5368de	-0.003225855
81	0xbd59f931	-0.053216163
82	0x3dfbe426	0.12299375
83	0x3dd39570	0.10331237
84	0x3d84f072	0.06491174
85	0xbe3333cd	-0.17500229
86	0x3e1731cb	0.14765088
87	0xbd9a1a18	-0.07524508
88	0xbca3954a	-0.019968648
89	0x3c2f00f8	0.010681383
90	0xbe08d602	-0.13362888
91	0xbd9e4c21	-0.07729364
92	0xbac6adac	-0.001515796
93	0x3de5832d	0.112066604
94	0x3e1cb167	0.15302049
95	0xbdd3b945	-0.10338072
96	0xbd27db5d	-0.040980686
97	0xbe38b79b	-0.1803879
98	0x3e2d0425	0.16896112
99	0xbd08fd96	-0.033444963
100	0xbe24d1dc	-0.1609568
101	0xbd75b1dd	-0.059984077
102	0xbca7b0ee	-0.020470109
103	0xbdfb827b	-0.122807465
104	0xbbc1f6cf	-0.0059193145
105	0x3e122e1f	0.14275406
106	0x3da6b7ab	0.08140501
107	0x3e1be894	0.1522544
108	0x3c90f982	0.0176971
109	0x3c9bd933	0.019024467
110	0xbe10e0a0	-0.14148188
111	0xbd2cab4e	-0.042155556
112	0x3daf8100	0.08569527
113	0xbe274a1f	-0.16336869
114	0x3c81072b	0.015750488
115	0xbc9cc7ff	-0.019138334
116	0x3da32e3e	0.07967804
117	0x3d02bff4	0.031921342
118	0xbe35723a	-0.17719355
119	0xbe084562	-0.13307717
120	0x3e4b4e80	0.19854164
121	0x3e0e9acb	0.13926236
122	0xbccfac1f	-0.025350628
123	0x3d3f982c	0.04677598
124	0x3d10bc7e	0.03533601
125	0xbce77bf7	-0.028257353
126	0xbbd6b686	-0.00655252
127	0x3e29571d	0.16537137

lstm.weight_hh_l0 f4 [128, 32]
0	0x3da3b235	0.07992975
1	0x3da8f334	0.08249512
2	0xbbf9de17	-0.007625352
3	0x3de64a33	0.11244621
4	0x3dc3ec1a	0.09566517
5	0x3c504800	0.012712479
6	0x3dfbe09b	0.122986995
7	0xbde05698	-0.109540164
8	0xbdc31af1	-0.09526623
9	0x3e5bc02b	0.21460025
10	0x3d81aa3b	0.06331297
11	0xbd7a1eb1	-0.061064426
12	0xbdaac16b	-0.08337673
13	0xbe23a842	-0.15982154
14	0xbcd19060	-0.025581539
15	0xbdf168e4	-0.117875844
16	0x3de4f6f1	0.11179913
17	0xbc955c20	-0.018232405
18	0x3d92aa67	0.07161408
19	0xbe296c3a	-0.16545191
20	0xbd38901b	-0.045059305
21	0x3be31aa3	0.0069306656
22	0xbdd1e706	-0.10249142
23	0xbb8cf8d6	-0.0043021245
24	0x3df1d790	0.118086934
25	0x3dae7879	0.08519072
26	0x3dc6424f	0.09680616
27	0x3d2f69c8	0.04282549
28	0xbe0ffc15	-0.14061005
29	0xbd8fe259	-0.07025594
30	0x3dfb9455	0.122841515
31	0xbd7983ae	-0.060916595
32	0x3dfbfbf2	0.12303914
33	0x3ca38318	0.019959971
34	0xbdfe89a5	-0.12428597
35	0xbdabd2d3	-0.08389821
36	0xbe0f2448	-0.13978684
37	0xbccaf5b8	-0.024775371
38	0xbe2971cd	-0.16547318
39	0xbdf9cae4	-0.121969014
40	0xbe0f222f	-0.13977884
41	0xbe08f917	-0.1337627
42	0xbe2df623	-0.16988425
43	0x3e011cb1	0.12608601
44	0x3daaeb8b	0.083457075
45	0xbd9f72a5	-0.077855386
46	0xbded1022	-0.11575343
47	0xbdcb25fb	-0.099193536
48	0xbc60eaf0	-0.013727888
49	0xbdfb7cf2	-0.12279691
50	0xbd1c1d63	-0.038113963
51	0xbc89af40	-0.016807199
52	0xbdceb8e6	-0.1009386
53	0x3d9e0175	0.07715122
54	0xbd87631a	-0.06610699
55	0x3dc59e5e	0.09649347
56	0x3e2ddcc8	0.16978753
57	0x3ce0e36d	0.027452195
58	0x3dc18ad2	0.09450306
59	0xbd82195f	-0.063524954
60	0xbe1fd810	-0.15609765
61	0x3cdb6fa0	0.026786625
62	0xbe168a1a	-0.14701119
63	0x3c042c0a	0.00806714
64	0x3e24b70a	0.16085449
65	0x3d895461	0.06705547
66	0xbce40827	-0.027835919
67	0xbe60a766	-0.21938857
68	0xbd9bbc10	-0.076042295
69	0xbd85f856	-0.06541507
70	0xbd80cc7f	-0.062890045
71	0xbe2a2b28	-0.16618025
72	0x3d972fde	0.07382177
73	0x3e56cf45	0.20977505
74	0xbcb569b7	-0.022145135
75	0xbd4d0ed1	-0.05006296
76	0xbd7cacb2	-0.061688133
77	0xbcee138b	-0.029062053
78	0x3db3e7ba	0.08784433
79	0xbe3dec5f	-0.185472
80	0x3d8d2e08	0.068935454
81	0x3da0715e	0.07834123
82	0xbd0f882e	-0.03504198
83	0xbd9b8a80	-0.07594776
84	0x3e06d62c	0.13167638
85	0x3cee4478	0.029085383
86	0x3e1b587d	0.15170474
87	0x3d8b238c	0.067938894
88	0xbe5662aa	-0.20936075
89	0x3d826a6a	0.06367953
90	0x3d559d80	0.052152157
91	0x3dacad30	0.084314704
92	0x3ce1d9fb	0.027569761
93	0x3e3f197c	0.18662065
94	0x3e070481	0.13185312
95	0xbe49c508	-0.19704068
96	0x3b6f5b00	0.0036522746
97	0xbd39b748	-0.045340806
98	0x3d66ba64	0.0563301
99	0xbe075f1f	-0.1321988
100	0xbc562c10	-0.013072029
101	0xbd6e6de0	-0.058210254
102	0x3d3eda57	0.046594944
103	0xbe128246	-0.14307508
104	0x3e2cb0d1	0.16864325
105	0x3ca09bc1	0.01960552
106	0x3cae00ee	0.021240678
107	0x3d918c4e	0.07106839
108	0xb9032a31	-0.00012508851
109	0x3e14ecf0	0.1454351
110	0x3def8ece	0.1169716
111	0xbdceeb0f	-0.101034276
112	0x3e17d9a5	0.14829119
113	0xbdf3b4a0	-0.11899686
114	0x3e06bf42	0.13158897
115	0xbce81b5f	-0.028333364
116	0x3c0d28f0	0.008615717
117	0xbdfdee10	-0.123989224
118	0xbd4d4ed8	-0.05012402
119	0xbd1b793c	-0.037957415
120	0x3a34bcd7	0.00068945944
121	0xbd21f91d	-0.039544214
122	0x3debc853	0.11512818
123	0xbdbd6d9a	-0.092494205
124	0xbe013220	-0.12616777
125	0xbcbe4e5f	-0.02323073
126	0x3ce28e02	0.027655605
127	0xbde5986d	-0.112107135
128	0x3dc44a5a	0.09584494
129	0x3e2c13e5	0.16804464
130	0xbd4235a6	-0.047414444
131	0x3e2e9905	0.1705056
132	0x3dc6ee9a	0.097134784
133	0x3d1b5ca8	0.03793016
134	0xbd68d540	-0.056843996
135	0x3e2e7e65	0.17040403
136	0x3d9a61fa	0.07538219
137	0xbdc4d2d6	-0.09610526
138	0xbd6587a5	-0.056037564
139	0xbdb653c1	-0.089026935
140	0x3dcea50c	0.10090074
141	0xbe34da22	-0.17661336
142	0xbbd89940	-0.0066100657
143	0x3d90c5be	0.07068966
144	0xbe246aa1	-0.160563
145	0x3d140c48	0.036144525
146	0xbda30e7b	-0.07961746
147	0x3e270dd3	0.16313867
148	0x3e26d4ff	0.16292189
149	0xbd1825dd	-0.037145484
150	0xbe11968f	-0.1421759
151	0xbcd0e170	-0.025498122
152	0x3e32d8c4	0.17465502
153	0x3d941a27	0.07231551
154	0x3ddc0d95	0.10744778
155	0xbdf012d6	-0.11722343
156	0xbdd8e188	-0.10589892
157	0xbc325452	-0.010884361
158	0x3d7ca0f1	0.061676923
159	0x3ca7bc0e	0.020475414
160	0x3e1a7d9e	0.15086982
161	0x3e1cc9f9	0.15311421
162	0x3cd15786	0.02555443
163	0xbcdbed3a	-0.026846517
164	0x3ca36b40	0.019948602
165	0xbdc4e311	-0.09613622
166	0xbddecda4	-0.108790666
167	0xbd18bf30	-0.037291706
168	0x3d3ed2b0	0.046587646
169	0xbd2e69ae	-0.042581253
170	0xbdcaa009	-0.098938055
171	0x3e22fdab	0.15917079
172	0x3dbc968b	0.09208401
173	0x3ab546d2	0.001383031
174	0xbe072a7f	-0.13199805
175	0xbd3be28f	-0.04587036
176	0xbde5ea9e	-0.1122639
177	0x3d640ecc	0.055678174
178	0xbe0ea036	-0.13928303
179	0x3da88107	0.08227735
180	0x3e1e87f7	0.15481554
181	0x3d999ee4	0.07501009
182	0x3d900992	0.070330754
183	0xbc8b160e	-0.01697829
184	0xbd84a4ba	-0.064767316
185	0xbdb0532f	-0.08609616
186	0xbe344d1a	-0.17607537
187	0x3d13ba73	0.036066484
188	0xbd0424db	-0.03226171
189	0xbe2811d7	-0.16413055
190	0x3d8de33e	0.06928109
191	0xbce013a6	-0.02735312
192	0x3e10e4cf	0.14149784
193	0x3cb932f8	0.022607312
194	0x3e036361	0.12830879
195	0xbdc088e3	-0.09401109
196	0xbdcd9b48	-0.10039383
197	0x3da27272	0.07931985
198	0x3e00897f	0.1255245
199	0x3e0c8bb1	0.13725163
200	0x3de8047c	0.1132898
201	0xbda569c0	-0.08076811
202	0xbc28b394	-0.010296721
203	0xbdb92fe8	-0.090423405
204	0x3e092652	0.13393524
205	0xbda25132	-0.07925643
206	0xbd6299a6	-0.05532231
207	0xba54881f	-0.0008107442
208	0xbe09f455	-0.13472112
209	0x3d227a34	0.039667323
210	0x3d9c9d61	0.07647205
211	0x3d952300	0.07282066
212	0x3c38e600	0.011285305
213	0xbcb606b8	-0.02222
214	0xbe1a1255	-0.15046056
215	0xbc54dde0	-0.012992352
216	0x3d94cbb6	0.07265417
217	0x3e14e0ff	0.14538954
218	0x3d4b1950	0.049584687
219	0x3ddf1a26	0.10893659
220	0x3db2dd79	0.08733649
221	0xbd9af4f3	-0.075662516
222	0xbe1819e3	-0.14853625
223	0xbdb19eab	-0.08672842
224	0xbde25108	-0.11050612
225	0xbdaf80b9	-0.08569474
226	0x3dea12bf	0.11429357
227	0x3cc911c3	0.024544602
228	0xbd7a9624	-0.06117834
229	0xbd0cdbbb	-0.03438924
230	0xbd63fbae	-0.055659942
231	0xbd41ed6b	-0.04734556
232	0xbd7b4b79	-0.061351273
233	0xbdbc48c3	-0.09193566
234	0xbe131d38	-0.14366615
235	0xbdae6409	-0.08515174
236	0x3daaefce	0.0834652
237	0x3e15f3d9	0.14643802
238	0x3d66b808	0.05632785
239	0xbcd87449	-0.026422637
240	0x3d4ba124	0.049714223
241	0x3e0daff1	0.13836648
242	0x3dfe4616	0.124157116
243	0x3ce67c07	0.028135313
244	0xbdcc5c55	-0.099785484
245	0x3e30ddb3	0.17272072
246	0x3cf1b770	0.029506415
247	0x3e1ffd1b	0.15623896
248	0xbe17318c	-0.14764994
249	0x3e1730af	0.14764665
250	0xbe105853	-0.14096193
251	0xbe2f1f28	-0.17101729
252	0x3b2112cb	0.0024577852
253	0xbe188fb4	-0.14898568
254	0x3d145b2e	0.03621977
255	0xbe1ed187	-0.15509616

lstm.bias_ih_l0 f4 [128]
0	0xbdf439fd	-0.11925123
1	0xbde6a66c	-0.11262211
2	0x3e6ec927	0.23318921
3	0xbe071047	-0.13189803
4	0xbc7def2f	-0.01549892
5	0x3d5e983d	0.054344404
6	0xbe2bbd5f	-0.16771458
7	0xbdf478ee	-0.11937128
8	0x3e21ce5b	0.15801375
9	0x3df02486	0.11725716
10	0x3d50377f	0.050834175
11	0x3cbb1eaf	0.02284178
12	0x3dbe86d6	0.09303062
13	0x3dc6fe07	0.097164206
14	0xbe1d73bf	-0.15376185
15	0x3d04a3cd	0.032382775
16	0x3e19a1e6	0.15003166
17	0x3d098821	0.03357709
18	0xbdedd306	-0.11612515
19	0xbde9c2dc	-0.114141196
20	0x3d393fce	0.045226865
21	0xbe555244	-0.20832163
22	0xbe3c97d2	-0.1841729
23	0xbde9641f	-0.1139605
24	0xbddb2be7	-0.10701733
25	0xbde6c38d	-0.11267767
26	0xbdf8c00c	-0.12146005
27	0x3c519b8d	0.012793434
28	0xbded7353	-0.11594262
29	0xbdcf347b	-0.10117432
30	0x3dd0c8d2	0.101945534
31	0x3dff458d	0.12464438
32	0xbd82ac93	-0.06380572
33	0xbe12c632	-0.14333418
34	0x3e18fafc	0.14939493
35	0x3e357f7e	0.17724416
36	0xbe025ca9	-0.1273066
37	0x3de6fa13	0.112781666
38	0x3e05d38b	0.13068978
39	0x3e04a3f5	0.1295317
40	0x3d498c69	0.04920617
41	0xb9418018	-0.00018453633
42	0xbb99f227	-0.0046980563
43	0x3dd80526	0.10547857
44	0xbdc61a5e	-0.09672998
45	0x3e5942ad	0.21216841
46	0xbd80fa40	-0.062977314
47	0xbc86a31f	-0.016435204
48	0x3dbc83f0	0.092048526
49	0x3c1eae79	0.009685152
50	0x3e150e2b	0.14556186
51	0xbe314960	-0.17313147
52	0x3daccabd	0.08437107
53	0xbdfbaa94	-0.122883946
54	0x3e23a0e5	0.15979345
55	0x3de5fbc9	0.11229665
56	0x3d2ede65	0.04269256
57	0x3dc3d095	0.09561268
58	0x3dd14bcb	0.102195345
59	0x3df28a78	0.11842817
60	0xbc82a3cd	-0.015947247
61	0x3e3770e8	0.17914164
62	0x3caba483	0.020952469
63	0x3cb9363c	0.022608869
64	0xbde3a0ef	-0.1111468
65	0xbdb1d883	-0.086838745
66	0x3d9f455d	0.07776902
67	0xbdd61dd7	-0.1045491
68	0xbe346114	-0.17615157
69	0x3d3c2109	0.045929942
70	0x3df2c1c6	0.118533656
71	0x3e060907	0.13089381
72	0x3dd1a87a	0.102372125
73	0x3e1824e1	0.14857818
74	0x3dd446cb	0.10365065
75	0xbca61e18	-0.020278022
76	0xbdc28487	-0.09497934
77	0x3dc9661d	0.0983393
78	0xbdda8d0a	-0.10671432
79	0xbdf4a537	-0.11945575
80	0x3dd11297	0.10208624
81	0x3e0860fb	0.13318245
82	0x3c9519a0	0.018200696
83	0x3d17ccbe	0.03706049
84	0x3c427787	0.011869318
85	0x3c347110	0.011013284
86	0x3d1209a0	0.03565371
87	0x3bd35250	0.0064490214
88	0xbe30d1a9	-0.17267479
89	0xbdc8597a	-0.09782691
90	0xbc4bf860	-0.012449354
91	0x3d29fd54	0.04150136
92	0xbe13350b	-0.14375703
93	0xbe270b73	-0.16312961
94	0xbdd69bc1	-0.104789265
95	0xbba6b02a	-0.0050869184
96	0x3e5e5ed5	0.21715863
97	0x3dbde27a	0.092717126
98	0x3e1ee9e0	0.15518904
99	0x3df2b91a	0.118517116
100	0xbe27ec80	-0.16398811
101	0xbdc18077	-0.09448331
102	0xbd94b6e8	-0.07261449
103	0x3cdc2e5d	0.026877576
104	0xbb4599e7	-0.0030151547
105	0x3d4c9dff	0.049955364
106	0xbd8e7a8a	-0.06956966
107	0x3d4845ee	0.048894815
108	0x3e0afff0	0.13574195
109	0x3d2ab808	0.041679412
110	0x3dab5a64	0.0836685
111	0x3c98baa0	0.018643677
112	0x3d5dc729	0.054145012
113	0xbdc0119a	-0.09378357
114	0xbd8c982f	-0.06864964
115	0xbbc79796	-0.0060910685
116	0xbe032b24	-0.12809426
117	0xbddcebc0	-0.10787153
118	0x3ccfb136	0.025353055
119	0x3d9668ba	0.07344194
120	0xbe17b166	-0.14813766
121	0x3cba450e	0.022738006
122	0xbd7bd6d5	-0.061484177
123	0x3dfb17a7	0.12260371
124	0x3e2bf055	0.16790898
125	0x3e3828c5	0.17984302
126	0xbda4c49f	-0.08045315
127	0x3e5b946c	0.21443337

lstm.bias_hh_l0 f4 [128]
0	0x3dc60c7a	0.096703485
1	0xbdf9a5e7	-0.121898465
2	0xbc4447a3	-0.01197997
3	0x3bb35edf	0.005473956
4	0xbd9abdd0	-0.07555735
5	0xbdedc258	-0.11609334
6	0xbdf48a7d	-0.11940477
7	0x3d4465e6	0.04794874
8	0xbd8125e6	-0.06306057
9	0x3d22f062	0.03978003
10	0x3e080ba6	0.13285694
11	0xbd38db08	-0.04513076
12	0xbd30aafa	-0.043131806
13	0x3d9e2510	0.07721913
14	0x3dff1d24	0.1245673
15	0xbdc64afa	-0.096822694
16	0xbdd87277	-0.105687074
17	0xbd1778d3	-0.03698046
18	0xbdbe2706	-0.09284787
19	0xbd102cde	-0.03519904
20	0xbdfbd5aa	-0.122966126
21	0xbcaff324	-0.021478243
22	0x3c492058	0.012275778
23	0xbde5941d	-0.11209891
24	0xbd83bab9	-0.06432099
25	0xbe06b69e	-0.131556
26	0xbe31267b	-0.17299835
27	0xbdc758e4	-0.097337514
28	0xbc3fd441	-0.01170832
29	0xbe016183	-0.12634854
30	0x3e51480f	0.20437644
31	0x3e6e51f0	0.23273444
32	0x3de97a7d	0.11400316
33	0xbd188bf8	-0.03724286
34	0x3d7929be	0.060830824
35	0x3dd20e6d	0.10256658
36	0xbe13ef13	-0.14446668
37	0x3dae3797	0.08506697
38	0xbd4f7e76	-0.050657712
39	0xbd85e76c	-0.06538281
40	0xbdaa2aaf	-0.083089225
41	0xbe4cd21d	-0.20002027
42	0x3e2aad72	0.16667727
43	0xbbc28535	-0.0059362897
44	0xbcfbb446	-0.03072561
45	0xbd9f1bb9	-0.077689596
46	0xbd1b33b0	-0.03789109
47	0x3ddea0b5	0.10870496
48	0xbc447eec	-0.011993151
49	0x3dcdc56e	0.10047422
50	0x3d08c429	0.033390198
51	0xbc91c8b0	-0.01779589
52	0xbd8b11cc	-0.06790504
53	0x3d8f7512	0.07004751
54	0xbe22d520	-0.15901613
55	0xbd8f8eb6	-0.07009642
56	0x3dd399a9	0.10332043
57	0xbd423c47	-0.047420766
58	0x3e6048f4	0.2190283
59	0xbde7f500	-0.11326027
60	0xbde82f5f	-0.1133716
61	0xbde02f34	-0.10946503
62	0x3d23a842	0.039955385
63	0x3d6e8a3f	0.05823731
64	0xbcedeaf0	-0.029042691
65	0xbdcc4dfa	-0.0997581
66	0xbe3be30b	-0.18348329
67	0x3d812955	0.063067116
68	0xbdba3db2	-0.09093799
69	0xbd5e7491	-0.054310385
70	0x3e2b8c55	0.16752751
71	0x3c274720	0.010209829
72	0xbe027984	-0.12741667
73	0xbda78b54	-0.081808716
74	0x3dda36fb	0.10655018
75	0xbdab4836	-0.083633825
76	0x3c77dc00	0.015128136
77	0xbdf7d25a	-0.12100668
78	0x3da714e2	0.0815828
79	0x3ca5b363	0.02022714
80	0x3d98609f	0.07440304
81	0x3e0f87b1	0.14016606
82	0x3ca3b5b0	0.019984096
83	0x3d9e7cfc	0.07738683
84	0xbdc4d93c	-0.09611747
85	0xbde3b516	-0.11118524
86	0x3e2c027f	0.16797827
87	0x3d9d476e	0.0767964
88	0xbc0483fd	-0.008088109
89	0x3df891b6	0.12137167
90	0xbe246fc7	-0.16058265
91	0x3e2e8585	0.17043121
92	0x3d2c2e9e	0.042036645
93	0xbdad8ecf	-0.08474504
94	0x3e1a2a3d	0.15055175
95	0x3d8368cb	0.06416472
96	0xbc5a3f62	-0.013320776
97	0xbdc75ece	-0.097348794
98	0x3dd71020	0.105011225
99	0x3e1f420a	0.15552536
100	0xbdda6eb4	-0.10665646
101	0xbe021d5b	-0.1270651
102	0x3b780382	0.0037843888
103	0xbd6dda72	-0.058069654
104	0xbcbf1648	-0.023326054
105	0x3d0c909c	0.034317598
106	0x3e075716	0.13216814
107	0xbe328e0b	-0.17436998
108	0xbdb8eaf1	-0.090291865
109	0x3e5aaa15	0.21353944
110	0x3d2cfb62	0.042231925
111	0x3e59f9e7	0.21286736
112	0xbe61d9f5	-0.220558
113	0xbda47968	-0.08030969
114	0x3e40ab20	0.18815279
115	0x3cd5a82e	0.02608117
116	0xbdecaca8	-0.11556369
117	0xbdcf2612	-0.10114683
118	0x3d0095c1	0.031392816
119	0xbd08d918	-0.03341016
120	0x3e461d8d	0.1934721
121	0x3d7ed1bc	0.062211737
122	0x3cd65a15	0.026166001
123	0xbd2d8d03	-0.042370807
124	0x3e4334cb	0.19063108
125	0x3da4350b	0.0801793
126	0x3e539fb2	0.20666388
127	0xbda15b26	-0.07878713

fc1.weight f4 [16, 32]
0	0xbd66a03f	-0.056305166
1	0x3ca2022f	0.019776432
2	0xbc89a246	-0.01680101
3	0xbb610b00	-0.0034338832
4	0xbd828ff6	-0.063751146
5	0x3cc4ef91	0.024040015
6	0x3e548201	0.20752718
7	0x3db59cf1	0.08867825
8	0xbe079c39	-0.13243188
9	0x3e62a3ea	0.22132841
10	0x3e604bae	0.2190387
11	0xbd793863	-0.06084479
12	0xbc5c8d3d	-0.013461408
13	0xbd445ebc	-0.04794191
14	0x3d0efae6	0.034907244
15	0xbe556e61	-0.20842887
16	0xbe1ac3d7	-0.1511377
17	0x3d7a7247	0.06114414
18	0x3d030171	0.031983797
19	0x3c914942	0.017735127
20	0xbd809091	-0.06277574
21	0xbe081794	-0.13290244
22	0x3df277a6	0.118392274
23	0x3e018d38	0.12651527
24	0xbcbca2c5	-0.023026833
25	0x3e1c3237	0.1525353
26	0xbe1d9ee5	-0.15392645
27	0x3c812dd5	0.015768925
28	0xbe5b2e44	-0.21404368
29	0x3e1c884a	0.15286365
30	0x3e4c439f	0.1994767
31	0xbde738f1	-0.112901576
32	0x3d89450c	0.06702623
33	0x3d273b83	0.04082824
34	0xbdb8c7ba	-0.0902247
35	0xbe2699f0	-0.1626966
36	0x3e0a6ad5	0.13517316
37	0x3e037cc3	0.12840562
38	0xbe1d927f	-0.15387915
39	0x3e2563be	0.1615133
40	0xbdd1342d	-0.1021503
41	0x3d1156d3	0.035483193
42	0xbe0ca6e0	-0.13735533
43	0x3db99b8d	0.09062872
44	0x3d9e782a	0.07737763
45	0x3e2382df	0.15967892
46	0xbd983d17	-0.07433527
47	0xbdb548ac	-0.08851752
48	0xbd821dd0	-0.063533425
49	0x3e18611e	0.14880797
50	0x39aafa6b	0.00032611503
51	0xbcb22b8f	-0.021749286
52	0xbe30f972	-0.17282656
53	0xbd117330	-0.035510242
54	0xbdcf7c47	-0.10131126
55	0x3e0bc40e	0.13649008
56	0x3e0ce70e	0.13760015
57	0x3d398c3f	0.045299765
58	0xbdbbcd04	-0.09169963
59	0xbbc3f511	-0.005980142
60	0x3d6de03b	0.05807517
61	0xbe284b1d	-0.16434903
62	0xbdd528c9	-0.1040817
63	0xbdc8912c	-0.09793314
64	0x3e34936f	0.17634366
65	0x3e0142e9	0.1262318
66	0xbdfcfdee	-0.12353121
67	0xbde43a71	-0.11143959
68	0xbd99b3f1	-0.07505024
69	0xbbc1ea20	-0.0059178025
70	0xbc991ce8	-0.018690541
71	0xbc9f1690	-0.019419938
72	0x3e039fdd	0.12853952
73	0xbe0c39e4	-0.13693959
74	0xbe00789e	-0.12546012
75	0xbdb62cc3	-0.08895256
76	0x3d8bc38e	0.068244085
77	0x3e02b9cd	0.1276619
78	0x3d8f21aa	0.06988843
79	0xbd2651dc	-0.04060541
80	0xbb5ac440	-0.0033381134
81	0xbe052ea1	-0.13006069
82	0x3dc1aa0e	0.094562635
83	0x3e21501f	0.1575322
84	0x3db2020a	0.08691795
85	0x3dffe6ce	0.124951944
86	0xbd94c6dc	-0.07264492
87	0xbe058a00	-0.13040924
88	0x3da849f2	0.08217229
89	0xbd818366	-0.063238904
90	0xbe05066b	-0.1299073
91	0xbd9f38c8	-0.07774502
92	0xbdec3c4a	-0.11534937
93	0xbd278398	-0.040896982
94	0x3dadb87e	0.08482455
95	0x3d60fc24	0.05492796
96	0x3ddfd412	0.10929121
97	0x3d60de24	0.05489935
98	0x3d0e1104	0.034684196
99	0x3c771650	0.015081003
100	0x3c7468d0	0.014917567
101	0x3d0e2e90	0.034712374
102	0xbdec372a	-0.11533959
103	0x3df2d93e	0.11857842
104	0x3d849636	0.06473963
105	0x3c781a30	0.015142962
106	0xbe23adb6	-0.15984234
107	0x3e1b9133	0.15192108
108	0xbe0fb5a5	-0.14034136
109	0xbd5e4b82	-0.05427123
110	0x3e10ce47	0.14141189
111	0xbd95b322	-0.073095575
112	0xbd361bd8	-0.044460148
113	0x3d9f5e8a	0.07781704
114	0x3d4bb688	0.049734622
115	0x3e1bc137	0.15210424
116	0xbd63b4b0	-0.05559224
117	0xbd5ff1be	-0.054673903
118	0xbe222a59	-0.15836467
119	0x3cdbb850	0.026821285
120	0x3e30cd8b	0.17265908
121	0x3dd7c23e	0.10535096
122	0xbd3ed3ec	-0.046588823
123	0xbe141e94	-0.1446479
124	0x3d9582a4	0.07300308
125	0x3d93ad52	0.072107926
126	0xbe20b1f5	-0.15692885
127	0xbcc47598	-0.023981854
128	0x3dedd516	0.116129085
129	0x3e002c71	0.12516953
130	0x3e0b838d	0.13624401
131	0x3d825752	0.06364311
132	0xbe1e38a1	-0.1545129
133	0x3dec5362	0.115393415
134	0xbdd5a5ac	-0.1043199
135	0xbc606120	-0.013695031
136	0x3e0a9091	0.1353171
137	0xbd86973c	-0.065718144
138	0xbe02b0ae	-0.1276271
139	0xbcc02538	-0.023455247
140	0xbe1b18e4	-0.15146214
141	0x3d22410c	0.039612815
142	0x3e036ffd	0.12835689
143	0x3df4d2ee	0.11954294
144	0xbdcb78e3	-0.09935167
145	0xbc465f00	-0.012107611
146	0x3e0f5d7f	0.1400051
147	0x3d325adc	0.04354368
148	0xbca170b8	-0.019707069
149	0x3e0a2f6f	0.13494657
150	0x3bfff2c0	0.0078109205
151	0xbe051696	-0.12996897
152	0xbe2363cf	-0.15956043
153	0x3d88ca9c	0.0667927
154	0xbe1ca0a8	-0.1529566
155	0x3d069100	0.032853127
156	0x3e05321b	0.13007395
157	0xbde4d21b	-0.11172887
158	0x3e32801b	0.17431681
159	0xbd4d8148	-0.05017212
160	0x3e1f70a5	0.15570314
161	0x3e11e4c7	0.14247428
162	0x3cd1cf88	0.025611654
163	0x3cd7b068	0.026329234
164	0x3d747c14	0.059688643
165	0xbb1a6180	-0.002355665
166	0x3e041be7	0.12901269
167	0x3e18926b	0.14899604
168	0x3e2df70f	0.16988777
169	0x3d26becc	0.0407093
170	0x3d3b25f4	0.04569049
171	0xbb6c7040	-0.0036077648
172	0xbb188e40	-0.0023278147
173	0xbb02c8c0	-0.0019956082
174	0xbe16ea08	-0.14737713
175	0x3d8a0dc8	0.0674091
176	0x3c9f8ca8	0.01947625
177	0xbe161e7f	-0.14660071
178	0x3d069a8c	0.03286223
179	0x3da5126e	0.08060156
180	0x3dbf517a	0.09341712
181	0xbe0644cc	-0.13112181
182	0xbd057a78	-0.0325875
183	0x3deb1f6a	0.11480601
184	0xbd6e96e4	-0.05824937
185	0xbcc27040	-0.023735166
186	0x3e34cfa3	0.17657332
187	0x3d1fd6b4	0.039023116
188	0x3dcb23f6	0.099189684
189	0x3c8c6368	0.017137244
190	0x3d0ce78c	0.034400508
191	0x3d36e168	0.044648558
192	0x3ccc7dd8	0.02496235
193	0xbd3281c4	-0.043580785
194	0xbdfe2244	-0.124088794
195	0xbd7cfc76	-0.061764203
196	0x3d17afe4	0.037032977
197	0xbc95c920	-0.01828438
198	0xbdf2a67e	-0.11848162
199	0x3e0c2691	0.13686587
200	0x3d5e6810	0.05429846
201	0x3ddd7872	0.10813989
202	0xbe089e97	-0.13341747
203	0x3b236f40	0.0024938136
204	0xbdab4b26	-0.08363943
205	0xbe193b79	-0.14964093
206	0xbe1ec3fc	-0.1550445
207	0x3e22a309	0.15882505
208	0x3e170137	0.14746557
209	0x3da71156	0.081576034
210	0xbd79f184	-0.061021343
211	0x3dde2516	0.10846917
212	0x3d534e0c	0.051588103
213	0xbdf3af2b	-0.11898645
214	0xbc91e248	-0.017808095
215	0x3b5c74c0	0.0033638924
216	0x3c9c0568	0.019045547
217	0x3dd86baa	0.1056741
218	0x3dc08dd2	0.0940205
219	0x3c1618d0	0.009161189
220	0x3dd4975e	0.103804335
221	0x3d6b4888	0.057442218
222	0x3d3bc164	0.04583873
223	0xbe29f66f	-0.16597913
224	0x3d7fe21e	0.0624715
225	0x3e15570c	0.14583987
226	0x3df1cfc3	0.118072055
227	0x3e36279d	0.17788549
228	0xbe08ab55	-0.13346608
229	0x3b5fc6dd	0.0034145631
230	0xbd43f2de	-0.047839038
231	0x3df904ff	0.12159156
232	0x3e1d8b38	0.15385139
233	0x3e053abf	0.13010691
234	0x3dc2a2bf	0.095036976
235	0x3da94910	0.08265889
236	0xbe2fa19a	-0.1715149
237	0x3e1408ec	0.14456528
238	0x3e104c11	0.14091517
239	0x3d3a0875	0.04541822
240	0xbdea9dca	-0.11455877
241	0xbcfb9144	-0.030708916
242	0xbe123b4e	-0.14280435
243	0xbad123bf	-0.0015956088
244	0xbdf0af57	-0.117521934
245	0x3c078da8	0.00827352
246	0xbdc36156	-0.0954005
247	0xbdb05dcf	-0.086116426
248	0xbdd8a215	-0.1057779
249	0x3e049453	0.12947206
250	0xbdec9209	-0.115512915
251	0xbd325720	-0.04354012
252	0x3e20c163	0.15698771
253	0xbcc73a89	-0.024319904
254	0xbb91b1a1	-0.004446224
255	0xbde06a4a	-0.10957773

fc1.bias f4 [16]
0	0x3d8b8b4c	0.06813678
1	0x3e133b5d	0.14378114
2	0xbdac6bd0	-0.08419001
3	0xbd5f206a	-0.05447427
4	0xbe250dca	-0.16118541
5	0xbe2f4427	-0.17115842
6	0xbdefec7c	-0.11715028
7	0xbdaec4f4	-0.085336596
8	0xbbc31258	-0.0059531145
9	0x3bc1c665	0.005913543
10	0x3bcb7b60	0.006209776
11	0x3d42ffad	0.047607113
12	0x3beee6c0	0.007290691
13	0xbde6d9fe	-0.112720475
14	0xbd8a1354	-0.06741968
15	0xbd5a1dd0	-0.053251088

out.weight f4 [1, 16]
0	0x3e4b93c4	0.19880587
1	0xbda0f90b	-0.07860001
2	0xbe6ff622	-0.23433736
3	0x3e38f852	0.18063477
4	0x3d2b0ee0	0.041762233
5	0xbe3c841c	-0.1840977
6	0xbd10e318	-0.035372823
7	0xbe1a48d9	-0.15066852
8	0x3e888d3e	0.2667026
9	0x3e1c2526	0.15248546
10	0x3e3f09f6	0.18656144
11	0xbe1715f0	-0.14754462
12	0xbdeb4d60	-0.114893675
13	0x3e152ed4	0.14568645
14	0xbd52aa00	-0.051431656
15	0xbd933314	-0.07187477
