artifacts/territory/lstm/839__0__0/model.pt (torch, 23217 bytes, 7 tensors)

lstm.weight_ih_l0 f4 [128, 1]
00000000: 4cf8 053d afe6 80bd 77bf eebd cd9e f8bd
00000010: a68b f1bd 69c7 b13d 32ca d5bd 05ef 4ebd
00000020: ecdf 0bbd 8640 d63d 640d 113e aba8 2e3e
00000030: af9f 32be 9481 8abd de4d 07bd 0537 b1bd
00000040: 2c4d 183e 923c 053c 3fdd 023e c98a 293e
00000050: eac0 1d3d a6c5 b33d 0ef7 a2bc 49ce afbd
00000060: 22da df3d 33de 323e 9395 a83d 5d55 b23d
00000070: 138a 313e 88a6 f33d 2bfc 463c d28c 7cbd
00000080: d32e 1fbe e776 ad3d 5dd0 b53d 579c 0e3e
00000090: f819 0abe a4c4 bbbd a87d 11be 9b12 4e3c
000000a0: a4e3 2ebe cefb 07be 4051 1ebe b6ee 073b
000000b0: ee75 adbd df9b b5bd e949 4bbd 2ad7 e63d
000000c0: c4be c1bd 471e 1cbe 7925 86bd 86eb 02be
000000d0: dd44 06be 6130 0abe 07dd 13bd efb0 20bd
000000e0: 8eef e73d 9aed 02bd 8c0e 0c3d c2b2 ab3c
000000f0: 7776 aabd ea49 923d 5d96 163e d3ce 10be
00000100: 0b26 263d 23bb 973d cc1e 6b3d 3ad6 18be
00000110: bcda 8b3d 9a78 c43d 32bc b53d 8b8a b2bd
00000120: ae7d e93d 3604 f6bd 1169 1b3e eb18 dcbd
00000130: 3568 103e 1e4f 17be ad30 29be 31ea 153e
00000140: 9791 2abe 5261 db3d c655 093b f9fa 11be
00000150: d10c 033e 1cd5 6abd 2e97 813d 965f 603d
00000160: 7498 2bbd 124f bebd 26ca 9cbd 3e6d ce3d
00000170: 2ec9 d23d 5edc 67bd 1090 37bd e0e8 21bd
00000180: cc92 15be 8597 0c3e 7168 073e 55dc debd
00000190: b102 17be 357d b93d b142 223e 257f 30be
000001a0: 8e02 18be 8b15 813d f077 283d d8d4 143e
000001b0: 721d c8bc 193b acbc 923b 7fbd e4d7 95bd
000001c0: bc6d fa3d 9cc9 8b3d 495b e0bd 4c5f d8bd
000001d0: fcc2 5abc 1a41 b53d 4723 bf3c a756 f03d
000001e0: dbea 8d3d b456 113e e173 ebbc bdfa fcbd
000001f0: a02d 1fbe 79e3 b43d 526a ef3d f409 413d
0.032707497 -0.062939994 -0.11657613 -0.12139664 -0.11794214 0.086806126 -0.10438956 -0.050520916
-0.034149095 0.104615256 0.14165264 0.17056529 -0.17443727 -0.06762996 -0.033033244 -0.08653072
0.14873189 0.008132117 0.12779711 0.16556849 0.038514055 0.08777933 -0.019893195 -0.08584268
0.109302774 0.17467575 0.08231654 0.08707688 0.17337827 0.11896998 0.0121450825 -0.061657734
-0.15545206 0.084699444 0.08877633 0.13926826 -0.13486469 -0.091683656 -0.1420809 0.012577678
-0.17079026 -0.1327965 -0.15460682 0.0020741648 -0.08469759 -0.08867621 -0.049631033 0.11271508
-0.09460214 -0.15245925 -0.06550116 -0.12785158 -0.13112207 -0.13495018 -0.03609946 -0.039231237
0.11324988 -0.031964876 0.03419356 0.020959262 -0.083233766 0.07143004 0.14705797 -0.14141397
0.040563624 0.0740874 0.057402417 -0.14925471 0.0682883 0.095933154 0.08873786 -0.08717831
0.114009246 -0.12012522 0.15176798 -0.1074694 0.14102252 -0.14776275 -0.16522475 0.14640118
-0.166571 0.10711922 0.0020955666 -0.14255895 0.12797858 -0.057332143 0.06327663 0.054778658
-0.041893438 -0.09292425 -0.07655744 0.1007943 0.10292278 -0.056606643 -0.044815123 -0.039528728
-0.1460678 0.13729675 0.13223435 -0.10881869 -0.1474712 0.090570845 0.15845753 -0.17236002
-0.14844725 0.06302937 0.041130006 0.14534318 -0.024428103 -0.021024274 -0.06231267 -0.073165685
0.122279614 0.06825563 -0.10954911 -0.105650514 -0.013352152 0.08850308 0.023332251 0.117352776
0.06929561 0.14193231 -0.028741779 -0.12352512 -0.15544748 0.088324495 0.11690201 0.047128633

lstm.weight_hh_l0 f4 [128, 32]
00000000: a000 d0bb 2aff 06be 3a85 c93d 28fc 0dbd
00000010: ec54 0bbe 73cd 933b 8cb8 0abe de82 d5bd
00000020: 6e6d 983d 1a8f 373d 67bf afbd d117 1d3e
00000030: e02d d3bb de83 54bd 73d1 043e 84cb 6bbd
00000040: 197a 10be c6aa 533d 4a10 0dbe e4dc 3d3d
00000050: 3a03 6fbd 1820 32be 00cc 43ba 0829 c63c
00000060: 2dc9 2b3e e3ae e43c 366d c43d 1773 94bd
00000070: 5219 9cbd 08be 90bd 9ba4 193e e2c9 ad3d
00000080: a0f2 a33b d189 89bc 610e 93bd b2a5 d23d
00000090: 4aa8 f93d 7171 b8bd e524 08be b44d 61bd
000000a0: c8e3 edbc 4058 77bb d9db 013e fcfb 4bbe
000000b0: 71e1 113e 68ab 87bc 02ad 0cbe fb08 89bd
000000c0: b5b0 493d 3fcf 403d eaa9 be3d ffbf c9bd
000000d0: 0a50 75bd 5f81 e8bd fc73 08be 03d7 fbbd
000000e0: e3b2 3fbd 52e0 dc3d ac41 3b3d 4eb2 a93d
000000f0: d0c0 e1bc 07c4 c6bc 8021 043d a136 2abc
00000100: 7e96 06be 848d 013e b744 c5bb bc55 06bd
00000110: 6b7c 223e b33d a2bd 3891 473d 90ba 033d
00000120: b1a6 d8bd 76de 62be 6198 e3bc d9c3 62be
00000130: c1ec e4bd a383 acbd c0f5 6cbb 1066 16be
00000140: 548d 09be 3c3e 0d3e 47f9 003e a0cc 883c
00000150: e179 9abd 78e3 63be 5414 073e 32f5 77bd
00000160: b2e2 5ebe df87 6d3d 664a dc3d ad16 0dbe
00000170: eab9 b03d 9439 a5bd 30a8 8a3d cd1a 01be
00000180: bdee d4bd 72f9 2ebe 104e bd3c ab42 15be
00000190: 22eb c8bd 666d 973d f88a 233d 5fe1 283e
000001a0: 7214 e13d d7c1 0d3e 7832 f7bc 500d a9bc
000001b0: 0582 2b3e 6233 28be fdd4 debd 7cff e6bd
000001c0: 2d6d 09be 7659 893d 4c03 4d3d b752 f3bd
000001d0: 229e e33d 14cf 0d3d 053e 1a3e ebeb 143e
000001e0: 8e91 95bd f0f6 bdbd aa11 e83d cde7 143e
000001f0: 4dfc 15be 6afe a43d 38ec 15be 456d c6bd
00000200: c2e5 01be c825 3dbd 615a 1f3e 18b7 a9bd
00000210: 5c0a 023d bbbd a7bd bc99 6e3d 00a5 60bb
00000220: 9f7b 2c3e e8dc c13c 6180 283e 0804 5dbd
00000230: 7e72 73bd fe92 a83d 98ef 373d 5f4a dabd
00000240: 543d 413d 6045 b53c 7f41 0e3e 4f78 223e
00000250: 728e 59bd 2140 15be f4d1 f9bd 5ab1 14be
00000260: 2849 053d 1300 28be a419 553d 2937 073e
00000270: cc94 753d 3875 3b3d 9a0a 57bd d0fd bfbc
00000280: 69bd 0f3e ee43 bb3d 72cc 32be 7166 24be
00000290: 45af 1c3e 489b cbbd b6e2 d73d 92e7 d83d
000002a0: dc72 afbd 5c8c e4bc a563 713d d3d7 f83d
000002b0: d007 80bd 6a35 ee3d 0660 e63d 0e1a b13d
000002c0: 91c6 183e 68c7 e23d 54be a7bd c026 03bb
000002d0: e79c 283e 9242 99bd 9a5f 103c 1e11 e43d
000002e0: 5b79 0d3e 0b16 cebd 291d 86bc 0423 2abd
000002f0: 0b5a 0f3e 4d3e 303e 0083 b7bd 02d4 2cbe
00000300: 00c0 aa3c f65f aebd 5e35 2dbd d023 07be
00000310: 1d20 c9bd 2264 e2bd 2ac7 5fbd 3d55 193e
00000320: 5b7f 2a3e 96d0 e4bd 6753 23be aeae 20be
00000330: ce60 79bd 8e10 b13d 93a5 093e 30fd b33c
00000340: 9f2d d7bd 2fea 0e3e 901d 653c 50bb b13c
00000350: adb6 77bc b1a8 fbbc 5113 a83d f00b 313c
00000360: 5968 c23d 0e69 ae3a af11 2abe 5805 083d
00000370: 5025 cebc 8414 13bc a2af efba 2560 80bd
00000380: f066 55bd 6737 313e c3e4 193e 36b1 22be
00000390: faea b93d 7886 243d 6bc5 1c3e a6e3 db3d
000003a0: c087 13bd ddca c2bb c982 293e bc5d 233d
000003b0: c0fc 2b3b 25d6 28be a8fa 9fbc 7241 ff3d
000003c0: c923 c8bd 10b7 7b3d 4031 dbbc f889 31bd
000003d0: 4954 0f3e 92f4 253c 8da1 a0bd 890e 1c3e
000003e0: c62b fa3d eb39 0f3e fcde 44bd f897 b2bc
000003f0: 20e8 58bc 680f 243d a591 b0bd 5249 993d
-0.0063477308 -0.13183275 0.09839864 -0.034664303 -0.13606614 0.0045105754 -0.13546962 -0.104253516
0.07442747 0.044814207 -0.08581429 0.15341116 -0.0064446777 -0.05188357 0.12970524 -0.057567134
-0.14109077 0.051676534 -0.13775745 0.046353236 -0.058352686 -0.17395055 -0.0007469058 0.024189487
0.16775961 0.027915424 0.09591143 -0.07248514 -0.07622017 -0.070674956 0.15004198 0.08485772
0.0050032884 -0.016789349 -0.07180477 0.1028551 0.12190302 -0.09006012 -0.13295324 -0.055005744
-0.029039279 -0.003774181 0.12681521 -0.19920343 0.14246155 -0.016561225 -0.13737872 -0.06691166
0.049240787 0.047072645 0.09309752 -0.098510735 -0.059890784 -0.113528006 -0.13325495 -0.122968696
-0.04680146 0.10784973 0.045716926 0.08285962 -0.02755776 -0.024263395 0.03225851 -0.010389001
-0.13143346 0.1265164 -0.0060201543 -0.032796606 0.15867774 -0.079219244 0.048722476 0.03216034
-0.10578669 -0.22155175 -0.02778262 -0.22145022 -0.1117797 -0.08423545 -0.003615722 -0.14687371
-0.13432819 0.13793272 0.12595092 0.016699135 -0.07542778 -0.22254741 0.13191348 -0.06053657
-0.21766165 0.057990905 0.10756378 -0.13778181 0.0862921 -0.08067623 0.067703605 -0.1260788
-0.10397098 -0.17087343 0.023108512 -0.14576213 -0.09810473 0.07393913 0.039927453 0.16492222
0.10990228 0.13843475 -0.030175433 -0.02063623 0.16748817 -0.16425851 -0.10880468 -0.112791985
-0.13420554 0.067065164 0.050051972 -0.11881011 0.11114146 0.034621313 0.15062721 0.1454312
-0.07303153 -0.09275615 0.11331494 0.1454155 -0.14647026 0.08056338 -0.14640892 -0.0968881
-0.12685302 -0.04617861 0.1556182 -0.082868755 0.03174816 -0.08190485 0.05825208 -0.0034278035
0.16844033 0.023664907 0.16455223 -0.053958923 -0.05943536 0.082311615 0.04490623 -0.106587164
0.047177628 0.022127807 0.13892172 0.15866207 -0.053114362 -0.14575244 -0.121982485 -0.14520779
0.03254047 -0.16406278 0.052026406 0.13204636 0.059956357 0.045766085 -0.052500345 -0.023436457
0.14037098 0.09143816 -0.17460802 -0.16054703 0.15301235 -0.09941727 0.105412886 0.105910435
-0.085668296 -0.02789896 0.05893292 0.1215054 -0.0625149 0.11631282 0.11248784 0.08647548
0.14919497 0.1107319 -0.08190599 -0.002001211 0.16466103 -0.074834004 0.008811856 0.11136077
0.13815825 -0.10062798 -0.016371327 -0.0415373 0.13999192 0.17211266 -0.08960533 -0.1687775
0.020843506 -0.08514397 -0.042287223 -0.13197255 -0.09820578 -0.11054255 -0.054633297 0.14973922
0.16650145 -0.11172597 -0.15949784 -0.15691635 -0.060883336 0.08645736 0.13442068 0.021971315
-0.105067484 0.13956521 0.013984099 0.021695763 -0.015119237 -0.030720087 0.08206809 0.010806069
0.09492559 0.0013306455 -0.16608308 0.03320822 -0.025164276 -0.008977059 -0.0018286596 -0.06268338
-0.052100122 0.1730629 0.15028672 -0.15887913 0.09078021 0.040167302 0.15309684 0.1073678
-0.036018133 -0.0059445933 0.16553797 0.039884314 0.002624318 -0.1648794 -0.019528702 0.124636546
-0.097724505 0.06145388 -0.026756883 -0.043344468 0.13996996 0.010129111 -0.07843313 0.1523992
0.1221538 0.13986938 -0.048064217 -0.02180098 -0.013238937 0.040053755 -0.086215295 0.07484688

lstm.bias_ih_l0 f4 [128]
00000000: 0a91 ee3d 3eb4 de3d eabc 993d 8205 9e3d
00000010: bf88 afbd b6e5 4cbd 0fdc 0bbe 4d88 3d3c
00000020: ac42 4cbc 3c64 2c3e 6a0f 003c 7186 32be
00000030: 5e90 f9bd 482f 05be ce0d 933d c096 753d
00000040: 45bd a83d 8f07 b03d 3600 9e3d af06 0bbe
00000050: 62e3 173e 415d c6bc 548f 973d dcf9 1fbd
00000060: ebe4 cabd 30cf 0bbe 302c 17be 2087 b7bb
00000070: 372c 263e 2171 3cbd 518a ee3d a3f9 dcbd
00000080: e00e cbbd 1c5a c1bd 757e 03be 2850 36bd
00000090: 3d7b 273e c4de eabc 2a96 01be f841 913d
000000a0: 1044 943d 3dc7 353d 1c68 00be de80 143c
000000b0: 20c0 7a3c e80d 6b3d 72a3 cc3d a453 29bd
000000c0: a60a cabc eb6d 613d 2aaf a23d f7ed 113e
000000d0: 0fb4 c9bd 62d7 073e c6ec ca3c d0bc df3c
000000e0: 788b d9bd ef64 ab3c cf0f 99bd 95b4 13bc
000000f0: 3c94 f9bd ccda a6bd 0609 e03d 319b 273e
00000100: 059d 87bd 4e96 ccbd 344c 27bd 9a44 d53d
00000110: 7c94 4bbd 90c5 973c 6805 f03c 9225 34be
00000120: 9884 163d c458 00be fcf2 22be 39d9 16be
00000130: c6c9 66bd c890 5a3d 1ed5 7abd 3e95 a2bd
00000140: 40cc 30bb ad31 11be 0ac9 3ebd 8279 a13d
00000150: c2e7 80bd 1975 aa3c 504d 94bc f57c 19bc
00000160: 380b 103c a54c cabd ae1d 34bd 072a 0e3e
00000170: aed1 13be db57 003e 6d1b 5f3d 5e12 843d
00000180: 0a0e 33be 5400 943d 703d 9cbd 0eb9 db3d
00000190: 4d75 ddbd 784e 0d3e f234 d2bd 419c 1a3e
000001a0: 4d83 b7bd 86bc 153e 3fae d9bd 0477 523d
000001b0: 1ade f3bd 50a6 083e a5f2 fb3d 3143 ce3d
000001c0: 56b2 2b3d 54b7 bf3a 364b 14be 1489 c93d
000001d0: cbdc aebc 00eb 02be 93df 0dbe 02a8 3c3c
000001e0: 2177 cabd c93c 283e cae3 fdbd 4514 19bc
000001f0: 5b20 f73d 293d ccbd 055a 933d e3d2 903d
0.11648758 0.10874222 0.075067356 0.07715894 -0.08571004 -0.050023757 -0.13658164 0.011568141
-0.012467068 0.16835111 0.007816175 -0.17434098 -0.12185739 -0.13006318 0.071803674 0.05995822
0.08239225 0.08595192 0.07714884 -0.13576768 0.14832833 -0.024214389 0.074003845 -0.039056644
-0.09906944 -0.13653255 -0.1476295 -0.005600825 0.16227804 -0.046006326 0.116474755 -0.10789802
-0.099149466 -0.09441015 -0.12841208 -0.044510037 0.16355605 -0.028670676 -0.1265494 0.07092661
0.072395444 0.04437946 -0.12539715 0.009063927 0.015304595 0.05738631 0.09992112 -0.04133953
-0.02466328 0.055036467 0.07943566 0.14250933 -0.098487966 0.13265756 0.024771105 0.027311713
-0.10622305 0.020922152 -0.074737184 -0.009015222 -0.121864766 -0.08147201 0.10939221 0.16367795
-0.06621746 -0.09989606 -0.040844157 0.10413475 -0.049702153 0.018526822 0.029299453 -0.17592457
0.036747545 -0.12533861 -0.15913004 -0.14731301 -0.05634477 0.05336073 -0.0612384 -0.07938622
-0.0026977211 -0.14179106 -0.046578445 0.07884504 -0.06294204 0.02080779 -0.018103272 -0.009368171
0.008791737 -0.098779 -0.043973617 0.1388322 -0.14435455 0.12533514 0.054469515 0.06448816
-0.17485824 0.07226625 -0.07628906 0.10728656 -0.10813389 0.13799465 -0.10264005 0.15098669
-0.089605905 0.14622697 -0.10628938 0.051383033 -0.11907597 0.13344693 0.1230214 0.100714095
0.04191812 0.001462678 -0.14481816 0.09840599 -0.021345517 -0.12784958 -0.13854818 0.011514666
-0.09886003 0.16429438 -0.12396963 -0.009343212 0.12066718 -0.09972603 0.07194904 0.070714734

lstm.bias_hh_l0 f4 [128]
00000000: 3ed4 013d 1d2d 083d 852d cabd 5d32 193e
00000010: db9b 273e 624d 393b f070 193e 158f 183e
00000020: 5c63 07be 5e8e 74bc 218f 1ebe 6c2e 033d
00000030: 423c ecbb 2d9a fdbd 6acb cc3d b663 04bb
00000040: 6f75 1cbe b7ce 403e 69ea 243e 8003 e33a
00000050: cfd3 173d 5038 133e 8770 d6bb b754 cf3b
00000060: 4926 953c 1618 22be eceb c43d 2cba 18be
00000070: f8b8 863c 2587 e6bc f876 59bd 3c56 08be
00000080: 8a6f 02be 2358 2a3e 05eb 0c3e 1569 1f3e
00000090: f721 1d3e 8d9b e53d 8bec 123e 8f93 2b3e
000000a0: bc72 7f3d b03b 163e f82b 143e 20df 87bb
000000b0: d2d1 13be d28d 6fbd 6ef1 aa3d 009f d1ba
000000c0: 8c30 b73d 1a95 30be d140 14be 56ee af3d
000000d0: d6d0 373d d998 bebb 3544 7bbd b139 2bbe
000000e0: 50d8 07be 031d 063d bff7 2f3e b588 2dbc
000000f0: c8be 653d baa1 1e3e a243 8f3d 48c1 743d
00000100: 3ffb 243e 3c66 e5bd fd50 d4bd e670 acbd
00000110: 6656 79bd 3887 8cbd 02b2 1cbe 30f8 8b3c
00000120: f892 103d ce4a c83d 38a5 25bd b9f3 0c3e
00000130: 7302 033e a712 13be 58c2 8abc b238 1fbe
00000140: 1c72 56bd 2ca6 20bd 4ad1 59bd 1cea 3e3d
00000150: b086 c9bc 0c2b c73d 3b77 be3d 089b debd
00000160: 38a5 d9bd 18bb 8f3c 1e2e 293d 79ce 103e
00000170: 646a 553d c703 de3d 199c 58bd f2db 02be
00000180: f532 febd da67 c63d 0ac4 f83d f21a b43c
00000190: a507 c2bd 17a0 763d 3861 19bd ecf4 423d
000001a0: 13b0 c3bd b31b 89bd dfdb 843d 0145 073e
000001b0: 8898 e6bd bed6 433d d043 2f3e b7a8 39bc
000001c0: d2d0 3b3d e4a1 09bd 7f38 0c3e f348 b4bd
000001d0: b478 453c 80ec 003e fcc0 63bb db67 cabd
000001e0: 95ea 233e fbbd 9b3c c338 0fbe 4909 0f3d
000001f0: 13aa e5bd 40a1 b5bd c4a1 bebc 314b 4d3d
0.03169655 0.03324615 -0.098719634 0.14960618 0.16368048 0.0028274884 0.14984488 0.14898331
-0.13221496 -0.014926521 -0.15484287 0.032026693 -0.0072093317 -0.12382922 0.09999736 -0.0020201034
-0.15279172 0.18828855 0.16105045 0.0017319769 0.03706723 0.1437695 -0.006544176 0.0063272375
0.018206732 -0.158295 0.09615311 -0.14914769 0.016445622 -0.028140614 -0.053091973 -0.13314146
-0.12737861 0.16635184 0.13761528 0.1556743 0.15344988 0.112113096 0.14348046 0.16755508
0.06236528 0.14671206 0.14469898 -0.0041464716 -0.14435509 -0.05848486 0.0834683 -0.001599282
0.089448065 -0.17244378 -0.1447785 0.08590381 0.044876896 -0.0058165607 -0.061344344 -0.16721226
-0.1326611 0.03274251 0.17184351 -0.0105916755 0.056090146 0.15491381 0.06995322 0.05975464
0.16111468 -0.1120114 -0.1036701 -0.08419971 -0.06087341 -0.068617284 -0.1530228 0.017086118
0.03529641 0.09779893 -0.040440768 0.13764848 0.12793903 -0.14362584 -0.016938373 -0.15548971
-0.052354917 -0.039220974 -0.05317811 0.046609983 -0.024600357 0.097250074 0.09300085 -0.108694136
-0.10627216 0.017545268 0.041303746 0.14141263 0.052103415 0.10840564 -0.05288324 -0.12779215
-0.12412063 0.09687777 0.121467665 0.021985505 -0.09474114 0.060211267 -0.03744623 0.047596857
-0.09555068 -0.06694736 0.064872496 0.13209917 -0.11259562 0.047812216 0.17115712 -0.011331729
0.045853443 -0.033601657 0.13693427 -0.088029765 0.012052704 0.12590218 -0.0034752479 -0.0988309
0.16007455 0.019011488 -0.13986497 0.034920964 -0.1121408 -0.088686466 -0.023270495 0.050120536

fc1.weight f4 [16, 32]
00000000: c37f d1bd 6f8b 13be 0070 8639 6b43 ccbd
00000010: a40e 80bd 20d9 25be e8d8 dcbc 0e8d 96bd
00000020: 400c 83bd 3a23 febd f088 b63c 0a63 883d
00000030: f705 adbd c094 5cbd f0dd 583c 4f08 0b3e
00000040: 798d 303e 1763 0d3e 3055 6f3d 3921 dfbd
00000050: 0d8a ccbd 10a5 fabc 6e99 aa3d aae6 f73d
00000060: d8f9 f0bc 2a49 23be 3ffe babd 099d bdbd
00000070: 30d0 6f3c 18cc a9bc 02bf a33d faef d8bd
00000080: 00cd 5d3c 299a 173e eed8 31be 5e18 e93d
00000090: 76ad 913d 9ea1 07be b8fa 803c e0be 5abc
000000a0: a714 163e 40b5 823d 1a5b fa3d 4cfa d2bd
000000b0: 9adb fe3d 2ea1 d63d 90fe f23c ffbd 233e
000000c0: 009f cbbb 008f 263b 043d 30be 7930 0b3e
000000d0: 9463 1b3d 369a b93d c6fe 64bd 1007 163d
000000e0: dc62 c2bd b05b 3dbd cabb b03d 60dd da3c
000000f0: e0e3 933d aee9 e23d 4090 2cbb 0a31 a1bd
00000100: 7e39 cc3d 2238 813d e889 423d 6d2b 253e
00000110: d600 07be 8c03 93bd aec3 f73d 0007 99bc
00000120: 6a33 8a3d 2c35 163d b85c f7bc bc8e 15bd
00000130: d058 5b3d a613 c63d b1b7 06be a216 c43d
00000140: c011 5cbc 8092 3b3b 0095 7abb 6ed7 dabd
00000150: 48c1 253d fe32 ec3d 9e7b 23be 8f57 b7bd
00000160: 6fc7 1f3e f406 3abd 4faf 013e 6daa 25be
00000170: fb65 e9bd 6b52 abbd f36a 123e 61e8 253e
00000180: 5c65 583d 153f 32be 06ec 523c 6682 29be
00000190: 4ead 57bd 6522 3abe f552 023e 7836 57bd
000001a0: 003c a03a 7e64 8ebd d81c 54bd 23c0 1bbd
000001b0: c883 d5bc c8c6 133e 42d2 09be 3ec2 69bd
000001c0: e856 87bd da88 603b a6cb cf3d 7ef7 0dbe
000001d0: 17c7 35bd f979 b73d 4a85 8cbd 32ed e33c
000001e0: 3b40 3a3d ab97 97bd afe6 23bd 832d 75bc
000001f0: 0011 983b 99d7 5c3d e6c6 babd 3ded 123e
00000200: 0248 e63d 229f f8bd 1069 103c 00a6 493a
00000210: 0f7a 2d3e d498 9dbd e4f2 243d 14e5 833d
00000220: 406b 27be cd37 2a3e f29a 9e3d c2f9 9dbd
00000230: d690 6abd a882 a4bc 1f91 abbd b895 a5bc
00000240: f9d1 0b3e 941d 21bd 031a 233e 9c77 3f3d
00000250: 14b9 763d aed8 57bd eec8 18be 60b1 8d3c
00000260: 26e0 9e3d e05e 6fbc c658 16be 589d fc3c
00000270: 2274 11be a24d 7cbd 2a3b fe3d 346a 1e3d
00000280: 0e11 e8bd 1db1 19be 7755 c6bd 5e52 7fbd
00000290: c14c b3bd ab1e 5fbd c9d5 68bd e060 fabb
000002a0: f950 2f3e 08ac f8bd a07f ad3d f7f1 2c3c
000002b0: 9afd d93d f79b b13d 63b7 213d 9b3d 20be
000002c0: 71ad a73d d29b 06be 8b7b 0d3e 4ad0 27be
000002d0: 3ccb de3d 32df 6b3c 0dd4 ff3d c193 69bc
000002e0: 3262 2c3e b2c8 483e 4d21 283e f001 383c
000002f0: 1316 333e dcc9 00be b293 17be dccc 993b
00000300: 1ad3 61bd a4be 68be 77aa 9fbd 01f5 2a3e
00000310: d032 f0bd a715 ce3d 5cd0 8e38 4cad 293d
00000320: a461 1dbe 1275 ebbd 793f 1cbe 8043 883c
00000330: c841 7dbd 1864 f4bb 027a 34bd bdb5 c2bd
00000340: a293 adbd 9ab5 893d 1359 2c3e af38 263e
00000350: bed8 813d a0c9 c0bd 5a5c c03c ff54 1c3e
00000360: baa4 59bd c678 383e 82c1 06be e722 d9bd
00000370: 7174 a2bd 95d9 a93d 5c25 dabd 7943 bebd
00000380: 5f42 e3bd a230 adbd 2a8d d43d 306f e8bd
00000390: 2da1 123e 82a2 22be 9053 7abd c83a 84bd
000003a0: 0493 4d3d ce46 dcbd aa84 c63d f977 1a3e
000003b0: 18e6 c5bc 0836 803d 7501 1fbe 425c c7bd
000003c0: 30ec bebc 886c 6d3d 0092 9639 92c7 eb3d
000003d0: 2032 f7bd 9350 32be fe16 e03d 40d4 1abc
000003e0: 9c94 48bd 9f6c 093e 1426 6f3d e605 8b3d
000003f0: 933e 21be 51f3 1c3e 1aac ea3d 0c95 033d
-0.10229447 -0.14408658 0.00025641918 -0.099737965 -0.062527925 -0.16196108 -0.026958898 -0.07351123
-0.06398821 -0.12409063 0.022282094 0.06659515 -0.08448403 -0.053852797 0.013236508 0.13577388
0.17241468 0.13807331 0.05843085 -0.108950086 -0.099872686 -0.030596286 0.08330046 0.121045426
-0.02941601 -0.15945879 -0.09130525 -0.09258468 0.014637038 -0.020727202 0.07995416 -0.10592647
0.013537645 0.14804901 -0.17367908 0.11381601 0.07113163 -0.13245246 0.015744552 -0.013351172
0.14656316 0.06382227 0.122244075 -0.103016466 0.124442294 0.10479961 0.0296624 0.15990447
-0.0062140226 0.0025414824 -0.17210776 0.1359271 0.037936762 0.090626165 -0.055907033 0.03662783
-0.09491512 -0.04623002 0.08629568 0.026716888 0.07221198 0.11079727 -0.0026331097 -0.078706816
0.09971903 0.063095346 0.0474948 0.16129847 -0.13183913 -0.07178411 0.1209787 -0.018680096
0.06748088 0.036671802 -0.030195579 -0.036513075 0.053551495 0.096717164 -0.1315601 0.09574629
-0.013431966 0.0028621256 -0.0038235784 -0.10685621 0.04046753 0.115331635 -0.15965125 -0.08952247
0.15603422 -0.045416787 0.12664531 -0.16178294 -0.11396404 -0.08365329 0.1429861 0.16201927
0.05283104 -0.17406876 0.012873655 -0.1655365 -0.05265551 -0.18177183 0.12726958 -0.05254218
0.0012224913 -0.06952761 -0.05178532 -0.038025033 -0.026063815 0.14431298 -0.13459113 -0.05707001
-0.06608373 0.0034261257 0.10146265 -0.13863942 -0.04437932 0.08958811 -0.0686136 0.027823064
0.04547141 -0.07401975 -0.04001492 -0.014964464 0.0046406984 0.053916547 -0.09119968 0.14348312
0.11244203 -0.12139727 0.008814111 0.00076922774 0.16941093 -0.07695165 0.0402707 0.064401776
-0.16349506 0.16622849 0.07744397 -0.07713653 -0.057267033 -0.020081833 -0.08377289 -0.020212993
0.13654317 -0.03933485 0.15927891 0.046744928 0.060235098 -0.052696876 -0.14920399 0.017296493
0.07757597 -0.014610022 -0.14682302 0.030836746 -0.14204457 -0.061597474 0.124136284 0.038675502
-0.11331378 -0.1500897 -0.0968427 -0.06233441 -0.08754874 -0.054472607 -0.056844506 -0.007640943
0.17120732 -0.12142187 0.08471608 0.010555736 0.10644074 0.08672326 0.03948153 -0.156485
0.08187378 -0.13145378 0.13816659 -0.1638805 0.10878608 0.014396476 0.12491617 -0.014256419
0.16834334 0.19607809 0.16418953 0.011230931 0.1748889 -0.12577003 -0.14802435 0.0046936106
-0.055132963 -0.22728974 -0.077961855 0.16695024 -0.11728442 0.100627236 6.8098976e-05 0.041425034
-0.15369278 -0.11496939 -0.15258588 0.016633749 -0.061830312 -0.007458221 -0.04406167 -0.0950732
-0.08475424 0.06724091 0.16830854 0.1623256 0.063401684 -0.09413457 0.023481537 0.15266798
-0.05313561 0.18014821 -0.13159755 -0.1060236 -0.07932366 0.082934536 -0.10651657 -0.09290213
-0.11096644 -0.084565416 0.103784874 -0.11349332 0.14319296 -0.15882304 -0.061114848 -0.06456524
0.050189033 -0.107556924 0.096932724 0.15084828 -0.024157569 0.06260306 -0.155279 -0.09734394
-0.023305982 0.05796483 0.00028719008 0.115126744 -0.120701075 -0.17413549 0.109418854 -0.009450018
-0.04896985 0.13420342 0.058385924 0.067882344 -0.15746526 0.15327193 0.11458607 0.032124564

fc1.bias f4 [16]
00000000: 1210 00be 96cc 7abd 1936 253e 92ad 54bc
00000010: 5f52 243e 03d6 adbd 50c0 1cbe a716 18be
00000020: 7961 d4bd 2030 233d 559e b8bd 9822 9abc
00000030: 0e10 c0bd 66d6 a8bd e464 0e3c 1e81 d5bc
-0.1250613 -0.061230265 0.16133918 -0.0129808355 0.16047047 -0.08488085 -0.15307736 -0.14852391
-0.10370154 0.039840817 -0.090145744 -0.018815324 -0.09378062 -0.08244018 0.008691046 -0.026062544

out.weight f4 [1, 16]
00000000: c87c 58bd b4ce 66be fc45 a43d b27f 31be
00000010: 08a4 433e ff23 a3bd 77d9 36bd c0a3 3fbc
00000020: 6846 7bbd 75cf 883d 3e79 cebc 409d b3bb
00000030: 0ed4 ecbc 6402 e33d 8317 933e 7080 2c3e
-0.052853376 -0.22539788 0.08021161 -0.17333868 0.19105542 -0.0796585 -0.044640984 -0.011696756
-0.06134644 0.06680194 -0.025204297 -0.005481392 -0.02890971 0.1108444 0.28728876 0.1684587
