artifacts/territory/lstm/777__0__0/model.pt (torch, 23217 bytes, 7 tensors)

lstm.weight_ih_l0 f4 [128, 1]
000000 54 02 94 3c 1f 6c 02 be b5 9e 8a 3c 2c fd 43 bd
       0.018067516 -0.12736557 0.01692138 -0.047848865
000010 e1 af e8 3d ef 05 17 be fd c3 2b 3d ec 1e 4e 3d
       0.11361671 -0.14748357 0.041934956 0.05032246
000020 f6 34 9f bd 3d 43 1a 3d 53 b4 3d 3e 66 42 13 3e
       -0.07773773 0.03766178 0.1852582 0.14380798
000030 dd 52 bc 3d ba 82 5c bc 28 36 b7 3d 9e 79 d8 3c
       0.091954924 -0.013458902 0.08945876 0.02642518
000040 75 08 b8 bc 90 7c 32 3e 3a 6e ba 3d e4 47 8c 3c
       -0.02246497 0.1743033 0.09103055 0.017124124
000050 fd 5e f3 3d 69 1c 8b 3c f2 15 0b bc 00 8c f1 3d
       0.11883352 0.01698132 -0.008489119 0.11794281
000060 fa 77 f7 bd 8e fa 90 bc 25 6a 14 3e 55 19 b9 3c
       -0.120834306 -0.017697599 0.14493616 0.022595087
000070 10 76 38 3c 8f d4 e8 bc 58 4e 4b be d2 42 f5 bb
       0.011258617 -0.028421668 -0.19854105 -0.0074847722
000080 a9 a6 63 3c 1c d5 cf bd c6 95 a3 bd d4 bd bd bd
       0.013894715 -0.10148069 -0.079875514 -0.092647225
000090 6e 1b 50 3d 6c 85 cc bd 6e 24 1f 3e 4a 17 cb bd
       0.05080741 -0.09986386 0.1554124 -0.099165514
0000a0 22 3d 33 3d 2a 95 18 be 6c a9 1f 3e 64 91 b0 3d
       0.043759473 -0.14900652 0.15591973 0.08621481
0000b0 88 03 6f 3d c5 7a 71 3e 5a 95 91 bd 75 14 d1 bc
       0.058352977 0.23581989 -0.07108565 -0.02552245
0000c0 24 81 a8 bd d8 df 44 bd be e6 fa 3d 2d b9 94 bd
       -0.082277566 -0.048065037 0.12251042 -0.07261882
0000d0 be 3f 67 3c e0 85 dd 3a e9 ab 40 be 6d 4e e4 bc
       0.014114318 0.001690086 -0.18815579 -0.027869428
0000e0 e0 3f c0 3d 1f d2 02 bc e9 df 1d 3c e2 ef 06 3c
       0.09387183 -0.007984667 0.009635904 0.008235903
0000f0 dd cd 96 3d 71 76 2b 3e fd 3d ec 3d 07 54 ef bd
       0.07363484 0.167444 0.11535261 -0.11685949
000100 55 39 30 3e 9e 40 d1 3d 17 00 61 3d f6 45 34 be
       0.1720937 0.10217403 0.054931726 -0.17604813
000110 41 fb ef bd 92 49 ac bc 51 84 0a bd f6 4c 6e 3d
       -0.11717845 -0.021031175 -0.033817593 0.058178864
000120 d7 23 fe 3b a2 4d cc bc 5e 33 1c 3e fb 77 e3 3d
       0.0077557373 -0.024939362 0.1525397 0.11106869
000130 dd 09 d4 3b ba b0 db 3d b3 5b 30 be d7 4c 73 bc
       0.0064709024 0.10727067 -0.1722248 -0.014849863
000140 99 58 38 3e 81 ee 28 be 12 a5 d5 3d c7 d9 2b 3e
       0.18002547 -0.16497232 0.10431875 0.16782294
000150 42 eb db 3d a0 25 28 be 8b ad f4 3b 4f 06 10 be
       0.10738231 -0.16420603 0.007466977 -0.14064907
000160 cc ff 31 3e c6 b6 43 bd 3b f8 37 3e 32 5d 16 be
       0.17382735 -0.04778173 0.17965786 -0.14683989
000170 61 f9 c4 bd 09 07 11 be 1d 5e 1a be 05 42 75 3d
       -0.09617878 -0.1416284 -0.15074964 0.059877414
000180 20 32 cc 38 84 94 c2 3c c0 94 59 3e 38 88 54 3e
       9.7368145e-05 0.023752458 0.2124815 0.20755088
000190 54 71 28 3e 9d b1 a1 bd f3 b5 29 3e f8 97 3d 3e
       0.16449481 -0.07895205 0.16573314 0.18515003
0001a0 37 32 bb bd fb 39 56 bc cc 5e 8f bd 64 56 0b 3e
       -0.09140437 -0.013075347 -0.07000503 0.13607174
0001b0 1c 91 ec 3d 01 c2 80 3c df 95 01 3c 68 eb 4d be
       0.11551115 0.015717508 0.007909267 -0.20109332
0001c0 84 a4 94 bd f5 88 45 3e 4d 6a f9 3d 5c 48 85 3d
       -0.07257941 0.19290526 0.121784784 0.06507942
0001d0 c0 8e 9f 3c d3 04 7a 3e 9f 6b ef bd 2e 31 6b 3d
       0.019477248 0.24415903 -0.11690449 0.05741995
0001e0 68 8b 03 be ad 75 8c 3c 9c b8 5b 3c ac f6 26 bd
       -0.12846148 0.017145956 0.0134107135 -0.04076259
0001f0 8a 52 29 3e 50 5c 15 3e f8 22 a4 bc 41 23 56 3e
       0.16535392 0.14585996 -0.020036206 0.20911886

lstm.weight_hh_l0 f4 [128, 32]
000000 bc 3b 34 3e b1 3b fa bd 91 2a 3d bd 51 89 9b bc
       0.17600912 -0.122184165 -0.046183173 -0.018986376
000010 ae 2d 0d 3e 86 a2 c7 3d 87 79 b5 3d ed 81 9b bd
       0.13786957 0.09747796 0.0886107 -0.07593141
000020 c0 75 23 be e9 74 31 bd c9 34 35 be 91 0c b5 3d
       -0.15962887 -0.043324385 -0.17695917 0.088402875
000030 51 6e f6 bd 72 70 ee 3d e1 b6 10 3e f4 71 30 be
       -0.1203276 0.11642541 0.14132263 -0.1723097
000040 40 e2 18 3e 6d d9 e8 bd 21 2f 01 3e a0 18 8c 3c
       0.14930058 -0.11369596 0.12615635 0.017101586
000050 5a 24 aa bd 3c 7f 89 bc bb 00 f7 3d 54 c4 06 3e
       -0.08307715 -0.016784303 0.12060686 0.1316083
000060 eb 08 fc bd 41 fb 2d 3c c2 3d 1c 3d 84 6d c8 3b
       -0.123063885 0.010618986 0.038144834 0.006116571
000070 16 80 67 bd 45 7e 5e 3d 93 ab c4 bd f1 75 9c bd
       -0.056518637 0.05431964 -0.09603038 -0.07639683
000080 cb cd 7a 3d 86 42 0c be b6 c6 6c 3c 36 06 60 3c
       0.061231416 -0.13697252 0.014451673 0.013673356
000090 7e 1e 18 be 76 f5 ff 3d 33 31 c7 3d 23 bb 26 bc
       -0.14855382 0.1249799 0.09726181 -0.010176453
0000a0 d2 ec e5 3d 89 5d 32 3d c7 fd 78 3d a1 dc fe bd
       0.112268105 0.043546233 0.060788896 -0.124444254
0000b0 17 db e7 3d 88 2c 06 be 14 66 ae bd e0 38 5b 3d
       0.11321085 -0.13102925 -0.085155636 0.053521037
0000c0 84 b9 26 be c5 b5 b2 3d 13 bd cc 3d 2e 5c e5 3d
       -0.16281706 0.08726076 0.099970005 0.111992225
0000d0 54 95 26 bc bb 4a c7 bc 16 2b 24 be 37 82 48 3e
       -0.010167439 -0.024327626 -0.16032061 0.19580923
0000e0 85 8b 07 3e df 7c 19 bd 99 15 c5 ba b6 2a 71 bd
       0.13236816 -0.037472602 -0.0015036344 -0.058878623
0000f0 19 f9 29 3e 95 33 25 3e a3 64 61 bd 9b de 6a bd
       0.1659893 0.16132958 -0.055027615 -0.0573412
000100 dc ab ec 3d 1b de 05 3e 2e 8f f1 bc aa b3 c7 3d
       0.11556217 0.13073008 -0.029487219 0.09751065
000110 84 6f 36 be 9e 93 fd 3d c4 6c df bd 64 47 4c 3e
       -0.17815977 0.12381671 -0.10909417 0.19949108
000120 40 43 75 bd 14 0e 8b bd b0 30 ba 3d 1b 45 5f 3e
       -0.059878588 -0.067897946 0.09091318 0.21803705
000130 66 2a 18 3e 65 c5 c0 3c 35 68 4c be 22 4f fd bd
       0.14859924 0.023531625 -0.19961627 -0.12368609
000140 59 ff b0 3d ba 39 31 be d4 f3 f0 3d dd 71 20 3e
       0.08642454 -0.17307177 0.117652565 0.15668435
000150 58 e2 df 3d 3c 9f a5 bd 8e 73 1b be cb d4 b0 3d
       0.109318435 -0.08087012 -0.151808 0.08634337
000160 85 86 df bd 2b 5b 56 bd 44 8e 62 3e b9 67 26 be
       -0.109143294 -0.05233304 0.22124583 -0.16250505
000170 6a d1 59 be a9 57 8e bd e0 b0 f6 bc 81 91 d9 bd
       -0.21271291 -0.069503136 -0.030113637 -0.10623456
000180 31 95 bf 3b 01 27 b6 bd a9 e7 c5 ba ea d5 33 3c
       0.0058466424 -0.08894158 -0.0015098947 0.010976294
000190 34 e3 85 3d d5 54 e7 bd 0d 14 6c be 2c 48 94 3d
       0.06537476 -0.11295477 -0.23054524 0.07240328
0001a0 82 ac 19 be 27 07 df bd 22 86 c3 bd 00 89 80 3c
       -0.15007213 -0.10890036 -0.09547068 0.015690327
0001b0 1d 6c 2c 3e 56 a5 08 bd 83 99 48 be 28 25 b1 3c
       0.16838117 -0.0333608 -0.1958981 0.021624163
0001c0 57 39 03 3e f7 5f 2d bc 28 30 34 3e 6e 94 48 3e
       0.12814842 -0.010581962 0.17596495 0.19587871
0001d0 0b 8f 10 3e 2f 9d 3b be 83 bf c0 3d ed bf 12 be
       0.14117067 -0.1832168 0.09411528 -0.14331026
0001e0 c2 5a d8 bd 73 d2 b9 bd 83 58 ee 3d a3 ab ca bd
       -0.10564186 -0.09073343 0.11637976 -0.09896018
0001f0 e4 8b 21 be 20 fe 5e be e0 2d 53 bd b8 07 87 bd
       -0.1577602 -0.21776628 -0.05155742 -0.06593269
000200 28 18 de bd 66 04 e2 3d 50 d1 0f 3e 0b b1 15 3e
       -0.10844451 0.11035995 0.1404469 0.14618318
000210 c8 cf cc 3d d8 0a 1a be 67 fa 83 bc e8 f8 83 bd
       0.10000569 -0.15043199 -0.016110612 -0.064439595
000220 d0 ff 29 bd 75 cb 53 3d be a0 f5 bd 70 9b 0f 3e
       -0.041503727 0.051707704 -0.1199355 0.14024138
000230 62 e2 34 3e 29 16 24 be ab 3c 3b bd 6c 76 94 3d
       0.17664483 -0.16024078 -0.045712154 0.0724915
000240 80 38 31 bd e9 34 34 be 86 50 88 bd 06 90 0d be
       -0.043266773 -0.17598309 -0.066559836 -0.13824472
000250 90 11 31 3d 92 72 d8 bd 96 f1 78 bd c2 89 2c 3e
       0.04322964 -0.105687276 -0.06077727 0.16849425
000260 3d 2a 2f 3e e2 92 09 3e 9a 29 bb 3c ad fc e4 3c
       0.17105956 0.13434938 0.022846986 0.027952516
000270 e6 3a bb 3c a1 fa e3 3d 80 30 52 3c dd 63 fa bd
       0.022855233 0.11131788 0.012828946 -0.12226079
000280 80 f6 19 be 25 fd e5 bd e0 7e eb bc b5 6a e0 bd
       -0.15035439 -0.11229924 -0.028747022 -0.10957853
000290 1b 13 6e 3c 64 de 8e 3d f1 4c f4 3d 62 a2 c3 bd
       0.014530922 0.069760114 0.11928738 -0.095524564
0002a0 e3 52 80 bd b3 29 e9 bd 77 53 36 3c 6f be cd bd
       -0.062658094 -0.113849066 0.011128298 -0.10046088
0002b0 90 15 d5 3d 78 b1 ab bc c7 0b 84 3d 72 b5 e4 bd
       0.10404503 -0.020958647 0.06447559 -0.111674204
0002c0 50 98 32 bc 10 7d 5b bc ea 77 89 bc 97 a7 17 3e
       -0.010900572 -0.013396516 -0.016780812 0.14810024
0002d0 fb 22 e0 bc ad 59 0d 3d e8 d2 d2 3c df 11 0f 3b
       -0.02736043 0.03450935 0.025735334 0.002183072
0002e0 18 cb e3 bd 61 f1 2c 3e 9b 13 75 3d 77 a7 4d 3d
       -0.111227214 0.16888954 0.05983315 0.050208535
0002f0 a4 5e 50 be fe e0 0d 3e 49 e3 1b 3e fc 7f 06 3e
       -0.20348603 0.13855359 0.15223421 0.1313476
000300 18 bf 14 3e c9 f4 94 3b dd cd d4 bd 15 3a 04 3e
       0.14526021 0.004545782 -0.10390828 0.12912782
000310 7a 02 9b bd 77 fd 9e bd 53 7d 8d 3c 0f f0 b6 3b
       -0.07568832 -0.07763188 0.017271673 0.0055828164
000320 c3 6a 8c 3d 8b f1 85 bd 5d b7 d1 3c f2 71 c5 3d
       0.06856301 -0.06540211 0.02560013 0.09640874
000330 49 b0 5e bd 2a 8c 0e be 14 45 6e bd f8 76 79 bd
       -0.054367337 -0.13920656 -0.058171347 -0.060904473
000340 d3 70 52 3d 5b 4d ee bd bc 05 dd 3d 10 bd 36 3e
       0.05137713 -0.11635848 0.10792109 0.17845559
000350 4c 64 92 3a 85 6c 31 3d 3e 6b 7f 3d 7f 85 ae 3d
       0.0011168807 0.043316383 0.062358133 0.08521556
000360 67 eb 24 3e b7 8a 36 be ec e8 fa bd 2c 79 33 3e
       0.16105424 -0.17826353 -0.122514576 0.17526692
000370 0e 92 ef bd 28 54 af bd 9a aa f8 3d f6 c7 87 bc
       -0.116977796 -0.085609734 0.12141915 -0.016574841
000380 61 c5 4a bd b6 3c f0 bd 9c b8 41 3e c4 2e c5 bd
       -0.04950464 -0.1173033 0.18918079 -0.096280605
000390 0d 42 21 3e ac 0f 81 3d 3b 92 26 be 08 09 3d 3b
       0.15747853 0.06301817 -0.1626672 0.0028844494
0003a0 85 11 9a bd 82 09 f2 bd c7 9d 72 3c 72 ea 08 be
       -0.07522873 -0.1181822 0.014808125 -0.13370684
0003b0 07 7d 3e 3d 3f f8 01 3e d5 1d da 3d bc 4c 01 be
       0.046505954 0.12692355 0.10650221 -0.12626928
0003c0 5f db 07 3e 4b 9d b7 3d 87 15 19 3e da 98 cc 3c
       0.13267277 0.08965548 0.14949618 0.024975229
0003d0 82 4c c9 3d ca 1a 38 be 0a dc ec bc ed e0 ca bd
       0.09829046 -0.17978969 -0.028913517 -0.099061824
0003e0 a5 df 30 bd a3 35 18 be 9f fa 65 bc 72 50 ad 3d
       -0.043182034 -0.14864211 -0.0140368035 0.08462609
0003f0 c3 68 1c bd a7 aa 0f bd 7e 7a fa bd 7f 8b 81 bd
       -0.038185846 -0.035074856 -0.12230395 -0.06325435

lstm.bias_ih_l0 f4 [128]
000000 cb 28 1a bd 0d f4 88 bd a5 5b 36 3e 1e 28 0d 3e
       -0.03763656 -0.06687174 0.17808397 0.13784835
000010 a2 23 e5 3d cb c2 ff bd b1 df 58 3d 1b 47 90 bc
       0.11188437 -0.12488326 0.052947704 -0.01761203
000020 cc 40 26 be 72 94 d2 bd e1 17 d7 bd 0d 38 df bd
       -0.16235656 -0.1028222 -0.105026014 -0.10899363
000030 f0 88 70 3d de e4 69 3e b3 b1 bc 3d 5c 51 a2 bc
       0.058724344 0.22841212 0.09213581 -0.019814186
000040 a0 97 16 3e cd 21 64 3e 27 71 06 3e 31 04 08 3e
       0.14706278 0.22278519 0.13129102 0.13282849
000050 77 b6 4f 3e 32 65 f8 3d 11 3c 64 bd 28 66 2e 3e
       0.20284449 0.121286765 -0.055721346 0.17031157
000060 09 ee f3 3d 5c 1e 40 3d a9 08 51 3d b4 2a 1b bd
       0.11910636 0.046903953 0.05103365 -0.03788252
000070 4a 9b 9e 3d 86 d7 8c 3e 41 f2 d2 3d 9a bd 81 3e
       0.07744463 0.2750818 0.103001125 0.25339967
000080 9a 01 12 3a 98 89 33 bd 4f e7 43 3e 4e c3 19 3e
       0.00055696967 -0.04383239 0.19131206 0.15015909
000090 ce f0 f0 3d d8 8d 4d bd 1d 6d 50 bd 8c a1 25 bd
       0.1176468 -0.0501841 -0.05088531 -0.040437266
0000a0 68 19 01 be e3 82 0f 3e 21 39 89 bc 1b f3 a7 bd
       -0.12607348 0.14014773 -0.016750874 -0.082006656
0000b0 f9 6b 2a ba d1 6b f4 bb e4 7d d9 bc f9 16 66 be
       -0.00065010745 -0.007459142 -0.026549287 -0.22469701
0000c0 ea 4a b0 bd a2 38 60 3d ad 9b 85 bd 67 49 43 3e
       -0.08608039 0.05474151 -0.065238334 0.1907097
0000d0 13 ee f2 3d a4 c2 99 3d 87 b2 a3 3d 7c bb 13 bd
       0.11861815 0.07507828 0.07993036 -0.03606747
0000e0 61 7b aa bd 17 dd 1c 3e eb 09 a7 bd 24 f8 c3 3d
       -0.08324314 0.15318714 -0.081561886 0.095688134
0000f0 b3 8b c0 3b 38 40 d7 3d a2 b6 83 bc bc 94 e5 3d
       0.0058760284 0.10510296 -0.016078297 0.112100095
000100 43 28 f1 bd e5 31 0b be cc ce 6f bc a1 89 c8 bd
       -0.117752574 -0.13593252 -0.014636707 -0.09791876
000110 66 f1 cb bd 35 bd 28 be 55 04 79 bd c3 d0 bd bd
       -0.099581525 -0.16478427 -0.060795147 -0.09268334
000120 72 ba 1a 3d f5 d0 c2 bd 3b a0 79 3d 41 6f aa 3d
       0.037775464 -0.09512512 0.060943823 0.08322001
000130 04 89 2c bd 10 93 09 3e 2e 50 5d bd 20 d4 42 bc
       -0.042122856 0.13435006 -0.054031543 -0.011891395
000140 9f d6 31 bd 47 af 89 3d 08 b6 83 3b 88 da 53 3e
       -0.04341757 0.067228846 0.0040195026 0.20688832
000150 8e be 21 3e 4e 34 23 be 2c e2 af 3d d1 f1 a8 3d
       0.15795347 -0.15937921 0.08588061 0.08249248
000160 97 48 1e 3b c8 11 97 bd bf 75 b7 bd d0 46 aa 36
       0.0024152154 -0.073764384 -0.08958005 5.0746385e-06
000170 f2 f0 ab 3d 00 df fb 3c 98 32 dd 3d 87 43 df bd
       0.08395566 0.030745983 0.108006656 -0.10901552
000180 95 9e ca 3d c2 b9 a7 ba 04 57 45 3e 38 c3 70 3e
       0.09893528 -0.0012796449 0.19271475 0.2351197
000190 87 42 6f 3e 3c ea c5 3d 16 9d da 3d 89 1b d5 3d
       0.23365222 0.09663817 0.10674493 0.104056425
0001a0 77 82 a2 3d 61 bf b5 3d 71 a8 35 b9 7a 55 10 3e
       0.079350404 0.08874393 -0.00017324254 0.14095107
0001b0 21 71 fb 3d 6e d8 28 3e d0 6a 89 3e d6 6c 8a bd
       0.12277437 0.16488811 0.26839304 -0.0675904
0001c0 b0 06 85 3e a1 cd cc bd 26 52 3c 3e 21 ad 4c 3d
       0.25981665 -0.10000158 0.18390712 0.049969796
0001d0 34 88 6a 3b 51 6d 93 3d 61 c2 45 be cf d2 8f ba
       0.003578675 0.07198585 -0.19312431 -0.001097286
0001e0 4b a4 90 bc ba 3f de bd 54 47 b3 3d 78 32 81 3e
       -0.017656466 -0.108519986 0.08753839 0.25233817
0001f0 d5 d1 4d 3e 71 0f 2a bd b1 14 e4 bd 01 5e 38 3e
       0.20099576 -0.041518632 -0.11136759 0.1800461

lstm.bias_hh_l0 f4 [128]
000000 3b 9d 37 bd 99 9f 5a bd 67 40 0e 3e 0d 39 08 3e
       -0.04482768 -0.05337486 0.13891755 0.13303013
000010 e6 67 17 3e 4b df c4 3d 30 66 99 3d a1 a7 35 bd
       0.14785728 0.09612902 0.07490194 -0.044349317
000020 27 bc c6 bb 1a 0c c9 bc 43 d0 b9 3d cc 23 48 bd
       -0.00606491 -0.024541903 0.09072926 -0.048862264
000030 76 55 55 3b 84 ef 4c 3e de 23 c0 bd b8 1d 45 bd
       0.003255216 0.20013243 -0.09381841 -0.048124045
000040 08 26 28 3e 87 3d 51 3e 26 75 f9 bc 38 82 7f 3e
       0.16420758 0.20433627 -0.030451369 0.24952018
000050 f7 f3 4a 3e fa 2d 25 3d ff 73 d2 bd ea 25 15 be
       0.19819628 0.04032705 -0.10276031 -0.14565244
000060 bb b7 8f 3d e9 a5 2a 3d e9 0f 0a be 5c 5b 4e bd
       0.07017466 0.04166213 -0.13482632 -0.050380096
000070 fd 69 7c 3e 52 e9 96 3e e9 59 b9 bd 9c 42 31 bd
       0.24649806 0.29474884 -0.09050352 -0.043276414
000080 ef 82 8a bc 4e 00 0e be 05 35 bf 3d d2 d9 1d be
       -0.016908137 -0.13867304 0.093362845 -0.15415123
000090 f7 98 06 be 0c 41 03 bd 7f 86 78 bd 87 76 47 3e
       -0.13144289 -0.032044455 -0.06067514 0.19478808
0000a0 ce cf 55 3d 87 13 1b 3e b0 de b0 bd 24 6e 69 bc
       0.05220013 0.15144168 -0.08636224 -0.014247451
0000b0 b8 bd 3e bd 12 7a 1c 3e d5 04 52 bc 51 ac 7c bd
       -0.04656765 0.15280941 -0.012818535 -0.06168777
0000c0 33 b5 29 3d c1 e7 82 3e 56 84 c7 3d 32 72 09 3e
       0.04143257 0.2556744 0.09742038 0.13422468
0000d0 75 d0 3d bd f1 d9 f2 3d ca 4b 02 3e 21 d1 07 3e
       -0.04634138 0.11857975 0.12724224 0.1326337
0000e0 ec 26 cf 3c c3 25 73 3d bf 7d 44 3e 90 4e e7 3d
       0.025287114 0.059362184 0.19188593 0.112942815
0000f0 7a 8a 8b bd 48 59 58 3e 7d 36 25 3d 56 53 b9 3d
       -0.06813522 0.21127808 0.040335167 0.09049098
000100 67 6f 19 3e a3 7f 0c 3e f9 eb 2f 3d db 4b 6f bd
       0.14983903 0.13720565 0.04294965 -0.05842195
000110 3e 63 82 bd bc 8e f9 bd 17 32 25 3d 41 c9 c9 3d
       -0.06366585 -0.121854275 0.040330973 0.09852839
000120 fe 58 15 3e 2a 89 73 3d c7 d1 4e 3d a3 cb e6 bc
       0.14584729 0.05945698 0.050493028 -0.028173273
000130 b9 1e 8b 3d 9a e7 6d 3d 13 7a 8f bd 38 ca 90 bc
       0.06792969 0.0580822 -0.07005706 -0.01767455
000140 3d 05 c0 bd 0f 80 27 3d 2e ce 19 3e 42 e1 65 bd
       -0.09375999 0.04089361 0.15020058 -0.056123026
000150 11 83 cc 3d 5d 55 42 be a6 ea 8e bd 03 dc cb bd
       0.099859364 -0.18977876 -0.069783494 -0.09954073
000160 53 7e 15 3e 28 cc b3 3d bd 68 f7 bd e4 2e a8 bc
       0.1459897 0.08779174 -0.12080524 -0.020530172
000170 85 bd 01 be 6f c0 00 be d7 79 d7 bd 2c 3d ee 3d
       -0.12669952 -0.12573408 -0.10521286 0.11632761
000180 6f ee 2a 3e 9d b9 a8 bd da 44 30 3e 16 05 bf 3d
       0.16692518 -0.08238528 0.17213765 0.09327142
000190 87 0a 1f 3e ae b7 64 3d be 4c d7 3d 33 83 a7 3c
       0.1553136 0.055839233 0.10512684 0.020448303
0001a0 6d 76 b9 3c d8 bb 26 3d 21 bc 12 bd b3 98 42 3d
       0.022639478 0.040706486 -0.035823945 0.047508907
0001b0 5d ce ec bd 8f 02 7b 3d b6 df 77 3d 19 3f 5b 3d
       -0.11562798 0.061281737 0.06051608 0.05352697
0001c0 bc fb 3c 3e b5 f3 4e 3e 96 99 0b 3c eb c4 f5 bc
       0.18455404 0.20210154 0.008520504 -0.030001124
0001d0 dd 08 48 3e ac 50 4b 3d 56 7f 3a be ce 40 c7 3d
       0.19534631 0.04963748 -0.18212637 0.097291574
0001e0 4d 3a 93 3c c4 f2 e6 3b fe 93 2b 3e b6 94 85 3e
       0.017972136 0.007047983 0.16755673 0.2609002
0001f0 5f cc 4d 3d dd 88 df 3d c7 28 99 3b a9 3a 59 3e
       0.05024373 0.109147765 0.0046740505 0.21213783

fc1.weight f4 [16, 32]
000000 f3 32 99 3d e9 75 e2 bd 5e 09 7f 3e c2 0f 83 be
       0.07480421 -0.11057646 0.24905917 -0.2559796
000010 b1 22 b5 bd 0e 0a ca bd ab 4a cf bd d2 0d 02 3e
       -0.088445075 -0.09865199 -0.10121664 0.12700585
000020 74 ed 10 3e bf 5c 09 3d a1 93 0a be 5a f1 74 3e
       0.14153081 0.033535715 -0.13532878 0.23920193
000030 9a 4f 5f 3e fa 63 3a 3e e9 11 95 bd db 32 ac bd
       0.2180771 0.182022 -0.07278807 -0.084081374
000040 4e 18 8b 3e 86 70 db bd e8 61 62 3e 35 c4 24 3e
       0.2716698 -0.107148215 0.22107661 0.16090472
000050 84 54 94 3e 1f a4 13 be 42 17 8c 3d f8 42 8b bd
       0.2897073 -0.14418076 0.068403736 -0.06799883
000060 bb 53 a1 bd 4f 57 86 3d b4 47 16 3e c2 55 3b be
       -0.078772984 0.065596215 0.1467579 -0.18294433
000070 3d 9d 29 bd ab 12 75 be 14 d6 a8 3b c4 8e 80 3d
       -0.04140972 -0.23932903 0.005152473 0.062772304
000080 79 6d b8 3d ce 97 05 3e af 7e 8b bd ca be 0d 3d
       0.09005255 0.1304619 -0.06811272 0.03460578
000090 30 98 de 3d e3 1f 4a 3d f6 7f 64 bc cb ee be 3d
       0.10868871 0.049346816 -0.013946524 0.0932289
0000a0 a3 b2 85 bd 00 77 cb bd 4a 5a 1c b9 b0 fb cd 3c
       -0.06528213 -0.09934807 -0.00014910955 0.025144428
0000b0 b5 06 0f bd 29 89 48 be 10 2f 31 3e 28 2a 3f be
       -0.034918506 -0.19583572 0.17303109 -0.18668425
0000c0 3d a7 d3 bd fb de 0e be 44 38 93 bd 3b 26 dd 3d
       -0.103346325 -0.13952248 -0.07188466 0.107983075
0000d0 b2 25 97 3d 6a e9 98 bc 61 e4 80 bd d7 8c a1 3c
       0.07380237 -0.018665988 -0.0629356 0.019720478
0000e0 b7 47 20 3e 31 d6 f9 bb 09 cb 8a 3d 34 e6 65 3d
       0.15652357 -0.0076244106 0.06777007 0.056127742
0000f0 80 43 4d 3e 8f 13 0f be 42 1b c9 bd 25 c5 a1 3d
       0.2004528 -0.13972305 -0.09819652 0.078989305
000100 1b 91 05 3e 70 d9 a9 bd c8 99 83 bd fd 46 03 3d
       0.13043635 -0.08293426 -0.06425816 0.03205012
000110 9c bb 9e 3d 13 bf d8 bd 23 a0 39 bd b2 d9 52 3d
       0.077506274 -0.105833195 -0.045318734 0.05147714
000120 a9 61 a8 3c 02 8c 10 3d e8 f8 e3 3d d2 c3 95 bd
       0.02055438 0.03528977 0.111314595 -0.073127404
000130 5b 45 e3 3d 2e 76 24 bd 6f 7c 29 bc 42 b4 80 3d
       0.11097213 -0.040151767 -0.010344609 0.062843814
000140 a8 fd 4c be 04 7b b7 3d 42 88 07 3e 2e 2b 01 be
       -0.20018637 0.0895901 0.13235572 -0.12614128
000150 58 60 fb bd d7 f5 a6 3b 81 8b 8f bb a2 6d 8f bc
       -0.122742355 0.0050952244 -0.004380644 -0.017508332
000160 8e 51 ae 3c e1 1a ba bd a3 66 00 3e cc d4 04 be
       0.021279123 -0.09087158 0.12539153 -0.129718
000170 b3 70 84 3d da 65 a5 3c ce 9d 1e 3e b8 8e 39 be
       0.06466808 0.020190168 0.15489885 -0.18120849
000180 16 df 04 be 82 f7 a2 3d 88 78 97 bc 87 7c c4 bd
       -0.12975726 0.079573646 -0.018490091 -0.09594064
000190 57 85 1d 3e f0 ae 31 bc 60 52 28 bd b6 b3 cf bd
       0.15382896 -0.010844931 -0.041094184 -0.10141699
0001a0 32 10 a0 bd ce 99 9a bd 94 c7 c0 bd 08 95 5d bd
       -0.07815589 -0.07548867 -0.094130665 -0.054097205
0001b0 af 7e a2 bd 3a 5c 6d bd fa c5 e4 3d dc 4a 48 3d
       -0.07934319 -0.057949282 0.111705735 0.048899516
0001c0 f7 6a 14 3e 10 b3 94 bc 69 ce 1d 3e 78 dc c6 3c
       0.14493929 -0.01815179 0.1541077 0.02427505
0001d0 5e 72 b1 3d 78 20 81 3d 1e 41 26 be cc 1b 60 3d
       0.08664392 0.06305021 -0.16235778 0.05471401
0001e0 bc 31 58 bd c0 d5 78 3d b6 49 e9 3d 7f 07 12 3e
       -0.052781805 0.060750723 0.11391012 0.14260672
0001f0 12 e2 97 3d e0 fb ae bc cb 68 11 3e 8f d2 0d be
       0.07416166 -0.021360338 0.14200132 -0.13849853
000200 16 1d f0 3d c5 3d 50 3e fe 06 6b bc ce a3 83 3d
       0.11724298 0.20336063 -0.014344929 0.06427728
000210 86 33 e8 bd eb cf 87 bd 04 96 44 be 1d f1 a1 3c
       -0.11337952 -0.06631454 -0.19197851 0.019768292
000220 32 9f 70 3d b4 af 24 be 23 aa 1c 3e 2f 37 9a 3d
       0.05874557 -0.1608265 0.15299277 0.07530057
000230 5c f8 cb ba 33 58 8a 3e 92 cb b4 bd 5d 33 de bb
       -0.0015561688 0.27020416 -0.088278905 -0.0067810253
000240 20 b6 e5 bc 5b 48 02 3d 59 d2 31 3e a2 0e 98 3d
       -0.028040946 0.031807285 0.17365398 0.07424666
000250 20 6a 82 3d b0 5d 43 be 20 d5 bd 3d 72 45 8e be
       0.06367898 -0.19078708 0.09269166 -0.27787358
000260 c2 16 0a 3e 12 55 22 be 40 b9 df 3d cb 55 b8 ba
       0.13485244 -0.15852764 0.109240055 -0.0014063654
000270 c1 58 a3 be 8e 14 dd 3c d8 b5 a4 bc ea ea 0c 3d
       -0.3190365 0.02698734 -0.020106241 0.03440372
000280 f4 5e fb 3d 4c 16 4a bd b4 1d b6 3d 5c d2 b0 3d
       0.1227397 -0.04933767 0.08892384 0.08633873
000290 a4 b5 18 3e 45 ac e7 bc c4 bd b3 bd 2f 79 27 be
       0.1491304 -0.028280387 -0.08776429 -0.16354822
0002a0 44 65 38 3b 8f 51 17 bd 90 3d 0b 3e 23 3c 90 bd
       0.002813653 -0.036943015 0.13597703 -0.0704272
0002b0 83 b8 2a 3d d0 b1 35 3e 74 99 e1 3d 5d dd 06 3e
       0.04167987 0.17743611 0.11015597 0.13170381
0002c0 94 66 1a 3e 71 5b 0b be 14 1b ed bd c0 7d cc 3d
       0.15078193 -0.13609101 -0.1157743 0.099849224
0002d0 d9 6d 1c bd 3b d5 20 be 3a 6f 29 3e d4 0a 9d 3d
       -0.038190696 -0.15706341 0.16546336 0.07668081
0002e0 95 29 05 3e bf 6a 45 bc 97 a1 b7 bd 45 e3 12 be
       0.13004144 -0.012049376 -0.08966368 -0.14344509
0002f0 3f 5f a6 bb 5b 58 68 bd a8 ed b2 bd 48 ad ee bc
       -0.005077272 -0.056724887 -0.087367356 -0.029135361
000300 66 43 a0 3d 7d 84 01 bb a3 0f 48 3e 60 21 04 bb
       0.07825355 -0.0019762807 0.19537215 -0.0020161495
000310 1b fd 88 be 3d 6e c6 bd ec e7 81 bd bb b7 c3 bc
       -0.26755604 -0.09688995 -0.06343064 -0.02389132
000320 ef 9b 47 3d 6a 5a 03 be a4 a5 be bd ff ad 51 3e
       0.048732694 -0.12827459 -0.09308937 0.2047653
000330 8a 4c 92 3e 12 68 5d 3e 18 7e 38 bd 36 df ce bd
       0.2857402 0.21621731 -0.045042127 -0.10101168
000340 36 de 71 3e bf b2 8c be 1c eb 4e 3e 48 7b 5b 3e
       0.23619923 -0.27480122 0.20206875 0.21433747
000350 ff 3c 23 3e 0b 66 51 be 15 85 3b be 94 a9 1c 3d
       0.15941237 -0.20449083 -0.18312486 0.03824766
000360 99 79 df bd 6e b2 bc bd 26 dc db bc eb 27 0a be
       -0.10911865 -0.0921372 -0.026838373 -0.1349179
000370 ab fd 94 bd cc de 2a be 5d 31 e6 3d 16 93 c1 3d
       -0.07274946 -0.16686553 0.11239884 0.094518825
000380 25 b6 7a 3e 20 42 5e bc f2 23 42 bc 21 42 72 be
       0.24483545 -0.01356557 -0.01184939 -0.23658039
000390 f3 0e 85 3d 9d 9f d0 3d ea 93 1c be be 82 c5 3d
       0.06496992 0.10186694 -0.152908 0.09644078
0003a0 89 cf 75 3d ed 84 d2 3d f9 58 f1 bd 15 bf 22 3e
       0.060012374 0.1027926 -0.11784548 0.15893205
0003b0 b1 fc 77 3e 0a 78 38 3d 39 0c 86 be d6 ab ad bd
       0.24217488 0.045036353 -0.261812 -0.08480041
0003c0 b4 e5 1d 3e 7a a2 56 be 77 90 61 3e 02 ef 37 3e
       0.15419656 -0.20960417 0.22027765 0.17962268
0003d0 5e 21 34 3e aa 64 15 be e3 52 f6 3d 00 1b 13 bd
       0.17590854 -0.14589182 0.12027528 -0.03591442
0003e0 af c7 0c be 7a 61 99 bd 8c a6 3d 3e fb 14 5c be
       -0.13748048 -0.07489295 0.18520564 -0.21492378
0003f0 2e 7e 84 be 1c b4 c6 bd 1b 06 28 3d 45 d0 85 3e
       -0.25877517 -0.09702322 0.041021448 0.2613546

fc1.bias f4 [16]
000000 1a 05 2b 3e b6 e1 28 be 1c 56 43 be 64 9d 6a 3d
       0.16701165 -0.16492352 -0.19075817 0.057279006
000010 26 7a 28 3e 33 79 6e bd 3d 0f 88 3e 6d 0c 81 3e
       0.16452846 -0.058221053 0.26574126 0.25204793
000020 80 0a 8d bc 02 b8 6b 3e c0 c8 0d bb 2a 0c bb 3d
       -0.01721692 0.23019412 -0.002163455 0.091331795
000030 82 9c c2 3d 76 fa fb 3d 5a 6e d9 bc ce 89 73 bd
       0.09502508 0.12303631 -0.026541878 -0.059457593

out.weight f4 [1, 16]
000000 0a b6 be 3e ef b3 d3 bd 44 09 21 be 64 9d dc bd
       0.3724826 -0.10337054 -0.15726191 -0.107722074
000010 ad 47 3c 3e 2e dc c0 3d d4 df 84 3e f6 fb b0 3e
       0.18386717 0.09416996 0.25952017 0.3456723
000020 f2 be 56 be 58 8f 2d 3e 92 cb 62 3e f4 23 91 3d
       -0.20971277 0.16949213 0.22147968 0.07086936
000030 ac 10 e9 bd 93 ab 75 be 98 aa 05 3e a0 65 03 bc
       -0.11380133 -0.23991232 0.13053358 -0.008019835
