artifacts/territory/lstm/370__387__0/model.pt (torch, 23217 bytes, 7 tensors)

lstm.weight_ih_l0 f4 [128, 1]
-0.045056656 0.08055148 0.09039584 -0.1356164 -0.034426488 0.035281233 -0.06099478 -0.0728775
0.008563261 0.04729396 0.028502798 0.121638484 0.14200966 0.10767286 -0.08189264 0.086766966
0.010000591 -0.08312486 -0.10713615 0.00933941 0.11612701 0.17614362 -0.131555 0.06794434
-0.117235854 0.16393088 -0.070510216 0.14423224 0.086005494 -0.08132837 0.059198063 0.0070395935
-0.1614004 -0.023591515 0.0028903512 0.13350421 -0.17581184 -0.07131846 -0.07257417 0.16846743
0.14246684 -0.0442611 0.16012876 0.10153516 0.054945845 -0.100639634 0.00672602 -0.0066372603
0.1622497 0.11055518 0.10770473 -0.14007923 -0.1525379 -0.019126644 0.1645083 0.109032415
-0.14041421 -0.14001395 -0.14668623 0.0078368075 -0.09578147 -0.08291687 0.0057539507 0.18063726
-0.08460984 -0.11007798 -0.018071095 0.03833961 -0.19112305 0.18274957 -0.08583032 -0.06296159
-0.077208415 -0.07795872 -0.011611627 -0.0038232668 0.09701165 0.18058152 0.14949459 0.07666404
-0.07562514 -0.11280723 -0.15526335 -0.052033454 -0.106742054 0.12463174 -0.1154477 -0.09142269
-0.143923 -0.15634845 0.15151234 0.0073646903 0.093037926 -0.0899958 -0.14089997 -0.11803925
0.026091808 -0.06028816 0.008279637 -0.0664387 0.19953214 -0.024284944 0.10177516 0.006271711
-0.0077701504 -0.008640386 0.06722554 0.07173728 0.037643667 -0.018825876 0.08202383 0.13890885
0.07152995 0.10799174 -0.05659778 0.12880509 -0.13291752 0.15548797 0.1529735 0.065828174
0.03131297 -0.15305382 -0.14010458 0.17161235 0.11919471 -0.085465595 -0.04451598 0.06463699
00000000: 548d 38bd 2df8 a43d 7421 b93d 07df 0abe
00000010: ca02 0dbd 0e83 103d aad5 79bd cc40 95bd
00000020: eb4c 0c3c 50b7 413d b37e e93c 991d f93d
00000030: fb6a 113e 9783 dc3d 54b7 a7bd e1b2 b13d
00000040: 85d9 233c 5e3d aabd 336a dbbd 5304 193c
00000050: ffd3 ed3d fe5e 343e 5bb6 06be 6726 8b3d
00000060: 5a19 f0bd 7fdd 273e a967 90bd 9eb1 133e
00000070: a623 b03d 7d8f a6bd ab79 723d 64ac e63b
00000080: 2546 25be fe42 c1bc 0c6c 3d3b 54b5 083e
00000090: 0508 34be 6a0f 92bd c4a1 94bd ba82 2c3e
000000a0: d4e2 113e 214b 35bd cbf8 233e aaf1 cf3d
000000b0: e50e 613d 271c cebd f265 dc3b 607d d9bb
000000c0: c924 263e c16a e23d 4c94 dc3d ee70 0fbe
000000d0: e532 1cbe 7baf 9cbc dd74 283e 634c df3d
000000e0: bec8 0fbe d15f 0fbe ea34 16be f465 003c
000000f0: 1329 c4bd 52d0 a9bd a38b bc3b f9f8 383e
00000100: ec47 adbd 9070 e1bd d509 94bc ff09 1d3d
00000110: c3b5 43be b422 3b3e cfc7 afbd 02f2 80bd
00000120: 721f 9ebd d2a8 9fbd b23e 3ebc c68f 7abb
00000130: 0bae c63d 5dea 383e 1c15 193e 0902 9d3d
00000140: 5ae1 9abd 7a07 e7bd 5bfd 1ebe 0821 55bd
00000150: 949b dabd ed3e ff3d d86f ecbd d23b bbbd
00000160: 8d60 13be cf19 20be 0d26 1b3e 8053 f13b
00000170: ab8a be3d b84f b8bd 1548 10be 90be f1bd
00000180: 7dbe d53c b8f0 76bd 51a7 073c 0311 88bd
00000190: 2752 4c3e 38f1 c6bc 7f6f d03d ed82 cd3b
000001a0: bf9c febb 6890 0dbc 8bad 893d ffea 923d
000001b0: 3f30 1a3d b938 9abc 1cfc a73d 1f3e 0e3e
000001c0: 4b7e 923d c62a dd3d 13d3 67bd 7be5 033e
000001d0: 881b 08be 3d38 1f3e 16a5 1c3e ecd0 863d
000001e0: 0742 003d 24ba 1cbe 9377 0fbe 26bb 2f3e
000001f0: 5b1c f43d 9608 afbd 6356 36bd 6660 843d

lstm.weight_hh_l0 f4 [128, 32]
-0.09476111 0.1092974 -0.1302584 -0.09942073 -0.025429847 -0.07055636 -0.029026393 -0.14598526
-0.046034 -0.048949126 -0.10035544 0.05482839 0.0616157 -0.04478017 -0.03149965 0.093580134
-0.07156654 -0.13796566 -0.040320292 -0.15409262 -0.023742272 -0.084125645 -0.10260668 -0.028314875
-0.12923402 0.16318025 -0.16643584 -0.11545019 0.07108436 -0.045904115 0.048694506 0.12208853
0.09071447 0.07527159 0.029266734 -0.056272767 -0.072771735 0.11442451 0.1065989 0.007483663
-0.15188499 0.09922449 -0.008922314 -0.17156745 0.08389848 0.059770115 -0.10371105 0.09330503
0.08601883 -0.013319012 0.13885312 -0.009597894 -0.17477462 0.11467229 -0.11374018 -0.1753266
-0.14523189 -0.011162758 -0.11205302 0.072739914 -0.13552256 -0.09088454 -0.16332121 -0.16267669
0.05559925 0.12171118 -0.13225226 -0.026493803 -0.1417732 0.17617802 -0.0683119 -0.08993274
-0.1143611 -0.16955778 -0.20516631 -0.0949354 -0.08239345 0.12523733 0.10141475 -0.07964844
-0.15746543 -0.06452352 -0.013097793 0.15173009 -0.12792519 -0.09280427 0.15372735 0.102936976
0.028311044 -0.050382167 0.020705 -0.033906523 0.12472092 0.061711207 -0.07247063 -0.18915133
0.05157149 -0.086679816 -0.047690723 -0.0020248443 0.104291275 -0.08857969 -0.14204316 0.074035816
0.026461003 0.019977966 0.02785244 0.03924919 -0.056832153 0.09998505 -0.17020854 -0.10654545
0.07552752 0.1627327 0.061266318 -0.0120450435 -0.16400775 -0.12406956 0.091637984 -0.009422964
-0.15407684 0.046800464 0.14675118 0.07850619 0.060096186 0.01979667 0.034502104 -0.06236702
0.052829344 -0.032452535 -0.11631075 -0.08166115 0.07729472 -0.04102985 -0.09991169 0.02401911
0.0015626606 -0.15772192 0.015837101 0.025371864 0.060754746 -0.010191824 -0.0109610995 0.098636955
-0.20720331 -0.09400058 0.026258338 0.05167741 -0.17622511 0.05988451 0.1065672 -0.12785469
-0.031910073 0.110325195 -0.04981273 0.058307987 -0.09325419 -0.09114242 -0.1586285 -0.13851681
-0.14858678 -0.03832409 -0.01786683 -0.1711346 0.13736923 0.018795373 -0.04607009 0.07451641
0.10338854 0.15291819 -0.071176894 -0.07804087 0.21586204 0.15787783 -0.08646813 0.11735796
-0.16921183 -0.1768429 0.17454611 0.098988585 0.12602486 0.02361024 -0.11606781 0.07793195
0.12604903 0.006190613 0.085189745 0.09425446 -0.086163916 -0.1752165 -0.012534982 -0.18468173
-0.040860392 0.01668335 -0.16752137 0.032557726 -0.14850304 0.04205417 -0.1215413 -0.0034408164
-0.12604165 0.14469363 -0.12176413 0.059280843 0.072001375 -0.16742834 -0.088277034 -0.09259509
-0.1759768 -0.1358646 -0.02304554 -0.17857663 0.10582362 -0.055718932 0.12546045 -0.048681155
0.0022291094 -0.13444075 0.03812462 0.17246647 -0.050106253 0.17625509 0.13634506 -0.14553395
0.021722307 -0.15736657 -0.10688295 -0.0032183975 0.124166556 -0.082760826 0.11968061 0.16813079
-0.031138921 0.11850166 0.11071496 0.14145137 -0.12825482 0.07124515 0.13981484 0.10708966
0.0102312425 -0.020962946 -0.016861752 -0.0086796265 -0.12564875 0.045267604 0.14338888 -0.12853414
-0.16025227 0.1367916 0.011913016 0.02095512 -0.09779812 -0.07575605 -0.0897824 0.08764433
00000000: 1d12 c2bd 51d7 df3d 7562 05be 189d cbbd
00000010: 4152 d0bc da7f 90bd c2c8 edbc 297d 15be
00000020: 268e 3cbd e17e 48bd 2787 cdbd bc93 603d
00000030: bf60 7c3d 696b 37bd c705 01bd f1a6 bf3d
00000040: 7a91 92bd df46 0dbe e426 25bd 75ca 1dbe
00000050: 277f c2bc 114a acbd 7323 d2bd 99f4 e7bc
00000060: ec55 04be b918 273e 286e 2abe 2671 ecbd
00000070: ad94 913d f405 3cbd e473 473d 8d09 fa3d
00000080: 82c8 b93d fe27 9a3d cac0 ef3c 467e 66bd
00000090: 5909 95bd 6657 ea3d 8650 da3d 8439 f53b
000000a0: bd87 1bbe 3636 cb3d e62e 12bc 61af 2fbe
000000b0: f7d2 ab3d 82d1 743d 7566 d4bd b516 bf3d
000000c0: a42a b03d fc37 5abc 832f 0e3e 7c40 1dbc
000000d0: 1ef8 32be 4ed9 ea3d 9df0 e8bd d188 33be
000000e0: abb7 14be 00e4 36bc 0e7c e5bd aaf8 943d
000000f0: 6dc6 0abe ac21 babd ad3d 27be b894 26be
00000100: 0abc 633d b643 f93d 236d 07be 8809 d9bc
00000110: fe2c 11be 0368 343e 1ce7 8bbd a82e b8bd
00000120: 2736 eabd 8ea0 2dbe 1e17 52be 7e6d c2bd
00000130: e6bd a8bd 373e 003e 89b2 cf3d b91e a3bd
00000140: 9e3e 21be e824 84bd 2098 56bc 225f 1b3e
00000150: d2fe 02be 2a10 bebd b46a 1d3e 9fd0 d23d
00000160: 90ec e73c 885d 4ebd 889d a93c 91e1 0abd
00000170: af6d ff3d e4c4 7c3d 7b6b 94bd e3b0 41be
00000180: a03c 533d 3085 b1bd 5957 43bd 40b3 04bb
00000190: aa96 d53d 4569 b5bd c373 11be 17a0 973d
000001a0: bfc4 d83c d5a8 a33c cd2a e43c c2c3 203d
000001b0: d5c8 68bd f6c4 cc3d 264b 2ebe 8034 dabd
000001c0: 2cae 9a3d 67a3 263e 64f2 7a3d 9358 45bc
000001d0: a6f1 27be 2e18 febd b2ac bb3d c762 1abc
000001e0: 52c6 1dbe d8b1 3f3d f145 163e dac7 a03d
000001f0: 6b27 763d a02c a23c 1452 0d3d 8f74 7fbd
00000200: 9563 583d f3ec 04bd 5534 eebd f63d a7bd
00000210: b24c 9e3d ea0e 28bd 809e ccbd b9c3 c43c
00000220: 30d2 cc3a db81 21be cfbc 813c a8d8 cf3c
00000230: f8d9 783d 9cfb 26bc 2f96 33bc 2c02 ca3d
00000240: 1b2d 54be 6083 c0bd ba1b d73c b1ab 533d
00000250: 5b74 34be 7649 753d e73f da3d 57ec 02be
00000260: 23b4 02bd 2df2 e13d 6f08 4cbd 5bd4 6e3d
00000270: 0efc bebd e1a8 babd 826f 22be 5ad7 0dbe
00000280: 2227 18be b9f9 1cbd 755d 92bc e93d 2fbe
00000290: 85aa 0c3e c1f8 993c feb3 3cbd 0f9c 983d
000002a0: 5fbd d33d 9696 1c3e 31c5 91bd e4d3 9fbd
000002b0: f00a 5d3e baaa 213e 3416 b1bd 5f59 f03d
000002c0: de45 2dbe 4e16 35be 37bc 323e 87ba ca3d
000002d0: a90c 013e 436a c13c f6b4 edbd c99a 9f3d
000002e0: ff12 013e a0da ca3b f677 ae3d 7b08 c13d
000002f0: b576 b0bd f46b 33be 865f 4dbc 351d 3dbe
00000300: 3a5d 27bd 85ab 883c b98a 2bbe 405b 053d
00000310: 2e11 18be fe40 2c3d a5ea f8bd 527f 61bb
00000320: 1011 01be 912a 143e 795f f9bd 78d0 723d
00000330: 7575 933d 5672 2bbe 97ca b4bd 7fa2 bdbd
00000340: 4333 34be 1720 0bbe 00ca bcbc cbdc 36be
00000350: 0eba d83d 8939 64bd b478 003e e465 47bd
00000360: 4016 123b d6aa 09be 9028 1c3d 0d9b 303e
00000370: 373c 4dbd 377c 343e 0a9e 0b3e da06 15be
00000380: fbf2 b13c b424 21be 73e5 dabd c0eb 52bb
00000390: 094b fe3d 827e a9bd 1c1b f53d 7a2a 2c3e
000003a0: 0d17 ffbc 00b1 f23d 86be e23d a1d8 103e
000003b0: 3b55 03be fae8 913d 9f2b 0f3e d351 db3d
000003c0: f1a0 273c 7cba abbc a821 8abc fe34 0ebc
000003d0: 11aa 00be 866a 393d 89d4 123e 749e 03be
000003e0: 2c19 24be 1913 0c3e d02e 433c 12aa ab3c
000003f0: 614a c8bd fd25 9bbd d6df b7bd df7e b33d

lstm.bias_ih_l0 f4 [128]
0.17070667 0.09517781 0.054585323 -0.053604756 -0.00035659876 0.12509686 -0.07181957 -0.0013046195
0.20815262 0.05580871 -0.12494019 0.15238681 -0.09226251 0.08224793 0.18090308 0.108613715
-0.06839344 0.053882446 0.015871238 -0.10224929 -0.11664601 0.05226939 -0.014350253 0.12573735
-0.07259991 -0.047141343 -0.10239667 0.035273112 0.10251569 -0.007405513 0.1350826 -0.04118048
0.16320603 -0.037693705 0.07936001 0.099130385 0.09903644 -0.07046089 -0.116823815 0.063932605
0.16302826 -0.12763868 0.1017257 -0.09602148 0.0002580224 -0.05486626 0.16187523 0.21906011
0.010187999 0.040852673 -0.1740956 0.057169925 -0.15572372 0.08056847 -0.11914244 -0.18175487
-0.14683652 -0.015901146 0.02477391 -0.047126804 -0.16987722 -0.17342141 0.03363209 0.10600519
-0.1259664 -0.07142905 -0.13767739 -0.21322407 -0.11657868 0.014012466 -0.11711632 -0.023252938
0.090910845 0.12347712 0.17808844 0.16174044 0.0268584 0.15941337 -0.0912345 0.15667221
0.071773775 0.03480543 0.025284294 0.0030178842 -0.0073060645 0.08521463 0.12475905 -0.14025646
-0.16686173 -0.053640626 -0.0612211 -0.13091178 0.07526216 -0.007937444 -0.17328463 -0.08258961
-0.13303928 0.17081034 0.15125765 0.07111657 0.08694433 0.11653077 0.016929021 -0.076754965
0.13168718 -0.01801308 -0.032197785 0.08794407 0.05602569 -0.12055223 0.040796433 0.001304176
-0.12416573 -0.09291171 0.08763518 -0.020316763 -0.09891033 0.1573208 0.06984727 -0.06255444
-0.07128219 0.10744615 -0.11192451 -0.034016702 0.14219604 0.114385016 0.17674741 -0.058993693
00000000: bbcd 2e3e 95ec c23d dc94 5f3d a990 5bbd
00000010: e0f5 bab9 6419 003e 2416 93bd c4ff aaba
00000020: f625 553e ad97 643d a4e0 ffbd 4a0b 1c3e
00000030: 20f4 bcbd 9a71 a83d a83e 393e de70 de3d
00000040: dc11 8cbd d7b3 5c3d 6604 823c 1368 d1bd
00000050: 1ae4 eebd 6e18 563d 531d 6bbc 4bc1 003e
00000060: 43af 94bd 4817 41bd 58b5 d1bd 8a7a 103d
00000070: bff3 d13d f2a9 f2bb 1853 0a3e ddac 28bd
00000080: 7b1f 273e b764 1abd 8087 a23d df04 cb3d
00000090: 9ed3 ca3d cd4d 90bd 5341 efbd 19ef 823d
000000a0: e1f0 263e b7b3 02be 9055 d03d e9a6 c4bd
000000b0: 2e47 8739 72bb 60bd 9fc2 253e 4b51 603e
000000c0: 91eb 263c 2255 273d 1e46 32be 032b 6a3d
000000d0: 0a76 1fbe 1501 a53d f400 f4bd f31d 3abe
000000e0: 505c 16be 1f43 82bc a8f2 ca3c 0908 41bd
000000f0: 4bf4 2dbe 6295 31be cdc1 093d 4019 d93d
00000100: 56fd 00be 6549 92bd 4dfb 0cbe 6957 5abe
00000110: cec0 eebd 8b94 653c aeda efbd f27c bebc
00000120: 772f ba3d 93e1 fc3d d15c 363e 499f 253e
00000130: 2606 dc3c 423d 233e 27d9 babd ae6e 203e
00000140: 21fe 923d 2390 0e3d 0221 cf3c b2c7 453b
00000150: b667 efbb 0285 ae3d ac81 ff3d 649f 0fbe
00000160: cddd 2abe 46b6 5bbd fac2 7abd bd0d 06be
00000170: 0c23 9a3d 0e0c 02bc 8771 31be be24 a9bd
00000180: 733b 08be e8e8 2e3e 49e3 1a3e 90a5 913d
00000190: de0f b23d afa7 ee3d bbae 8a3c b531 9dbd
000001a0: 01d9 063e 2b90 93bc d3e1 03bd 051c b43d
000001b0: 327b 653d 16e4 f6bd 291a 273d e3f0 aa3a
000001c0: 9a4a febd 7f48 bebd 137a b33d 576f a6bc
000001d0: 8091 cabd b418 213e 160c 8f3d 8b1c 80bd
000001e0: 66fc 91bd ba0c dc3d ad38 e5bd 1955 0bbd
000001f0: d79b 113e b142 ea3d 46fd 343e 5fa3 71bd

lstm.bias_hh_l0 f4 [128]
0.16949762 -0.09458633 0.21577427 -0.1537624 0.16260464 -0.034646988 0.20495248 -0.11089868
-0.12059884 0.086096525 -0.08050209 -0.104985714 0.10311334 -0.105917975 -0.054260828 -0.09213495
-0.017564613 0.0047245333 -0.047914185 0.046366617 0.087626025 -0.13282599 -0.08787402 -0.12754983
-0.1286357 -0.008674739 0.017450362 0.06999142 -0.049614288 0.079720594 0.19140263 -0.14890476
-0.03926368 0.057121675 -0.0812952 0.13180125 -0.08328314 0.063540846 0.0047714985 -0.09068702
0.0046528596 -0.044141755 0.07903507 0.17174779 -0.0433106 -0.12614536 0.20499612 0.098688595
0.06551444 0.13388519 0.1368419 0.029550005 0.1107709 0.1662019 0.024657343 -0.057735227
-0.1112681 0.10294949 -0.03395386 -0.09700035 0.14811029 -0.080854364 -0.09226333 0.07677241
-0.14899914 -0.030068005 0.08476383 -0.065182075 -0.12774785 0.17353062 -0.12746 0.059056774
-0.10370239 -0.14530611 -0.14496456 0.018005805 0.17213225 0.06367488 0.06674294 -0.081460886
-0.019481085 0.06569946 -0.14630555 -0.047920503 -0.026656745 -0.08074187 0.1141057 -0.031240307
-0.103898555 0.046700552 -0.0067020594 0.01714494 -0.16706139 0.032548897 0.09351775 0.10397778
0.085953236 0.20639838 -0.030805612 0.076992214 0.09545353 -0.027538365 -0.045281596 -0.11154605
0.1610361 -0.036984 -0.03856496 -0.015476707 0.20062982 0.12155094 -0.03985039 -0.13213478
0.19562876 0.1005753 -0.011811772 0.11095347 -0.18889725 -0.10263185 -0.014978733 0.085421614
0.16297357 -0.022214338 -0.09582996 -0.06622177 -0.0032618335 0.13861087 0.06712885 0.10943126
00000000: c990 2d3e 7ab6 c1bd eef3 5c3e e473 1dbe
00000010: d581 263e 00ea 0dbd 10df 513e d91e e3bd
00000020: 86fc f6bd 6053 b03d 48de a4bd c002 d7bd
00000030: 162d d33d 86eb d8bd 9a40 5ebd 40b1 bcbd
00000040: aae3 8fbc 42d0 9a3b aa41 44bd ecea 3d3d
00000050: 4675 b33d 8903 08be 4bf7 b3bd 6c9c 02be
00000060: 14b9 03be 7e20 0ebc 10f4 8e3c a957 8f3d
00000070: 5a38 4bbd 8d44 a33d 0dff 433e 7d7a 18be
00000080: f4d2 20bd 6bf8 693d 197e a6bd e8f6 063e
00000090: 5a90 aabd b421 823d 3b5a 9c3b 1eba b9bd
000000a0: 0477 983b fccd 34bd 24dd a13d a7de 2f3e
000000b0: 7566 31bd 402c 01be 81ea 513e 3f1d ca3d
000000c0: 6f2c 863d 3319 093e 4820 0c3e da12 f23c
000000d0: dbdb e23d d530 2a3e 32fe c93c c67b 6cbd
000000e0: 88e0 e3bd 2fd7 d23d 3413 0bbd 1fa8 c6bd
000000f0: 39aa 173e f996 a5bd 8ff4 bcbd da3a 9d3d
00000100: 3b93 18be 2d51 f6bc a998 ad3d 2e7e 85bd
00000110: 55d0 02be 03b2 313e e084 02be 84e5 713d
00000120: eb61 d4bd 20cb 14be 9771 14be e980 933c
00000130: 7043 303e fa67 823d 86b0 883d f7d4 a6bd
00000140: cc96 9fbc 708d 863d 1fd1 15be 4a48 44bd
00000150: 3f5f dabc fe5b a5bd 40b0 e93d aceb ffbc
00000160: c4c8 d4bd 1449 3f3d f39c dbbb 8c73 8c3c
00000170: 2412 2bbe fe51 053d 3c86 bf3d 4df2 d43d
00000180: 4008 b03d 195a 533e 0d5c fcbc 18ae 9d3d
00000190: 247d c33d 2398 e1bc 3279 39bd 4172 e4bd
000001a0: a6e6 243e 897c 17bd 4bf6 1dbd 0492 7dbc
000001b0: e771 4d3e b3ef f83d 2a3a 23bd 574e 07be
000001c0: e852 483e 6cfa cd3d 2a86 41bc 933b e33d
000001d0: 486e 41be a630 d2bd 5c69 75bc 87f1 ae3d
000001e0: 8be2 263e d8fa b5bc 8042 c4bd 489f 87bd
000001f0: 7cc4 55bb 02f0 0d3e da7a 893d 7f1d e03d

fc1.weight f4 [16, 32]
0.19860794 0.08604321 0.016540464 0.12974812 0.07744887 -0.07473519 0.15191372 -0.0712915
0.10768042 0.062202707 0.08498996 -0.018605316 -0.17769036 -0.16347903 -0.15823686 0.0031140973
-0.024476454 0.18792388 0.19674195 0.12777518 -0.10943374 -0.08205027 0.08504088 -0.10957791
-0.041628312 -0.1084404 0.012107448 -0.008920452 0.09196987 -0.086023524 0.12608843 0.06817227
-0.15437284 -0.06776063 -0.22739224 -0.090701394 -0.13821264 -0.0065298486 -0.08316966 -0.12955353
0.097031355 0.14854926 -0.080252685 -0.20474285 -0.09223482 0.016181521 0.028355133 0.09217298
-0.12683184 -0.0019314411 -0.053737603 -0.11743939 -0.050912134 0.20962062 0.09102434 -0.22497168
-0.0072902283 -0.09530785 0.19449914 -0.036062468 0.11194844 -0.081783034 -0.13255048 0.040724203
0.07326038 0.049198788 0.05926787 -0.0011958308 -0.026625263 0.0034733848 0.14878182 0.05871501
0.009871269 -0.15854393 -0.15832642 0.103753775 -0.16421905 0.11699141 -0.029847654 -0.092355706
-0.0916728 0.055998117 0.13137397 0.15845644 0.009127606 0.11714119 -0.09672245 -0.14583883
-0.15083726 -0.08916833 0.14431778 -0.1598271 0.15247379 0.17405324 0.00016972318 0.16412498
-0.08089341 0.16067077 -0.08173266 -0.016800344 -0.024640635 0.14383294 0.13681518 -0.021114692
0.16718142 0.09679721 -0.059093945 -0.017963752 0.050828844 -0.12059502 -0.048623025 -0.12865382
0.12193127 -0.12353821 0.03774427 -0.103454076 0.004155323 -0.1468752 0.06806347 -0.01879707
-0.13560845 0.0383178 0.14138286 0.013291687 0.04546918 0.013332993 0.07332273 0.06595223
0.07394339 -0.11794453 -0.03141126 -0.08860775 -0.05146961 -0.05278247 0.03802948 0.19700144
-0.12662399 -0.12743078 -0.066311106 -0.12654231 0.044111844 0.14041492 -0.010995264 -0.07320888
0.19356957 -0.022069655 0.11798041 0.009919866 -0.055502668 -0.1268545 -0.03869948 0.093517944
0.11443216 -0.102241404 0.017935714 -0.051230006 -0.07934619 -0.12601179 0.11718243 -0.060998376
-0.1362563 -0.111034356 -0.0338597 0.06120588 0.07479994 -0.08953259 -0.040118724 -0.05746004
0.11733447 0.15915649 0.001009211 0.12704588 -0.04637009 -0.14024115 0.041623697 0.06417595
-0.05231779 -0.058636762 0.03944795 0.13535737 0.07656573 -0.034753636 0.09748824 0.09312804
-0.04807046 0.020627275 0.021234572 -0.034039035 0.024194881 0.0485076 -0.14790262 0.066623375
-0.101747766 0.014070686 -0.0887214 -0.12659287 -0.21601607 0.22838092 -0.10978755 0.09197797
-0.19209644 -0.013410278 -0.07491656 -0.029432919 0.21961606 0.15091005 0.02097296 -0.06354768
-0.22383618 -0.11667709 0.014086811 -0.14182724 0.10666808 0.18423133 -0.09513253 -0.12755625
-0.10707746 -0.16336906 -0.10630473 0.07178838 -0.06442839 -0.09032776 0.049190406 -0.088284835
-0.13857149 0.10605769 -0.011988506 -0.03491074 -0.11193838 -0.0058467835 -0.093237825 -0.0022246987
-0.15552382 0.039727896 0.0968072 -0.02919142 -0.037874043 0.086536124 -0.09501206 -0.07240382
-0.054512672 -0.1047118 0.14398469 -0.09489635 -0.12742163 -0.1621797 -0.015777782 -0.09057543
0.10585816 -0.07758328 -0.11001174 -0.017006293 -0.09205028 -0.0956493 0.05493945 -0.13855307
00000000: e15f 4b3e 6c37 b03d de7f 873c b1dc 043e
00000010: 839d 9e3d c30e 99bd 458f 1b3e 4701 92bd
00000020: 8d87 dc3d 44c8 7e3d 370f ae3d 2d6a 98bc
00000030: 76f4 35be 0c67 27be d808 22be e215 4c3b
00000040: d882 c8bc 1e6f 403e b976 493e 7fd7 023e
00000050: cc1e e0bd f909 a8bd ea29 ae3d 626a e0bd
00000060: 7382 2abd 0016 debd 515e 463c 1627 12bc
00000070: b35a bc3d 1a2d b0bd 531d 013e e79d 8b3d
00000080: ea13 1ebe 16c6 8abd 83d9 68be a7c1 b9bd
00000090: 9d87 0dbe 57f8 d5bb db54 aabd aea9 04be
000000a0: 60b8 c63d 4c1d 183e 855b a4bd 1ca8 51be
000000b0: 9ce5 bcbd 1c8f 843c 0649 e83c 30c5 bc3d
000000c0: 35e0 01be 6928 fdba f61b 5cbd 1084 f0bd
000000d0: 3e89 50bd caa6 563e f86a ba3d fa5e 66be
000000e0: dee2 eebb c330 c3bd c82a 473e 3db6 13bd
000000f0: 3945 e53d dd7d a7bd 50bb 07be 6cce 263d
00000100: 8a09 963d ab84 493d dec2 723d 6cbd 9cba
00000110: 391d dabc baa1 633b 435a 183e 267f 703d
00000120: 1abb 213c 5759 22be 5220 22be dc7c d43d
00000130: 0a29 28be 3199 ef3d 1183 f4bc fd24 bdbd
00000140: f3be bbbd 485e 653d e686 063e 6842 223e
00000150: f48b 153c b8e7 ef3d 6b16 c6bd c656 15be
00000160: 1575 1abe e39d b6bd 0ac8 133e b7a9 23be
00000170: 1722 1c3e 033b 323e b8f7 3139 6110 283e
00000180: 72ab a5bd e186 243e 7463 a7bd e0a0 89bc
00000190: 28db c9bc f148 133e 4719 0c3e b8f8 acbc
000001a0: 9b31 2b3e 9e3d c63d 7e0c 72bd b828 93bc
000001b0: e831 503d 86fa f6bd f028 47bd d4bd 03be
000001c0: 1ab7 f93d 9a01 fdbd bc99 1a3d bbdf d3bd
000001d0: 6029 883b 7466 16be dc64 8b3d 50fc 99bc
000001e0: f1dc 0abe 20f3 1c3d abc6 103e 60c5 593c
000001f0: e43d 3a3d a072 5a3c 3a2a 963d f611 873d
00000200: a26f 973d e78c f1bd 18a9 00bd fb77 b5bd
00000210: ccd1 52bd 6e32 58bd cdc4 1b3d bfba 493e
00000220: b8a9 01be 377d 02be 1ece 87bd 4f94 01be
00000230: 9fae 343d eec8 0f3e 7b25 34bc 8aee 95bd
00000240: 1a37 463e 6ccb b4bc b79f f13d ef86 223c
00000250: c456 63bd 25e6 01be 5983 1ebd 5686 bf3d
00000260: 695b ea3d f163 d1bd ebed 923c 8ed6 51bd
00000270: 4180 a2bd 3c09 01be 58fd ef3d 6fd9 79bd
00000280: c686 0bbe fb65 e3bd 78b0 0abd 04b3 7a3d
00000290: b630 993d dd5c b7bd 8853 24bd 385b 6bbd
000002a0: 0e4d f03d ebf9 223e 8047 843a 5118 023e
000002b0: 90ee 3dbd 609b 0fbe 9c7d 2a3d ae6e 833d
000002c0: 2e4b 56bd 1a2d 70bd 2c94 213d 1f9b 0a3e
000002d0: 7ece 9c3d d459 0ebd eaa7 c73d eab9 be3d
000002e0: 88e5 44bd 88fa a83c 20f4 ad3c 846c 0bbd
000002f0: 5834 c63c e8af 463d c973 17be d671 883d
00000300: 2261 d0bd bc88 663c 91b3 b5bd 90a1 01be
00000310: 5133 5dbe b0dc 693e 4cd8 e0bd f25e bc3d
00000320: eeb4 44be c8b6 5bbc da6d 99bd 4e1d f1bc
00000330: 08e3 603e 2a88 1a3e 7ccf ab3c 4925 82bd
00000340: 5035 65be 66f4 eebd 5ecc 663c 293b 11be
00000350: cb74 da3d 23a7 3c3e d8d4 c2bd 1b9e 02be
00000360: 6d4b dbbd 384a 27be 4bb6 d9bd c905 933d
00000370: 08f3 83bd c3fd b8bd e17b 493d aece b4bd
00000380: afe5 0dbe c634 d93d 706b 44bc 90fe 0ebd
00000390: f33f e5bd 6096 bfbb 79f3 bebd 40cc 11bb
000003a0: a341 1fbe b8b9 223d da42 c63d d822 efbc
000003b0: d021 1bbd da39 b13d af95 c2bd 7448 94bd
000003c0: ae48 5fbd 2473 d6bd b970 133e 0459 c2bd
000003d0: d17a 02be 6f12 26be 6840 81bc 9c7f b9bd
000003e0: 2acc d83d fce3 9ebd d64d e1bd c850 8bbc
000003f0: db84 bcbd c8e3 c3bd 3008 613d dbe0 0dbe

fc1.bias f4 [16]
0.076026835 0.14005682 -0.05357248 0.03180203 0.119650565 -0.11390658 0.03715081 -0.14403012
0.008884488 -0.17283426 -0.117839284 0.07993956 -0.08671672 0.045571394 0.0038072467 -0.06533763
00000000: f5b3 9b3d 0e6b 0f3e d16e 5bbd d842 023d
00000010: 5b0b f53d da47 e9bd 732b 183d a27c 13be
00000020: 3e90 113c 77fb 30be b955 f1bd 5ab7 a33d
00000030: 8998 b1bd 12a9 3a3d 0083 793b bccf 85bd

out.weight f4 [1, 16]
-0.16892463 0.14040723 -0.19975081 0.077583164 -0.09446838 0.094977945 0.11565984 0.09050545
0.15452868 -0.10539878 -0.085023865 0.1733395 0.18845512 0.12886597 -0.22032523 0.18672673
00000000: 94fa 2cbe eac6 0f3e 7a8b 4cbe ece3 9e3d
00000010: a378 c1bd cc83 c23d 11df ec3d ec5a b93d
00000020: c43c 1e3e 51db d7bd fe20 aebd e97f 313e
00000030: 61fa 403e 71f5 033e f09c 61be 4b35 3f3e
