artifacts/territory/lstm/625__638__639/model.pt (torch, 23217 bytes, 7 tensors)

lstm.weight_ih_l0 f4 [128, 1]
000000 37 20 fe 3d 5f e6 2d be dd b2 2f 3c 77 a5 b5 bd
       0.12408488 -0.16982411 0.010723797 -0.088694505
000010 24 e5 be bc 66 33 32 3c 8b 1e 0c 3e 8e d4 9f bd
       -0.023302622 0.010876512 0.13683526 -0.078042135
000020 14 4e 05 bd f2 22 33 be ef 09 9d 3d c2 48 d3 bd
       -0.032545164 -0.174938 0.0766791 -0.10316612
000030 5c 53 ac 3c 37 2f b7 bc 00 23 89 3d 81 7a 24 bd
       0.021035843 -0.022361381 0.06696129 -0.04015589
000040 f3 c8 24 3b a8 ee 10 3e 8b fb 2b be c1 1c 29 3e
       0.002514419 0.1415354 -0.16795175 0.16514875
000050 36 a4 30 bd 11 f7 82 bd fa 0b 1e be 67 ac 32 3c
       -0.043125354 -0.063947804 -0.15434256 0.010905362
000060 13 74 4c 3e 08 0f 95 3b b2 d5 3b 3c 45 7f 3f 3e
       0.19966154 0.004548911 0.011464523 0.18700893
000070 a9 c2 a1 3d bd 56 66 3c 78 33 23 bd 4a 2d df bd
       0.078984566 0.014058766 -0.039844006 -0.1089731
000080 64 7c e0 3d ef b2 e2 bd 92 cc ec 3d 08 80 1f 3c
       0.10961226 -0.11069285 0.11562456 0.009735115
000090 a3 9e 44 3e f8 04 fb 3d aa 55 90 3d 94 e0 ca bb
       0.1920114 0.12256807 0.07047589 -0.0061913226
0000a0 fa a2 cb 3d f2 dc d5 bd b9 93 50 3d 74 4f 03 3e
       0.09943195 -0.104425326 0.05092213 0.12823278
0000b0 36 59 fe 3d b2 90 e1 bc 0d 8c f8 bc 1a eb 2a bd
       0.124193594 -0.027534816 -0.030340219 -0.041728117
0000c0 2e 67 01 3e dd 36 0c be 72 36 59 bd 54 79 fe 3d
       0.12637016 -0.13692804 -0.05303044 0.12425485
0000d0 59 9c 12 3e 95 01 d6 bd a8 b9 e3 3d 1b e2 71 3c
       0.14317454 -0.104495205 0.111193955 0.01476338
0000e0 00 f9 3b 3c c2 2a ab 3c 06 cb 2f 3e f5 8c a5 3c
       0.01147294 0.020894412 0.17167291 0.020208815
0000f0 41 1a 0e bd 53 d7 d7 bc a8 b5 19 3c 5c d1 0f 3d
       -0.034693006 -0.026347792 0.009381689 0.03511177
000100 71 ff d6 bb 93 66 1e be 14 22 38 3d 63 40 0e 3e
       -0.0065612127 -0.15468816 0.044954374 0.13891749
000110 37 4b 25 3e 90 fd 06 be 2b 50 9f 3b be 7b d5 bc
       0.16141973 -0.13182664 0.0048618517 -0.026059981
000120 54 4a 9b 3c 35 61 08 3e 2d 00 ba 3d de d9 f4 bd
       0.01895634 0.13318332 0.09082065 -0.11955617
000130 e2 21 ff bd 4c 73 1e 3c 6f 20 dc bd da b7 e0 bd
       -0.124576345 0.009671044 -0.10748374 -0.10972567
000140 0a 83 3e bd 91 fb c1 3d 8b 8e 19 3e 48 e0 86 bd
       -0.046511687 0.094718106 0.14995782 -0.06585747
000150 6b c2 75 bd 55 70 ad bc 07 8c 2a 3e 3e a6 f4 3d
       -0.059999865 -0.021171728 0.16654979 0.11945771
000160 11 16 a1 3d b3 8c 2f 3e ed 42 09 3e a7 93 2f 3e
       0.07865537 0.17143516 0.13404436 0.17146169
000170 75 c1 83 3d cb aa 22 3e f8 60 50 b9 48 c6 ac bd
       0.064333834 0.15885465 -0.0001987255 -0.08436257
000180 48 71 a1 3c cc b3 ad bd a1 18 48 3e e5 50 0d 3e
       0.019707337 -0.08481559 0.19540645 0.1380039
000190 0c ce 4a 3e 6f 25 77 bc bd 32 e7 bd 4b bb 42 be
       0.19805163 -0.015084608 -0.112889744 -0.19016759
0001a0 bb 1b 14 3c 08 fe cc bd 56 68 8e bd 23 02 9f 3d
       0.009039815 -0.1000939 -0.06953494 0.077640794
0001b0 63 db 9b bd 1c a1 5c 3d 7f a1 d8 3d d3 e6 98 3d
       -0.07610204 0.053864583 0.10577678 0.07465901
0001c0 b3 8c 5c 3d e9 21 2b 3e bc 7f 88 bd 81 bf f6 3d
       0.05384512 0.16712154 -0.066649884 0.12048245
0001d0 9e a4 4d 3e ab 8d 12 3e 5c 78 f9 3d 2f 3f d1 bd
       0.20082328 0.14311855 0.1218116 -0.102171294
0001e0 44 70 01 3e c4 0a 82 3d 90 85 d2 bd da a0 59 3c
       0.12640482 0.0634971 -0.10279381 0.013282979
0001f0 3c fb a9 3c f6 ac 21 3d 03 3e 28 bd 51 e8 a1 3d
       0.02074968 0.03947159 -0.041074764 0.07905639

lstm.weight_hh_l0 f4 [128, 32]
000000 a9 1d da 3d e0 dc a8 3c 31 4d ab 3d e3 60 87 bd
       0.106501885 0.020613134 0.083643325 -0.066102766
000010 cf bc b9 3d 9c c8 01 3e d8 e6 61 3d 63 b3 2f be
       0.090692155 0.12674183 0.05515179 -0.17158274
000020 dc 85 cf bc 70 5e da bd 6c 72 2c 3e 8b 8b 2f be
       -0.025332384 -0.10662544 0.16840523 -0.17143075
000030 59 37 7b 3d b1 4b 2b be 7a c6 3c bd a3 06 c3 bd
       0.06133208 -0.16728093 -0.04608772 -0.0952275
000040 a4 90 2f 3d bc 0c b9 3d 70 5c 63 bc da 0e 0a be
       0.04286255 0.09035632 -0.013877019 -0.13482228
000050 94 18 2b bd 1e 92 d7 bd 0b 8d 95 bd 2a 00 16 be
       -0.041771486 -0.105259165 -0.073022924 -0.146485
000060 fa d3 28 be c2 6b b5 3d 49 3c 99 3d ed 0e 13 be
       -0.16487113 0.08858444 0.074822016 -0.14361162
000070 09 ec 1d be 55 ed 06 be ca a2 18 be 01 80 28 3e
       -0.15422072 -0.13176472 -0.14905849 0.1645508
000080 c9 8a 1f be 9e 52 a7 bd 28 54 6c bd 23 4c aa 3b
       -0.15580286 -0.08170055 -0.057697445 0.0051970645
000090 e3 3c 61 3d 9a 9b 37 3d f8 3e 51 bd 88 c4 1d 3d
       0.054989707 0.044826128 -0.051085442 0.038517505
0000a0 82 5a 0f be 9c 8e 02 3d a4 75 7c 3d d2 e9 5d bd
       -0.1399937 0.031874284 0.06163563 -0.054178067
0000b0 ea f3 07 3d 23 42 a1 bd cc d5 de 3c 42 30 90 3d
       0.0331916 -0.07873943 0.027201556 0.070404544
0000c0 2a 5d 00 bc ae f0 03 3d a1 0b 10 be d0 95 16 be
       -0.007834712 0.032211952 -0.14066936 -0.14705586
0000d0 81 99 8e bd 5c dc 0f 3e 92 d3 fd bb 80 b5 3a bc
       -0.06962872 0.14048904 -0.0077461684 -0.011395812
0000e0 1e d7 b4 bd 90 22 a7 bd e3 b2 64 bd 39 b7 fd 3c
       -0.08830093 -0.08160889 -0.055834662 0.030971156
0000f0 a2 2d 18 3e 14 d8 31 be 3d 64 b5 3c 08 fe 52 bd
       0.14861158 -0.17367584 0.022142524 -0.051511794
000100 08 10 8a 3d d7 e8 df bd 94 c3 0b be b7 b4 88 3d
       0.06741339 -0.109330826 -0.13648826 0.066750936
000110 bd fb bb 3d e7 31 04 3e ac 73 e5 3d 57 27 26 3e
       0.09178875 0.12909661 0.11203703 0.16225944
000120 7d b6 db 3d 04 32 31 bd e1 eb 1f 3e 95 45 d9 bd
       0.10728166 -0.04326059 0.15617324 -0.10608975
000130 a9 08 0b be 13 00 e5 bd 8c 13 8a ba 0d 38 81 3d
       -0.13577522 -0.11181655 -0.001053439 0.06309519
000140 b8 4f d7 bd 3c 4d a7 bd 86 1f ff 3d 83 d8 04 be
       -0.10513252 -0.08169028 0.124571845 -0.12973218
000150 0a 4a 8a 3d 33 ad 04 be 63 3c e6 bd b3 f3 19 be
       0.06752403 -0.12956695 -0.112419866 -0.1503437
000160 c1 84 ec bd 50 5e fb bd 0d 8a 3b 3c ce e7 07 3e
       -0.11548758 -0.12273848 0.011446488 0.1327202
000170 d8 31 04 3e 52 67 15 be b6 c6 ae bd 52 6a e5 3d
       0.12909639 -0.14590195 -0.08533995 0.112019196
000180 34 85 16 be 90 8c 5f 3c a5 47 b4 3d a5 68 0c be
       -0.1469925 0.013644353 0.088027276 -0.13711794
000190 5c 38 6b 3d a7 9a 12 3e 4a c9 83 bd 23 3f 2e 3e
       0.057426795 0.14316808 -0.06434877 0.17016272
0001a0 36 5a 44 3d 72 8f fc 3d 0b 45 63 3d 61 c6 6c 3d
       0.047937594 0.123320475 0.055485766 0.057806376
0001b0 23 93 3d be ad 3c 2d 3e fd 0d fd bb 31 f4 2d be
       -0.1851316 0.16917677 -0.007722615 -0.16987683
0001c0 3c 2b 0c be f2 b1 06 be 82 d8 8b 3d 70 7c e9 3d
       -0.13688368 -0.13153818 0.06828405 0.11400688
0001d0 9d b3 79 bd f0 bb 00 3e 33 95 44 3c c1 1c c5 bc
       -0.06096231 0.12571692 0.0119984625 -0.024061562
0001e0 81 86 d1 3d 1a 4c 68 3d 0e 25 c3 bd 18 51 51 3e
       0.10230733 0.0567132 -0.09528552 0.20441091
0001f0 7e f1 8d 3d 6f 4a 45 3e 6d 6b ef bd a9 18 5d 3d
       0.069308266 0.19266675 -0.11690412 0.053978596
000200 9f 1c 09 be 7a 82 f5 3b 9d b6 d9 3d 04 52 79 3d
       -0.13389824 0.0074923607 0.10630534 0.06086923
000210 09 8d 56 3e b1 4c 10 be e8 aa d1 bb b1 76 1e be
       0.20952238 -0.14091755 -0.0063985474 -0.15474965
000220 09 77 27 3d b3 e9 7a 3d 31 31 a8 bd c4 36 3a 3c
       0.040885005 0.06125803 -0.082125075 0.011365596
000230 47 44 2c 3c 1e ad 46 be ae a8 30 be 56 f4 1d be
       0.010514325 -0.19401976 -0.17251846 -0.15425238
000240 78 34 28 be 34 68 c6 3d 9c 34 ba bd 3a be 8d 3d
       -0.16426265 0.09687844 -0.09092066 0.069210485
000250 c0 bb 67 be d0 32 7a 3d 07 43 3d 3d 79 31 ec 3d
       -0.22630215 0.061083615 0.0462065 0.11532874
000260 4e 8e 22 3d 3f 84 0e bd d3 40 a3 3d 86 36 ec 3b
       0.039686494 -0.03479409 0.079713486 0.007208648
000270 cc 10 25 3e 7c 3e 1f 3e 15 ca a0 3d 76 0e 9b bb
       0.16119689 0.1555118 0.07851044 -0.0047319485
000280 11 fd 3b bd cb 88 ad 3d 1f 07 0c be b9 1d 1e 3e
       -0.04589564 0.08473357 -0.13674591 0.15441026
000290 d0 2f 26 3e 71 4b 95 3c 71 63 71 3d 9e d5 e1 3d
       0.16229177 0.01822445 0.058932725 0.11027072
0002a0 98 6b 13 3e 42 f0 71 bd 75 5e 5c 3d 08 16 b5 3d
       0.14396513 -0.05906702 0.05380102 0.08842093
0002b0 3f e8 33 bd 6f 3d a9 3d b7 57 b0 bd f6 37 21 bd
       -0.04392266 0.08263671 -0.0861048 -0.03936001
0002c0 fc f8 ff 3c 73 c9 46 3c af 1f 08 be 59 85 84 3d
       0.031246655 0.01213299 -0.13293336 0.064707465
0002d0 8e f1 8f 3d 4a 6b 22 be 8b 9c 16 be 62 79 ae bd
       0.07028495 -0.1586124 -0.14708154 -0.08519246
0002e0 bf 94 d5 bc c3 af 4b 3e 27 b7 ec 3d 71 ca 0a bc
       -0.026071904 0.19891267 0.11558371 -0.008471117
0002f0 ae a4 96 3c 73 70 06 3e e4 2a da 3d 92 5d b3 bd
       0.018389072 0.13128833 0.10652712 -0.087580815
000300 34 e1 83 3d 00 04 ea 39 83 13 65 bd 93 b4 e6 bd
       0.064394385 0.00044634938 -0.05592681 -0.112649105
000310 8e d8 77 bd 93 98 2c 3e ba 9d bd 3d 64 a9 92 bd
       -0.060509257 0.16855077 0.092585996 -0.07161215
000320 d0 06 37 bd 40 51 41 3b 68 05 fd bc 26 c1 b1 bd
       -0.04468423 0.0029497892 -0.030886367 -0.08679418
000330 28 69 0b bd 2c 4a 8d 3d 40 9b ab bd de d8 e7 3d
       -0.03403583 0.06898913 -0.08379221 0.11320661
000340 50 50 f0 bc 0e b7 a2 bd 9e 42 d5 3d b7 65 58 3c
       -0.029335171 -0.07945071 0.10413097 0.013207844
000350 fd 88 26 3e b0 49 61 bc bb 43 24 3e f8 2f 28 bd
       0.16263194 -0.013750479 0.16041462 -0.04106137
000360 21 11 a0 3d cd 45 34 be f0 4e 33 bd 6d 0f 5a bd
       0.07815767 -0.17604752 -0.043776453 -0.053237367
000370 48 0b e2 3d 07 d9 08 be 43 e7 0f 3e 53 df b1 bd
       0.11037308 -0.1336404 0.14053063 -0.08685174
000380 5d 6c 92 3d 92 f8 c8 3d 03 bf 2f be 35 6b a6 3d
       0.07149575 0.09813036 -0.17162709 0.08125917
000390 ba 2c bc bd eb 2f 64 bd 62 82 84 3d 53 f0 2f be
       -0.091882184 -0.05570976 0.06470181 -0.1718152
0003a0 99 bc a5 bd e3 30 21 3e bf 99 03 3d 40 1b a1 bc
       -0.08092613 0.15741305 0.032129046 -0.019666314
0003b0 84 0f 93 3d a4 b9 af 3b a2 7d de bd a8 7b c6 bd
       0.07180694 0.0053627063 -0.10863806 -0.09691554
0003c0 13 2b 45 3c 22 5f 2e 3e 10 11 72 3d b9 28 38 3e
       0.0120341955 0.17028478 0.059098303 0.17984284
0003d0 35 9b f0 3d 25 59 a5 bc d3 04 31 3e 8d dc 33 3e
       0.117483534 -0.020184109 0.17286997 0.17564602
0003e0 9b db b9 3d 8c 73 29 3e ed 4c aa bc 1d 94 f8 bd
       0.090750895 0.16547984 -0.020788634 -0.12137625
0003f0 90 77 1a b9 8e ca 8f bb d8 3c e8 bd c2 f5 94 3d
       -0.00014731125 -0.00438816 -0.1133973 0.07273437

lstm.bias_ih_l0 f4 [128]
000000 d3 16 b5 bc a2 f6 08 3e c5 da bc bd 46 d8 91 3d
       -0.02210561 0.13375333 -0.092214145 0.07121329
000010 ce ca 7e 3d 08 4b ed bd 4a 12 b4 3d 94 09 24 be
       0.06220513 -0.11586577 0.08792551 -0.16019279
000020 4e 87 0a bd 17 b2 46 3d d0 3b b0 3d 55 74 12 3e
       -0.033820443 0.048509683 0.08605158 0.1430219
000030 63 32 3d 3e 4d 0e 54 be f9 e1 06 bd bf d0 5e 3e
       0.18476252 -0.2070858 -0.032930348 0.21759318
000040 cc 46 fd 3c a1 7d 8e 3d 41 0b 3b bc f2 27 df 3d
       0.030917548 0.069575556 -0.011416257 0.10896291
000050 10 f8 45 3e cb 4e 00 be ae 20 d3 3d f7 c9 c5 3d
       0.1933291 -0.12530057 0.103089675 0.09657662
000060 0f 9b 21 3e 56 96 e8 3d ca 5c 52 bd 69 d1 d7 3d
       0.15781806 0.11356799 -0.05135802 0.10537989
000070 1a ab ba 3d b1 b0 6d 3e c7 ae 5a bc e0 96 f1 3c
       0.09114666 0.23211934 -0.013347334 0.029490888
000080 4b 9a 0b 3e 67 b4 09 3e 73 59 35 3e 90 d5 35 3e
       0.13633077 0.13447724 0.17709903 0.17757249
000090 97 4a 02 3e 01 5e 2a 3d dd 0f eb bd d3 13 ba bd
       0.12723766 0.041593555 -0.11477635 -0.090858124
0000a0 1f be b4 3c 0b 4f 0f 3e 3e a8 ad 3d b7 b7 26 3e
       0.022063313 0.13994996 0.08479355 0.16281019
0000b0 15 a3 0a be df a5 bf bd 75 98 21 3d cb 8a c3 bd
       -0.13538773 -0.09357809 0.039452035 -0.09547957
0000c0 01 f8 95 bb f2 eb b8 3c c0 b3 1b be 13 61 21 be
       -0.0045766835 0.022573445 -0.15205288 -0.15759687
0000d0 4a dd f3 bd cd ab 2a bd 37 84 b0 bd 32 54 af 3d
       -0.11907442 -0.04166775 -0.08618968 0.08560981
0000e0 94 ec 91 bd 26 97 1f 3d 8f 23 0c 3e 5a d9 a9 bd
       -0.07125202 0.038962506 0.1368544 -0.0829341
0000f0 41 02 60 3d 1f 6c 94 bd 8d 1e e0 3d 41 ec 34 bd
       0.05468965 -0.07247185 0.10943327 -0.04417062
000100 37 66 ad 3d 39 34 12 be 22 37 2d be a2 40 e5 3d
       0.084667616 -0.14277734 -0.16915563 0.11193968
000110 57 a4 28 3e 6c f1 a8 bd 92 d4 40 3d a4 bc ef bc
       0.1646894 -0.082491726 0.047077723 -0.029264756
000120 82 30 96 bc 1e e2 99 3d 3f f1 14 3d 9c 79 a3 bd
       -0.018333677 0.075138316 0.036362883 -0.079821795
000130 b8 80 f1 3c 5c 3a ed bd cf 3b d0 3c e0 72 cf bd
       0.029480323 -0.11583397 0.025419144 -0.101293325
000140 30 d2 b5 3d 07 ee c8 bd 6a e7 8c 3d 73 9e 09 be
       0.08877981 -0.09811025 0.06880076 -0.1343935
000150 82 d1 05 3d 3b 69 4f be 3f de 86 bd 13 53 e7 bd
       0.032670505 -0.20254986 -0.06585359 -0.11295142
000160 03 48 bf bd be 91 fe bd 58 65 90 3d ea 3e 97 3d
       -0.09339907 -0.12430142 0.0705058 0.07385047
000170 f8 77 02 3e 5a ef 06 be e8 f8 2b 3c 10 38 81 3d
       0.12741077 -0.13177243 0.010496356 0.06309521
000180 74 d5 b3 bc 2c be be 38 d7 96 2c 3e ed ec b5 bc
       -0.021952368 9.095328e-05 0.16854416 -0.022207702
000190 54 54 17 3e e5 01 a1 bd 61 fb 12 bc f2 5a cc 3c
       0.14778262 -0.078616895 -0.008971066 0.02494571
0001a0 eb 2e 3b 3d 78 31 31 3d be 9d 3e be c4 c2 02 3e
       0.04569904 0.043260068 -0.18614861 0.1276961
0001b0 25 96 72 3e e1 9b 5b bd 52 26 94 3b aa 37 25 3e
       0.23690088 -0.053615455 0.0045211697 0.16134515
0001c0 27 42 9e bb b3 1a 10 3e 8d 4e ec bd 53 fe 4c 3c
       -0.0048296633 0.14072685 -0.1153842 0.0125118075
0001d0 18 fa ed bd ae 86 01 3e 39 71 2a bb fc c2 39 3e
       -0.11619967 0.12649032 -0.0026007427 0.18140787
0001e0 f0 66 e8 3c 8d f2 06 3e 4e 33 a9 3b 0e 30 36 3e
       0.028369397 0.13178463 0.0051635867 0.17791769
0001f0 3a 56 12 3e 8a 37 47 3e af 46 bb bd ff ca 16 3d
       0.14290705 0.1945478 -0.09144341 0.036814686

lstm.bias_hh_l0 f4 [128]
000000 51 cd 33 3e 9c 46 22 be d9 75 db 3d 03 d7 06 be
       0.1755879 -0.15847248 0.10715837 -0.13167958
000010 6d f7 5f 3e ac 31 dc bd b9 bd 29 be 70 db 60 bd
       0.21871729 -0.10751662 -0.1657628 -0.054896772
000020 e5 86 da bc f9 7e 92 3d a4 c0 07 bd 01 03 23 3e
       -0.02667565 0.07153124 -0.0331427 0.15919115
000030 4b 78 2d 3e aa ca 36 bd 58 f4 f7 bd d8 6c 0b 3e
       0.1694042 -0.04462687 -0.12107152 0.1361574
000040 06 68 00 3d a6 ba ab bd d4 17 22 be 02 72 e6 3c
       0.031349204 -0.0838521 -0.15829402 0.028130535
000050 bd a5 a2 3d f1 f3 a5 3d a0 34 24 be 10 59 1c 3e
       0.07941768 0.08103169 -0.160357 0.1526835
000060 4f 0d fc bd db b4 3d 3e 02 68 59 3d ee e3 c9 bd
       -0.12307226 0.18526022 0.053077705 -0.09857927
000070 c1 f6 3f 3e c8 ec 14 3e ad 1c a5 bd f7 e2 40 3e
       0.18746473 0.1454345 -0.0806211 0.1883658
000080 82 3b 74 3d 1a 38 ea bd 1c e6 98 bd f3 02 1a be
       0.059627064 -0.11436482 -0.07465765 -0.15040188
000090 fa 0f 27 3e 7b a3 8a 3c 89 85 c2 3d ff bb 64 bd
       0.16314688 0.016923657 0.09498126 -0.05584335
0000a0 55 08 f3 3c a0 74 4d 3c 2e f2 9b 3d eb c6 1a 3d
       0.029667059 0.012540013 0.076145515 0.03778736
0000b0 89 b1 80 bd a1 a6 8c 3d bf 04 38 bd bd f9 d6 3d
       -0.06283862 0.068677194 -0.0449264 0.104968525
0000c0 16 fe c9 3d 77 5b ec 3d 6e 28 13 3e 48 73 03 3e
       0.09862916 0.11540883 0.14370891 0.12836945
0000d0 5f e2 bd bc 7f 49 06 be 49 ff 4f 3d 54 a2 28 3d
       -0.023179231 -0.13113974 0.05078057 0.041170433
0000e0 63 e7 d8 bd d2 d8 46 3e 6d 6e b9 bc c9 3f 0e bd
       -0.105910085 0.19418648 -0.022635663 -0.0347288
0000f0 b9 2c 00 bd d1 3c 4e 3e 04 56 08 be 71 9b 52 3d
       -0.03129265 0.20140387 -0.13314062 0.05141777
000100 9f a5 33 be c0 6d cd bd 4a 19 39 3c 84 1f 86 bd
       -0.17543648 -0.10030699 0.011297533 -0.0654898
000110 f8 60 24 be b2 37 d2 3d 32 33 52 3d 66 0a 10 3e
       -0.16052616 0.10264529 0.051318355 0.14066467
000120 c5 e7 e0 bd f6 a2 a3 bd e6 61 05 3e 53 18 c9 bc
       -0.109817065 -0.07990067 0.13025627 -0.024547732
000130 8a 8a e3 bd 9b bf 3f 3e cb fc 00 3e f1 78 92 bd
       -0.111104086 0.18725435 0.12596433 -0.07151974
000140 73 e7 2c bd 53 0c 85 bd 10 20 53 bc 16 5f 79 bd
       -0.042212915 -0.06496491 -0.012886062 -0.060881697
000150 84 9f 5c 3d 9e f9 4d be 2c 86 c8 bd b2 d9 b7 3d
       0.053863063 -0.20114753 -0.09791216 0.08977069
000160 1e 7c 0b 3e 61 57 05 3e 21 1c 2d 3e 55 6b 20 be
       0.13621566 0.13021614 0.16905262 -0.15665944
000170 57 de 3e bd 2a 8b db 3d 74 12 0c 3d a0 c6 74 3d
       -0.04659876 0.10719903 0.034197286 0.059759736
000180 fb 53 db bd 26 f9 c6 3d 34 e5 0c 3d 3a 06 0c be
       -0.107093774 0.0971549 0.034398273 -0.1367425
000190 e6 5e 18 3e d9 d1 a4 bd 25 c9 da 3d 4e 54 ab 3d
       0.14879951 -0.08047838 0.106828965 0.08365689
0001a0 5e 4f 82 bd 00 4a 7c 3d c8 44 23 3d 7d a9 62 3e
       -0.06362794 0.06159401 0.039860517 0.22134967
0001b0 bf 2b 67 3e df 8a 6a 3d ee 06 c4 bd 93 1e b8 3d
       0.22575282 0.057261344 -0.09571634 0.089902066
0001c0 17 49 8b bd bc ec 1a be f7 c4 0f be d8 ad 4f 3d
       -0.0680105 -0.1512937 -0.1403998 0.0507029
0001d0 72 c2 01 be a7 19 3b 3e 81 1a 5b 3d da 23 1a 3d
       -0.12671831 0.18271504 0.053492073 0.037631847
0001e0 3f 7e 0e be 7a f1 04 3e 5c 57 cd bd e5 0f b5 3c
       -0.13915347 0.12982741 -0.10026428 0.022102306
0001f0 12 64 59 3e 63 18 40 3d 03 4f 68 bd 83 6a 12 3e
       0.2122958 0.046898257 -0.056715976 0.14298443

fc1.weight f4 [16, 32]
000000 84 03 89 bb 5f 70 97 bc 78 c2 39 bd 39 cc 8d bc
       -0.0041813273 -0.0184862 -0.045351475 -0.017309295
000010 39 98 0f be e8 0a 3d 3e d5 06 a4 bd e8 9e 49 bd
       -0.14022912 0.18461192 -0.080091156 -0.04922381
000020 52 e1 fc bd 88 81 f4 bd 05 3a 03 3d 52 e8 12 3e
       -0.12347664 -0.119387686 0.032037754 0.14346436
000030 14 13 c6 3c 1b 25 90 3c dc c7 72 bb 2c c6 f7 3d
       0.024179019 0.017595818 -0.0037045395 0.12098345
000040 ce eb aa bc 32 52 17 3e 14 3f a5 bd 73 c7 34 bb
       -0.020864394 0.14777449 -0.08068672 -0.0027584701
000050 86 6f e9 3c df b1 ad 3d 7d f7 03 bd 9e 95 01 be
       0.028495561 0.08481192 -0.032218445 -0.1265473
000060 2e 39 33 be 6a a1 74 bc cd ae a1 3c 54 bd 0e 3e
       -0.17502281 -0.014931062 0.019736672 0.1393941
000070 50 bc a7 3c 67 f5 83 bd df 01 42 3e 85 22 2d 3d
       0.020475537 -0.06443291 0.18946026 0.04226925
000080 13 d6 d4 3c 8a 6e 46 bd 96 81 0e 3e 21 1b 05 3d
       0.025980985 -0.048445262 0.1391662 0.032496575
000090 f7 86 df 3d db 5f 5c bd 4e 22 de bd 4e 02 38 3d
       0.109144144 -0.053802352 -0.10846387 0.044924073
0000a0 d4 f9 94 3d 41 bd 08 3e 13 99 bd 3d 82 de b0 3b
       0.072742134 0.13353445 0.09257712 0.0053976187
0000b0 6d 0f 08 bd 01 b6 f2 3d f3 68 bf bd de 03 15 be
       -0.033217836 0.11851121 -0.09346189 -0.14552256
0000c0 1a 79 2d be 7a 46 41 3e 28 f4 0d be 59 f7 e4 bc
       -0.16940728 0.18874541 -0.1386267 -0.027949976
0000d0 c4 7e 05 be df 1c 10 bd f7 e1 9a bd 36 ab fc bd
       -0.13036638 -0.035183784 -0.075626306 -0.123373434
0000e0 ef 76 b3 3b 5c ab 54 3d 34 bb df 3c 1e 8e ff 3d
       0.0054768245 0.051921234 0.027310945 0.124782786
0000f0 06 42 97 3d dc 5f 28 3d 8e 27 52 be ec aa 01 be
       0.0738564 0.041107044 -0.20522901 -0.12662858
000100 37 a9 09 3e 60 58 29 3c 6f e6 11 be b4 dd 51 bd
       0.13443457 0.010336012 -0.1424806 -0.051236823
000110 73 57 2e 3e 39 e6 88 bd a6 4e ec 3d 59 8a 30 3e
       0.17025547 -0.066845365 0.115384385 0.17240275
000120 93 b7 2a be 34 a6 df bd db c5 18 3e a3 d1 15 be
       -0.1667159 -0.109203726 0.14919226 -0.14630751
000130 27 29 b1 bd 06 5a be 3d 5f 57 2a 3e 96 84 80 3d
       -0.08650427 0.09294514 0.16634892 0.06275289
000140 1e 74 8e 3d 36 a3 13 be 06 61 d6 3d 32 c3 82 3d
       0.06955741 -0.14417729 0.104677245 0.06384887
000150 b0 d7 31 be c5 56 20 3e 04 7d 43 bd 53 2e 81 bd
       -0.17367435 0.156581 -0.047726646 -0.06307664
000160 1e 57 a9 3d f0 f4 76 3c 7d 24 12 3e 2d 06 19 3e
       0.082685694 0.015073046 0.14271732 0.14943762
000170 81 c8 2e 3e ee 93 e2 3d 2b ae 16 3e e5 36 9d bd
       0.17068674 0.110633716 0.14714877 -0.07676486
000180 c8 49 bd 3d 92 9d 53 3d c0 d0 ce 3c 09 39 07 be
       0.09242588 0.051663943 0.025246024 -0.13205351
000190 e6 c2 2a 3e c4 65 cf 3d 16 6c 1c bd 73 71 84 3c
       0.1667591 0.10126832 -0.038189016 0.016167378
0001a0 2e 1e 33 3d 6b c6 0b bd d6 7d 7c bd 75 a3 0e 3e
       0.043729953 -0.034124773 -0.061643444 0.13929541
0001b0 58 06 50 bc 6e 94 91 bd 6b bc 5f 3c 3e 9d 56 bb
       -0.012696825 -0.07108389 0.013655762 -0.0032747532
0001c0 1a d3 f3 bd ac a3 02 3d 50 21 c8 3d 82 6f 8a 3d
       -0.11905499 0.03189437 0.09771979 0.0675955
0001d0 4d 70 df 3d ac ad 6e bc c3 4b 01 3e 71 d7 c6 3d
       0.109100915 -0.014567774 0.12626557 0.09709061
0001e0 e1 af ca 3c 46 74 06 3e 2c 68 ad bd f8 f4 62 3d
       0.024742069 0.13130292 -0.08467135 0.0554094
0001f0 aa 22 40 3e 86 1f 1c 3e 46 a8 0d 3e 4a 5c df 3d
       0.18763223 0.152464 0.13833722 0.109062746
000200 5d 23 1b 3e 17 67 1c 3e ab 2d 1b be a6 ff ad 3d
       0.15150209 0.152737 -0.1515414 0.08496027
000210 f8 42 2d be f1 2d 23 3e c6 ca b6 3d 48 48 45 3d
       -0.16920078 0.15935494 0.08925395 0.048164636
000220 3f bd 09 3e 95 d9 97 bd 09 3d 0c 3e 3e 32 b7 3d
       0.13451098 -0.07414547 0.13695158 0.0894513
000230 e6 3b 68 bd 64 40 1c 3d 40 fa d3 bb 6c 8e 6e bd
       -0.05669775 0.038147345 -0.006469041 -0.058241293
000240 fe 54 fe 3d 4d c9 13 3e 38 c4 fb bd f0 86 23 bc
       0.12418555 0.14432259 -0.12293285 -0.009980902
000250 fc 2e 76 3d 7c c5 79 3d 0f 78 2f be a6 64 c5 3d
       0.0601034 0.06097935 -0.17135642 0.09638338
000260 0a 3d c3 3d 1a 3b bf bd 2c 16 34 bd 44 52 1d bd
       0.09533127 -0.093374446 -0.043966457 -0.038408533
000270 4e db cb 3d 92 24 09 be 26 25 30 be aa e1 f4 bd
       0.099539384 -0.13392857 -0.17201671 -0.119571045
000280 00 01 92 bc c7 57 15 3e 24 49 52 bd fa c3 44 3d
       -0.017822742 0.14584266 -0.051339284 0.04803846
000290 20 15 26 b9 f4 f2 fb bd 2c 45 02 3e 28 8a ce 3d
       -0.00015838863 -0.12302199 0.127217 0.10084945
0002a0 87 a8 e0 3d 3a fe 96 bd 2e 77 76 3d 8d 3f 18 be
       0.10969644 -0.073727086 0.060172252 -0.14867993
0002b0 8c 8c 2e be 18 b8 b0 bb 8a 65 45 be 3c 6e 0a 3d
       -0.17045802 -0.0053930394 -0.19277015 0.033796534
0002c0 41 c7 3d be 93 1b a2 3b c0 0f 8f 3d 1a 0b 2b be
       -0.1853304 0.0049471348 0.06985426 -0.16703454
0002d0 4c 5a d1 bc a8 f3 35 be de b7 3c 3e bd a3 11 bd
       -0.025555752 -0.17768729 0.18429515 -0.035556544
0002e0 1a 0c 4b 3d dd e2 dd 3d 52 6d 2c 3d 70 4b 41 3e
       0.049572088 0.10834286 0.042096443 0.18876433
0002f0 63 21 05 bb 47 fe cd 3d 12 18 fd 3c 96 1b f8 bd
       -0.002031409 0.10058265 0.030895267 -0.121146366
000300 c5 a7 de bb e1 99 67 3b 83 ce 19 be 6a 91 3e bd
       -0.006794902 0.0035339522 -0.15020184 -0.046525396
000310 64 69 c6 bd 21 8a 96 bd c0 05 26 bb aa 5d 34 3e
       -0.096880704 -0.07350565 -0.0025333017 0.17613855
000320 38 12 e3 bc a8 b7 1a 3e dc e1 16 3e 0e a5 f5 3d
       -0.027718648 0.15109122 0.14734596 0.11994372
000330 4a 40 40 be 54 95 cf bd 3c 3c 04 3c a2 12 84 bc
       -0.18774524 -0.10135904 0.008071002 -0.016122166
000340 e6 02 37 be 94 2d 45 3e d4 32 4a bd 57 81 f2 3d
       -0.178722 0.19255668 -0.04936488 0.11841076
000350 5f 0c d1 bd 99 69 15 3e 7d 71 33 bc b7 3f b5 3d
       -0.10207438 0.14591064 -0.010952351 0.08850043
000360 b9 ff 5f 3c 7e ed 39 3e 80 a5 14 3e 5f 68 de 3b
       0.013671809 0.18157002 0.14516258 0.0067873443
000370 d8 5f c4 3c d3 d7 25 3e 7a af 66 bc d1 d0 0f 3e
       0.023971483 0.16195612 -0.014079923 0.14044501
000380 fa fb 0f be 78 32 10 be 49 af c9 bd 0a da e2 3d
       -0.14060965 -0.14081752 -0.09847886 0.11076744
000390 47 c4 25 3e 89 0a c7 bd f3 fd fe bc 6d cf 59 3d
       0.16188155 -0.09718806 -0.031126952 0.053176332
0003a0 5f 3c f2 3d 48 1c 2b bc 1f 2f b4 bd c4 97 29 3d
       0.11827921 -0.0104437545 -0.0879805 0.0414045
0003b0 ed ed 6e bd 0f 70 e0 3d 91 2e 10 3c ca a5 42 be
       -0.058332372 0.109588735 0.008800165 -0.19008556
0003c0 1e 5b 28 be 7a ef 0c be 9e b5 c9 bd 5c c8 31 be
       -0.16441008 -0.13763228 -0.09849094 -0.17361587
0003d0 03 fe c4 bd 20 7a 2b bc b3 2f 39 3d e4 c0 da 3d
       -0.096187614 -0.010466129 0.045211505 0.10681322
0003e0 f2 ee 4c bd 14 b1 1f bc 9f 68 b1 3d fb 16 1e 3e
       -0.050032564 -0.009746809 0.08662533 0.15438454
0003f0 59 27 e3 3c 9b d0 3e 3e dd a7 0a 3e bc c9 ac bd
       0.027728723 0.18634264 0.13540597 -0.08436915

fc1.bias f4 [16]
000000 71 f6 eb bc 48 6c c9 bd 64 6b 22 be 48 a6 09 be
       -0.028804036 -0.09835106 -0.15861279 -0.13442338
000010 a4 7f 72 bd bf 6e 1b 3e ad 83 0d be af ca 02 bd
       -0.05920376 0.15178965 -0.13819762 -0.031931575
000020 f3 da 1a 3e 18 ff 0a 3c 76 b9 0a 3e fa 12 c4 3d
       0.15122585 0.008483671 0.1354731 0.09573932
000030 b4 90 62 bd da eb 8b 3d f4 fa 4d 3e 93 b0 d6 bd
       -0.05531378 0.068320945 0.20115262 -0.104828976

out.weight f4 [1, 16]
000000 ff 08 26 be 24 65 84 3e 32 51 61 3e d7 31 35 3e
       -0.16214369 0.25858414 0.2200363 0.17694794
000010 30 77 2f 3e 57 98 96 3e 5f 51 99 3c 6c b9 10 3e
       0.1713531 0.294131 0.018715559 0.14133233
000020 04 b6 21 3e 61 00 4f 3e 13 45 8e 3e be 66 48 3e
       0.1579209 0.20214988 0.27787074 0.19570443
000030 38 fe 97 3e 30 e6 bd bd a6 8c 6c 3e 1d 6a aa 3c
       0.2968614 -0.092724204 0.23100528 0.020802552
