artifacts/territory/lstm/4__21__0/model.pt (torch, 23217 bytes, 7 tensors)

lstm.weight_ih_l0 f4 [128, 1]
0	0xbca2bfbe	-0.01986682
1	0xbcd4e0de	-0.025986131
2	0x3dfd9430	0.1238178
3	0x3e1b2409	0.15150465
4	0xbc468362	-0.012116285
5	0x3e2f0b85	0.17094238
6	0x3e3ef70d	0.1864893
7	0xbd8bb6ac	-0.06821951
8	0x3e156bfe	0.14591977
9	0xbdd75322	-0.10513903
10	0xbd8ead19	-0.069666095
11	0x3e3b1189	0.18268408
12	0xbdcfdaf7	-0.10149186
13	0x3a42d878	0.0007432769
14	0xbddb0426	-0.106941506
15	0xbe17a976	-0.14810738
16	0x3e0911e5	0.13385732
17	0x3ddb12d6	0.10696952
18	0x3df70558	0.12061566
19	0x3d4dad8c	0.050214335
20	0xbd2f7549	-0.04283646
21	0x3c0d9f44	0.008643929
22	0xbc3bd615	-0.011464615
23	0xbe3e1a21	-0.18564655
24	0x3e1c7c1c	0.15281719
25	0x3e23e6ac	0.16005963
26	0x3d4ec708	0.05048278
27	0xbba4bea6	-0.00502761
28	0x3ddc8598	0.107676685
29	0xbcddafc6	-0.027061354
30	0x3d8e4f36	0.06948702
31	0x3e2f1ee2	0.17101625
32	0xbe044e55	-0.12920506
33	0xbb81aeb5	-0.0039575943
34	0xbe19468a	-0.14968315
35	0x3ddf4a56	0.1090285
36	0x3d7f0c6d	0.06226771
37	0x3e23bcb4	0.15989953
38	0xbde641b3	-0.11243
39	0x3e23f168	0.16010058
40	0xbd83f1c9	-0.06442601
41	0x3dccb672	0.09995736
42	0x3d9a65bb	0.07538935
43	0xbdb83633	-0.08994713
44	0xbd88cc16	-0.06679551
45	0xbc86c230	-0.016450018
46	0xbe093147	-0.13397704
47	0x3dd12850	0.10212767
48	0xbcb7dcc5	-0.022444138
49	0xbd9ed32d	-0.07755122
50	0xbcc3b597	-0.0238903
51	0x3d3190a5	0.043350834
52	0xbb9d3baa	-0.0047983723
53	0x3e1a6568	0.15077746
54	0x3de3ec14	0.11129013
55	0xbcab239d	-0.020891005
56	0x3e1e63da	0.15467778
57	0x3e3e3148	0.18573487
58	0xbdc74ac8	-0.0973106
59	0xbda3576f	-0.07975661
60	0xbcc68399	-0.024232673
61	0x3c8f8d27	0.017523361
62	0xbdebe40b	-0.11518105
63	0x3e2f8c72	0.1714342
64	0xbdec5e3d	-0.11541412
65	0x3e28451b	0.16432612
66	0xbe2d6b5d	-0.16935487
67	0xbde9ae8a	-0.11410244
68	0x3dd496bb	0.10380312
69	0x3e1cdf39	0.15319528
70	0xbe367a38	-0.1782006
71	0xbe240db3	-0.16020851
72	0xbddaed58	-0.10689801
73	0xbe29a1ba	-0.165656
74	0xbe11bf75	-0.14233191
75	0xbe073799	-0.13204803
76	0x3dba5fff	0.09100341
77	0xbd83b3eb	-0.06430801
78	0x3e1a64bc	0.1507749
79	0xbddcbde5	-0.10778407
80	0x3e013ff7	0.12622057
81	0xbe30e528	-0.17274916
82	0x3e2e8ea3	0.17046599
83	0xbdad43db	-0.08460208
84	0x3d6f5acc	0.0584362
85	0x3d06fca1	0.03295577
86	0xbe35953b	-0.17732708
87	0x3d8241b4	0.06360188
88	0xbcee6502	-0.029100899
89	0xbe067912	-0.13132122
90	0xbd141ef3	-0.036162328
91	0x3e18b280	0.14911842
92	0x3d16f84b	0.036857884
93	0x3e13eb94	0.14445335
94	0x3c5eab04	0.013590578
95	0x3d721ef4	0.05911155
96	0xbe2ac634	-0.16677171
97	0x3dd782e0	0.10523009
98	0xbc2a1930	-0.010381982
99	0x3dc954eb	0.0983065
100	0xbdde721f	-0.108616106
101	0x3cb5e76c	0.022205077
102	0x3e351b7f	0.1768627
103	0x3df38fac	0.118926376
104	0x3e4e3d2c	0.20140523
105	0xbdd6a19a	-0.10480042
106	0x3e3df3b1	0.18549992
107	0x3d906177	0.0704984
108	0xbbb0f942	-0.0054008076
109	0x3dec46cf	0.11536943
110	0x3e1c0f84	0.15240294
111	0x3d00f935	0.031487662
112	0x3ba4ec4e	0.0050330525
113	0x3e39ed5f	0.18156956
114	0xbd8c439c	-0.06848833
115	0xbe00d50b	-0.1258127
116	0x3d30867e	0.04309701
117	0xbcc811a9	-0.024422484
118	0xbcc63afb	-0.024198046
119	0xbdc4be4c	-0.09606609
120	0xbe0204bb	-0.12697117
121	0x3e01fe2d	0.12694617
122	0xbc86fee3	-0.016478961
123	0x3d0541c5	0.032533426
124	0xbdf05a99	-0.1173603
125	0x3e3c88a9	0.18411507
126	0xbc92101e	-0.01782995
127	0xb9ad7800	-0.00033086538

lstm.weight_hh_l0 f4 [128, 32]
0	0xbd8cfb73	-0.06883898
1	0xbe17305a	-0.14764538
2	0x3b9ac9a6	0.0047237454
3	0x3dbbbee3	0.09167268
4	0xbc84071a	-0.016116668
5	0x3e3d267f	0.18471716
6	0xbcd3b8e8	-0.025845006
7	0x3da492df	0.08035826
8	0xbd00414e	-0.03131228
9	0x3de0316e	0.10946928
10	0x3daa6db9	0.08321709
11	0x3df62efb	0.120206796
12	0xbe009069	-0.12555088
13	0x3df2314c	0.11825809
14	0xbdd97590	-0.106181264
15	0x3e172a6f	0.14762281
16	0xbe2b8c92	-0.16752842
17	0xbddbb8b6	-0.1072859
18	0xbb2e9e51	-0.0026644657
19	0x3d213f83	0.03936721
20	0xbe1e0720	-0.15432405
21	0x3daed06a	0.085358456
22	0xbc721d9e	-0.014777569
23	0x3d8e336a	0.069434
24	0xbe0aa292	-0.13538578
25	0x3d87d942	0.066332355
26	0x3e3fd50c	0.18733615
27	0xbda55020	-0.08071923
28	0x3e17bd77	0.14818369
29	0x3e21e314	0.1580928
30	0xbda654b9	-0.08121628
31	0x3dd877f6	0.10569756
32	0xbdc83f7a	-0.09777732
33	0xbd8dc3f9	-0.069221444
34	0xbe545916	-0.20737109
35	0xbe1a398f	-0.1506102
36	0x3d2601f6	0.040529214
37	0x3e5ca9ff	0.21549223
38	0x3cd86b5c	0.02641838
39	0xbe061f42	-0.13097861
40	0xbe2a2215	-0.16614564
41	0xbe02cf10	-0.127743
42	0xbd9eab6f	-0.07747542
43	0xbe74b797	-0.23898159
44	0x3cc2e073	0.023788666
45	0x3dc6a624	0.096996576
46	0x3e07dbb5	0.13267405
47	0x3dd452c0	0.10367346
48	0x3d25a798	0.040443033
49	0xbdc4bb7f	-0.096060745
50	0x3e4960f5	0.19665892
51	0x3dc87594	0.09788051
52	0x3dd21e83	0.10259726
53	0xbdf504fa	-0.1196384
54	0xbe21eeaf	-0.15813707
55	0xbdde26eb	-0.10847267
56	0xbcf70068	-0.03015156
57	0xbe31d14f	-0.17365001
58	0xbc2c43ce	-0.010514213
59	0xbd0096ff	-0.031394
60	0x3bd956e4	0.0066326726
61	0x3d3fc30c	0.04681687
62	0xbb882176	-0.0041543795
63	0xbde9795e	-0.11400102
64	0x3ddd18e2	0.10795762
65	0xbd0387fd	-0.03211211
66	0x3d8cb8ee	0.0687121
67	0x3db9f93e	0.09080742
68	0x3cec3341	0.028833034
69	0x3da37b6a	0.07982524
70	0xbe1a4e11	-0.15068842
71	0x3d94c105	0.07263378
72	0xbd0f532b	-0.034991425
73	0x3d93f77f	0.072249405
74	0xbe31baa0	-0.17356348
75	0x3e05bf97	0.13061367
76	0x3d99a48f	0.0750209
77	0xbc1d765c	-0.009610739
78	0x3e0c092b	0.13675372
79	0x3d0e7c66	0.034786604
80	0x3c032c58	0.008006178
81	0x3d0fb6c6	0.035086416
82	0x3cf5a002	0.029983524
83	0x3d66e30a	0.056368865
84	0x3c68d2cf	0.014210417
85	0x3db493ed	0.08817277
86	0xbd067416	-0.032825552
87	0xbe14a970	-0.1451776
88	0x3c2b7b8e	0.010466469
89	0xbdd50556	-0.104014084
90	0xbe09e73a	-0.13467112
91	0x3d9d91da	0.076938346
92	0xbdf3edbb	-0.11910578
93	0xbd9d55c0	-0.07682371
94	0xbb0b01a5	-0.0021210697
95	0xbde8032a	-0.113287285
96	0x3dfa9876	0.12236111
97	0xbe1bfd30	-0.15233302
98	0xbd25867e	-0.040411465
99	0x3ce81bc5	0.028333554
100	0x3d6aac70	0.057293355
101	0x3d2b1834	0.04177113
102	0xbe04a439	-0.12953271
103	0xbd7e9d3b	-0.062161665
104	0x3e09050e	0.13380834
105	0xbcd2d750	-0.025737435
106	0xbe07dd69	-0.13268055
107	0x3e10f12e	0.14154503
108	0x3b975f60	0.004619524
109	0xbd917fc4	-0.071044475
110	0x3e213443	0.15742593
111	0x3d53d1e2	0.05171383
112	0xbd81ed58	-0.06344098
113	0x3d839f4d	0.064268686
114	0xbe11a7ce	-0.14224169
115	0xbdb05906	-0.0861073
116	0x3d2c974a	0.042136468
117	0xbda8beb6	-0.082395
118	0xbc9ecb5c	-0.019384079
119	0x3e257b65	0.16160353
120	0xbe147dae	-0.14501068
121	0x3de7e10b	0.113222204
122	0x3cd52848	0.026020184
123	0xbe13f434	-0.14448625
124	0xbdb9aa48	-0.09065682
125	0x3e00772e	0.12545463
126	0x3d03fb33	0.032221984
127	0xbe0300f3	-0.12793331
128	0xbd78a6f0	-0.06070608
129	0x3e0227e9	0.12710537
130	0x3e09b431	0.13447644
131	0x3dadfe49	0.08495767
132	0x3c86e9b5	0.016468862
133	0xbdfa8075	-0.122315325
134	0xbd35c1f3	-0.044374418
135	0xbdbd9bc5	-0.09258226
136	0x3d1c1f6d	0.038115907
137	0xbd4d19e8	-0.050073534
138	0x3deab7d5	0.114608444
139	0xbe01c931	-0.12674405
140	0xbddc229c	-0.10748789
141	0x3e102abb	0.140788
142	0xbe23b2a8	-0.1598612
143	0xbdb16edd	-0.086637236
144	0xbdc082f2	-0.09399976
145	0xbddfa0b7	-0.10919326
146	0xbd23e561	-0.040013675
147	0x3e118bc0	0.14213467
148	0x3d89bfe1	0.06726051
149	0xbdd75040	-0.10513353
150	0x3dcb909e	0.09939693
151	0x3dc7ff27	0.09765463
152	0xbb61bdf3	-0.0034445494
153	0xbd490ea5	-0.04908623
154	0xbdaf211e	-0.085512385
155	0xbe1cb491	-0.15303256
156	0xbc28fc58	-0.01031407
157	0xbd0f9132	-0.03505058
158	0xbdaaa5b4	-0.083323866
159	0xbdb57f6c	-0.088621944
160	0x3df2a8b6	0.11848585
161	0x3dfd0c9c	0.12355921
162	0xbb3ec639	-0.002910985
163	0x3dd294f9	0.102823205
164	0xbddfa8fd	-0.10920904
165	0x3da51292	0.08060183
166	0x3e242ddb	0.16033117
167	0x3de9970c	0.11405763
168	0x3de8219d	0.11334536
169	0x3e318457	0.1733564
170	0x3dec597e	0.11540507
171	0x3c2e0aa8	0.010622658
172	0x3d3f5a2c	0.046716854
173	0x3de8dbe0	0.11370063
174	0xbe097492	-0.13423374
175	0x3dfa26dd	0.12214444
176	0xbdd31ca0	-0.10308194
177	0x3cce7a47	0.02520479
178	0xbd31921a	-0.043352224
179	0x3e02e9db	0.12784521
180	0xbe2f9eb0	-0.17150378
181	0xbe226e80	-0.15862465
182	0x3d6d805c	0.05798374
183	0x3c8a6468	0.01689358
184	0xbdfe1e0b	-0.12408074
185	0xbb161d6b	-0.0022905718
186	0x3e18857e	0.14894673
187	0xbe13ab93	-0.14420919
188	0xbd01f598	-0.031728357
189	0xbdac77e6	-0.08421306
190	0x3dba3423	0.090919755
191	0xbe3010d0	-0.17193913
192	0x3a9d80df	0.0012016556
193	0xbe16dd48	-0.1473285
194	0xbdd6920a	-0.104770735
195	0xbe22a438	-0.15882957
196	0x3df70cc6	0.12062983
197	0xbc614ae6	-0.013750767
198	0x3cafcb3f	0.02145922
199	0xbc9cc0b5	-0.019134859
200	0x3d622d23	0.055218827
201	0xbd77e2f8	-0.06051919
202	0xbe4a0601	-0.19728853
203	0x3daaf726	0.08347921
204	0xbe0369fd	-0.128334
205	0x3d4bacd6	0.049725376
206	0x3c85f86f	0.016353814
207	0xbd11d8a3	-0.03560699
208	0x3e373c29	0.17894043
209	0xbda6bf1f	-0.08141922
210	0x3d1e43a0	0.03863871
211	0x3e052cd4	0.13005382
212	0xbe207d2f	-0.15672754
213	0x3dddc779	0.10829062
214	0x3d7d8365	0.061892886
215	0xbc258d10	-0.010104433
216	0x3e14b353	0.14521532
217	0xbe108807	-0.1411439
218	0xbe068ab2	-0.13138846
219	0x3dc18f89	0.09451205
220	0xbbc8afde	-0.0061244806
221	0xbe023d22	-0.12718633
222	0x3d47ac48	0.048748285
223	0x3c94e34c	0.01817479
224	0x3d5532c8	0.052050382
225	0x3d3fd49c	0.04683362
226	0xbd5301f1	-0.051515523
227	0xbde65363	-0.112463735
228	0x3c4b86a4	0.012422238
229	0x3dc4b237	0.09604304
230	0x3c0c124f	0.008549287
231	0xbae2b862	-0.0017297382
232	0x3d5559ad	0.052087475
233	0xbceb394c	-0.028713845
234	0xbbec8e5c	-0.007219119
235	0x3d8267fb	0.06367489
236	0x3c8bdb1b	0.017072251
237	0xbe0afd8c	-0.13573283
238	0x3d843193	0.06454768
239	0x3d65b97e	0.056085102
240	0x3e39ed31	0.18156888
241	0x3c850cef	0.016241519
242	0xbd9114f2	-0.07084073
243	0xbdf7d0f1	-0.12100399
244	0xbc822dec	-0.015891038
245	0x3d493872	0.049126096
246	0x3dea34ed	0.11435876
247	0x3e169d15	0.1470836
248	0x3d144d24	0.03620638
249	0xbdc73787	-0.09727388
250	0xbd3ef28d	-0.046618033
251	0x3dc66970	0.09688079
252	0x3d4195a7	0.04726186
253	0x3e2af9b5	0.16696818
254	0x3df6085b	0.120133124
255	0xbde398d1	-0.11113132

lstm.bias_ih_l0 f4 [128]
0	0x3e0808c2	0.13284591
1	0x3a9291a3	0.0011182319
2	0xbe145fd5	-0.14489682
3	0xbd7d29ad	-0.061807323
4	0xbddf6f56	-0.109099075
5	0x3ca9d230	0.020730108
6	0x3e08973c	0.13338941
7	0x3e606256	0.21912512
8	0x3e190610	0.14943719
9	0x3d1aa903	0.03775884
10	0xbddd7c29	-0.10814697
11	0x3e1bf646	0.15230665
12	0x3e32cb04	0.17460257
13	0xbdb92f4d	-0.09042225
14	0x3e0e2267	0.13880311
15	0xbdd80156	-0.1054713
16	0xbdc92639	-0.098217435
17	0x3db7556f	0.08951842
18	0x3e61b293	0.22040777
19	0xbe2cba56	-0.16867957
20	0xbda06f62	-0.078337446
21	0xbe15b4ee	-0.146198
22	0xbd267e52	-0.040647812
23	0xbdc7e92a	-0.097612694
24	0x3dd3b0c3	0.10336449
25	0xbdedf10b	-0.11618241
26	0xbe635162	-0.22199014
27	0xbd1fd4fc	-0.039021477
28	0x3d1bd9d8	0.03804955
29	0x3d2fd7ae	0.042930298
30	0xbe22e5d6	-0.15907988
31	0x3d0e68fb	0.034768086
32	0xbc1a8479	-0.009430998
33	0x3dc29157	0.095003776
34	0x3d37bc63	0.044857394
35	0xbcc2d65a	-0.023783851
36	0x3de473e2	0.111549154
37	0xbe0e4bd9	-0.13896121
38	0x3d2c77cf	0.042106446
39	0xbdb5f4a7	-0.08884554
40	0xbdd44b1d	-0.10365889
41	0x3e430b0b	0.19047181
42	0xbd4a25d5	-0.049352486
43	0xbbb9ad80	-0.0056664348
44	0x3d9eb8c8	0.07750088
45	0x3de51323	0.11185291
46	0x3c364438	0.011124663
47	0x3d706041	0.058685545
48	0x3e52db4f	0.20591472
49	0xbc2fca62	-0.010729404
50	0xbcf7f0b3	-0.030266142
51	0xbddff49d	-0.10935328
52	0x3d241ab2	0.04006452
53	0xbd41627a	-0.047213055
54	0xbdace8da	-0.084428504
55	0x3bab99fb	0.0052368618
56	0x3c1bb385	0.00950325
57	0xbd72d604	-0.059286132
58	0x3e0ab7bd	0.13546653
59	0xbd47abff	-0.048748013
60	0x3b66aaa7	0.0035196932
61	0xbdce02e2	-0.100591436
62	0x3e073880	0.13205147
63	0x3d4b08e5	0.04956903
64	0x3e0dfced	0.13866015
65	0x3c9e421a	0.019318629
66	0xbe20d889	-0.15707602
67	0xbe38e905	-0.1805764
68	0xbc48932b	-0.012242119
69	0x3bc3389f	0.0059576775
70	0x3d586bec	0.052837297
71	0x3deaceb2	0.11465205
72	0xbdbf673a	-0.09345861
73	0x3c9a2e08	0.018820778
74	0xbcf2c866	-0.029636573
75	0xbe0f4454	-0.13990909
76	0x3e1ff875	0.15622123
77	0x3dd0f314	0.102026135
78	0xbddc5b20	-0.10759568
79	0xbdacefa0	-0.08444142
80	0x3cccd71f	0.025004921
81	0xbc9cec7e	-0.019155737
82	0x3e2468d3	0.16055612
83	0xbe2774bf	-0.16353129
84	0x3e4bccf6	0.19902405
85	0x3e418d4c	0.18901557
86	0xbd054002	-0.032531746
87	0xbd103ad7	-0.035212364
88	0xbd900a32	-0.070331946
89	0x3d9babea	0.076011494
90	0x3e65864c	0.22414511
91	0x3e5d8e04	0.21636206
92	0xbdda16d7	-0.106488876
93	0x3d9d0b70	0.07668197
94	0x3df490de	0.11941694
95	0x3e2b8184	0.16748625
96	0x3da90d01	0.082544334
97	0x3dca437b	0.09876152
98	0xbd85f5e8	-0.065410435
99	0x3dc963fb	0.09833523
100	0x3def60b9	0.1168837
101	0xbca78764	-0.020450301
102	0xbde4fc26	-0.11180906
103	0x3e245814	0.16049224
104	0x3e1ed06e	0.15509197
105	0x3e05248a	0.1300222
106	0x3e5ff017	0.21868931
107	0x3e4d5744	0.2005282
108	0x3e028bde	0.12748668
109	0x3e2192db	0.15778677
110	0x3e1264d3	0.14296274
111	0xbdaa3eff	-0.08312797
112	0x3db3e1f0	0.087833285
113	0x3d3da7b6	0.04630252
114	0x3e72bcf9	0.237049
115	0x3e08ba79	0.13352384
116	0x3d6f91b1	0.05848855
117	0x3d41408c	0.047180697
118	0x3e17149d	0.14753957
119	0xbbc8c060	-0.0061264485
120	0x3d2b579e	0.041831605
121	0xbd0183de	-0.0316199
122	0xbd852c5f	-0.06502604
123	0x3e104f5c	0.14092773
124	0x3e486385	0.19569214
125	0x3d8b258b	0.0679427
126	0xbd27af10	-0.040938437
127	0x3e47c3d4	0.19508296

lstm.bias_hh_l0 f4 [128]
0	0x3d58668e	0.05283218
1	0x3d6beaae	0.057596855
2	0x3b4091ee	0.0029383856
3	0x3e0f9c27	0.14024411
4	0x3d1cf023	0.03831495
5	0x3e050356	0.12989554
6	0xbdd99a7b	-0.10625168
7	0x3d41e9d5	0.04734214
8	0x3e1835d7	0.14864288
9	0xbdcdd849	-0.10051019
10	0x3e0de333	0.13856201
11	0xbe02538c	-0.12727183
12	0x3e0030dc	0.12518638
13	0xbde938de	-0.113878
14	0x3e264a48	0.16239274
15	0xbcfa1569	-0.030527787
16	0xbd2f94a9	-0.042866383
17	0xbdd2ba99	-0.10289497
18	0x3d2532e5	0.04033174
19	0x3dd436c5	0.10362009
20	0xbbec19ac	-0.0072052088
21	0x3d5b2e6b	0.053511064
22	0x3db8176a	0.08988841
23	0xbcc09883	-0.023510223
24	0xbb7b4b4a	-0.0038344436
25	0xba31d943	-0.00067843887
26	0xbdceb4d8	-0.10093087
27	0x3ceb3674	0.028712489
28	0xbd8710ce	-0.06595002
29	0x3d0c7886	0.034294628
30	0xbdf19910	-0.117967725
31	0xbe2af0b0	-0.16693377
32	0x3a8831c7	0.0010390811
33	0x3e1f7d2d	0.15575095
34	0xbc509dca	-0.012732932
35	0xbd9484ec	-0.07251915
36	0x3d9e35b6	0.07725088
37	0x3e338332	0.17530516
38	0x3d8250ea	0.063630894
39	0x3daaa3ff	0.08332061
40	0x3dce119d	0.10061953
41	0x3decbf63	0.115599416
42	0x3b6b17ac	0.0035872264
43	0xbd23af43	-0.039962064
44	0xbd879fbb	-0.06622263
45	0x3d874ce2	0.06606461
46	0xbd81995b	-0.06328078
47	0xbdce8e48	-0.10085732
48	0x3c2e2342	0.010628523
49	0x3df59002	0.11990358
50	0x3e4b89ac	0.19876736
51	0xbe1ac6ba	-0.1511487
52	0x3e122bce	0.14274523
53	0xbd4ce871	-0.05002636
54	0xbadc4693	-0.0016805701
55	0xbdfb8454	-0.12281099
56	0xbdaaa845	-0.08332876
57	0x3df09234	0.11746636
58	0x3a328caf	0.00068111246
59	0xbce5037c	-0.027955763
60	0xbc97322a	-0.018456537
61	0x3daa42a8	0.08313495
62	0xbe2e382f	-0.1701362
63	0xbdffc596	-0.124888584
64	0xbc8b1e99	-0.016982364
65	0x3d969911	0.07353414
66	0xbdac9321	-0.084265
67	0x3e0de4a0	0.13856745
68	0xbdbd7e90	-0.092526555
69	0x3c9aeef8	0.018912777
70	0xbe249142	-0.16071036
71	0xbe0849ae	-0.13309357
72	0x3ddf60b6	0.10907118
73	0x3b75ebc5	0.0037524563
74	0xbe1ef56f	-0.15523313
75	0xbde11757	-0.1099078
76	0xbd46c362	-0.048526175
77	0xbd4a0099	-0.049316976
78	0xbe00a97f	-0.12564658
79	0x3de818ac	0.11332831
80	0x3dc90535	0.09815446
81	0x3e1a0ac4	0.1504317
82	0x3dc2c10a	0.095094755
83	0xbcf798a7	-0.030224157
84	0x3e54e1cc	0.2078926
85	0x3e4b8524	0.19875008
86	0x3de01d72	0.10943116
87	0xbdc2e7d1	-0.09516872
88	0xbe065f3a	-0.13122264
89	0x3dc3815a	0.09546156
90	0xbd4c5d9e	-0.049893968
91	0x3e10042c	0.14064091
92	0xbd885377	-0.06656545
93	0x3e2e6d47	0.17033873
94	0x3d557007	0.05210879
95	0xbd868dc0	-0.065700054
96	0x3d3616da	0.044455387
97	0x3da1c98e	0.07899772
98	0xbcdf3c24	-0.027250357
99	0x3c967876	0.018367987
100	0xbd47b01b	-0.04875193
101	0x3c39e83e	0.011346875
102	0x3e4bade9	0.1989056
103	0xbdf0fb07	-0.1176663
104	0x3e52128d	0.20514889
105	0x3dae4d4d	0.08510838
106	0x3cdc6707	0.026904596
107	0xbdf6b539	-0.12046284
108	0x3e1f1407	0.15534984
109	0x3e0dacd9	0.13835467
110	0xbe19bb2f	-0.15012811
111	0x3d55f311	0.05223376
112	0xbdc835fa	-0.0977592
113	0xbdac951a	-0.08426876
114	0xbc01bbf2	-0.007918345
115	0x3deafa03	0.11473467
116	0x3de31200	0.110874176
117	0xbd968301	-0.07349206
118	0x3d0e8cf0	0.034802377
119	0xbc84ab8e	-0.016195085
120	0x3d0b94e0	0.034077525
121	0x3e44292e	0.19156334
122	0xbe1c7faa	-0.15283075
123	0x3d26f25e	0.040758483
124	0x3db21dbb	0.08697077
125	0x3bdc9870	0.006732039
126	0x3d9c9b10	0.07646763
127	0xbd97bbc1	-0.07408858

fc1.weight f4 [16, 32]
0	0xbcd66df9	-0.026175486
1	0x3bd1a214	0.006397495
2	0xbe5f57bd	-0.21810813
3	0xbe30a6c9	-0.17251123
4	0xbc007c4c	-0.007842135
5	0x3cfb3f89	0.030669944
6	0x3d422c26	0.047405384
7	0xbd2ce774	-0.04221292
8	0xbe0c785b	-0.13717787
9	0xbe0fde58	-0.14049661
10	0xbe30ae27	-0.17253934
11	0xbe08e40e	-0.13368246
12	0x3e0ce7ff	0.13760374
13	0xbe21f623	-0.1581655
14	0x3d53db70	0.051722944
15	0x3dbe8a0e	0.093036756
16	0x3e697d9d	0.22801824
17	0xbd4a432c	-0.049380466
18	0x3d8ea78e	0.06965552
19	0x3db300fd	0.08740423
20	0xbd9e1319	-0.07718486
21	0x3d4e1e58	0.050321907
22	0xbdb9b4a3	-0.09067657
23	0xbc6fcc0d	-0.014636052
24	0xbe5b6d55	-0.21428426
25	0xbe3c1cf7	-0.18370424
26	0x3da41d80	0.08013439
27	0x3e00e06e	0.12585613
28	0x3d9c52e8	0.076330006
29	0x3e52202c	0.20520085
30	0x3b4253f9	0.0029652102
31	0xbdc6d41e	-0.09708427
32	0x3d9270c1	0.07150412
33	0xba91e8d5	-0.0011132011
34	0xbd1ec9a8	-0.038766533
35	0xbe1bc6f6	-0.15212616
36	0x397e2bfe	0.00024239716
37	0xbdab919b	-0.083773814
38	0xbe49caf1	-0.19706322
39	0xbe3e6178	-0.18591869
40	0xbe0b292f	-0.13589929
41	0xbe376542	-0.1790972
42	0xbe0ec560	-0.1394248
43	0x3d3178db	0.043328147
44	0x3ceff437	0.029291255
45	0xbd0b0cf3	-0.033947896
46	0xbda8ce71	-0.082425006
47	0xbe2cbc51	-0.16868712
48	0x3e05f6c2	0.13082412
49	0x3dc77e19	0.09740848
50	0x3d0323a3	0.032016408
51	0x3d97bb38	0.07408756
52	0x3e6aa19b	0.2291321
53	0x3d080d50	0.03321582
54	0xbe0a8054	-0.13525516
55	0xbd6e7ee3	-0.058226477
56	0x3d2ec6c9	0.042670045
57	0xbdbc0f1f	-0.091825716
58	0xbe2fc086	-0.17163286
59	0x3e0e9593	0.13924246
60	0x3e2f3307	0.17109309
61	0xbc8dcf0d	-0.017310644
62	0x3e05235f	0.13001774
63	0x3d2d55f6	0.042318307
64	0xbc27e2f6	-0.010246983
65	0x3db46a85	0.088093795
66	0xbe226ce0	-0.15861845
67	0xbde9f5de	-0.114238486
68	0xbdeded0c	-0.11617479
69	0x3e589b06	0.21152887
70	0x3d13b544	0.03606154
71	0xbda169a5	-0.07881478
72	0xbe224309	-0.15845884
73	0xbe354afd	-0.17704387
74	0xbdb6081f	-0.08888268
75	0xbe1ac880	-0.15115547
76	0x3e4049ae	0.18778107
77	0xbe231dcc	-0.15929335
78	0xbd9d1679	-0.07670302
79	0x3db1609f	0.08661007
80	0x3d8df66d	0.069317676
81	0xbd645cb7	-0.055752482
82	0x3d920bb5	0.07131139
83	0xbcdedfcb	-0.027206322
84	0x3e10b8ee	0.14133045
85	0x3e60d3a5	0.21955736
86	0x3ddd7959	0.10814161
87	0xbc3780ef	-0.011200174
88	0xbdc9b040	-0.0984807
89	0xbe2d32ff	-0.16913985
90	0xbdd1e807	-0.10249334
91	0xbc9987ac	-0.018741451
92	0xbdf1f764	-0.11814764
93	0x3dd51b84	0.10405639
94	0xbdcf8a7d	-0.101338364
95	0x3db7977f	0.089644425
96	0x3c4df720	0.012571126
97	0xbd5925c9	-0.05301455
98	0xbe35574f	-0.17709087
99	0xbdded88f	-0.10881149
100	0x3db621a3	0.088931344
101	0xbc6657e9	-0.014059045
102	0xbe595e0f	-0.21227287
103	0x3dc58694	0.09644809
104	0xbe1b7600	-0.15181732
105	0xbe02ba82	-0.1276646
106	0xbe248768	-0.16067278
107	0xbc879ffc	-0.016555779
108	0x3e4797a4	0.1949144
109	0xbe2d2091	-0.16906954
110	0x3c0736b3	0.008252787
111	0x3dd0cbfd	0.10195158
112	0xbca044e7	-0.019564105
113	0xbe10997f	-0.14121054
114	0x3e56e14c	0.20984381
115	0xbe15d8b1	-0.14633442
116	0x3c85a4a9	0.016313868
117	0x3cc12b20	0.023580134
118	0xbe56f95b	-0.20993559
119	0x3d27d9bd	0.040979136
120	0xbd96704b	-0.07345637
121	0xbc99ee35	-0.018790344
122	0x3d1dd5ab	0.038533848
123	0xbd2c8d04	-0.04212667
124	0x3e2cd393	0.16877584
125	0x3e3bdf07	0.18346797
126	0x3dcab3dc	0.09897587
127	0xbd2bfcc0	-0.041989088
128	0x3db299a4	0.08720711
129	0xbd8f81bc	-0.07007167
130	0x3d8afb42	0.06786205
131	0x3dc00bdf	0.09377264
132	0xbd0442fa	-0.032290436
133	0x3d67ec8f	0.056622084
134	0xbe0adcc7	-0.13560782
135	0x3e2805a6	0.16408405
136	0xbdcd6797	-0.10029524
137	0x3e21b8ab	0.15793101
138	0x3e35086f	0.17678998
139	0x3e292583	0.16518216
140	0x3df58944	0.11989072
141	0x3d5c058d	0.05371623
142	0xbe216524	-0.15761238
143	0x3d544c9b	0.05183087
144	0x3e00b4e7	0.12569009
145	0xbc22f785	-0.009946709
146	0xbddf26f6	-0.10896103
147	0xbd9d9cf8	-0.07695955
148	0xbe53727a	-0.20649138
149	0xbe26e9fe	-0.16300198
150	0x3dc44a0f	0.09584438
151	0x3c131c85	0.008978968
152	0x3e3ec74e	0.18630716
153	0x3d80e77c	0.06294152
154	0xbcdf6285	-0.027268657
155	0xbe429488	-0.19001973
156	0x3d9b428d	0.07581053
157	0xbe10000c	-0.14062518
158	0x3d5ec0bc	0.054383025
159	0xbe27a86b	-0.1637284
160	0xbe3086d4	-0.17238933
161	0x3d6faef8	0.058516473
162	0x3e165c5b	0.14683668
163	0x3dc42222	0.09576823
164	0x3c871090	0.01648739
165	0xbe0927ef	-0.1339414
166	0xbe2d15d4	-0.16902858
167	0xbda0c5b7	-0.07850211
168	0xbd182130	-0.037141025
169	0xbe31b157	-0.17352806
170	0x3d65624c	0.056001946
171	0x3d40eb70	0.04709953
172	0xbdf2366c	-0.118267864
173	0x3b4a7900	0.0030894876
174	0xbe00b3a5	-0.12568529
175	0xbdf5d0d0	-0.120027184
176	0xbe00ac1e	-0.12565657
177	0x3e0489c7	0.12943183
178	0x3e3194c1	0.17341901
179	0x3de7c78e	0.11317359
180	0x3e12f2a1	0.14350368
181	0xb9917c00	-0.00027748942
182	0x3e10a597	0.14125668
183	0x3e31160d	0.17293568
184	0x3dd9eed2	0.106412545
185	0x3de60b2e	0.11232601
186	0x3df6d4fe	0.12052344
187	0x3e280f3f	0.16412066
188	0x3def89c6	0.116962
189	0x3e2bb84f	0.16769527
190	0x3cb00058	0.021484539
191	0xbd73c358	-0.059512466
192	0xbdbdf8f3	-0.09275999
193	0x3bde8b40	0.0067915022
194	0x3de1c936	0.11024706
195	0x3dc60c5a	0.096703246
196	0xbc857848	-0.016292706
197	0x3e33d963	0.17563395
198	0x3e34bacb	0.17649381
199	0xbda3d681	-0.07999898
200	0x3e335d33	0.17516021
201	0x3dab1c3e	0.08354996
202	0x3d448158	0.047974914
203	0x3db0db32	0.08635558
204	0xbc398150	-0.011322334
205	0xbbb5b1a0	-0.005544856
206	0xbe249804	-0.16073614
207	0x3ccedb10	0.025250942
208	0xbe1fea35	-0.15616687
209	0x3d909138	0.07058948
210	0xbdbc05e0	-0.09180808
211	0x3de29b86	0.1106482
212	0x3d721538	0.059102267
213	0x3d9b15de	0.0757253
214	0xbcb00470	-0.021486491
215	0x3da68d2e	0.08132397
216	0x3e293dd9	0.165275
217	0xbe32a51c	-0.17445797
218	0xbddbf57a	-0.1074018
219	0xbdef34fe	-0.11680029
220	0x3dd15c16	0.10222642
221	0x3e11110d	0.1416666
222	0xbdea1d41	-0.11431361
223	0xbe0cdded	-0.13756533
224	0xbd3b0f74	-0.045669034
225	0xbe34238f	-0.1759169
226	0xbda49e4d	-0.08038006
227	0xbdcedf82	-0.101012245
228	0x3df25ba2	0.11833884
229	0x3d43dc51	0.047817532
230	0x3e3f7f60	0.18700933
231	0x3e42fc79	0.19041623
232	0xbdaa6fe5	-0.083221234
233	0x3c997bb0	0.018735737
234	0xbd8ad062	-0.06778027
235	0xbc06a335	-0.0082176225
236	0xbdc94e9d	-0.098294474
237	0x3d980a1b	0.074238025
238	0xbde31636	-0.11088221
239	0xbd95ea7e	-0.073201165
240	0x3d5adcdd	0.053433288
241	0x3da01182	0.07815839
242	0xbd7699b7	-0.060205188
243	0xbccc0293	-0.024903571
244	0x3d20104a	0.039078034
245	0xbe18d2d2	-0.14924172
246	0x3e4aeb70	0.19816375
247	0x3c78bd3f	0.015181839
248	0xbaf2b79c	-0.0018517855
249	0x3d4eb103	0.05046178
250	0x3d88c508	0.06678206
251	0xbe0d8d8e	-0.1382353
252	0xbd9ea8af	-0.077470176
253	0xbdfe9015	-0.12429825
254	0xbd6fd7a9	-0.05855528
255	0xbe1c362b	-0.15255038

fc1.bias f4 [16]
0	0x3e27f7ee	0.16403171
1	0xbd06cce7	-0.032910254
2	0x3d8c0b76	0.068381235
3	0x3e567402	0.20942691
4	0x3c5aa27a	0.0133444015
5	0xbe182a72	-0.14859942
6	0xbe11349a	-0.14180222
7	0xbca48324	-0.020082064
8	0xbd2c8749	-0.042121205
9	0x3e44750e	0.19185278
10	0xbe2008b9	-0.15628327
11	0xbe31b6e7	-0.17354928
12	0x3c355c63	0.01106939
13	0x3def2f37	0.116789274
14	0x3d7bdbc3	0.061488878
15	0x3d8526f0	0.06501567

out.weight f4 [1, 16]
0	0x3e24dc68	0.16099703
1	0x3e670a30	0.2256248
2	0x3e994799	0.29937437
3	0x3e26102d	0.16217108
4	0xbc6ac42a	-0.014328996
5	0xbe7bbbd2	-0.24583367
6	0x3e60d116	0.2195476
7	0xbe24826f	-0.16065381
8	0x3dca21d3	0.09869733
9	0x3e95dba7	0.29269144
10	0xbe52437c	-0.20533556
11	0x3e2c2038	0.16809165
12	0xbce231a0	-0.027611554
13	0xbe3c5e34	-0.1839531
14	0x3e88c38d	0.26711693
15	0x3e905679	0.28190973
