artifacts/territory/lstm/328__356__0/model.pt (torch, 23217 bytes, 7 tensors)

lstm.weight_ih_l0 f4 [128, 1]
000000 a5 b7 79 3d 1e 2e ef 3d 03 82 45 3d f2 7d ef 3d
       0.060966153 0.11678718 0.048219692 0.11693944
000010 b0 c2 f9 bc 45 31 da 3b 1e 42 fd 3d 54 13 e9 3b
       -0.030488342 0.0066587054 0.123661265 0.0071129
000020 6e b9 32 be c8 27 16 be 71 df c9 bc 4f a2 b5 bd
       -0.17453548 -0.14663613 -0.024642678 -0.088688485
000030 e5 52 08 bd dd ec 24 3e 6f 07 01 3e 82 db 05 3e
       -0.03328218 0.16105981 0.12600492 0.13072017
000040 f7 d5 f7 3d 5e 0b 68 bc a0 91 25 3a 28 30 70 3d
       0.121013574 -0.014162866 0.00063159503 0.058639675
000050 17 81 df 3c f7 68 25 3e 8e 1d 27 3e 21 f9 df bd
       0.027283235 0.16153322 0.16319868 -0.109361894
000060 7f ab 33 3e b9 0a e6 3d f4 a1 a8 bd 93 46 fd bd
       0.1754589 0.11232514 -0.08234015 -0.123669766
000070 14 1e 9e bc 39 ec b6 bd 22 7d 14 be 45 57 e0 bb
       -0.019301452 -0.08931775 -0.1450086 -0.006846341
000080 cb 57 d8 bd ab 24 fd bd 2d 7b cc 3d 75 51 0b 3d
       -0.1056362 -0.123605095 0.099844314 0.03401323
000090 47 bc 1a 3d 06 11 14 3e bb ad 33 3e 49 75 04 3e
       0.03777721 0.14459619 0.17546742 0.12935366
0000a0 06 81 e0 3d 46 f8 f3 3c a6 85 6c 3d 8c c3 11 3e
       0.10962109 0.029781472 0.057744645 0.14234751
0000b0 72 12 a7 3d 6c f1 14 3d 47 95 0b 3c 39 f0 d9 3d
       0.08157815 0.03636305 0.008519477 0.10641522
0000c0 6f de 77 3c df cb 59 bd 00 c0 c7 3d 2c f9 4e bd
       0.015128716 -0.053172942 0.09753418 -0.050530598
0000d0 3a 80 a5 3d 32 75 33 3c 47 1d 9f bd 42 08 c4 3d
       0.08081098 0.0109532345 -0.07769256 0.095718876
0000e0 88 6f ef bb ae 90 a7 3c 29 81 c9 3a 28 ab d4 bd
       -0.0073069967 0.02045473 0.0015373576 -0.10384208
0000f0 50 10 82 bc 26 cc 84 3d 01 86 a7 bd 45 a7 2c bd
       -0.015876919 0.06484251 -0.08179856 -0.04215171
000100 01 11 5e 3c 7b d8 0f be cc 84 7f 3d 66 b9 ad 3d
       0.013553859 -0.14047424 0.062382504 0.084826276
000110 ef 5b 0e 3e 14 90 ad 3d 56 0f ab bd 6d 75 64 3d
       0.13902257 0.08474746 -0.083525345 0.05577605
000120 35 e9 1e 3e 36 ed ac 3d 7d 21 2e bd 43 be 16 3e
       0.15518649 0.08443682 -0.042512406 0.14721017
000130 70 35 9b bd df 2f a7 bc a8 fe 8b 3d a0 9a c8 bd
       -0.07578552 -0.020408569 0.06835681 -0.097951174
000140 36 e7 2e be 9c d6 ab bd 05 e9 29 3e 8d 8d 18 be
       -0.17080387 -0.08390543 0.16592796 -0.14897747
000150 15 e3 02 3e 22 fd c2 3d 73 26 05 3e 53 1b 09 3e
       0.12781937 0.095209375 0.13002948 0.1338933
000160 1f 0b 15 3e 8e ed 96 3d 4f 81 c4 bd e8 de c3 bc
       0.14555024 0.07369529 -0.09594976 -0.02391
000170 8f 17 27 3e c2 56 33 be 0d 28 04 3e c2 7b 8a bd
       0.1631758 -0.17513564 0.12905903 -0.06761886
000180 e3 96 0b bd 3b c4 01 3e 34 19 b0 bd 08 40 2a bd
       -0.034079444 0.12672512 -0.08598557 -0.04156497
000190 1b 77 93 bc b3 c2 5b 3d cd 5e 08 bd 7d 37 2c 3e
       -0.01800113 0.053652477 -0.033293534 0.16818042
0001a0 88 99 32 be fa ee 12 be 94 ae 2d 3e 81 61 13 3d
       -0.1744138 -0.14348975 0.16961128 0.03598166
0001b0 50 d6 30 3d b7 fd 9b 3c da f1 e0 bd 89 9c 90 bd
       0.043173134 0.01904188 -0.109836295 -0.07061107
0001c0 70 96 57 3d 38 91 1e be 92 1c 91 bd 6a a2 e5 3d
       0.052633703 -0.15485084 -0.070855275 0.11212619
0001d0 10 02 95 bc de 45 0c 3e 67 1a 91 3d 3c ce 96 3d
       -0.01818946 0.13698527 0.07085114 0.07363555
0001e0 aa b8 20 3e 49 75 13 3d d6 ce 69 bd 15 fb b7 bd
       0.15695444 0.036000524 -0.05708202 -0.08983437
0001f0 ab 28 31 3e 4c 68 9f bc 85 39 09 be 9b 82 20 be
       0.1730067 -0.019458912 -0.13400848 -0.15674822

lstm.weight_hh_l0 f4 [128, 32]
000000 92 65 a3 3d db ee 0c bd e4 7b 31 be 12 dc ba 3d
       0.079783574 -0.034407478 -0.17332417 0.09124006
000010 87 1a 6e 3d 7e a3 79 bb 78 85 f1 3d 35 5f 0e be
       0.058130767 -0.0038091834 0.11793035 -0.13903506
000020 5d 42 1f 3e 6a a2 2c be f1 90 13 3b a4 1d 08 3c
       0.1555266 -0.16858831 0.0022516812 0.008307848
000030 14 88 1a 3d 69 f8 b9 3d 4b a0 f8 bd f3 10 1b 3e
       0.03772743 0.090805836 -0.121399485 0.15143184
000040 da e0 0c bd a7 15 01 be 69 77 34 be f8 f5 e2 3d
       -0.034394123 -0.12605916 -0.17623676 0.11082071
000050 17 e6 c0 3d ae 4c b5 bc 1c 13 c8 bd cb 5e 4b 3d
       0.09418886 -0.02213129 -0.0976927 0.04965095
000060 37 c8 4b be 59 97 49 be 1d e6 15 3e a4 8d af bd
       -0.19900595 -0.19686641 0.14638563 -0.08571938
000070 2f 33 c6 3d f2 80 e1 3c 80 b2 78 3b 4c 82 61 3d
       0.09677731 0.027527306 0.0037948191 0.0550559
000080 cc 5f f4 3c c1 17 7d bd 63 0f 17 be 13 2a 2e 3e
       0.029830836 -0.06179023 -0.14751963 0.17008238
000090 3e e1 b0 bc 03 a3 36 3e 0a 1c f4 bd 99 70 1b bd
       -0.021591779 0.17835622 -0.119194105 -0.03794918
0000a0 3d e9 13 3e f8 c6 13 3d 30 94 0d 3b 9d cf 32 bd
       0.14444442 0.036078423 0.002160322 -0.043655027
0000b0 6b c6 bf 3d ad 14 af bd cc b1 c9 bd 68 1e 3e bd
       0.09364017 -0.085488655 -0.09848365 -0.046415716
0000c0 5f e4 3f 3d ac 7c 8f 3d 66 a5 ab 3d 40 c2 32 be
       0.04684865 0.07006201 0.083811566 -0.17456913
0000d0 a9 b7 3e bd 99 c7 03 3b a4 f8 70 3b 9a 37 be 3a
       -0.04656187 0.0020107983 0.0036769295 0.001451242
0000e0 be 0e 5a 3d 76 ea c7 bc 02 e1 ef bd b2 64 c8 3d
       0.053236715 -0.024403792 -0.11712839 0.09784831
0000f0 f1 be b7 3d a0 8c 00 be 1a 36 94 3d f1 2d 16 be
       0.08971966 -0.12553644 0.072368816 -0.14665963
000100 30 65 c1 3c b4 58 28 3b 80 97 13 bb e6 95 c3 3d
       0.02360782 0.0025687637 -0.002252072 0.09550075
000110 29 a3 31 3e ed 44 2e bc cd 1d 01 be a8 3d ce bd
       0.17347397 -0.01063655 -0.12609024 -0.10070354
000120 00 27 c3 3b ed 82 a6 bd 98 19 1e bd f0 eb 2d be
       0.005955577 -0.08130441 -0.038598627 -0.16984534
000130 55 49 d8 bd db c2 33 be 63 72 8d bd 8a 62 dc 3d
       -0.10560862 -0.175548 -0.06906583 0.10760982
000140 60 e8 15 be f0 cf 19 be d9 51 17 3e 17 31 28 be
       -0.14639425 -0.15020728 0.14777316 -0.16424976
000150 78 c7 e9 3c f5 a6 8e 3d 6a 83 08 3e 76 fb a5 3d
       0.028537497 0.06965438 0.1333138 0.08104603
000160 bf 2c aa 3d 3e db 0a bc 5f bb 0f 3e 16 c8 e4 3d
       0.08309316 -0.008475123 0.1403632 0.11170976
000170 d0 ea ce bc a0 b1 e6 bd 80 d6 7d bc 85 0f 00 3e
       -0.025258452 -0.11264348 -0.015493035 0.1250592
000180 8d a3 13 3e 18 6b 55 3d c4 dc b0 bd 95 1c 37 3d
       0.14417858 0.052104086 -0.08635858 0.044704992
000190 12 cc 02 3d 2e 37 2e 3e 0e f8 60 bd 8a 69 6c 3d
       0.031932898 0.17013237 -0.054924063 0.057717837
0001a0 48 fe fd bc 16 a2 ba 3d 6e b8 2a be 17 a8 a9 bd
       -0.03100504 0.09112947 -0.16671917 -0.08284014
0001b0 d7 70 0a 3e c3 f8 2b be 10 58 5a bc ec 71 6d bd
       0.13519607 -0.16794114 -0.01332666 -0.057969972
0001c0 69 85 f1 bd 0a 30 c3 3d 1e 76 0b be 55 ff f7 bd
       -0.11793024 0.09530647 -0.13619277 -0.121092476
0001d0 e3 72 17 3e c3 56 27 3e b2 f0 76 bd 90 e0 48 3d
       0.1478992 0.1634169 -0.06028814 0.049042284
0001e0 9d a8 d7 3d 8e 02 d1 bd 09 8d 15 3e 23 66 2a 3e
       0.10530207 -0.102055654 0.14604582 0.16640525
0001f0 76 36 86 bd 49 93 34 3e 60 1f 92 bc 75 fa 17 3e
       -0.06553356 0.1763431 -0.017837226 0.14841636
000200 24 f6 ad bd fe 17 2e 3e 07 9b 05 3e b5 d3 2a be
       -0.08494213 0.1700134 0.1304742 -0.16682322
000210 69 64 4b bc 82 d1 06 bd 46 cf 6a bd 8c 3b bf 3d
       -0.012414076 -0.032914646 -0.057326578 0.093375295
000220 bc 2d 58 3d 1b b8 2b be 8f 69 df bd 07 39 3a be
       0.05277799 -0.1676945 -0.109088056 -0.18185817
000230 58 8a 88 bd 95 7c a3 bd 46 86 b4 3c 23 db 3b 3e
       -0.06667012 -0.079827465 0.022036683 0.18345313
000240 06 0e ed bd 85 fd ce 3b 05 29 29 be 68 8f 12 be
       -0.115749404 0.006316843 -0.16519554 -0.14312518
000250 94 76 d6 bd 8d de d3 3d 29 d1 a0 3b 13 12 8c 3d
       -0.10471836 0.103451826 0.0049077463 0.06839385
000260 ff 81 c4 bd 8a f4 eb 3d f0 87 b8 bd fd 01 25 3e
       -0.09595107 0.115212515 -0.09010303 0.1611404
000270 05 4c 09 3e 4a 40 18 be 58 aa ea bd f3 90 69 3d
       0.13407905 -0.14868274 -0.11458272 0.057023
000280 4b c0 da 3c 50 59 9e 3d ee 6d 12 be c3 bb d9 bd
       0.02670302 0.07731879 -0.14299747 -0.10631516
000290 cd 78 12 3d c5 2c 1e be d5 e6 74 3d c7 ca 59 3c
       0.035759736 -0.15446766 0.05979045 0.013292975
0002a0 64 48 2c bd 9f a8 15 3e b0 1b 90 3b 57 5d a2 3d
       -0.042061225 0.14615105 0.004397832 0.079279594
0002b0 3a cf c6 bd 7d 8d 51 be ce 62 0a be c7 1a 93 bd
       -0.09707494 -0.2046413 -0.13514253 -0.07182842
0002c0 42 a5 21 3e 50 86 7d bd 41 cf ad bd 6a df ce 3d
       0.15785697 -0.06189567 -0.08486796 0.101012066
0002d0 60 1f dd bc de 6f 04 be 69 1f 0b be 25 f3 89 3d
       -0.0269925 -0.12933299 -0.13586201 0.06735829
0002e0 1d e5 4d 3d 99 0e 30 3e 20 88 c1 bd 8f 57 45 bd
       0.050267328 0.17193069 -0.09449792 -0.048179206
0002f0 d1 f9 7a bd ff b2 ba 3b 79 67 05 be 41 b9 09 3d
       -0.0612734 0.0056976075 -0.13027753 0.033623938
000300 e1 c1 c6 bd 34 02 b3 bc cd a4 97 bd 38 aa 9d 3c
       -0.09704948 -0.021851636 -0.0740448 0.019246206
000310 7f 04 0f be 54 95 1a be 95 20 d0 bd e6 2e ea bd
       -0.13966559 -0.15096027 -0.101624645 -0.114347264
000320 c8 26 9e bc a8 06 d9 3c 30 e4 15 bd 7b 7a 04 be
       -0.019305602 0.026492432 -0.03659457 -0.12937348
000330 cd 5c 31 3e 24 11 88 3c fc 28 1b be 2d 6c 32 be
       0.17320557 0.016609736 -0.15152353 -0.17424078
000340 bc d5 32 3d 78 78 6c bd 8c d3 76 3d fd a7 15 3e
       0.043660864 -0.057732075 0.06026034 0.14614864
000350 f0 8b 0d 3c 87 67 21 3e 8b 9f 2a bd 50 ed fc 3c
       0.008639321 0.15762149 -0.04165606 0.030874878
000360 11 a5 1d 3c 4e 5a 00 bd 31 1d 09 3e 24 a9 12 bd
       0.009621874 -0.03133612 0.13390042 -0.035805836
000370 0a e1 ef 3d 2f df fe bd 32 be 81 bd d6 49 9f 3d
       0.11712845 -0.12444913 -0.06335105 0.07777755
000380 66 e7 b6 bd 80 43 21 bc 15 cc 9d 3d 83 5f 8c bd
       -0.089308545 -0.009842753 0.07704941 -0.06854155
000390 59 86 af 3b ef 2e fe 3c 7d 05 87 bc f0 03 3e bd
       0.0053565917 0.031028239 -0.01648211 -0.046390474
0003a0 1e 0b 7c bd a7 d4 0a 3e 29 95 16 3e 1b c0 b7 bd
       -0.06153404 0.13557683 0.14705338 -0.08972188
0003b0 79 bc a6 bd 58 28 1d be 31 4b 2a 3e 21 11 aa bc
       -0.08141417 -0.15347421 0.16630246 -0.02076012
0003c0 5e fe d1 3c f5 9b be 3d 78 38 df 3d aa 46 fc 3d
       0.025633987 0.0930709 0.108994424 0.123181656
0003d0 dc 7a 05 be 1a 98 f0 ba 18 0c ab 3d eb da 58 3c
       -0.13035148 -0.0018355877 0.08351916 0.013235788
0003e0 f2 73 93 bd d4 5a 95 bd a4 1a e4 bd 54 da 8c bd
       -0.07199849 -0.07292715 -0.11137894 -0.0687758
0003f0 ff af e3 bc 85 9f 25 3e 64 33 3f 3d 77 8a 20 be
       -0.027793882 0.16174133 0.04667987 -0.1567782

lstm.bias_ih_l0 f4 [128]
000000 03 da 17 bd 7f 4d d9 bd 41 fe 9c bd 9c 2c 09 be
       -0.037073147 -0.10610484 -0.076656826 -0.13395923
000010 02 7c 03 be cd bb 21 be b2 92 1f 3e dc 22 8b 3b
       -0.12840274 -0.15794297 0.15583304 0.004246099
000020 90 b8 f8 3c 55 f4 96 bd 53 e6 9c bd b6 92 42 3e
       0.030361444 -0.073708214 -0.07661118 0.19001278
000030 fb 4c 5a bd b5 9a f9 bd 10 ff 5a bc dc 89 04 be
       -0.05329607 -0.12187711 -0.013366476 -0.12943214
000040 62 40 29 bd 86 e1 c4 3c b5 f2 18 3d cd e6 9e bd
       -0.041321166 0.02403332 0.03734084 -0.077588655
000050 11 37 6e 3d 4d 31 05 be 5b 5b e3 3d 2a 16 d1 3d
       0.058157984 -0.13007088 0.11101409 0.102093056
000060 5c 11 13 be f2 f8 80 bc 38 0e 87 bd 4e 91 e3 bd
       -0.14362091 -0.015743706 -0.06594509 -0.11111699
000070 80 f1 9d 3d 6a 15 bb 3d 07 b5 af 3d 99 19 1a be
       0.07712078 0.09134944 0.0857945 -0.15048827
000080 d4 39 9e 3d 3f 16 ce bd df 67 1b be 46 15 3a bd
       0.077258736 -0.10062837 -0.15176342 -0.045430444
000090 d7 d6 e4 3d 00 d9 06 be 20 0b 0a be c3 cd 31 3d
       0.1117379 -0.13168716 -0.13480806 0.04340912
0000a0 56 a4 f5 3d 26 ad f2 3d 7a 6e f4 3d d4 15 88 bd
       0.11994235 0.11849432 0.11935134 -0.066447884
0000b0 e9 89 ce bd b7 87 99 3c 4f f2 41 bd 57 67 34 bc
       -0.10084898 0.018741472 -0.047350224 -0.011010966
0000c0 e6 ad 50 bd b7 95 4d 3d b2 8d 1c 3d d0 40 bc bd
       -0.050947092 0.050191607 0.03822107 -0.091920495
0000d0 08 83 16 be b5 9c 11 3e cd 4d 88 3d fb fb 3b be
       -0.14698422 0.14219935 0.06655464 -0.18357842
0000e0 8e d8 ab bb c8 b1 1f bd d6 11 0f be 60 3d f3 bc
       -0.005244321 -0.038987905 -0.13971648 -0.029692352
0000f0 d6 ce 85 bc b0 a8 b7 bc e8 cd be bd e9 65 c2 3d
       -0.016333979 -0.022419304 -0.09316617 0.09492094
000100 c2 bb 20 3e ff 3e 2c be 23 38 0f be 12 6f d1 3d
       0.15696624 -0.16820906 -0.13986258 0.10226263
000110 e6 8a 68 bd 42 1b a1 bd 90 1f d8 bd 14 68 b8 3d
       -0.05677309 -0.07866527 -0.10552895 0.09004226
000120 c7 00 2a 3e a4 8f 1c be 9b 22 83 3d 38 67 02 bd
       0.16601859 -0.1528917 0.06403085 -0.03183672
000130 04 c7 bb 3d e8 d6 02 3e 10 58 81 3d 0f 8c 00 be
       0.091688186 0.12777293 0.06315625 -0.12553428
000140 70 29 fe 3c a0 49 f8 bd 8a f3 dd 3d 25 e1 27 3e
       0.031025618 -0.12123418 0.10837467 0.1639448
000150 20 6c 01 3c 00 73 74 3b 93 cf 13 3e 52 b7 80 3d
       0.007899314 0.003729999 0.14434652 0.062849656
000160 b6 a8 e0 3d 80 68 26 be a1 76 2f 3e b1 1b 34 3c
       0.10969679 -0.16250801 0.17135097 0.01099293
000170 e0 17 2e 3c 8d 36 b6 bd 13 ab 21 3e 47 bc 2e bb
       0.010625809 -0.088971235 0.15787916 -0.0026662515
000180 02 16 34 bd d4 66 32 3e fc 42 8a bd 7b d1 16 be
       -0.0439663 0.17422038 -0.067510575 -0.14728348
000190 fa bc 45 3d 6a c6 9a bd d4 38 3b bd 18 64 d8 3d
       0.048275925 -0.07557376 -0.045708492 0.10565966
0001a0 ba a4 96 3d b9 21 f1 3d 9e 51 fc 3d c0 d0 91 bd
       0.07355638 0.1177401 0.12320255 -0.07119894
0001b0 2b 24 d9 3d a8 05 c6 3d dd 23 c6 3d f0 96 ca 3d
       0.106026016 0.096690476 0.09674809 0.0989207
0001c0 fe 83 4e bc 78 d3 4d be e3 a7 ec bc e0 a6 e1 bd
       -0.012604712 -0.201002 -0.028888648 -0.11018157
0001d0 c1 8b 3b bd 87 a8 f2 3d b2 4f e1 3d b3 7e e4 bd
       -0.045787577 0.1184855 0.11001529 -0.111569785
0001e0 ba 37 ef 3d 82 f6 f9 bd 48 0e 03 be fb 6b 8f 3b
       0.11680551 -0.12205221 -0.12798417 0.004376886
0001f0 a5 af 2a be 9b f9 97 3d 03 2a f2 3d 25 57 cd 3d
       -0.16668566 0.07420655 0.11824419 0.10026387

lstm.bias_hh_l0 f4 [128]
000000 f0 06 5a b9 fd 78 d8 3d cb 15 39 bc 14 ab 6c 3d
       -0.00020792685 0.10569952 -0.0112967 0.05778034
000010 1b 23 9a 3d e7 56 4d bd 88 1f 20 3e 0d 25 1e 3e
       0.07526227 -0.050131705 0.15637028 0.15443821
000020 5e 1b c7 3d fd ce b8 3d fa b7 63 3c 78 47 ab bc
       0.09722017 0.09023855 0.013898844 -0.020908102
000030 0b d4 4b 3d 01 67 c1 3d 77 03 34 3e c8 c4 00 bd
       0.049762767 0.094434746 0.17579447 -0.031437665
000040 b3 84 fb bd fa 28 7f bd 31 a0 26 3e 7d da ef 3d
       -0.1228117 -0.062294938 0.16272046 0.11711595
000050 af a4 80 bd a0 6d 35 3e 59 a0 dc bd 92 c5 bd 3d
       -0.06281411 0.177176 -0.107727714 0.09266199
000060 51 97 e1 bc 79 03 69 3d 86 6e ad bc 01 0a 54 bd
       -0.027537974 0.056888077 -0.021170866 -0.051767353
000070 50 31 5e bd 34 f8 e1 bd a4 c6 9f bb 82 66 a8 bb
       -0.054246247 -0.11033669 -0.0048759747 -0.005139173
000080 48 20 86 3d cf 98 ef 3d c0 10 1f be 31 4e 98 bd
       0.06549126 0.11699068 -0.15533733 -0.07436789
000090 1c 82 8d 3d 38 44 8c bd 40 c1 16 be 17 f9 81 3d
       0.06909582 -0.06848949 -0.14722157 0.06346338
0000a0 63 2c cf bd f9 0c d8 bd aa e5 64 3c 2f fe 66 bd
       -0.10115888 -0.10549349 0.013970772 -0.056394752
0000b0 6a 9b 9c bd 69 f1 18 3b 55 98 5a 3d d8 f3 c5 bd
       -0.076468304 0.002333725 0.05336793 -0.0966565
0000c0 a8 b3 48 bd d3 9b 3b bc c6 4d ee 3d e6 ec 86 3c
       -0.04899946 -0.011450726 0.11635928 0.016470384
0000d0 c7 1a 0b bd 18 40 0e 3e ac 03 c0 bd 9e 5e 0e be
       -0.033961084 0.13891637 -0.093757 -0.13903281
0000e0 24 02 4f bd 65 6a 1c be 0c b4 35 3d d2 5c 95 bd
       -0.05053915 -0.15274961 0.04436116 -0.07293095
0000f0 ac 39 c8 3c 2e 40 0d be e2 f3 e2 3d 1c af 35 3d
       0.024441563 -0.13794014 0.11081673 0.04435645
000100 0d 53 e7 bd 10 68 34 bc dd 14 31 be 88 42 25 3d
       -0.112951376 -0.011011139 -0.17293115 0.040346652
000110 d2 9a c5 3d 76 6e d2 bd 41 51 35 3d e3 e1 2c 3e
       0.0964867 -0.10274975 0.044266943 0.16883044
000120 9d ca b0 bd 7c 3b 84 3d 9f dd 92 3d c9 1d 89 bd
       -0.086323954 0.06456658 0.07171177 -0.06695134
000130 4f c4 08 3e fa 07 ad bc 40 8f b4 3b 88 78 3b 3d
       0.13356136 -0.021121968 0.005510241 0.045769244
000140 ce fb a9 bd a5 b9 dd 3d 06 08 b3 3d 2a 76 83 3d
       -0.08299981 0.108264245 0.08741765 0.064190224
000150 be b9 1f be 54 f1 fd bd 54 d8 53 bd 48 7b 49 3d
       -0.15598199 -0.12399545 -0.05171998 0.049189836
000160 a9 4f 11 be e6 87 06 3e 43 35 21 3e 39 ce a9 bd
       -0.14190544 0.13137779 0.15742974 -0.08291287
000170 77 c9 1c 3e f8 8a 67 3d e0 42 c3 3c 1b 86 f7 3d
       0.15311228 0.056529015 0.0238356 0.120861255
000180 96 e9 92 bd 78 50 46 3e e2 c5 91 bd 13 a3 1b be
       -0.07173459 0.19366634 -0.07117821 -0.15198927
000190 0f 85 3a be 5c 31 f2 3d cd 9a 09 be 15 e9 f8 bc
       -0.1821482 0.11825821 -0.13437958 -0.03038458
0001a0 9e cb ec 3d 44 70 0d be 52 a7 b0 3d c4 ef 23 3e
       0.115622744 -0.13812357 0.08625664 0.16009432
0001b0 37 18 53 bd e5 e7 61 3e 5b b8 74 bd 22 d1 11 3e
       -0.051536765 0.22061117 -0.059746128 0.14239934
0001c0 2d 96 f3 3d 12 19 84 bd 67 a3 e8 bc 24 3f 7c ba
       0.11893878 -0.06450094 -0.028398229 -0.0009622446
0001d0 30 bc aa 3d 09 b0 ea bd 76 e3 fb bc bf 3a e9 3d
       0.08336675 -0.11459357 -0.03074811 0.11388158
0001e0 8b 36 af 3b 56 85 06 3e a9 99 1f be 73 8f a3 bd
       0.005347078 0.13136801 -0.1558596 -0.07986345
0001f0 a8 77 13 3e 54 60 0b bd 23 e5 3e 3d 16 db 3b be
       0.14401114 -0.034027413 0.04660524 -0.18345293

fc1.weight f4 [16, 32]
000000 7b 26 d4 3d e7 f4 02 3d ad 50 27 3e 0c 7f 42 3d
       0.10358902 0.03197184 0.16339369 0.047484443
000010 7e bb f9 bd 94 1e 88 bb 98 5f 5c be cd e3 ca 3d
       -0.121939644 -0.004154036 -0.21520841 0.09906731
000020 78 ce 0d be 0f 67 aa 3d 2e 8d df bd b3 ed b8 bd
       -0.13848293 0.08320438 -0.109156 -0.090297125
000030 b2 cf 1b be 37 94 1d be 18 fb 6d 3e 94 42 93 3d
       -0.15215948 -0.1538857 0.23240316 0.07190433
000040 61 28 25 bc 60 e9 5b 3d 9b 26 6c 3e 8b 32 40 bd
       -0.010080428 0.05368936 0.23061602 -0.0469232
000050 d0 e2 5f 3e 6d aa 55 3e b2 2e 51 3e a4 6c 9c bd
       0.21863866 0.20865794 0.20427969 -0.07637909
000060 b1 46 28 3e e6 a7 4e 3e 70 3d 12 bd 5f d5 0a be
       0.16433217 0.20181236 -0.035703123 -0.13557957
000070 93 e6 0e 3e fe 2f f8 3d 0e 70 66 bc ec bf 9a 3b
       0.13955145 0.12118529 -0.014064802 0.004722586
000080 f3 98 d4 bd 4f cf e9 3d be 8f 88 3d 97 68 29 3e
       -0.10380735 0.11416494 0.06668042 0.16543804
000090 71 b4 34 be 3b 69 18 bd 8e 11 1c be 40 95 f3 3c
       -0.17646958 -0.03720973 -0.15241072 0.029734254
0000a0 9c bd 65 bd 0a 92 08 be 7b b6 21 3e 94 63 b0 bc
       -0.05608903 -0.1333696 0.15792267 -0.021531858
0000b0 3a ff 0d be ed 43 a4 3d 3b 13 05 3e 49 ca 29 be
       -0.13866892 0.08020768 0.12995617 -0.16581072
0000c0 e1 c0 5f 3c 3c 87 0a 3d e6 79 a9 3d 63 ef b0 3d
       0.013656826 0.033820376 0.082752034 0.086394094
0000d0 3a 87 07 be cc 9d 18 bd e1 3c dc 3d 61 72 8b 3d
       -0.13235179 -0.03725986 0.10753799 0.068089254
0000e0 2b ee cc 3b 1f 47 00 3e 98 98 6a 3d 3c 85 3f bd
       0.006253978 0.1252713 0.05727443 -0.04675792
0000f0 58 41 94 bc 0e 0e 24 3e 4d 8b fa bd 2b fc 1c 3e
       -0.018097565 0.16020986 -0.12233601 0.1533057
000100 e0 72 82 bd 84 1d 42 bd 2c 5e 8e 3d a9 8a cc bd
       -0.06369567 -0.04739143 0.069515556 -0.09987385
000110 22 5b ce 3d 46 89 cc 3d 0d de d9 bd f4 92 04 3d
       0.10075976 0.0998712 -0.10638056 0.032366708
000120 2a 9d d4 3d 8a 85 f1 bd 64 9f 34 bd ae e4 eb 3d
       0.10381539 -0.11793049 -0.04409732 0.115182266
000130 46 ef f6 3d 38 96 66 3d c7 93 10 3e cc e1 54 3d
       0.120573565 0.056295604 0.14118873 0.05197315
000140 13 18 87 bd b0 82 80 3c 8e c8 f5 3d 10 4c 31 bc
       -0.06596389 0.015687317 0.120011434 -0.010821357
000150 a8 a9 22 bd 84 3e 95 bd 58 f3 c2 bc 75 6e 1a be
       -0.039712578 -0.072873145 -0.023797676 -0.15081199
000160 34 e1 a4 bd 15 11 e5 bd 80 72 0a bc 0d 47 25 3e
       -0.080507666 -0.11184899 -0.0084501505 0.16140385
000170 f2 30 cd 3d ac 77 2f 3d 40 2e 79 3b 7a 20 b3 3d
       0.10019101 0.042838737 0.0038021952 0.08746429
000180 c9 3f 08 3e 3e bc c3 3d 17 9e cb bd d4 54 53 3d
       0.13305582 0.09557389 -0.099422626 0.05159457
000190 34 b0 2c be 34 2a 14 3d f6 48 23 be 36 41 11 be
       -0.16864091 0.03617306 -0.15945801 -0.14185032
0001a0 b0 62 51 3d d7 49 1c be a8 8a b9 bc 46 05 ef bd
       0.051119506 -0.15262543 -0.022649124 -0.11670928
0001b0 69 b4 b7 bd 08 1e 0b bd d6 32 bd bd fb 19 1d 3e
       -0.089699574 -0.033964187 -0.09238212 0.15341942
0001c0 91 e7 1c 3e 10 dc d5 bc 42 4a 27 be d9 fa 86 bd
       0.1532271 -0.02610591 -0.16336921 -0.06590814
0001d0 1e f5 7e bd a8 20 1b be 92 d8 da 3d a4 98 5c bd
       -0.06224548 -0.15149176 0.10685839 -0.053856507
0001e0 72 7a 88 3d e3 35 2f be 30 5c 91 3c 00 36 0e 3a
       0.066639796 -0.171104 0.017744154 0.0005424917
0001f0 14 bd 03 3d 20 5e 94 bb 8f 5b a2 bd 66 c0 26 be
       0.03216274 -0.004527822 -0.0792762 -0.16284332
000200 12 e9 61 bd 5b fe 49 bd 35 04 2a 3e 32 25 c3 bd
       -0.055153914 -0.049314838 0.16603167 -0.09528579
000210 62 a8 54 3e b0 6e de 3c 04 ea 05 be 70 3a 3e 3e
       0.20767358 0.02715239 -0.13077551 0.1857698
000220 b0 4f 0f bd 03 c3 de 3d 4d 11 1c 3d 96 bc 3d bd
       -0.034988105 0.10877039 0.038102437 -0.046322428
000230 21 ae c1 bc ae b2 29 3c bf 30 71 3e cd ce 5f be
       -0.023642601 0.010357542 0.23553751 -0.21856232
000240 57 e7 6c be 2f bf fe 3d 54 4a 85 bd 58 33 46 be
       -0.23135124 0.12438809 -0.065083176 -0.19355524
000250 05 77 66 3e 62 18 e7 bd c6 93 a9 bc 66 01 b1 bc
       0.2250634 -0.112839475 -0.020700347 -0.021607112
000260 e8 0d 43 3e 89 d1 3c 3e a2 29 1a 3c bf 44 06 bd
       0.19048274 0.18439306 0.00940934 -0.032780405
000270 cd cc e7 3d db 4d 1d be 2f 70 00 3e 97 ff c5 3d
       0.113183595 -0.15361731 0.12542795 0.096678905
000280 37 b1 ff 3d 67 02 18 be 39 44 50 3d 8b e3 0b 3c
       0.12484973 -0.14844666 0.050846312 0.008538137
000290 31 28 e1 3d 56 58 98 bd 51 d3 2b be 4a f1 5c 3d
       0.10993994 -0.07438724 -0.1677983 0.05394105
0002a0 50 51 45 bc 79 7f a9 bd 50 31 ad bd 7b fa a3 3d
       -0.012043312 -0.082762666 -0.08456671 0.0800676
0002b0 e9 a9 d4 bd dc 6d 6c be 51 b6 03 bd ce 41 05 3a
       -0.1038397 -0.23088783 -0.032156292 0.0005083353
0002c0 ee 4b 32 be c8 b7 e9 3d 70 56 cc bd 86 90 52 bd
       -0.17411777 0.114120066 -0.09977424 -0.05140736
0002d0 83 15 89 bd 71 d3 81 bd 93 5b 41 bd a3 20 ea 3d
       -0.06693556 -0.063391574 -0.047206473 0.11432006
0002e0 b2 76 4b 3e 75 5b e5 3d ce 6e 0a 3e ea 20 8d 3d
       0.19869497 0.11199085 0.13518831 0.068910435
0002f0 67 48 ae 3c 4e 69 01 be ee af 23 3e ad 46 7c bc
       0.021274759 -0.12637827 0.1598508 -0.01539771
000300 89 3b b4 bd 5c 61 41 be 03 34 24 bd f9 44 ca bd
       -0.08800418 -0.18884796 -0.040088665 -0.09876437
000310 29 c3 b8 bd d1 fe 38 3e 80 fb e4 bd 1a 75 1b 3c
       -0.09021599 0.18065955 -0.11180782 0.009488368
000320 b6 62 d3 3d 98 24 ff 3c 13 7c 93 3c c9 fe ed 3c
       0.10321562 0.031145379 0.0180035 0.029052155
000330 53 f9 2d be b6 18 cf bb 57 6d 88 3c 3c 82 07 3d
       -0.16989641 -0.0063200844 0.0166537 0.033083186
000340 77 49 ab 3b 38 10 c9 bd 04 1b 18 3e 14 84 d0 bd
       0.0052272636 -0.098175466 0.14854056 -0.10181442
000350 9a ef 61 3d ef 5b 55 3e 98 5f aa bc f8 ad a2 bc
       0.055160142 0.20835851 -0.020797536 -0.019858345
000360 66 f8 68 3e 5a 72 18 bd 5d 3d c7 bd 7f 81 bb bd
       0.22751006 -0.03721843 -0.09728501 -0.09155559
000370 b6 3c e5 3d 14 c2 0a 3e 61 0a 26 3e 1f b1 14 3e
       0.1119322 0.13550597 0.16214897 0.14520691
000380 60 26 4a 3d c0 e1 be bd ca 0a 91 3d f0 8c 39 be
       0.049353004 -0.09320402 0.07082136 -0.1812017
000390 17 95 0a 3d 67 61 02 3e f7 87 09 be 7b a8 3b be
       0.03383359 0.12732469 -0.13430773 -0.18325989
0003a0 0b 67 19 3e ef 83 b9 bd 38 f3 29 3e e5 47 51 bd
       0.14980714 -0.090583675 0.16596687 -0.051093955
0003b0 15 19 5f 3d bc b5 3f 3e 73 2a 37 bd a7 06 d3 3d
       0.05446728 0.1872167 -0.044718217 0.10304003
0003c0 d3 3c d4 bd 56 c2 bd 3c a0 a4 1b be 86 a8 bc bc
       -0.10363164 0.023163956 -0.15199518 -0.023029577
0003d0 64 5d e7 3d a4 5a 2d be 64 3e 64 bd d1 6b c6 3d
       0.1129711 -0.16929108 -0.055723563 0.09688533
0003e0 7f 24 ca bd d3 cb e6 3d 50 84 ad bd 3b 87 a0 3d
       -0.09870242 0.11269345 -0.08472502 0.07838293
0003f0 af 57 0c bd c0 e3 68 bd 15 49 d3 bd 6e a4 b9 3a
       -0.03426331 -0.056857824 -0.10316674 0.0014163384

fc1.bias f4 [16]
000000 19 e3 6f bd 3e 76 df bd 88 ed ec bd cf b7 92 bd
       -0.058566187 -0.10911225 -0.11568743 -0.07163965
000010 a0 9c 7d bb ca b5 e0 bd 27 08 c3 3d dd 71 8b bb
       -0.0038698092 -0.109721735 0.09523039 -0.004255517
000020 83 18 30 3e 94 c8 f2 bd ea 45 20 3e f6 bf 97 3c
       0.1719685 -0.118546635 0.1565167 0.018524151
000030 ef 29 6d bc 63 1d df 3c 46 47 d7 bd 4a cb 18 3e
       -0.01447533 0.027235692 -0.10511641 0.14921299

out.weight f4 [1, 16]
000000 d7 03 17 3e 9d 13 c5 bc 00 8d 04 be 1e 95 07 3e
       0.14747559 -0.024057204 -0.12944412 0.13240477
000010 a5 d6 7c 3d 7e bb 68 3e af ce 8f 3e ae 5b 18 be
       0.06172814 0.22727773 0.28087375 -0.14878723
000020 ec 3f 28 3e 03 99 92 bd 66 32 10 bb 34 a9 14 be
       0.16430634 -0.07158091 -0.0022002696 -0.14517671
000030 2c 0b 8d bd 48 8c a0 3d 46 65 56 be 87 be 4a 3e
       -0.068868965 0.078392565 -0.2093707 0.19799243
