artifacts/territory/lstm/992__1018__1020/model.pt (torch, 23217 bytes, 7 tensors)

lstm.weight_ih_l0 f4 [128, 1]
0.053366713 0.08257872 0.06751391 0.033233177 -0.06496472 0.05965752 0.099077955 0.06639561
0.012505046 0.06919309 0.15757276 -0.03579475 -0.15465164 0.015560038 -0.051053766 0.06536443
0.010574008 0.08711089 -0.011087322 -0.1699361 -0.17169358 0.13822086 0.037235793 -0.15982918
-0.05780285 0.050723866 0.1192718 -0.032358345 0.15710776 0.01470322 0.0065874183 -0.13800621
-0.1763506 0.13009486 -0.1629311 0.081353985 -0.08177757 0.121136025 0.16343744 -0.01456918
0.10024773 0.11067347 0.103052214 0.024888432 0.12498744 0.0117390705 0.17025568 0.017279208
-0.0425065 0.096451074 -0.14328837 -0.1239603 -0.101834096 0.020398747 -0.013790116 -0.09896592
-0.14761636 0.009386853 0.020015799 0.100322925 0.035866488 -0.13795513 0.07613941 -0.020764321
0.017219676 -0.12253208 -0.14808334 0.10824977 0.06509032 -0.014354261 0.14817859 0.06419004
0.13221805 0.12700664 -0.029234374 0.09444587 0.098387405 -0.15967864 0.13328908 -0.02967918
-0.14897402 -0.11239104 0.16858552 0.042614385 0.085034266 -0.081695154 -0.1695884 -0.10304194
0.13899891 0.116946205 -0.12274954 0.036860015 0.16968565 -0.04495766 0.1457463 -0.15241976
0.1439138 0.13788567 -0.15343095 0.10143806 0.13441494 0.017024929 -0.058472198 0.07422862
-0.057776928 -0.14300719 -0.1623357 -0.050244123 -0.10235151 0.049360998 -0.12981589 -0.09323626
-0.13058268 -0.08282289 -0.019110886 -0.09561653 0.0522913 0.16985409 -0.112564206 -0.05835636
0.16872437 0.1729254 -0.095779 0.099291496 0.15908934 -0.007442264 0.045843225 0.0044293045
00000000: 0e97 5a3d 081f a93d bc44 8a3d 831f 083d
00000010: 390c 85bd 725b 743d 62e9 ca3d 6cfa 873d
00000020: f7e1 4c3c 1bb5 8d3d c15a 213e 849d 12bd
00000030: 005d 1ebe 88ef 7e3c c11d 51bd c9dd 853d
00000040: 9b3e 2d3c 3267 b23d 99a7 35bc bb03 2ebe
00000050: 71d0 2fbe c589 0d3e 8f84 183d 43aa 23be
00000060: aec2 6cbd d4c3 4f3d c644 f43d 2f8a 04bd
00000070: dbe0 203e c6e5 703c 45db d73b 8051 0dbe
00000080: 4095 34be 9637 053e 69d7 26be eb9c a63d
00000090: 007b a7bd 2a16 f83d 255c 273e 92b3 6ebc
000000a0: af4e cd3d c6a8 e23d 0a0d d33d d3e2 cb3c
000000b0: 6af9 ff3d 3b55 403c 8157 2e3e 208d 8d3c
000000c0: 4c1b 2ebd 2488 c53d 30ba 12be e6de fdbd
000000d0: 658e d0bd 461b a73c f0ef 61bc a5ae cabd
000000e0: be28 17be 51cb 193c 2cf8 a33c 1b76 cd3d
000000f0: bde8 123d 1c44 0dbe fbee 9b3d f019 aabc
00000100: 4710 8d3c 19f2 fabd 29a3 17be 0eb2 dd3d
00000110: 134e 853d 222e 6bbc 21bc 173e 1176 833d
00000120: 2b64 073e 070e 023e ed7c efbc d66c c13d
00000130: 567f c93d cc82 23be ef7c 083e c021 f3bc
00000140: a58c 18be 462d e6bd afa1 2c3e 6c8c 2e3d
00000150: 7226 ae3d ca4f a7bd 95a8 2dbe a707 d3bd
00000160: bb55 0e3e 7e81 ef3d 1c64 fbbd 87fa 163d
00000170: 13c2 2d3e 8625 38bd 853e 153e ed13 1cbe
00000180: 245e 133e e731 0d3e 011d 1dbe c2be cf3d
00000190: 12a4 093e dd77 8b3c 8b80 6fbd 2d05 983d
000001a0: 80a7 6cbd 7a70 12be 543b 26be c8cc 4dbd
000001b0: ab9d d1bd c22e 4a3d 75ee 04be a7f2 bebd
000001c0: 77b7 05be 0c9f a9bd 6f8e 9cbc 99d2 c3bd
000001d0: 672f 563d 3bee 2d3e 1088 e6bd 1407 6fbd
000001e0: 15c6 2c3e 5b13 313e c827 c4bd 5759 cb3d
000001f0: 51e8 223e 3cde f3bb 1bc6 3b3d b323 913b

lstm.weight_hh_l0 f4 [128, 32]
0.0807652 0.17661658 0.013204381 0.14885044 0.017313257 -0.08773741 0.16256681 -0.075241685
0.17056789 -0.11144826 -0.1739044 0.09678744 0.07059774 0.016842566 -0.095523804 0.034611598
-0.1327831 0.1617388 -0.1558406 -0.1698519 -0.15143712 0.12163521 -0.04891485 -0.009709418
-0.004127085 0.10304646 -0.13691168 0.0880022 0.06786008 0.06530129 0.16034065 0.11743708
-0.078326866 -0.008918569 0.10932453 0.04780535 -0.13155879 0.09234345 0.12124126 -0.16696674
0.011178821 0.04920487 0.101725176 0.17171283 -0.16019943 -0.0637157 0.015201986 0.089932725
0.11841704 -0.026935846 -0.0628332 -0.03654948 0.11013277 -0.14023094 0.0840105 0.06802337
0.15752824 -0.11345624 -0.06260919 -0.13642679 -0.011777281 -0.12245348 -0.09116687 -0.028507859
0.09853624 -0.04272829 -0.14616156 0.09823762 -0.08780006 -0.08792718 -0.13688049 -0.019601867
0.16055845 0.1331551 0.16225551 -0.16496386 -0.1417382 -0.028240144 -0.12914705 -0.122983515
0.044929996 -0.14534912 0.13004147 -0.05244813 -0.03961584 -0.1707595 -0.070428394 0.014740318
0.118457094 -0.00082896627 -0.106830835 0.07350014 -0.07270799 -0.016677901 -0.17458597 -0.13474153
-0.017010668 0.046838116 -0.15528974 0.050550703 -0.1573358 -0.001750501 -0.075482816 0.009253209
0.088042624 -0.14768447 0.075614646 -0.1282779 -0.025517851 0.12280345 -0.0048597604 -0.101612784
-0.07875699 -0.10355497 0.10986966 0.06078635 -0.011469021 -0.048211943 -0.037297025 -0.09217975
0.017792314 -0.011018732 -0.12060006 0.036498323 0.1246492 0.12395196 -0.14152268 -0.0041460693
-0.089817666 -0.13084768 0.07138035 -0.16445333 0.044575155 0.10631245 0.0769472 0.032215994
-0.0858748 0.0055729896 0.03964442 0.14671107 -0.16591127 -0.04151932 0.11474188 0.03032346
-0.062139288 0.09937097 0.1464117 -0.17230125 0.13086902 0.13813478 -0.047007605 0.06690666
-0.13574259 -0.15123998 0.079753056 0.16667098 0.017056454 -0.09163321 -0.16701403 0.11588673
0.14104745 -0.104912855 -0.016609848 0.1683691 0.052322283 0.15936427 -0.077094235 0.066877276
-0.028916487 0.066425726 -0.09926963 -0.14917277 -0.118045926 0.17042868 -0.1627912 0.032115012
-0.08127006 0.026719794 -0.15860441 0.14375709 0.10337718 0.09521965 -0.10502008 -0.08571223
-0.1252571 -0.072617695 0.05061771 -0.14389035 -0.149637 -0.14194264 0.07068102 -0.072561175
-0.017446732 -0.031538766 0.021105394 -0.064305425 -0.16251844 -0.114830926 -0.031518906 0.12235608
0.14989717 0.025273383 0.13049765 0.1493486 0.14052092 0.12832718 -0.028374255 -0.01937157
-0.03140892 -0.0022180974 -0.07275131 0.114234105 -0.08652421 0.14809628 -0.06304686 -0.16581672
0.16237368 0.026295412 0.12603803 -0.069323935 0.16673256 0.002825767 0.1380355 -0.17307478
0.17566037 -0.11547512 -0.13613686 0.13500884 0.16131039 0.04140438 0.11540748 0.16917455
0.09066482 0.09111355 -0.14437892 -0.12199557 -0.06423416 0.024483489 -0.089184165 0.13840912
0.1746818 0.10147278 -0.11945758 -0.031170398 0.153349 0.16718018 -0.15294226 0.15015234
-0.08503078 -0.08672085 -0.16453743 -0.16536951 -0.099896014 0.14496107 -0.06852263 0.15842108
00000000: 3a68 a53d fada 343e 3057 583c 406c 183e
00000010: 88d4 8d3c acaf b3bd ea77 263e 5018 9abd
00000020: 59a9 2e3e fc3e e4bd ff13 32be 7e38 c63d
00000030: 8c95 903d 6cf9 893c fca1 c3bd e4c4 0d3d
00000040: 4bf8 07be db9e 253e ae94 1fbe a8ed 2dbe
00000050: 5512 1bbe e21b f93d f05a 48bd 4014 1fbc
00000060: 803c 87bb 060a d33d 9332 0cbe 7f3a b43d
00000070: 3afa 8a3d afbc 853d 5730 243e da82 f03d
00000080: d669 a0bd 311f 12bc 8ae5 df3d 8bcf 433d
00000090: 59b7 06be 901e bd3d 564d f83d 54f9 2abe
000000a0: 6027 373c 0c8b 493d 4a55 d03d 7dd5 2f3e
000000b0: 520b 24be 607d 82bd c011 793c a62e b83d
000000c0: a284 f23d 90a8 dcbc b1ae 80bd e8b4 15bd
000000d0: 4a8d e13d b398 0fbe b20d ac3d d64f 8b3d
000000e0: 154f 213e bf5b e8bd 3f39 80bd 77b3 0bbe
000000f0: 7ff5 40bc e4c8 fabd b2b5 babd 5089 e9bc
00000100: 5ecd c93d dc03 2fbd 60ab 15be ce30 c93d
00000110: 85d0 b3bd 2a13 b4bd 662a 0cbe 1894 a0bc
00000120: 6f69 243e cf59 083e 4f26 263e 49ec 28be
00000130: d223 11be e057 e7bc 203f 04be c8de fbbd
00000140: 8408 383d 66d6 14be 9729 053e dad3 56bd
00000150: 3844 22bd 94db 2ebe c33c 90bd 6081 713c
00000160: a299 f23d fc4e 59ba 20ca dabd 3e87 963d
00000170: ede7 94bd 18a0 88bc aac6 32be aff9 09be
00000180: f559 8bbc 53d9 3f3d 4604 1fbe 410e 4f3d
00000190: a31c 21be 1171 e5ba bc96 9abd c69a 173c
000001a0: b14f b43d 993a 17be dadb 9a3d 485b 03be
000001b0: d00a d1bc 6080 fb3d a03e 9fbb 5d1a d0bd
000001c0: 584b a1bd a114 d4bd 5803 e13d 1cfb 783d
000001d0: 90e8 3bbc e379 45bd c4c4 18bd bdc8 bcbd
000001e0: 30c1 913c e987 34bc 2afd f6bd 447f 153d
000001f0: 1448 ff3d 86da fd3d 52eb 10be c0db 87bb
00000200: 53f2 b7bd effc 05be dc2f 923d 7466 28be
00000210: 7094 363d 57ba d93d 7e96 9d3d ebf4 033d
00000220: 21df afbd a09d b63b 3062 223d 6d3b 163e
00000230: a5e4 29be 2a10 2abd cafd ea3d e868 f83c
00000240: c485 7ebd 0283 cb3d f3ec 153e bd6f 30be
00000250: 8702 063e 3473 0d3e 0c8b 40bd 5c06 893d
00000260: 1b00 0bbe a7de 1abe 9255 a33d ccab 2a3e
00000270: fab9 8b3c 31aa bbbd ba05 2bbe 0656 ed3d
00000280: be6e 103e 8ddc d6bd 6011 88bc f368 2c3e
00000290: e44f 563d 6330 233e 95e3 9dbd f4f6 883d
000002a0: 45e2 ecbc 360a 883d e04d cbbd bfc0 18be
000002b0: 10c2 f1bd db84 2e3e bdb2 26be 088b 033d
000002c0: eb70 a6bd 78e3 da3c 3269 22be 0f35 133e
000002d0: 6ab7 d33d 8502 c33d c514 d7bd e589 afbd
000002e0: 6643 00be 96b8 94bd 8454 4f3d fe57 13be
000002f0: 713a 19be 6959 11be 36c1 903d f49a 94bd
00000300: 73ec 8ebc cb2e 01bd 38e5 ac3c 90b2 83bd
00000310: 3c6b 26be 7a2c ebbd f819 01bd d395 fa3d
00000320: a57e 193e 200a cf3c 2da1 053e d7ee 183e
00000330: b7e4 0f3e 3368 033e 2071 e8bc 20b1 9ebc
00000340: a4a6 00bd 805d 11bb a4fe 94bd 92f3 e93d
00000350: 9b33 b1bd 8da6 173e b61e 81bd dccb 29be
00000360: 4945 263e 7a69 d73c 1d10 013e b5f9 8dbd
00000370: f1bb 2a3e 8130 393b 2e59 0d3e 843a 31be
00000380: 50e0 333e 387e ecbd 7667 0bbe c23f 0a3e
00000390: 8d2e 253e a497 293d c25a ec3d 183c 2d3e
000003a0: 7aae b93d be99 ba3d 11d8 13be d0d8 f9bd
000003b0: 338d 83bd 9991 c83c 30a6 b6bd 1fbb 0d3e
000003c0: c9df 323e f6d0 cf3d 2da6 f4bd 1059 ffbc
000003d0: 8507 1d3e 4831 2b3e e59c 1cbe 89c1 193e
000003e0: 9e24 aebd b39a b1bd 807c 28be a056 29be
000003f0: 4896 ccbd ad70 143e 9855 8cbd 2339 223e

lstm.bias_ih_l0 f4 [128]
-0.04745168 0.0017068243 0.03736642 0.014951694 -0.12176531 0.03608098 -0.08910164 0.14558001
-0.01129763 -0.053384252 -0.055982582 0.14546207 0.112957045 0.18573365 -0.036321357 -0.050966028
0.15060055 0.0313965 -0.078701444 0.066443264 -0.05487252 -0.03926731 -0.041480362 -0.13140836
0.11842889 0.081219174 -0.12032531 -0.016889384 -0.025185019 0.14395294 -0.06483481 -0.08394926
-0.03614347 -0.11491307 -0.0596769 0.10457252 0.0238249 -0.042668972 -0.09830162 0.069367886
0.10846116 0.08880095 0.13749321 0.015932005 -0.07222649 0.050398417 -0.015946507 -0.10801538
0.010845768 0.063859805 0.17099495 -0.064457744 -0.121855706 -0.073111 -0.108264476 0.05548531
-0.17282218 0.16017646 -0.14136629 -0.08908026 0.09320593 0.11359035 -0.00096183945 -0.104518786
-0.14883457 -0.17420538 0.014691845 -0.107859135 0.07898944 0.08961058 -0.119070746 -0.0040632016
0.07080658 0.030811429 0.040173367 0.17464204 -0.06217566 -0.041387662 0.01977788 0.021062315
0.14516701 0.017641425 0.06654422 0.060481086 -0.11236609 -0.07531926 0.17133601 -0.17523073
-0.13714643 0.109329715 -0.1647463 -0.078375466 0.06894021 -0.08635936 -0.008149013 -0.1697712
0.06724862 0.16200447 0.036620665 0.1465267 0.023357097 0.10906863 0.09594167 -0.09570239
0.0542057 -0.1563946 -0.13643014 -0.14196001 -0.043535396 0.19966447 -0.11626009 -0.11768676
-0.15109882 -0.058699902 -0.018481424 0.113848165 -0.10881147 -0.014113694 0.034781337 0.14383398
0.05733101 -0.1030805 -0.04221189 0.094773255 0.06064105 0.12459297 0.0042886348 -0.055708826
00000000: b15c 42bd 85b7 df3a 880d 193d f3f7 743c
00000010: 1760 f9bd a6c9 133d ec7a b6bd ed12 153e
00000020: b219 39bc 72a9 5abd fe4d 65bd 02f4 143e
00000030: 0656 e73d f630 3e3e b4c5 14bd c1c1 50bd
00000040: 0837 1a3e 9e99 003d 392e a1bd 6813 883d
00000050: 02c2 60bd c2d6 20bd 50e7 29bd ea8f 06be
00000060: d98a f23d 3d56 a63d 1e6d f6bd 9b5b 8abc
00000070: d050 cebc 6668 133e 1dc8 84bd 97ed abbd
00000080: 2d0b 14bd 8b57 ebbd c46f 74bd 1e2a d63d
00000090: 702c c33c a9c5 2ebd 5c52 c9bd c010 8e3d
000000a0: e220 de3d 46dd b53d 05cb 0c3e d683 823c
000000b0: 7beb 93bd 926e 4e3d 40a2 82bc 2b37 ddbd
000000c0: 73b2 313c eec8 823d 4d19 2f3e 6c02 84bd
000000d0: 7c8f f9bd 38bb 95bd c4b9 ddbd 9044 633d
000000e0: 4cf8 30be 4c05 243e 53c2 10be b66f b6bd
000000f0: c0e2 be3d 0fa2 e83d f423 7cba f20d d6bd
00000100: 1768 18be e562 32be 10b6 703c 40e5 dcbd
00000110: 37c5 a13d c085 b73d 5ddb f3bd 9b24 85bb
00000120: 0a03 913d 4068 fc3c d48c 243d 5dd5 323e
00000130: e8ab 7ebd 1c86 29bd 3805 a23c e08a ac3c
00000140: a9a6 143e c084 903c 5648 883d 04bb 773d
00000150: 3120 e6bd fc40 9abd b572 2f3e af6f 33be
00000160: 1d70 0cbe 42e8 df3d 41b3 28be 5183 a0bd
00000170: 8630 8d3d 2ddd b0bd 7083 05bc 80d8 2dbe
00000180: a5b9 893d 80e4 253e 8dff 153d 180b 163e
00000190: 6257 bf3c 605f df3d 117d c43d 9dff c3bd
000001a0: cc06 5e3d e825 20be 58b4 0bbe f75d 11be
000001b0: 2c52 32bd d874 4c3e c519 eebd c205 f1bd
000001c0: a6b9 1abe 4f6f 70bd 5b66 97bc 3a29 e93d
000001d0: 8cd8 debd 203d 67bc e076 0e3d 3749 133e
000001e0: ecd3 6a3d df1b d3bd 60e6 2cbd 7b18 c23d
000001f0: c062 783d 992a ff3d ad87 8c3b f02e 64bd

lstm.bias_hh_l0 f4 [128]
-0.08553524 0.12727246 -0.06656458 0.07563083 0.014992545 -0.12381508 0.14079252 -0.07209427
0.061222207 0.016053379 0.13298915 -0.16522297 0.002620697 -0.12864102 0.1540786 0.13421552
0.12598231 0.016564801 -0.095613286 0.10092129 -0.029324774 0.14243706 -0.11653824 0.15108143
0.17165345 0.10075063 0.1282763 -0.012575633 -0.104200624 0.05075023 -0.020649614 -0.09290774
0.07100871 -0.057802983 -0.09110399 -0.0260364 0.03668344 -0.15717846 0.108862355 0.08436377
0.026687734 0.030005962 0.06985845 0.025028478 -0.053750783 0.07037043 -0.12816286 -0.022913065
0.054643586 0.025853036 0.08159838 0.11481337 0.011893228 -0.14886318 0.077708445 -0.12381439
-0.15669334 0.054445907 -0.0142573165 0.14952645 0.113517456 -0.10223489 -0.0056620827 0.018806487
0.07978516 0.074484006 -0.14201307 0.066280454 -0.11135986 -0.037684552 0.0885105 -0.048051074
-0.07243737 0.1434785 0.093441114 -0.122691944 0.14274098 0.022551432 0.10740043 0.12019538
0.016535848 0.07830252 0.06832914 -0.103535056 0.118172035 -0.15507407 -0.007867783 0.033893168
-0.032917827 -0.017592937 -0.10039678 -0.059985027 -0.07565909 0.1390585 -0.11327102 -0.022689253
0.06586642 -0.037883468 0.13792711 -0.10964363 0.13239287 0.10285455 0.0052899006 -0.033081874
0.03299181 -0.1235942 0.012147399 0.13919657 -0.04673563 0.19449455 0.011901151 0.09124364
0.09483267 0.030256873 -0.12963133 0.008583233 0.112848505 0.12005259 -0.026589379 -0.050116494
-0.12982546 0.045996472 -0.14211905 -0.1710605 -0.16430232 0.059879147 -0.03231077 -0.092368454
00000000: 1a2d afbd b653 023e 0353 88bd 56e4 9a3d
00000010: 4ba3 753c c392 fdbd ea2b 103e 29a6 93bd
00000020: 23c4 7a3d 6082 833c 4f2e 083e 3630 29be
00000030: 00c0 2b3b 79ba 03be c8c6 1d3e cb6f 093e
00000040: 8201 013e e8b2 873c e6d0 c3bd d2af ce3d
00000050: 823a f0bc 05db 113e 9aab eebd 17b5 1a3e
00000060: ecc5 2f3e 5956 ce3d dd5a 033e 070a 4ebc
00000070: 2367 d5bd 79df 4f3d 6129 a9bc 6a46 bebd
00000080: 046d 913d d2c2 6cbd bb94 babd 4a4a d5bc
00000090: 6041 163d 64f3 20be 3af3 de3d eac6 ac3d
000000a0: 3ca0 da3c 10cf f53c f211 8f3d 8608 cd3c
000000b0: c829 5cbd 5f1e 903d 203d 03be 2eb4 bbbc
000000c0: f4d1 5f3d bfc9 d33c 0d1d a73d 4623 eb3d
000000d0: d0db 423c 976f 18be 9b25 9f3d 6692 fdbd
000000e0: 3874 20be ac02 5f3d 8597 69bc 761d 193e
000000f0: d77b e83d 8760 d1bd fe88 b9bb 1010 9a3c
00000100: 6766 a33d 128b 983d e06b 11be 0cbe 873d
00000110: a310 e4bd 1e5b 1abd fe44 b53d 34d1 44bd
00000120: 0b5a 94bd 07ec 123e 0e5e bf3d ea45 fbbd
00000130: b12a 123e c8bd b83c c2f4 db3d ff28 f63d
00000140: 3076 873c 125d a03d 26f0 8b3d 300a d4bd
00000150: 2e04 f23d bdcb 1ebe e0e7 00bc 90d3 0a3d
00000160: d8d4 06bd 101f 90bc d49c cdbd dcb2 75bd
00000170: 27f3 9abd 5a65 0e3e a3fa e7bd d0de b9bc
00000180: f9e4 863d b22b 1bbd c43c 0d3e d78c e0bd
00000190: ff91 073e 68a5 d23d e756 ad3b dc80 07bd
000001a0: 6c22 073d f51e fdbd e205 473c 8c89 0e3e
000001b0: dc6d 3fbd 9429 473e 0cfd 423c f2dd ba3d
000001c0: a237 c23d 43dd f73c 13be 04be b0a0 0c3c
000001d0: 1e1d e73d 22de f53d f8d1 d9bc f446 4dbd
000001e0: f7f0 04be cc66 3c3d a887 11be 7c2a 2fbe
000001f0: de3e 28be d643 753d 4c58 04bd ac2b bdbd

fc1.weight f4 [16, 32]
0.023059115 0.035415232 -0.08793487 -0.12637168 0.11530776 0.119561896 0.119403586 -0.102403395
0.009878606 -0.036324367 0.059975147 0.09983046 0.05682622 0.102543816 -0.08647578 0.13411884
-0.06918942 0.07796569 0.063619256 0.07449977 -0.102392815 0.07162973 -0.104744926 0.06729579
0.14823227 0.12165342 -0.12748729 0.05212161 -0.06614297 0.0022019 -0.049298093 0.053428456
0.1442665 0.045342408 0.003545329 0.018773917 -0.13913076 -0.046136983 0.021120744 0.19454841
0.04697602 -0.17667086 -0.010145381 0.1821671 0.10623871 -0.08510991 -0.09252778 -0.14882445
-0.14961714 -0.0017530946 -0.12787358 0.0028671473 0.055057675 -0.17094962 -0.15346824 0.14019851
0.14336002 0.058405824 -0.07871699 0.041892495 0.010986909 -0.039390188 0.19298427 -0.082834594
-0.17671052 -0.16113386 0.05450335 -0.14666878 0.09406255 -0.061213426 0.17415737 -0.115239576
-0.087844186 0.10072158 -0.03169793 0.12417354 -0.10661578 0.095726654 0.09787117 -0.16301996
-0.16720045 -0.17002209 -0.16407329 0.16510455 0.041734383 -0.0757939 0.009070128 -0.016466767
-0.17347425 0.008985817 0.084876254 -0.051128805 0.14884196 -0.082390025 -0.14212248 0.103623495
0.124660894 -0.099212326 -0.14154488 0.20667836 0.039110903 0.017496616 -0.014778266 0.18058026
-0.004003882 0.15853919 0.008968547 -0.0065366966 0.0034426004 -0.05623306 -0.08119666 -0.07098563
0.0069987327 -0.101239614 -0.06315201 -0.046902925 0.14579381 0.009744076 0.060883105 0.15610854
-0.027936002 0.17799509 0.06276058 0.066480584 0.14836249 -0.08699209 -0.091369644 -0.15721424
0.05851846 -0.08552486 0.08572279 -0.016570177 -0.0794672 -0.19073957 -0.06453151 0.20382737
-0.123779334 -0.07110572 0.15985851 -0.13935196 0.15159409 -0.20380025 -0.113617115 0.110262625
-0.11386285 -0.07257036 -0.13565052 -0.037092805 0.11479978 -0.12595607 0.037915975 -0.0030918717
0.07802712 0.10682754 0.1308761 0.003537415 0.07363514 0.044060417 0.14684217 0.13298948
0.16848947 0.03828129 0.043715954 -0.15639313 -0.119814485 0.15074854 -0.06398345 -0.1136655
0.022688106 -0.035571218 0.09036146 -0.037596807 -0.09253446 0.08523403 0.015748039 0.09852414
-0.15644558 0.0942267 -0.0038119555 -0.117837384 0.0145750195 0.0576642 0.05435574 -0.090170756
-0.119859144 -0.050230786 -0.15728791 0.08611591 -0.093519196 0.04162389 -0.12961707 0.15341227
0.08623715 0.00835095 -0.1087072 0.046776567 -0.06536101 0.113339484 -0.0370406 0.0622333
0.04654075 -0.08681081 -0.11401924 -0.022216473 0.07754804 0.118001685 0.00024403632 -0.16185677
0.077852145 0.06603003 0.0801927 0.1472856 -0.045448884 0.07717886 0.17084084 -0.0765667
0.16915195 0.030585667 -0.06725916 -0.118514575 -0.11750354 -0.09650969 -0.040789235 0.13191585
-0.068231404 -0.033067748 0.14797433 -0.13507394 -0.16763128 -0.081413314 0.07946439 0.07172403
0.10379778 -0.16943912 -0.030182645 -0.11812451 -0.021461055 0.079027876 0.0278856 -0.02432473
-0.15809745 -0.1467812 0.040473953 -0.06429331 -0.14338997 0.14736299 0.010712892 0.13711919
0.17254288 -0.06864196 -0.08980254 0.14458342 0.14714907 0.1336263 0.09875201 -0.051108062
00000000: 78e6 bc3c 900f 113d 3217 b4bd 9467 01be
00000010: 7a26 ec3d dedc f43d de89 f43d dfb8 d1bd
00000020: e0d9 213c dcc8 14bd 80a8 753d ea73 cc3d
00000030: 9cc2 683d 7e02 d23d 371a b1bd 7356 093e
00000040: 2fb3 8dbd 7aac 9f3d d04a 823d 5693 983d
00000050: 53b3 d1bd 9cb2 923d 8284 d6bd 60d2 893d
00000060: 33ca 173e 6e25 f93d 078c 02be 787d 553d
00000070: f775 87bd c04d 103b ccec 49bd ccd7 5a3d
00000080: 99ba 133e f6b8 393d c058 683b c2cb 993c
00000090: 4b78 0ebe 22fa 3cbd 6905 ad3c b337 473e
000000a0: ed69 403d 35e9 34be d038 26bc 038a 3a3e
000000b0: ae93 d93d 1b4e aebd 347f bdbd 7065 18be
000000c0: 3c35 19be 18c8 e5ba 4bf1 02be c0e6 3b3b
000000d0: 2884 613d 6b0d 2fbe c726 1dbe 3390 0f3e
000000e0: f8cc 123e f23a 6f3d 6036 a1bd 7797 2b3d
000000f0: 7002 343c 9b57 21bd ab9d 453e 2fa5 a9bd
00000100: 9af3 34be 4600 25be e83e 5f3d 5730 16be
00000110: dea3 c03d eeba 7abd 4f56 323e ba02 ecbd
00000120: a7e7 b3bd 1e47 ce3d b0d5 01bd b24e fe3d
00000130: 6059 dabd 560c c43d ae70 c83d b4ee 26be
00000140: 9836 2bbe 451a 2ebe d402 28be 2b11 293e
00000150: acf1 2a3d d539 9bbd e09a 143c 50e5 86bc
00000160: 3ca3 31be 4039 133c 9ad3 ad3d 706c 51bd
00000170: 076a 183e 1abc a8bd 8e88 11be 8e38 d43d
00000180: 364e ff3d d52f cbbd 24f1 10be 7ea3 533e
00000190: c132 203d 1055 8f3c 8a20 72bc 08ea 383e
000001a0: ff32 83bb 1958 223e d0f0 123c c931 d6bb
000001b0: 409d 613b a354 66bd 6f4a a6bd ea60 91bd
000001c0: a055 e53b b756 cfbd d755 81bd 481d 40bd
000001d0: f94a 153e 9ea5 1f3c 9060 793d ebda 1f3e
000001e0: 0bda e4bc 5844 363e 9e88 803d f926 883d
000001f0: 56ec 173e e928 b2bd 0220 bbbd c5fc 20be
00000200: 0db1 6f3d a827 afbd 6e8f af3d 2ebe 87bc
00000210: b3bf a2bd 3c51 43be 1929 84bd 1fb8 503e
00000220: 0580 fdbd e09f 91bd f3b1 233e 48b2 0ebe
00000230: 7b3b 1b3e 03b1 50be 17b0 e8bd 5fd1 e13d
00000240: ed30 e9bd c59f 94bd f8e7 0abe a0ee 17bd
00000250: 261c eb3d a1fa 00be c84d 1b3d 00a1 4abb
00000260: afcc 9f3d 66c8 da3d 6204 063e fad3 673b
00000270: 05ce 963d b278 343d cb5d 163e 652e 083e
00000280: 8188 2c3e d8cc 1c3d 800f 333d 8525 20be
00000290: 4c61 f5bd d35d 1a3e c109 83bd 75c9 e8bd
000002a0: 68dc b93c 20b3 11bd 6e0f b93d 1cff 19bd
000002b0: b582 bdbd 2e8f ae3d 0802 813c 06c7 c93d
000002c0: 4533 20be eef9 c03d 00d2 79bb ba54 f1bd
000002d0: 10cc 6e3c 4c31 6c3d 20a4 5e3d 72ab b8bd
000002e0: b678 f5bd ccbe 4dbd 1510 21be 8a5d b03d
000002f0: fe86 bfbd d07d 2a3d 56ba 04be 1b18 1d3e
00000300: 1a9d b03d 6cd2 083c e1a1 debd c998 3f3d
00000310: fedb 85bd 881e e83d e2b7 17bd 58e8 7e3d
00000320: 83a1 3e3d dec9 b1bd eb82 e9bd 52ff b5bc
00000330: 82d1 9e3d deaa f13d 00e4 7f39 c8bd 25be
00000340: f270 9f3d c13a 873d 123c a43d 09d2 163e
00000350: 9c28 3abd f30f 9e3d e7f0 2e3e 01cf 9cbd
00000360: 2b36 2d3e cb8e fa3c 2cbf 89bd c5b7 f2bd
00000370: b2a5 f0bd dfa6 c5bd 9d12 27bd f314 073e
00000380: e8bc 8bbd 0c72 07bd 9586 173e d350 0abe
00000390: 89a7 2bbe 06bc a6bd 3abe a23d 0ce4 923d
000003a0: ee93 d43d 7381 2dbe 9841 f7bc 43eb f1bd
000003b0: 18cf afbc 5ed9 a13d 5870 e43c a844 c7bc
000003c0: 4ce4 21be d04d 16be 04c8 253d 36ac 83bd
000003d0: d2d4 12be 53e6 163e 2085 2f3c f968 0c3e
000003e0: 15af 303e 2894 8cbd 65ea b7bd ad0d 143e
000003f0: 3fae 163e 55d5 083e 7e3e ca3d b056 51bd

fc1.bias f4 [16]
-0.09674369 0.15291385 -0.08037058 0.122932754 0.005560185 0.15794678 -0.004959235 -0.04671374
-0.008804738 0.08852791 -0.028292462 -0.066259705 -0.072904676 0.17539564 0.10702689 0.15125725
00000000: 8e21 c6bd 7395 1c3e 5599 a4bd 2bc4 fb3d
00000010: 3632 b63b cdbc 213e 1481 a2bb e856 3fbd
00000020: bf41 10bc 1f4e b53d 98c5 e7bc 2bb3 87bd
00000030: 0c4f 95bd ea9a 333e ea30 db3d 2ee3 1a3e

out.weight f4 [1, 16]
-0.23900232 0.20759249 -0.086262226 0.13399203 0.23609453 -0.08039442 -0.22863992 -0.13399729
0.13881359 -0.10331445 -0.14071673 -0.11636196 -0.122538395 0.031246647 -0.1272113 -0.12324275
00000000: 06bd 74be 2093 543e 40aa b0bd 3535 093e
00000010: c4c2 713e d4a5 a4bd 9520 6abe 9636 09be
00000020: 2625 0e3e 8796 d3bd 0c18 10be 2e4f eebd
00000030: 69f5 fabd f8f8 ff3c ae43 02be b266 fcbd
