artifacts/territory/lstm/328__336__1169/model.pt (torch, 23217 bytes, 7 tensors)

lstm.weight_ih_l0 f4 [128, 1]
000000 57 55 18 3e e0 4d a7 bd 79 a7 c4 3d e0 96 a5 bd
       0.14876305 -0.0816915 0.096022554 -0.08085418
000010 d3 4b d7 3c b8 c8 c9 3d 45 37 7d bd 5d a3 a2 3d
       0.026281273 0.09852737 -0.061820287 0.07941315
000020 78 b1 19 bd d3 e1 03 bd ff 5b 19 3e da 86 38 3e
       -0.037522763 -0.032197785 0.149765 0.18020192
000030 f3 c6 2f 3e 6d 2e c3 bc de 6f e4 bc 03 06 29 3e
       0.17165737 -0.023825848 -0.027885374 0.165062
000040 8b 1e 1c 3e f3 34 0e bd 52 10 00 be 22 f5 d8 3d
       0.15246026 -0.034718465 -0.12506226 0.105936304
000050 a9 b9 b7 bd ec 4f 77 3d 47 76 1b 3e de d4 55 3c
       -0.08970959 0.060378954 0.15181838 0.01305124
000060 2e 82 f5 bd d0 62 74 3d 95 33 33 3d 38 5b 25 be
       -0.119877204 0.059664547 0.043750364 -0.16148078
000070 92 54 91 bc 32 27 3b 3e d4 aa ca 3d 2b e1 25 3d
       -0.017740522 0.1827667 0.09895864 0.04049794
000080 28 f6 d9 bc f2 94 c3 3d 58 d2 e7 3d 5a 27 d1 3d
       -0.026606634 0.095498934 0.11319417 0.10212584
000090 e0 a8 1b 3e 04 5a 51 3e aa e5 b4 3b 29 68 88 3d
       0.1520114 0.20444494 0.005520542 0.06660492
0000a0 d5 22 06 3d 06 ad 2c bc e7 ce 7a 3c 66 9b 75 bc
       0.032748062 -0.010539299 0.015308118 -0.014990663
0000b0 2d a9 45 3c f2 a3 cd 3d 10 db da 3d 95 8e 9a 3c
       0.01206426 0.10041036 0.10686314 0.018866817
0000c0 54 a2 bf 3d 07 54 62 3e c8 03 cb bd 1c eb a1 bd
       0.093571335 0.22102366 -0.099128306 -0.07906172
0000d0 64 e3 01 3e c5 6f 4a 3e f3 4e c5 3d 54 14 dd bd
       0.12684399 0.19769199 0.09634199 -0.10794893
0000e0 e2 df 19 bc 55 7f e8 bd 38 40 98 3b 9c 2b 73 3d
       -0.009391757 -0.11352412 0.0046463273 0.05936776
0000f0 1a ba bf bd 27 f3 18 bb e3 69 a5 3d 7b e9 14 bd
       -0.09361668 -0.002333829 0.08076837 -0.036355477
000100 bf 04 fa 3d 5c 77 bd bd cf dc d1 3d 17 b7 ca bd
       0.122079365 -0.092512816 0.10247194 -0.09898203
000110 49 bf 2c 3e b9 10 1b 3e df e4 33 3e f0 5f 0d 3e
       0.16869844 0.15143098 0.17567776 0.13806129
000120 1f 31 a2 3d 24 b6 01 be 7b fc aa 3d 4b 38 03 3e
       0.07919525 -0.12667137 0.08348938 0.12814443
000130 9c bd 2a 3e 9c 34 1c bd 93 e2 32 be 17 bb 31 3e
       0.16673893 -0.03813611 -0.17469244 0.17356525
000140 6e 63 7a bd 7f 13 3a 3e ab cc 43 3d cb a8 01 be
       -0.06112998 0.181715 0.04780261 -0.12662046
000150 f4 66 1d 3e 75 19 9a 3d dd 61 4a 3d c5 d4 a8 3c
       0.15371305 0.07524387 0.049409736 0.020609269
000160 c7 e4 45 3d 6d 9f e6 bd 67 c1 37 3e 06 08 24 be
       0.048313882 -0.11260877 0.17944871 -0.16018686
000170 fb e5 a7 3c 1d 07 2c 3e 20 18 85 bd 73 d1 14 3e
       0.020495405 0.16799589 -0.06498742 0.14533024
000180 6d 57 11 3e 2e eb 52 3d 44 31 73 3b ba 0b a3 bd
       0.14193507 0.051493816 0.0037108222 -0.07961221
000190 a0 c0 23 be 7f 5e 93 3d 83 d8 40 bd db df f9 3d
       -0.1599145 0.07195758 -0.04708148 0.122009
0001a0 51 9c e0 3c 55 73 38 be 67 c7 37 bd 9e a6 0a 3e
       0.027418287 -0.18012746 -0.0448679 0.13540122
0001b0 da 55 bb 3c b0 d8 6c 3d d4 09 c4 bc 0b be 57 3e
       0.022868086 0.057823837 -0.023930468 0.2106859
0001c0 8f 08 26 3e b6 de ec 3d eb c8 76 bd 8c 8e 17 be
       0.16214202 0.11565916 -0.060250204 -0.14800471
0001d0 f2 12 85 bd 6a b5 23 3d c5 3d 7b bc e7 db 22 be
       -0.06497754 0.03996793 -0.015334551 -0.15904199
0001e0 d9 54 6f bc a2 51 74 3c 38 66 c4 bd 3a e4 96 3c
       -0.014607632 0.014912041 -0.09589809 0.018419374
0001f0 b2 41 be 3d 42 4d 2e bd e7 95 9b bd 30 ee 07 bb
       0.09289874 -0.042554148 -0.07596951 -0.0020741336

lstm.weight_hh_l0 f4 [128, 32]
000000 92 3f 35 bd b8 d3 c6 3d 3f 35 28 be b2 0a 8f 3d
       -0.04425008 0.09708351 -0.16426562 0.06984462
000010 16 83 b2 bd 19 02 81 3d 91 0d 37 bd 62 a3 0b be
       -0.08716409 0.06299228 -0.044690672 -0.13636544
000020 80 1a b0 3a dc dc 30 bd 0c b7 f1 bb d3 49 14 be
       0.0013435632 -0.043179378 -0.007376557 -0.14481287
000030 7a b9 e1 3d 63 12 85 3c 1f 7e 17 3e 40 b5 37 3d
       0.11021705 0.016244119 0.14794205 0.044850588
000040 9c 0d 2b be f2 e5 1f bd a8 9c 91 bd 19 1f a9 bd
       -0.1670441 -0.039037652 -0.07109958 -0.082578845
000050 01 3e 25 be 23 c7 f7 bd 78 e0 e6 bd 52 29 bc 3d
       -0.16136934 -0.12098529 -0.11273283 0.09187569
000060 9a 90 26 3e 8a 13 25 3e 80 62 38 3c 04 8b d2 bd
       0.16266099 0.16120735 0.011253953 -0.102804214
000070 8c 9d da bc 02 74 f8 3d d0 7e d8 bc 41 31 c4 bd
       -0.026686452 0.12131502 -0.026427656 -0.09579707
000080 cd 48 af bd cb 02 f0 bc 91 4e 29 be 59 f3 f0 3d
       -0.085588075 -0.029298207 -0.16533877 0.11765165
000090 42 71 1b be 62 40 9d bd ac 86 a3 3d 7f 3d db bd
       -0.15179923 -0.07678296 0.07984671 -0.10705089
0000a0 ee e8 d9 3d 07 89 08 3e 81 a6 26 be 8f e7 1b be
       0.10640131 0.13333522 -0.16274454 -0.15225051
0000b0 38 b3 9c 3c 2f 9e 57 bd 94 b4 5d ba 7b b5 f9 bd
       0.019128427 -0.05264109 -0.0008457389 -0.12192818
0000c0 fa 55 bf 3c 52 8f 38 be fa 25 0c 3e 6e 74 1e be
       0.023356427 -0.18023422 0.13686362 -0.15474102
0000d0 f6 23 20 be 3b fd 44 3d 05 bd 1f be f9 17 d1 3d
       -0.15638718 0.048093062 -0.15599449 0.102096505
0000e0 5d d9 c7 bc 1b 2d 57 3e d1 6d d9 bd e1 7a e2 bd
       -0.02439564 0.210133 -0.10616649 -0.110585935
0000f0 fb 67 00 3e 39 d9 9a 3d e0 4e f7 3d 50 d8 ee 3d
       0.12539665 0.07560963 0.12075591 0.11662352
000100 5b 34 3a 3e 59 3f 0c be 49 b4 62 bd 7c 3d 3a bd
       0.18184035 -0.1369604 -0.055347715 -0.045468792
000110 56 90 b0 3d 90 77 66 bd ca 2c 1c be 98 f9 38 3e
       0.0862128 -0.056266367 -0.1525146 0.18063962
000120 99 85 b6 3d 43 d9 32 3e e3 92 ab bd 90 04 20 3e
       0.089122005 0.17465691 -0.08377626 0.1562674
000130 46 33 98 3d fe d6 34 bd 63 41 1d 3e 72 75 11 3e
       0.07431655 -0.044150345 0.15356974 0.14204958
000140 48 87 b2 bd 6f e9 4f 3d c5 c2 0e 3e 74 2d 93 bd
       -0.08717209 0.05075973 0.13941486 -0.07186404
000150 96 80 ae bd bb bd 30 3c 90 39 10 3d b8 c1 24 3d
       -0.085206196 0.010787423 0.035211146 0.040223807
000160 ca 81 be bd 54 d2 06 3e 10 60 13 3d fb dd b9 bd
       -0.09302099 0.13166171 0.035980284 -0.090755425
000170 0a 58 a2 3d 0e 5f b5 3d d9 43 11 3e db f7 b7 3d
       0.07926948 0.08856021 0.14186038 0.089828216
000180 17 05 e6 3c 9e 7c 99 bd 18 8e 9b 3d 91 fa 01 3e
       0.028078599 -0.07494472 0.075954616 0.1269324
000190 04 42 db 3d f9 b0 d4 bb ff 6b 2b 3e 66 e7 97 3d
       0.10705951 -0.0064908233 0.16740416 0.074171826
0001a0 cb b9 26 3e 27 c3 d6 bd c8 d7 2a bd ac bf 95 3d
       0.16281812 -0.10486441 -0.04170969 0.07311949
0001b0 d2 5d a7 bc 9a 2a cc bd 66 55 19 be f1 43 50 3c
       -0.02043048 -0.09969063 -0.14973983 0.012711511
0001c0 8d e4 de 3d 1c 80 33 3e 6a e3 79 bc fb 05 d7 3c
       0.10883436 0.17529339 -0.015251974 0.026247969
0001d0 85 16 d5 3d 78 34 03 be 30 3f fa bc e9 b2 14 be
       0.10404686 -0.12812984 -0.030547708 -0.14521374
0001e0 b6 1b a3 bc c1 9b 0d 3d 9b 8f 10 3e 17 85 3b be
       -0.019910675 0.034572367 0.14117281 -0.18312488
0001f0 82 8b a5 3b ce 1e f3 bd 1e 6d 58 bd 4f 29 34 3e
       0.005052031 -0.1187111 -0.052838437 0.17593883
000200 52 41 12 3e 4d f5 c3 3d 32 70 04 be 90 cb ff bc
       0.1428273 0.09568272 -0.12933424 -0.031224996
000210 96 fe 23 be 27 94 05 3e 04 b8 51 bd 4d a5 33 3e
       -0.16015086 0.13044797 -0.05120088 0.17543526
000220 0f 21 bd bc 9c ff f2 bd 24 31 1c 3d e8 74 86 bd
       -0.023087053 -0.1186516 0.0381328 -0.06565267
000230 9f e2 6c bd 39 b4 01 3e 6e 94 07 be be 0c 2f 3e
       -0.05783331 0.12666406 -0.13240215 0.17094705
000240 cf b3 22 3e c9 77 bb bd 0c fc 6a bd 48 26 77 bd
       0.15888904 -0.091537066 -0.057369277 -0.060339242
000250 9d b9 02 be 9c a4 a1 3c 2e d4 ec bc 0c 66 ae bd
       -0.12766118 0.019731812 -0.028909769 -0.08515558
000260 05 01 94 bc 93 6c 35 3d 9c 29 47 3d 00 82 ee 3b
       -0.018066892 0.044292998 0.048623666 0.007278681
000270 70 2c 5a 3d 25 62 0f 3e 4c 38 19 be 7d 15 81 3c
       0.053265035 0.14002283 -0.14962882 0.015757317
000280 19 d0 1d 3e 1e 03 30 3e fa f5 12 3e e6 86 f5 3d
       0.15411414 0.17188689 0.14351645 0.119886205
000290 96 de ca 3d 23 7c 89 3d 2e 56 e6 3d 9f bb 45 3e
       0.09905736 0.0671313 0.11246906 0.19309853
0002a0 8d 15 d9 3d c9 78 ed 3d 51 90 32 3e e8 58 5a 3c
       0.105998136 0.115953036 0.17437865 0.013326861
0002b0 04 24 43 3d 4b 53 be bd eb 46 f6 bc ce 36 93 bc
       0.04764177 -0.092932306 -0.030063113 -0.017970469
0002c0 77 5e d7 3d e2 a5 1d bd a8 b4 ee bc 68 e9 2d be
       0.105160646 -0.038488276 -0.029138878 -0.16983569
0002d0 ce 6e d0 3d 94 77 8c 3d 0e cb 3f 3c d7 e5 1b be
       0.10177384 0.06858745 0.011706127 -0.15224396
0002e0 d1 90 95 bd 80 64 1f be bf 54 2b be bb 2b a3 3d
       -0.07303012 -0.15565681 -0.16731547 0.07967325
0002f0 52 54 ca 3d 8c d9 f3 3d 04 d0 85 3d 52 6b 37 3e
       0.09879364 0.11906728 0.065338165 0.17912033
000300 d1 e1 d2 3d 5a 94 94 3d 30 96 2e 3d 8d 72 8d 3d
       0.10296977 0.07254858 0.0426237 0.069066145
000310 68 17 4c bd c7 e8 05 be 12 5f 93 3d 46 7f 23 3e
       -0.04982701 -0.13077079 0.071958676 0.1596652
000320 5c c4 2f 3e 11 45 55 3d cd fa b3 bd 60 dd 59 3d
       0.17164749 0.05206782 -0.08788071 0.053189635
000330 3f 54 23 3d 02 59 1f 3d 1d ac 60 3d db 0d df 3c
       0.039875265 0.038903244 0.05485164 0.027228286
000340 09 7e e4 bd 08 4e c6 3c 4c aa 1f 3e 50 41 2f 3e
       -0.11156852 0.02420713 0.15592307 0.17114758
000350 71 c3 1b be 49 66 17 3e 14 e3 9c bc 1e cc cc 3d
       -0.15211274 0.14785112 -0.019151248 0.0999987
000360 26 d4 ab 3d 86 74 9d 3d 5b 86 0e be c9 f1 29 be
       0.083900735 0.07688241 -0.1391844 -0.1659614
000370 21 31 97 3b 0b c8 da bd b5 e2 25 3e 8f 85 b7 3d
       0.004614011 -0.106826864 0.16199763 0.08961021
000380 c0 7f 3a 3e 0d 13 19 3e e1 da 2d 3d 00 ae 28 3e
       0.18212795 0.14948674 0.042445067 0.16472626
000390 13 3b 7d bd c3 a6 7e bd 1b 96 33 3b 7e f8 bf bd
       -0.061823916 -0.062170755 0.0027402702 -0.09373568
0003a0 54 77 c8 3d 18 88 da bd 17 be e8 3b e3 d1 38 3e
       0.09788385 -0.10670489 0.0071027386 0.18048815
0003b0 c4 61 5d 3d ab 82 d6 bd 0b 2e 32 3d 15 6a d9 3c
       0.054048315 -0.10474142 0.04350094 0.026539842
0003c0 1f 4b 56 bd 09 ab 11 be 90 52 92 3d fe f9 11 be
       -0.052317735 -0.14225401 0.07144654 -0.1425552
0003d0 35 d0 10 3e 62 68 8b bd dd f8 d4 bd 03 09 4c 3d
       0.14141925 -0.06807019 -0.103990294 0.04981328
0003e0 64 76 38 3d 09 aa ea bd 7e 49 fc 3d e2 12 23 3e
       0.04503478 -0.11458213 0.12318705 0.15925172
0003f0 42 37 1e 3e d5 d2 95 bc 87 0a c2 3c 55 3d a2 bd
       0.15450767 -0.01828901 0.02368666 -0.079218544

lstm.bias_ih_l0 f4 [128]
000000 16 68 90 3c 20 95 a1 3b 8f b9 1e bd a2 36 1a 3e
       0.017627757 0.004931107 -0.03875118 0.15059903
000010 8a 30 b5 3d 8a d3 df bd f3 29 41 3d 90 af 4a bd
       0.08847149 -0.1092902 0.047159147 -0.049483836
000020 71 fe 99 3d 8a 6c 13 be ef b4 1a 3e aa 56 26 3e
       0.07519234 -0.14396873 0.15108083 0.16243997
000030 ec cf cb 3d e3 ea 3e bd a1 08 3a 3e 8d 63 59 bd
       0.09951767 -0.046610724 0.18167354 -0.053073455
000040 3d de 25 bd 21 e7 92 bd 04 6a eb 3b 7e d2 96 3d
       -0.040495146 -0.071729906 0.007184269 0.07364367
000050 8b 56 0a 3e d5 ff af 3d cc 31 20 be 93 ce 93 bd
       0.13509576 0.08593718 -0.15643996 -0.07217135
000060 50 da 2c be cb 9b 04 be 79 14 fb 3a b0 37 17 3d
       -0.16880155 -0.12950055 0.0019155882 0.036918342
000070 54 90 8b bc 29 d9 80 3d 64 15 34 be 03 94 0c 3e
       -0.017036594 0.0629142 -0.17586285 0.13728337
000080 3b 93 1b 3e a8 f5 e7 bd 49 11 1c 3d fd 5a 0a 3d
       0.15192883 -0.11326152 0.038102422 0.03377818
000090 a3 44 38 bc 17 1c 1a be 44 3c 87 bd 03 2e c5 3c
       -0.011246833 -0.15049778 -0.06603292 0.024069792
0000a0 31 83 9c bd af 3f d6 3d fa 98 51 bc 45 44 36 3e
       -0.0764221 0.104613654 -0.01279282 0.1779948
0000b0 c0 af bd bd 80 91 50 3e 35 14 c5 3c be 32 84 3b
       -0.09262037 0.20368004 0.024057487 0.0040343693
0000c0 66 a8 b6 3d fc 23 35 bd 96 69 97 3d 09 92 0c be
       0.08918838 -0.04422377 0.07393186 -0.13727583
0000d0 5c c7 2a bd cf 54 1e bd d0 a6 58 bd 2f 7d 42 3c
       -0.04169403 -0.0386551 -0.05289346 0.011870666
0000e0 81 01 13 bd 1f 13 a2 bd 7d a6 12 3d 1e 71 85 bd
       -0.035890106 -0.07913803 0.035803307 -0.06515716
0000f0 ed b4 c5 bd fe dc ec 3d b4 5f 23 3d 3e f9 ed bd
       -0.096536495 0.115655884 0.03988619 -0.11619805
000100 59 fc b5 bd 74 2e 36 3a 58 45 4f bd 4c 4e 11 be
       -0.08886022 0.0006949671 -0.05060324 -0.14190024
000110 16 68 9c 3d 40 8b 29 be e9 b5 13 3e 06 aa f2 3d
       0.0763704 -0.16557026 0.14424862 0.11848836
000120 45 29 5f 3e eb 8a a1 3d f0 0a d4 3d b4 db 82 bc
       0.21793087 0.078878246 0.10353649 -0.015973903
000130 ef 98 72 bc 3c 1a 3a be 39 b2 f2 bd 60 36 ba bd
       -0.01480697 -0.1817407 -0.118503995 -0.090924025
000140 7a 17 a1 bc 00 e1 e1 bc f5 98 3d 3c 9f 39 b8 3d
       -0.019664515 -0.027573109 0.011572112 0.08995365
000150 e6 5a 19 bb 70 d8 2b 3e 3d 71 15 3e a5 04 1c be
       -0.0023400127 0.16781783 0.14593978 -0.15236147
000160 2d 7c e8 3d 3e fc 01 3e fd cf 1c be a8 76 d9 bd
       0.1135181 0.12693879 -0.15313716 -0.10618335
000170 15 6d 25 be 14 df d7 3d 06 52 ec 3d 4b 01 1d 3e
       -0.16154893 0.10540596 0.11539082 0.15332524
000180 ee 7b be 3b a8 67 71 3b 80 71 d8 bd 6f eb 06 3e
       0.0058131134 0.0036835466 -0.105685234 0.13175748
000190 36 ce 27 be 4f ea 10 3d 4b 88 10 3e f0 08 13 be
       -0.16387257 0.035379704 0.14114492 -0.14358878
0001a0 34 bd 6b 3e 47 32 5b 3d 4c af 29 be 4e 33 ef bd
       0.23021394 0.053514745 -0.16570777 -0.116797075
0001b0 28 ff 54 3c 26 b8 9d bc 1b 55 46 3e fe da 1a bc
       0.013000287 -0.019252848 0.19368403 -0.009451626
0001c0 ce 91 3b 3e 56 0e f1 bd 6e 97 50 3e e8 72 06 3e
       0.18317339 -0.117703125 0.20370266 0.13129771
0001d0 6f ea 5f 3e 0a 56 5e 3a 32 46 90 3c 22 6d 43 be
       0.21866773 0.0008481449 0.017611597 -0.190846
0001e0 b0 c6 1b 3c cd de ba 3d 5d d7 c5 bc 4b 4c de bd
       0.00950782 0.09124527 -0.024150545 -0.108543955
0001f0 37 4c 16 be 7f 3d 19 3e 9a 31 17 bd d4 88 3d 3e
       -0.14677511 0.14964865 -0.036912538 0.18509227

lstm.bias_hh_l0 f4 [128]
000000 26 b3 0e be be 8c 93 bd 6c de 3f 3e d2 54 bc bd
       -0.13935527 -0.07204579 0.18737191 -0.09195866
000010 49 ef c1 bd 6a ea 4e 3e 75 2d ec 3d 6c c4 25 bd
       -0.09469468 0.2020661 0.11532108 -0.040470526
000020 58 5a 95 bd 73 0d a8 bd 16 66 e4 bc e1 28 e2 3d
       -0.07292622 -0.0820569 -0.02788071 0.11042953
000030 98 00 40 3e 47 21 9a 3d 0a 20 70 3d b9 43 10 be
       0.18750226 0.075258784 0.058624305 -0.14088334
000040 a8 15 f0 3d 1d 09 64 3e 55 b9 42 3e da 68 fa 3d
       0.117228806 0.22269101 0.19016011 0.1222703
000050 80 d6 3d bc d0 e2 18 bd cd 30 2a be ec 2b 03 be
       -0.011586785 -0.03732568 -0.16620179 -0.12809724
000060 a4 63 18 3c d9 1b 1e be 31 b3 5b 3e ab ce 1c be
       0.0093011 -0.1544031 0.21455075 -0.15313213
000070 64 a1 9e bd d8 20 df 3c 3c 39 30 3e 4e 72 1d 3e
       -0.077456266 0.02723734 0.17209333 0.15375635
000080 28 2d cf 3d d4 d5 c7 3d e4 7d 14 be f8 d8 39 3d
       0.10116035 0.09757581 -0.14501148 0.045372933
000090 41 1b 61 bd e7 07 2d bc f8 48 28 3e 58 e3 90 bd
       -0.054957632 -0.010560966 0.16434085 -0.070746124
0000a0 d9 43 01 3e 93 2a f3 3d bc d4 ce 3d 76 32 0d bd
       0.12623538 0.11873355 0.100991696 -0.03447195
0000b0 89 e3 0c be 69 c3 ac 3d ed 80 4d 3e 46 84 30 3d
       -0.13758673 0.08435709 0.20068713 0.043094896
0000c0 39 9a 14 3e ae f1 e7 3c 8c b7 69 3d 5a e1 c7 bd
       0.14511956 0.028313484 0.05705981 -0.09759779
0000d0 f4 32 4a 3e dc dc b2 3c d7 56 13 be 1b c5 df bc
       0.19746 0.02183383 -0.14388596 -0.027315667
0000e0 1f 88 3e bc a8 34 d4 bd c6 b9 1d 3e cb e3 4d bd
       -0.0116291335 -0.10361606 0.15402898 -0.05026607
0000f0 f3 9c cb 3d 1c 5e ea 3d 50 61 23 bc 0b e7 b3 bc
       0.09942045 0.11443731 -0.009971932 -0.021960756
000100 d1 c6 1c 3e 63 5a a1 bd 79 63 18 be 28 21 36 be
       0.15310217 -0.07878568 -0.14881696 -0.17786086
000110 4e 10 2f bc 18 97 c9 3d f8 3e f7 bc e4 52 f7 bd
       -0.01068504 0.09843272 -0.030181393 -0.12076357
000120 87 b3 38 3e 49 3f 02 bd 98 33 07 3e 3d f8 ee 3d
       0.18037234 -0.031798635 0.13203275 0.116684414
000130 32 26 63 bd 04 46 dd 3c e2 68 8b bd d1 30 2e 3e
       -0.055456348 0.027010925 -0.06807114 0.1701081
000140 9f 75 d7 bc 1e 82 47 bd 58 b7 f5 bd 5f 4b b5 3d
       -0.026301203 -0.048708074 -0.11997861 0.088522665
000150 aa 73 38 bd a4 0e 0b 3e 2d a5 05 be e7 51 f8 bd
       -0.04503218 0.13579804 -0.13051291 -0.12124997
000160 90 dd d6 bd da 61 1e be 99 71 18 bb ce be b3 3d
       -0.104914784 -0.15467015 -0.002326107 0.087766275
000170 13 f8 c1 3d 28 3f cd 3d 70 43 8e 3d 98 a9 41 3d
       0.094711445 0.10021812 0.069464564 0.047280878
000180 e5 b5 78 3d 67 88 ee 3d 50 bd 0f bd 56 a5 0b 3c
       0.060720343 0.116471104 -0.03509265 0.008523306
000190 1a 5b b9 3d 52 38 1c bd dc cc bf 3d 84 ce 76 bd
       0.09050579 -0.03813965 0.09365246 -0.060255542
0001a0 5c da f3 3d 08 92 ba bd fd 10 06 3e f3 b4 64 bd
       0.11906883 -0.091098845 0.13092418 -0.05583663
0001b0 9d 80 fe 3d aa 22 80 bd 03 e5 90 bd c6 34 4e 3b
       0.12426875 -0.06256612 -0.070749305 0.003146456
0001c0 ee d6 33 3e 97 40 22 3e 19 28 58 bd ab 68 f2 3c
       0.17562458 0.15844952 -0.052772615 0.029590925
0001d0 14 10 0c bd 93 5f 23 3e 5e d0 c4 3d 6c ac e6 3c
       -0.03419502 0.15954427 0.096100554 0.028158389
0001e0 ea 9b 7b bd 12 f4 30 3d c1 73 c6 bd 78 37 68 3d
       -0.061427988 0.043201514 -0.09690047 0.056693524
0001f0 84 48 17 be fa 28 8b bc d9 d1 59 3e 68 7a 55 3e
       -0.14773756 -0.016987313 0.21271457 0.20847476

fc1.weight f4 [16, 32]
000000 71 3a 0f be 68 bf bb bd 50 b3 90 bd 47 45 24 3e
       -0.13987137 -0.09167367 -0.07065451 0.16042052
000010 74 a9 62 3d 86 d0 95 3d ae a6 9b 3d 6c a6 36 3d
       0.055337384 0.07315163 0.07600151 0.044592306
000020 80 3d 73 bc 80 39 91 3d 1b 67 10 be 7d 14 d4 bd
       -0.014846206 0.070910454 -0.14101832 -0.1035547
000030 18 f3 2d bd d0 5c 12 3d 20 4e a2 3b 41 21 0d 3e
       -0.04246816 0.035733044 0.004953161 0.13782217
000040 2c 70 6b 3d 22 70 a5 3d 09 ff 11 be 94 54 89 3d
       0.057480022 0.08078028 -0.14257444 0.06705585
000050 1a 7b d9 3d f9 4f 2a be 30 3d 72 bc a0 fc a4 bd
       0.10619183 -0.1663207 -0.014785096 -0.08055997
000060 b6 e3 c8 3d 3f a4 1d be 31 87 02 3e b3 5a 1f 3e
       0.098090574 -0.15394686 0.12746884 0.15561943
000070 28 c0 f6 bc a8 9d 60 bd 64 a5 3e 3d a4 fb 9a bd
       -0.030120924 -0.054837853 0.046544448 -0.07567528
000080 89 3e b8 bd 23 0e 33 3e d2 5c 0d 3e e1 98 01 be
       -0.08996303 0.17485861 0.1380494 -0.12655975
000090 f9 7c 8b 3d c5 a8 ed bc 7f 20 9a 3d ed 73 0e 3e
       0.06810946 -0.02901114 0.075257294 0.1391141
0000a0 e6 ab de bd 4a dc 48 bd 6e 4b e7 3c 96 5e 1c be
       -0.10872631 -0.04903821 0.02823421 -0.15270457
0000b0 20 c8 76 bd 64 24 4b bd 10 ed a7 bd cd 09 62 3d
       -0.060249448 -0.04959525 -0.08199513 0.055185128
0000c0 2e 59 f3 3c e1 20 81 3d 4b 86 df 3d 3e 6f 90 3c
       0.02970561 0.06305099 0.10914286 0.01763117
0000d0 7b 41 c8 bb 2a 74 15 3e 17 b2 97 3d ae 06 2a be
       -0.0061113215 0.14595094 0.07407015 -0.1660411
0000e0 d0 ae 88 3d 29 91 d2 3d 9f 62 3c be 6e 95 2c 3e
       0.06673968 0.10281593 -0.18396996 0.16853878
0000f0 5c eb 5a bd 26 4a 98 3d 3c 55 c2 3d 56 3e 5e 3d
       -0.053447112 0.07436018 0.094889134 0.054258667
000100 8e 82 db 3d e3 bb 87 bb 08 7c 31 3d 53 77 5d be
       0.10718261 -0.004142271 0.043331176 -0.2162755
000110 79 11 04 3e ab 1a 69 bc b5 90 4b 3e 6f 92 5e bd
       0.1289729 -0.01422755 0.1987942 -0.05433887
000120 5a e1 ce bd 17 a0 8d 3d 7b f5 59 3e e0 be 18 3e
       -0.10101576 0.069153 0.2128505 0.14916563
000130 bb f4 2d 3e 47 9e 4c be 11 0d 25 3d cf ac 80 3d
       0.16987889 -0.19982253 0.040295664 0.062829606
000140 fe 5b 8d 3c d9 a9 71 3b 77 fd 1e 3e cd 10 cf 3d
       0.01725578 0.0036874919 0.15526377 0.10110626
000150 c1 3d bf 3d 8e be 05 3d 12 ff 83 3c c8 f9 de bc
       0.093379505 0.03265243 0.016112838 -0.027218714
000160 25 e7 3b bd 0d f7 c5 bd 2a e6 1c 3e f2 b6 a4 bc
       -0.045874733 -0.09666262 0.15322176 -0.020106766
000170 e3 c1 c5 3d 28 89 ad 3c f8 c1 08 3d 6b 18 c0 3d
       0.096561216 0.021183565 0.033388108 0.09379657
000180 9b fa 62 3e 5d 72 e9 3d 09 b8 97 3d a3 a9 14 bd
       0.22165911 0.11398766 0.07408149 -0.03629459
000190 9c 15 ee bd 9f 0f f1 3d da ad 4f 3d 2a 2e 9a 3d
       -0.116252154 0.117705576 0.050702907 0.07528336
0001a0 73 af 9f 3d d1 ed 5c bc c8 c5 4f bd d3 06 6c bd
       0.07797136 -0.013484434 -0.05072573 -0.057623696
0001b0 6e a2 98 3d f5 d7 f8 3d bd 52 36 be a3 7a 4f 3e
       0.07452856 0.121505655 -0.17805 0.20261626
0001c0 11 c0 21 be d6 10 ec 3d 23 6b ef 3d 66 26 16 3d
       -0.15795924 0.11526649 0.116903566 0.036657713
0001d0 49 ec f0 3d 42 dc 45 3e 3f d6 c0 bd 81 68 a3 bc
       0.11763818 0.19322303 -0.09415864 -0.019947292
0001e0 6a 9c a7 bc 9b c9 af 3d 79 a2 c8 bb e6 dc 5c be
       -0.020460326 0.08583375 -0.006122884 -0.21568641
0001f0 0f a3 bf bd cd a6 a1 bb 8a bb 39 bd 32 bc 85 3d
       -0.09357273 -0.0049332143 -0.045344867 0.06530036
000200 a6 a0 ae 3d 3f 4a 09 3e 09 fb 97 bd 80 ce e8 3a
       0.08526735 0.13407229 -0.07420928 0.0017761737
000210 c9 15 8b bd d8 b6 eb bc 24 4f fe bd b8 67 93 bc
       -0.067912646 -0.02877371 -0.124174386 -0.017993793
000220 1a 18 7d bd 80 bd 28 bc 7b 6e 1f 3e bc e2 10 3d
       -0.061790563 -0.010299087 0.15569489 0.03537248
000230 fe c0 e5 3d ad 6a 29 3e 8a 33 f6 3d bc 19 d2 bd
       0.11218451 0.165446 0.12021549 -0.10258815
000240 b7 41 28 3e c0 a4 76 bb 0e 8c ee 3d 32 8d 02 be
       0.16431318 -0.003763482 0.11647807 -0.12749174
000250 a8 ab 46 3d be f4 9a 3d 57 4a 9f bd 42 af b1 3d
       0.048503548 0.07566212 -0.07777851 0.08676006
000260 ab d9 2e 3e 40 4e 88 3c 03 b6 b5 bd 5f 76 0a 3e
       0.17075221 0.016638875 -0.088726066 0.13521717
000270 a8 81 ee 3c f9 2c 10 3e b8 57 ce 3c 51 2d 33 3e
       0.02911456 0.14079656 0.025188312 0.17497756
000280 92 1b e2 3b ce 74 89 3c f9 10 1d 3e c9 2b a3 bd
       0.0069002593 0.01677933 0.15338506 -0.07967336
000290 91 33 fd bd 76 21 9e 3c 7f 07 e8 bd 68 13 53 3d
       -0.12363351 0.019303065 -0.11329555 0.05153218
0002a0 05 98 63 3e 6e da 96 bd e9 d3 0c bd 1f 07 24 bd
       0.2222596 -0.07365881 -0.03438178 -0.040045854
0002b0 aa bb b4 3c 8c 5d 4a be c9 71 2b bd 74 da 50 3e
       0.022062141 -0.19762248 -0.04185656 0.20395833
0002c0 2d 41 65 be 15 8d 8c bd 6d 17 16 3e 3d 84 a1 bd
       -0.22388144 -0.06862847 0.14657374 -0.078865506
0002d0 d2 8f 6b 3e cd 1c c3 bd 8f 3c 3d 3e e0 11 28 bd
       0.23004082 -0.09526978 0.18480133 -0.041032672
0002e0 04 0e 08 3e 66 44 9e bd 62 7a 47 3e 30 22 24 bd
       0.13286597 -0.0772789 0.19480279 -0.040071666
0002f0 15 5e ec bd 57 0c 5c 3e c9 90 39 be ff 90 19 3e
       -0.11541382 0.21489082 -0.18121637 0.14996718
000300 a3 36 bb 3d de 5c aa bd b3 d1 57 3e 43 ef fc bc
       0.091412805 -0.08318494 0.21076088 -0.030875808
000310 94 d8 18 39 c9 b6 41 3d 5f 1a 9f bd 0f 8c 43 3e
       0.00014576531 0.047293458 -0.07768702 0.19096397
000320 e1 fa 14 3c 7c 39 3d be 76 3b c3 3d b8 96 66 3d
       0.009093017 -0.1847896 0.09532826 0.05629608
000330 b5 7b 44 3e 7a 2f 27 bb 78 13 36 be 78 3b 55 3d
       0.19187815 -0.0025510476 -0.17780864 0.052058667
000340 86 66 45 bd 60 88 f0 3d ea 8a 17 3c 62 f2 1a bc
       -0.048193477 0.117447615 0.009249428 -0.009457203
000350 6f 84 41 3e e8 bd ac 3d 80 b6 cb 3d da 22 04 bd
       0.18898176 0.08434659 0.099469185 -0.0322598
000360 03 46 be bb 26 16 fc 3c c4 2d 0e 3e ff 4a 7e 3d
       -0.005806686 0.03077228 0.13884646 0.06208324
000370 0a 55 39 3e 07 88 3b 3e 2d 62 b8 bc 9e 9f 29 3e
       0.18098846 0.18313609 -0.022507751 0.16564795
000380 f3 61 84 3d 7e 9f fd bd ca 6c fd bd 61 df 11 be
       0.06463995 -0.12383936 -0.123742655 -0.14245369
000390 9d 64 03 3e 1b 51 b5 bc c3 25 03 be 2d 97 10 3d
       0.1283135 -0.0221334 -0.12807374 0.035300422
0003a0 24 51 24 be 10 28 8a 3c 49 7d 01 be 30 07 25 be
       -0.16046578 0.016864806 -0.12645449 -0.16116023
0003b0 1e 90 df 3d fb 7e 2e 3e ac 17 20 be a4 9a d8 bb
       0.1091616 0.17040627 -0.1563403 -0.0066102315
0003c0 5b 70 28 bd 9f 0b 11 3e 24 f8 7a bd 96 5d 9b bd
       -0.041122776 0.1416459 -0.0612718 -0.075862095
0003d0 8f 57 2d 3e 9d 24 04 be ca 07 3b be 14 2c 3e 3d
       0.16927932 -0.12904592 -0.1826469 0.046428755
0003e0 80 cc 51 bd 3a 37 c6 3d 63 b0 ad bd 9a 3f 13 3e
       -0.051220417 0.096785024 -0.08480909 0.14379731
0003f0 09 59 01 3e 48 cc 70 3d f8 be fd bc 2c 92 9b bd
       0.1263162 0.058788568 -0.03097485 -0.075962394

fc1.bias f4 [16]
000000 80 18 61 bc 41 2f 2b be 56 a9 8d bd 29 a7 51 3e
       -0.013738751 -0.16717245 -0.06917064 0.20473923
000010 3a 70 64 bd 10 a7 93 3c 3d 3e b9 bd 17 19 63 bd
       -0.05577109 0.018023998 -0.09045074 -0.05544385
000020 c0 8b d0 bc 83 6e 92 3c fe 92 12 be af 25 04 3e
       -0.025457263 0.017874962 -0.14313886 0.12905
000030 40 55 33 be 0d 23 da bd 38 f9 6a bd 49 db 9f bd
       -0.17512989 -0.10651217 -0.05736658 -0.07805497

out.weight f4 [1, 16]
000000 02 34 7d 3e 6a b2 14 be 12 53 78 3e 38 af 4e 3e
       0.2472687 -0.14521185 0.24250439 0.20184028
000010 38 7d 70 3d 2a 34 05 3e 15 20 88 3d c6 0e 33 bd
       0.058713168 0.1300818 0.06646744 -0.04371526
000020 84 aa 5e 3e 3e 21 9d 3e e0 b9 73 bc ec e1 ca 3d
       0.21744734 0.30689424 -0.014875859 0.099063724
000030 98 51 ab bd c8 8e 63 3d d8 50 3a 3d f0 0b ff bd
       -0.08365172 0.05555609 0.045487255 -0.12453449
