artifacts/territory/lstm/273__283__0/model.pt (torch, 23217 bytes, 7 tensors)

lstm.weight_ih_l0 f4 [128, 1]
00000000: 48b6 e739 45be 033e 4977 5ebd fd93 a8bd
00000010: 83c8 543d 074f f4bd b9f6 803d 78b2 ee3d
00000020: 177c 0fbe 5ac2 9f3d 7bab 113d 054e 643c
00000030: 7331 133e e5b8 0cbe 4685 e23d f885 ef3d
00000040: 3686 1e3e 9e8f b73c 40bb 38be 34b2 e4bd
00000050: a539 9e3c 4bb3 2abd ad20 ddbd 4d6c 5e3c
00000060: de6c 14be 3560 343e 6f3e 16bc e2ae d83c
00000070: 5660 ef3d fbe5 cbbd 9b4d 323e bce6 27be
00000080: e7b2 003e 5cd4 27be f283 923d 01ae d63d
00000090: 3b9c 2b3d e6fd b4bd 1994 1ebe ce2c 323c
000000a0: 0cfb 1bbd a94d 243e 7d9d 93bd e474 2dbe
000000b0: b2ae 7d3d 276c 273c 982d 15be 2610 d0bd
000000c0: 1fee 1bbe b518 16be 05d4 debb 0697 56bd
000000d0: 267c 983d bd62 5fbd 023d e1bc ba07 2dbe
000000e0: 1490 31be 2e8b e9bd 0f40 133e e271 2cbe
000000f0: a614 1cbe d225 20be 51a0 eb3d bf9d 90bd
00000100: 78c0 483d 013d 163e c636 32bd c0e1 a2bd
00000110: da31 3d3c 00ad 8e3d 3c83 9fbd f50c 133e
00000120: 7cfa 8cbc fa6f b1bd d61d d53d bfa0 b9bd
00000130: 76e5 06be 8a88 39bd 4f6b 32be 11ba 06be
00000140: da0b 0ebe 261b d8bd e412 033d e1da bbbc
00000150: 5179 8c3c 4dbc 26be 3e7b a9bd 5abe 973d
00000160: 96b0 c83d a01a 6fbc 6885 0cbd 6714 f83c
00000170: 1fca aebd 6c12 20be 5fab 123e d8f8 81bc
00000180: 57a0 bc3d 462c 16be 9d9e 483d 4123 0b3e
00000190: 78ad e5bd 53e9 d4bd 60c4 0e3c d63e 003d
000001a0: 31a2 d9bd 0216 ef3d bb59 1dbe 6388 e93d
000001b0: 7085 183e 7cbc 3dbd 1494 0c3e 0838 c93d
000001c0: a248 1a3e 8f81 00be 4d84 c03d b161 ea3d
000001d0: 3ee2 06be 229b 303d b697 a23d eda7 2a3e
000001e0: 97a3 a8bd a8fa 18be 005e e63d 6d66 593c
000001f0: 3094 a3bc 7459 a9bd 067d 683d f2e0 b03c
0.00044195564 0.12865551 -0.054312978 -0.082313515 0.051949035 -0.11929136 0.062970586 0.11655134
-0.1401218 0.078007415 0.035563927 0.013934617 0.14374332 -0.13742407 0.11060576 0.116954744
0.15480885 0.02240735 -0.1804018 -0.11166802 0.019314596 -0.041674893 -0.10797248 0.013575626
-0.14494655 0.17614825 -0.009170159 0.026450578 0.116882965 -0.09955975 0.17412417 -0.16396612
0.12568246 -0.16389602 0.07154073 0.10482407 0.04189704 -0.0883749 -0.15486182 0.01087494
-0.038081214 0.1604525 -0.07207773 -0.16939121 0.06193418 0.010218657 -0.14568174 -0.1015933
-0.15227555 -0.14657862 -0.006800177 -0.05239012 0.074455544 -0.054537524 -0.027494911 -0.16897479
-0.17340118 -0.114034995 0.14379905 -0.16840318 -0.15242252 -0.15639427 0.11505187 -0.07061338
0.049011678 0.14671709 -0.043509267 -0.07953215 0.01154753 0.06966591 -0.07788703 0.14360411
-0.017209284 -0.08663936 0.104060814 -0.09063863 -0.1317347 -0.04529623 -0.17423747 -0.13156916
-0.13871709 -0.10552053 0.032000437 -0.022931518 0.017147692 -0.16282769 -0.0827546 0.074093536
0.09799306 -0.01459375 -0.034306914 0.030283166 -0.08534645 -0.15632027 0.14323185 -0.015865728
0.0921027 -0.14665326 0.04897939 0.13587667 -0.11214727 -0.103960656 0.008713812 0.031309925
-0.10626639 0.116741195 -0.1536626 0.11402967 0.14894652 -0.04632233 0.13728362 0.0982514
0.1506677 -0.12549423 0.09400234 0.114444144 -0.13172242 0.043116696 0.07939093 0.16665621
-0.08234327 -0.14939368 0.11248398 0.013269049 -0.019968122 -0.08269015 0.056759857 0.021591637

lstm.weight_hh_l0 f4 [128, 32]
00000000: 6519 c4bd 3a2d 343e f13b 6b3d 6702 9cbd
00000010: f05d 89bc 92de dd3d c70a 453b 8dde efbc
00000020: be71 fe3d f836 30bd cb11 32be 938e 533d
00000030: 8d5a bd3d ea3a 10be acb6 0abe 9db3 113e
00000040: 40dc d5bc 7102 eb3d 53ce 1aba bafa 93bd
00000050: a138 e6bd a065 a53c b2fe 3f3d 8b64 0c3e
00000060: e773 4a3d 6ee1 973b 054a 213e 0e13 e73d
00000070: 6cd9 c2bd 319e 323b 7dea 0abe 4243 febd
00000080: 6686 99bd e0ca 11be 7a0f d9bd ad3d d4bd
00000090: e053 01bc 171c 293e 3538 273e 6ae6 fd3d
000000a0: 64a4 643d 32a9 d83d 175b 1fbe d522 213e
000000b0: 4a46 0bbe b1f8 163e 20df f43c b8a9 8bbc
000000c0: 8a76 af3d 72dd e03d fcd5 02be 206e 5bbc
000000d0: 0f61 073e 1200 f8bd c02c b4bd a637 9b3d
000000e0: a8ec 783d 0125 1b3e 42b9 0fbe a314 103e
000000f0: 3bfa febd e1f5 09be a2cd c93d 8abd 97bd
00000100: 578c 843d f53a 0a3e f416 92bd 972f 913d
00000110: 242d f13c ea62 f33d 6c48 b43d 6503 ddbd
00000120: 0076 703c 703c f4bd 3eec 9c3d 0ef3 a63d
00000130: 265e f4bd dcbb 273e 9bb6 0bbe 1583 1d3e
00000140: ae28 43bd eed2 c93c 250b 993d 0d2b e8bd
00000150: a229 f3bd 0e44 76bd 3725 f83c dfa5 383e
00000160: a4d7 5d3d 9774 25be 583c ac3d 260b 4dbd
00000170: 1a8e d63d d0d3 d0bd b0a6 efbd d195 eebd
00000180: a808 3d3e 480d eb3c 891d 9abc 6f0e 7e3d
00000190: 922c eebd a21b fabd 5cc1 c83a f8d1 253e
000001a0: 824b e53d a00f 30bb de76 873d ee2a 8d3c
000001b0: 7a43 12be 54a2 4f3d dfe2 83bd 6eaa 9cbc
000001c0: ebd7 58bd aecb 54bd 68e1 87bc 4160 17be
000001d0: e0fc 503c 98ca a4bd 5567 65bd 38df 183e
000001e0: 0686 863d 760c ed3d 1077 bc3c 015e 403c
000001f0: 288b 9bbd 71a5 263e 7556 223e b25d b53d
00000200: f1a2 233c 4136 26be c463 21bd 0867 263d
00000210: d273 c4bd 57ef 313e e492 36bd 6489 12be
00000220: 709f fe3c d851 bcbd 3963 2d3e 6890 82bc
00000230: 0adf e7bd 88ab 10bd 0e7f 0c3c 2c25 45bd
00000240: 3b9f d43b 4443 0abd 1076 a9bc 2200 a13d
00000250: c066 2f3b 01da 163e e2e4 bbbd ef88 2f3e
00000260: 00e4 88ba 0025 693d 041c 71bd e881 f03c
00000270: 0e7f 973d fef7 dc3d 7ae5 ca3d 96ab d8bd
00000280: 238c 9ebd 98d3 98bc f34b 8fbd d0ad bc3c
00000290: 909a 603d 28ef 8f3d 2a1b d1bd f75c 2abe
000002a0: 0cd5 01bd 0a63 dc3d 9329 273e f99c 0b3e
000002b0: ba5e eabd c5b3 1c3e a2d0 ef3d 4b7d 8abd
000002c0: 3a9b d33d c672 fd3d 8af6 d23d 1819 cabc
000002d0: 2d06 a2bd d0fd 1a3d 8ff1 123e 00aa a63b
000002e0: c015 953b de8c 8d3d 84f3 8e3d f657 b93d
000002f0: 93e3 03be 5457 6f3d 6979 1b3e 4842 8abc
00000300: 3454 163e 081c 1abd aec2 203d 1987 f83c
00000310: 6076 7d3d 6005 c63b b21f e0bc dc20 3c3e
00000320: b8a4 fe3c 02e0 d33d e37f 003e 1373 8d3d
00000330: 3c44 0ebe a091 f73c 3b86 6d3d a42b 353d
00000340: 4061 29be 10e0 6cbc 4d99 14be 3fbf 013e
00000350: 00a9 b83c feba fc3d d006 863d d637 4f3e
00000360: 188e 943c a0e0 813d ac6e de3d c6d5 223d
00000370: 7559 923c 0279 e33d 94a5 8cbd 58b1 863d
00000380: 443c 2f3e b0ad 993c acfa aab9 1b75 aebd
00000390: 59f3 c1bd bbee 333e 2db5 58bd 9af7 c33c
000003a0: 9325 0e3e f794 85bd 0064 723c d46a 4e3d
000003b0: 7f01 02be 92c0 28be b13b b93d a62a 10bd
000003c0: 2ad9 13bd c07e 0bbe 84ba 483d 2cc2 8cbd
000003d0: d0ae 8b3d 84f5 093e 2749 153e fe83 983d
000003e0: 70f1 34bc 709c b9bc b371 de3c e00d 633d
000003f0: 994d 06bc ad74 28be ad43 bebd 90c5 b33c
-0.09575156 0.17595378 0.05743021 -0.07617646 -0.016768426 0.108334675 0.0030066238 -0.029280925
0.12424038 -0.043021172 -0.173896 0.05164964 0.09245787 -0.14084974 -0.13546246 0.14228673
-0.026106 0.11475075 -0.00059053785 -0.07225557 -0.1124127 0.02019006 0.046873756 0.13710229
0.04942694 0.0046350276 0.15750892 0.11282931 -0.09514126 0.0027254934 -0.13566013 -0.12415172
-0.074963376 -0.14237547 -0.10598655 -0.10363326 -0.0078935325 0.16514622 0.16330035 0.123974636
0.055820838 0.105791464 -0.15562092 0.15735944 -0.13601032 0.14743306 0.02989155 -0.017048702
0.085675314 0.10979737 -0.12776941 -0.013392955 0.13220619 -0.121093884 -0.08797598 0.075789735
0.060772568 0.15150835 -0.14035514 0.14070372 -0.124500714 -0.13472702 0.098536745 -0.074091986
0.0647208 0.13499053 -0.07133284 0.07089155 0.02944047 0.11884101 0.08802876 -0.10791663
0.014676571 -0.1192559 0.07662247 0.08151828 -0.1193202 0.16380256 -0.13643877 0.15382035
-0.047646217 0.024636712 0.07472829 -0.11336336 -0.11873175 -0.060123496 0.030291183 0.18032025
0.05416073 -0.16157757 0.08409947 -0.05005946 0.104763225 -0.1019665 -0.11701715 -0.11649669
0.18460333 0.028692856 -0.018812912 0.062025484 -0.11629595 -0.12212302 0.0015316415 0.16193378
0.111960426 -0.0026864782 0.06614469 0.017232385 -0.14283553 0.050691918 -0.064397566 -0.019124236
-0.05294029 -0.051952057 -0.016586974 -0.14782812 0.012755603 -0.08046454 -0.05600675 0.14928901
0.06568532 0.11574642 0.023005992 0.011741162 -0.07594901 0.16274048 0.15853293 0.088557616
0.009987579 -0.16231634 -0.039401785 0.040625602 -0.095924035 0.17376457 -0.04457368 -0.14310223
0.031081885 -0.09195298 0.16932382 -0.015937999 -0.11321838 -0.035319835 0.008575214 -0.048131153
0.0064887083 -0.033755556 -0.02068618 0.078613535 0.0026764125 0.147316 -0.09174515 0.1714208
-0.0010443926 0.05692005 -0.05886461 0.02935882 0.07397281 0.10789488 0.099070504 -0.105796024
-0.07741573 -0.018655583 -0.06996908 0.023032099 0.054834902 0.07028037 -0.10210259 -0.16637026
-0.031697318 0.10761078 0.16324453 0.13634099 -0.11443849 0.15302952 0.117097154 -0.06762179
0.103323415 0.12375407 0.1030093 -0.024670169 -0.07911334 0.03783971 0.1434996 0.0050861835
0.004549712 0.06911634 0.06980041 0.0904998 -0.12879781 0.058432892 0.15183033 -0.016877308
0.14680558 -0.03762439 0.03924816 0.030337857 0.06188047 0.006043121 -0.027358864 0.1837191
0.031084403 0.103454605 0.12548785 0.06906714 -0.13893217 0.030220807 0.05798934 0.044231072
-0.16541004 -0.014457718 -0.14511605 0.12670611 0.022541523 0.123403534 0.06544268 0.20236143
0.018134162 0.06341672 0.10860953 0.03975465 0.017864922 0.11107065 -0.06867519 0.065767944
0.17112833 0.018759578 -0.00032611692 -0.0851843 -0.09470243 0.17571537 -0.052907158 0.023921777
0.13881521 -0.065225534 0.01479435 0.050394848 -0.12695883 -0.1647971 0.09044588 -0.035196923
-0.036095776 -0.1362257 0.049006 -0.06872973 0.06820452 0.13472563 0.14578687 0.074470505
-0.011043891 -0.022657603 0.027153825 0.055433154 -0.008197212 -0.16450758 -0.09290252 0.021944791

lstm.bias_ih_l0 f4 [128]
00000000: 403b c83d d1e8 213e af7e 8cbc 6eca 6ebd
00000010: 8995 e8bd 4696 12bd ae2e 6d3d 3fa3 d93d
00000020: e460 4cbd 664a e03d 1823 8d3d 07c5 9dbd
00000030: 84a5 453c a467 8639 d673 aa3d 1669 f8bd
00000040: 1134 133e 53b3 e03d 6182 eebd 24d9 60bd
00000050: 692f 22be cf0b b13d e0ba fbbc 9c76 c4bd
00000060: 04cd 4c3c d3ba 023e db24 983c d12e 32be
00000070: 9b66 10be b69f 3d3d af9f 0d3e c62b f8bd
00000080: 96bd 15be 75e0 32be 1953 b3bd 4afb 26be
00000090: 0c60 11be 20a3 e93b 3ea4 1ebe 17df 56bd
000000a0: b8d9 173d 48c9 0f3d a050 813b ea00 07bd
000000b0: 40b3 cdbd 4dfb 213e a0d5 873d 5139 a13d
000000c0: b673 2d3e 38e1 34bd fb20 68bc 7793 e2bc
000000d0: 3e0b c33d 3d2c 90bd 2c8a 033e 3be9 133d
000000e0: f0ba 03be 504a b3bc 83dc b8bd 9760 7e3d
000000f0: 7a8b 14be f76e 0e3e a6aa e5bc e332 1ebe
00000100: 5b33 7b3d 001d c6ba b21c 21be cf91 a4bb
00000110: 7d1c 0bbe 3077 813c 0411 ea3c 80e1 aa3c
00000120: 56c3 9d3d cf30 81bd 00c1 74bb 24d9 1d3d
00000130: cbd0 103e 2ccd b3bd 4638 db3d f81e 053d
00000140: c375 b8bd a76c 1f3e 5674 b2bd d364 313e
00000150: c57f 533d dfbf 123e 3656 a03d 9af9 c0bb
00000160: 75a6 303e d27f 9abd a832 9cbd c572 a23d
00000170: b066 333e e0e7 14bc 4c3c 3f3d 168f a23c
00000180: 13ab d83d 2f27 91bc 27a8 9fbb 770a 98bd
00000190: d058 41bd 94be e9bd 39a9 2fbd 8404 813d
000001a0: eff2 1a3e b943 36bd ab3e b7bd 9c54 06bc
000001b0: 3ea2 7bbd 940d d1bd 5c38 e93d a37d c03d
000001c0: 63ae a0bd ecfc 78bd 6e88 cb3d 311c 803c
000001d0: d0f1 c03d a6e5 d4bb 9d5c d13d 9834 28be
000001e0: 89d9 133e 64e7 eb3d d1ed 083d b411 b33d
000001f0: 5107 2e3e de47 f43d 7155 533d 0040 c0bd
0.09776926 0.15811469 -0.017150251 -0.05829852 -0.113566466 -0.035787843 0.057905845 0.1062684
-0.04989709 0.109516904 0.06891459 -0.077035956 0.012063388 0.0002563569 0.08322875 -0.121294186
0.1437533 0.109717034 -0.116459616 -0.05489458 -0.15838398 0.086448304 -0.030728757 -0.095929354
0.012500051 0.1276658 0.018572262 -0.17400672 -0.14101641 0.04629489 0.13830446 -0.12117724
-0.14623103 -0.17468436 -0.08756084 -0.16306797 -0.14196795 0.0071300417 -0.15492341 -0.05245885
0.037072867 0.035104066 0.003946379 -0.032959856 -0.10043955 0.1581852 0.066325426 0.0787226
0.16938671 -0.044160098 -0.014168019 -0.027658207 0.09523629 -0.07039688 0.12845677 0.036111098
-0.1286428 -0.02188602 -0.09026434 0.062103834 -0.14506331 0.13909517 -0.028035473 -0.15449099
0.061328273 -0.0015114844 -0.15733603 -0.0050222646 -0.13585086 0.015803903 0.028572567 0.02085948
0.07703273 -0.063081376 -0.0037346482 0.03853716 0.14142148 -0.08779368 0.10704093 0.032500237
-0.09006836 0.15568791 -0.087135956 0.17323618 0.051635522 0.14331006 0.078289434 -0.00588913
0.17250998 -0.07543911 -0.076268494 0.07932047 0.17519641 -0.009088486 0.046688363 0.01984362
0.10579505 -0.01771888 -0.0048723402 -0.07423871 -0.04720384 -0.11413303 -0.042885993 0.062996894
0.15131734 -0.04449818 -0.089475 -0.008198883 -0.061434023 -0.10207668 0.11387703 0.09398963
-0.078457616 -0.06078808 0.09938131 0.015638443 0.09421122 -0.006497103 0.10222743 -0.16426313
0.14438452 0.11518744 0.033429924 0.08743611 0.16994978 0.1192777 0.051595155 -0.09387207

lstm.bias_hh_l0 f4 [128]
00000000: 393d 3cbe 84bd 123d e45f 00be b2f5 273e
00000010: 2c93 2a3e 3d34 26be 4229 663e 61d2 bebb
00000020: 80dc 2fbe bb5a 35be f9ea 013b 1fae fdbd
00000030: 64aa 1d3c 9e04 173e b03b 0f3e daba c33d
00000040: 64ba 3f3d 6399 ce3d fbe1 c0bd 4f6b 343e
00000050: c747 de3d 6e72 5e3d f93f b73d ca6f 123e
00000060: 0005 8d3d 0069 1dba 1585 1b3d b90e 743d
00000070: d2ca cfbd 5e4a e63d 84ad 873d 5759 10be
00000080: 7e39 f23d 312d ebbd 64e7 2abd e762 a43d
00000090: 0c29 9dbb 12ea ed3d 96ba fcbd c528 143e
000000a0: 765b edbd 965e 0abe 805d 4a3d 271c c7bd
000000b0: de64 c43d b981 8abd f8e9 f5bd a807 3a3d
000000c0: 1f78 ebbd bdd9 26be 03a3 d5bc 10fe 773d
000000d0: 286b 093d 1412 07be 8262 2f3e e3f4 b73d
000000e0: ca93 5ebd bc6f 0ebd b6ae 0ebe d379 a83c
000000f0: b0f4 02be c0e6 393b c217 b43c 67d5 f4bd
00000100: 3c70 2dbe 9251 8f3d 96c9 203e a22f 2bbd
00000110: 8c2e 2e3e 6fa9 143e c1bb de3d d05f 51bd
00000120: 7145 053e 10ba 5f3d caef db3d 6e47 bbbd
00000130: c3f2 d4bd 99ab 1f3e 4999 1ebe 02d2 943d
00000140: 5096 2f3d 860f f53d 7899 0b3e 61d8 2b3e
00000150: 9baf 803d df94 023e 7850 30be 2ca6 15be
00000160: 90ae 60bd 6cf3 4fbd c427 c83d ae48 2e3e
00000170: c270 a1bd 4014 89bd 8517 203e dec2 28be
00000180: 575e 44bd a381 ba3d 1137 1fbe 4932 1f3e
00000190: 9011 68bc 4e50 f03d a7f4 053e 1961 473c
000001a0: 1a52 f83d e8e3 a63d 57bd d63d cb6d 9d3c
000001b0: d1c4 d93d 89e9 32bc fc4e b33d 67f1 d6bc
000001c0: 0c6a c0bd e1bc bdbc 2085 753d 41d4 ef3c
000001d0: fdc4 103e a5bd 04bd 12d1 273e 8c52 5b3d
000001e0: 4b7b 92bd debf 33be e91d e5bd 4a14 dc3d
000001f0: 76db d6bc 5dc2 f1bd 4690 3fbd fc44 df3d
-0.1838273 0.035825267 -0.1253658 0.16402319 0.16657704 -0.16230865 0.22476676 -0.005823419
-0.17173958 -0.17710392 0.0019823893 -0.123867266 0.009623144 0.14747855 0.13987613 0.095571235
0.046808615 0.1008785 -0.09418102 0.1761906 0.10853534 0.054308347 0.08947749 0.14300457
0.06885719 -0.0006004721 0.037968714 0.059584353 -0.10146107 0.11244653 0.06624892 -0.1409658
0.11827372 -0.11483229 -0.041724578 0.080266766 -0.004796153 0.11616911 -0.12340276 0.14468677
-0.115897104 -0.13512644 0.049405575 -0.097221665 0.095895514 -0.06763024 -0.120075166 0.045417458
-0.11497521 -0.16293998 -0.026078707 0.060545027 0.033549458 -0.1319049 0.17127421 0.08982255
-0.05434016 -0.034774527 -0.13933834 0.020565903 -0.12788653 0.0028366297 0.021983985 -0.11954766
-0.16937345 0.0699798 0.15701899 -0.041793473 0.17009944 0.14517759 0.10875655 -0.051116765
0.13014771 0.054620802 0.107390955 -0.091444835 -0.103978656 0.15592803 -0.15488161 0.07266618
0.04286796 0.119658515 0.13632762 0.16781761 0.06283494 0.12752102 -0.17218196 -0.14614171
-0.054853976 -0.050769255 0.0977321 0.17019913 -0.07882835 -0.066933155 0.15633972 -0.16480586
-0.047941532 0.091067575 -0.1554835 0.15546526 -0.0141643435 0.11734067 0.13081609 0.012169146
0.12125035 0.081489384 0.104853325 0.019217392 0.10633243 -0.010919937 0.087552994 -0.026238156
-0.09395227 -0.023161354 0.05994141 0.029276015 0.14137645 -0.03240742 0.16388348 0.05354552
-0.071524225 -0.1755366 -0.111873455 0.10746057 -0.026227694 -0.1180465 -0.04676845 0.109018296

fc1.weight f4 [16, 32]
00000000: 54c3 7a3d 7e84 ffbd 5bf4 9bbd 295e cc3d
00000010: d213 c4bd b4b1 c0bd a8d3 2d3e 96f3 38be
00000020: 0a20 903d 8ec5 0dbe e09f 0b3c 1b74 c83c
00000030: 0613 0dbd 1c67 debd 89d0 87bc 34a7 1e3d
00000040: 79a4 153e 03e7 1c3e d90b 17be 1656 893d
00000050: 049d 263d 1423 e83b c518 b5bd 9e71 80bd
00000060: ddca a0bd 98e7 653d 95a2 1e3e 1769 92bc
00000070: eb11 cdbd c317 333e 8228 4cbe 1e07 a33d
00000080: 7d44 f23d bc3e 2abe 4e2b f93d 98b8 40bd
00000090: bf2c 1cbe e1a7 1f3e 8efb e43d 7d04 94bd
000000a0: 8a41 d43d 51df 4abe 5079 513d 093e 42be
000000b0: e3cb 38be 5eb6 d43d 3c7d 5fbe 0cfa 36be
000000c0: e43f a4bd 883c 19be e5f4 d2bd 9037 ddbc
000000d0: 7d99 2cbe 8b38 3d3d 5630 a43c 5a80 123e
000000e0: 2261 0dbe e071 afbd cbbf 3cbe 5ea1 103e
000000f0: a2b3 c0bd 9cd8 4bbd 0409 363e 8616 59bd
00000100: da51 5c3c 8f13 d2bd 05f5 143e a052 353e
00000110: 4850 95bd 705c 6abc 3cc6 53bd dd31 b4bd
00000120: 70bb 843d 2e2e bbbc 0a64 e53d 3b4e 283c
00000130: fe0b 93bd f671 25be aa43 3e3e 025a 8ebd
00000140: 5869 9abd 6eac a43d fad8 113e 00c0 5339
00000150: 5078 0dbc e6c5 fb3c 533c 8dbd fa72 883d
00000160: fbd3 083e 1097 3b3c 3a85 aabd 39a3 38be
00000170: 283e d73d 642d 2dbd 7fda e43d d295 9a3d
00000180: fd22 2fbe 80c1 ddbb 3eaf ab3d e79f 213e
00000190: 2247 70bd 72e8 e4bd fc40 2dbe 8df6 95bd
000001a0: 3d51 083e 00ea cf3b 33ad fabd 3601 e63d
000001b0: 0eb1 c63d 6b88 0b3e e060 4ebd 3388 143e
000001c0: e054 9fbb c773 dbbd 82a8 f1bd ea9c b2bd
000001d0: 8a0c 5dbd 26c4 ad3d c028 853b cfb3 a5bd
000001e0: 5c5d 19bd f6e5 b43d 2d44 b4bd 7435 833d
000001f0: 87f1 043e a09c cfbc b8f1 5b3d 98a8 0fbe
00000200: 1ad3 fd3d c7a8 283e af63 5dbd 2f8a 2a3e
00000210: d42b 023d 2bd4 33be 15b9 333e fe47 113d
00000220: a069 603c aefa a63c 10b2 5e3d 71c2 4e3e
00000230: e733 dc3c d023 f7bd 6db2 193e 506b 0bbe
00000240: 1695 01be 337b 0b3e 3910 133e 2cb4 c1bd
00000250: 9af7 bc3d 1583 09be 59d8 b1bd a74d 2bbe
00000260: 032b 27be 587f 16be b90c db3d f85b aebd
00000270: 04a0 af3d 824b fb3d 12b0 cfbd f074 2b3c
00000280: fd79 563d 8075 b63a ae4e 1d3c d976 353e
00000290: 5011 36bd 306a b4bc b6af edbc 6d25 cd3d
000002a0: 6263 a63d 2a5c b83d 28c3 02bd 145a c2bd
000002b0: f6e5 01be 8933 0c3e e001 d23d 5ca1 efbd
000002c0: 520f cdbc 3068 15be 33f7 4fbd 4cd7 26bd
000002d0: be10 60bd 850a 523d 937c 2abe e6ee e53d
000002e0: b957 17be 70eb 713d a3af 183e 804a e9bc
000002f0: 4011 7eb9 c71a 253e 3802 8dbd 006f 113c
00000300: f94d 00be b0a0 0abe 2a94 c23d 666f a83d
00000310: 2059 5a3c eaef 23be ba00 fc3d e02d 36bc
00000320: 2232 b53d 98cb 4fbd 6c5c dfbd aa82 c93d
00000330: 2062 c6bc 80b1 78bb d291 e83d 6041 a3bc
00000340: 7970 2ebe 0a3b f23d 9000 1cbe f202 a43d
00000350: 6aef ad3d f564 163e 7c5d 46bd fc77 53bd
00000360: 9222 00be 3ed1 db3d 7333 1b3e dbfd 143e
00000370: 65e6 0b3e e296 a23d a460 24be 8e3d f53d
00000380: 0419 2fbd 082a bb3c fab2 69bd 5e43 97bd
00000390: da45 de3d e89b eb3c 9342 2e3e b874 f7bc
000003a0: 8a58 fa3d 52c9 11be a01e 4ebd 118b 153e
000003b0: 4c03 07bd df7b e2bd 7fe0 013e 2c1b 2fbd
000003c0: f206 b03d a4a0 79bd 18c3 8a3c 40ab 2e3d
000003d0: 401a 633c ab8f 9bbd 2986 1ebe 4a92 ac3d
000003e0: 8c2f 0cbe d865 41bd 7e91 9d3d 3aed c33d
000003f0: da1a c1bd a11d 1e3e e477 08be e456 663d
0.061221436 -0.12476443 -0.076149665 0.09978897 -0.09574093 -0.09408894 0.16975272 -0.1806167
0.07037361 -0.13844892 0.008522004 0.024469426 -0.03444197 -0.1085951 -0.01657893 0.038733676
0.14613523 0.15322499 -0.14750613 0.06705873 0.040677086 0.0070842598 -0.08842615 -0.06271671
-0.07851193 0.056129068 0.15491708 -0.017872376 -0.10013183 0.17489533 -0.19937328 0.07960342
0.11829469 -0.16625494 0.12166463 -0.047051042 -0.15251444 0.15591384 0.11180793 -0.072274186
0.10364063 -0.19811751 0.051141083 -0.18968977 -0.18046527 0.10386346 -0.21825117 -0.17868823
-0.08019999 -0.14964497 -0.10300616 -0.027004033 -0.16855426 0.0461965 0.02004258 0.14306775
-0.13806584 -0.08566642 -0.18432538 0.14124057 -0.09409262 -0.04976712 0.17776877 -0.052999996
0.013447249 -0.10257637 0.14546593 0.177073 -0.07290703 -0.014304265 -0.051702723 -0.08798573
0.06481063 -0.022849169 0.112007216 0.010272558 -0.07180022 -0.16156754 0.185805 -0.069507614
-0.07539624 0.08040701 0.14242926 0.00020194054 -0.008634642 0.030734014 -0.068962716 0.06662555
0.13362114 0.01144959 -0.08326192 -0.18031015 0.10509902 -0.042279616 0.11174487 0.07548107
-0.1710319 -0.0067674518 0.08383034 0.15783654 -0.058661588 -0.11177148 -0.16919321 -0.073224165
0.1331224 0.0063450336 -0.122400664 0.112307 0.09701739 0.13626258 -0.050385356 0.14505081
-0.004862413 -0.10715442 -0.117997184 -0.08721335 -0.053967036 0.08484678 0.0040636957 -0.080909364
-0.03744255 0.08832924 -0.08802066 0.0640668 0.1298276 -0.02534324 0.053697318 -0.14029157
0.1239378 0.16470633 -0.054050144 0.16654275 0.03178008 -0.17561404 0.17551072 0.035469048
0.013697058 0.020383205 0.054369032 0.20191361 0.026880218 -0.120673776 0.1500947 -0.13615155
-0.12654528 0.13621216 0.14361657 -0.09458193 0.09226914 -0.1342891 -0.08683843 -0.16728841
-0.16325001 -0.14697015 0.10695786 -0.085136354 0.085754424 0.12270261 -0.101410046 0.010464892
0.05236243 0.0013920516 0.009601278 0.17721118 -0.044450104 -0.02202329 -0.02901445 0.10016904
0.081244245 0.09001954 -0.031924397 -0.09489837 -0.1268538 0.13691534 0.10254264 -0.11700699
-0.02503172 -0.14590526 -0.050772857 -0.040732667 -0.054703467 0.051279563 -0.16649084 0.11227207
-0.14779557 0.05906242 0.1491075 -0.028477907 -0.00024229754 0.16123496 -0.06885189 0.008876562
-0.12529744 -0.1353786 0.09500916 0.082243726 0.013326913 -0.16009489 0.12304826 -0.011119336
0.08847453 -0.05073127 -0.109063 0.09839375 -0.024216712 -0.0037947595 0.11355938 -0.019928634
-0.17035092 0.11827667 -0.1523459 0.08008374 0.0849293 0.1468695 -0.048428997 -0.051628098
-0.12513188 0.10733269 0.15156345 0.14549963 0.13662107 0.07938935 -0.1605249 0.11974631
-0.042748466 0.02284719 -0.05705545 -0.07385896 0.10853167 0.028760865 0.17017584 -0.030207023
0.12223919 -0.14236954 -0.050322175 0.14603831 -0.03296213 -0.11058783 0.12683295 -0.042750522
0.08595075 -0.060944214 0.016938731 0.042643785 0.013861239 -0.07595762 -0.15480866 0.0842634
-0.13690013 -0.047216266 0.07693766 0.09566732 -0.0942895 0.1544099 -0.13326985 0.05623521

fc1.bias f4 [16]
00000000: 5986 1b3e 5ed4 8dbc c741 d1bd b06c f1bd
00000010: d5e6 1c3d 9aad 12be ae5f ea3d 9ff2 94bd
00000020: 053c a4bd a401 b4bd 64f4 fb3c 031a d8bd
00000030: 42d9 143e 002a 3fbc 5bed bc3d 2a97 8cbd
0.15187968 -0.017313179 -0.10217624 -0.117883086 0.038306076 -0.14324036 0.11444031 -0.07272839
-0.0801926 -0.087893754 0.030756183 -0.10551836 0.14536002 -0.011667728 0.092249595 -0.0686477

out.weight f4 [1, 16]
00000000: 2f08 88bd 0bad ae3d 2ac6 c3bc 102d c93c
00000010: 63d4 e2bd af7e 7fbb 6884 45be 6c0e 8cbd
00000020: f40b 8f3e 6f3f 9fbd 8fb0 45be 68eb 6b3e
00000030: d7c1 1bbc 38af 70bd 6b54 0d3e ddba 763e
-0.06642186 0.08529099 -0.023898203 0.02455762 -0.11075666 -0.0038985421 -0.1928879 -0.06838688
0.27938807 -0.07775771 -0.19305633 0.23039019 -0.009506664 -0.05876085 0.13801734 0.2409472
