artifacts/territory/lstm/107__116__0/model.pt (torch, 23217 bytes, 7 tensors)

lstm.weight_ih_l0 f4 [128, 1]
000000 ff 7d 46 3e 17 6c 52 3c ae f2 d2 3d d0 22 33 3e
       0.19384001 0.012843153 0.10300194 0.17493749
000010 18 0f 14 3a bc 2b 13 3e 2c a2 a6 3d 2e d1 34 3e
       0.0005648001 0.14372152 0.081364006 0.1765792
000020 85 07 28 3c 04 21 80 3d ad 34 22 bc 0d 2c 54 bd
       0.010255699 0.06256297 -0.009900254 -0.051799823
000030 82 5a 0e 3e 71 82 08 3e 39 50 f2 3d 31 0f fe bc
       0.13901713 0.1333101 0.118317075 -0.031013103
000040 02 87 9e 3d d9 eb fa 3c 71 e1 9a bd ed fd b0 ba
       0.077405944 0.030630039 -0.07562531 -0.001350341
000050 0c d0 d1 bd bd e7 6b 3d 0b 6c 9d 3c 50 2b 06 3e
       -0.1024476 0.05759405 0.019216558 0.1310246
000060 d3 f1 98 bd 82 e7 9f bd d1 30 d6 3c f8 96 00 ba
       -0.07467999 -0.078078285 0.026146324 -0.00049053086
000070 e2 59 24 bd 59 a1 50 3e 3c 62 d5 3c c5 52 9a bd
       -0.04012478 0.20374049 0.026047818 -0.07535318
000080 d4 5a c2 bd 9a 1d 9d bc c2 38 a5 bd ae 59 e3 bd
       -0.0948998 -0.019179154 -0.08067466 -0.111010894
000090 bb 13 1e 3e fb d1 2f 3c 9e 5d fd 3d 31 0c 68 3c
       0.15437214 0.010731216 0.12371372 0.014163063
0000a0 ad 00 33 3e 7f cd 22 bd 1d a9 25 3e 40 84 b2 bd
       0.17480727 -0.039746758 0.16177793 -0.08716631
0000b0 4b d9 f0 bd 93 4e 16 3e b6 e1 e8 bd d7 35 d6 3d
       -0.11760195 0.14678411 -0.11371176 0.10459488
0000c0 a7 fc 45 be 41 2d 54 bd 88 22 53 bd 69 af 8f 3d
       -0.1933466 -0.05180097 -0.051546603 0.07015879
0000d0 cc b7 a6 3b 32 a4 5e bd 11 0c a1 bc 0d 0f c3 bc
       0.0050878283 -0.054355808 -0.019659074 -0.023810888
0000e0 52 af 0d be ae 30 c8 3d 6c ae 45 bd 76 c9 38 3e
       -0.1383641 0.0977491 -0.048262045 0.18045601
0000f0 3a af 91 3d dd ce 55 bd fe ac 1a bc 69 dd cf bc
       0.071135 -0.052199233 -0.009440659 -0.025374131
000100 dc 04 01 be 07 62 e7 bd ed b4 fa bd 1f 22 03 be
       -0.1259951 -0.11297994 -0.1224154 -0.12805985
000110 d4 33 07 3e bd 53 17 3e 77 12 1f 3d 49 01 69 3d
       0.13203365 0.14778037 0.03883597 0.05688599
000120 0c 16 14 be 65 16 a9 bd d5 b7 a2 bd e7 cd 6f 3c
       -0.14461535 -0.082562245 -0.079452194 0.014636493
000130 96 7c 33 be d1 42 65 bd 56 66 92 3d a0 3f 16 be
       -0.17527995 -0.055971924 0.07148425 -0.14672709
000140 bf 90 94 bd f6 7a a3 bd bb 0b 18 3e f9 15 0f 3d
       -0.072541706 -0.07982437 0.14848225 0.034933064
000150 40 56 7f bd 24 11 10 be d9 e8 a7 bc 83 09 1e be
       -0.062338114 -0.14069039 -0.020496773 -0.15433316
000160 94 8a e3 3d 55 d2 87 3d 1c aa 1d be fe 5e f2 3c
       0.11110416 0.066319145 -0.15396923 0.029586311
000170 6a 85 d0 3c 97 d7 b1 bd b8 9d 2b be 6f 2a 88 bd
       0.025454242 -0.086836986 -0.16759384 -0.066487186
000180 fa 94 83 bd 40 6f 2a 3d 6b 1b 94 3c b1 9d 42 3e
       -0.064248994 0.041610003 0.01807948 0.19005467
000190 6e 89 53 3c 3f a5 31 3e 62 22 16 be 3c f6 5c bd
       0.012911184 0.17348193 -0.14661554 -0.053945765
0001a0 58 e6 96 3d 2f 14 31 3e ac d6 46 3d 32 d0 10 bd
       0.07368153 0.17292856 0.04854457 -0.0353548
0001b0 ff 5b af 3c 52 cb ba 3d 56 b0 c6 3c ce 6b 81 bd
       0.021406172 0.091208115 0.024254005 -0.0631939
0001c0 3c ca e5 3d 41 8d 36 3e 77 48 2d 3e 23 9a cd 3d
       0.11220214 0.17827322 0.16922174 0.10039165
0001d0 8b 19 65 bd 09 13 07 3e f3 7a 58 bd ea e4 f2 bd
       -0.055932563 0.13190855 -0.05285163 -0.11860068
0001e0 0f b9 3e 3d ad 62 ba bd ee d0 1f 3d da 2d 1e 3d
       0.046563204 -0.09100852 0.03901761 0.038617946
0001f0 05 67 d9 bd c1 a8 8c bd 8b 0c 98 3d 39 98 a5 3c
       -0.106153525 -0.06868125 0.074242674 0.020214187

lstm.weight_hh_l0 f4 [128, 32]
000000 e6 a2 90 3c 8b b5 cb bd 73 31 dd 3d fe db 0d be
       0.017655801 -0.09946736 0.10800447 -0.13853452
000010 b9 dd 0b be 4a 4e e0 bd 8c d6 66 bd 72 30 1c be
       -0.13658799 -0.109524325 -0.05635695 -0.15252855
000020 38 90 38 3d ba d7 25 be ed e8 d4 3d c7 37 e0 3b
       0.045059413 -0.16195574 0.103959896 0.0068425867
000030 d1 88 a5 3c ce 93 51 3c 19 ac 02 be f7 05 35 be
       0.02020684 0.012791587 -0.12760963 -0.17678057
000040 85 4e fa 3d 87 20 92 bd 8e eb 18 be ff ec f4 bd
       0.12222008 -0.0713511 -0.14933607 -0.11959266
000050 82 3c 03 bd 8f da c9 bd f5 cf 11 3e 85 39 61 3d
       -0.032040127 -0.0985614 0.14239486 0.054986496
000060 e0 4f 01 be 49 bf fc bd 40 20 a0 bd 3b c4 9e 3c
       -0.12628126 -0.12341172 -0.07818651 0.01938068
000070 ff cd 33 3e cc 49 9d 3d 5c 5e 1a be 30 5f 2d 3e
       0.1755905 0.07680091 -0.15075058 0.16930842
000080 04 9b 4e bd 77 f5 3d 3d bc 64 85 3c 86 f8 28 be
       -0.050440803 0.04637667 0.016283385 -0.16501054
000090 9d 1d ed 3d 62 6d c9 3c 32 9a 3e 3e d1 68 28 3e
       0.11577914 0.02458829 0.18613508 0.16446234
0000a0 f0 65 b0 3d ad 0e 78 bd 21 a3 aa 3d dc ff 14 3e
       0.08613193 -0.06056087 0.083318956 0.14550728
0000b0 0f 1c fc bc ff 91 3b bd 81 f3 4e 3e 75 76 54 be
       -0.030775098 -0.04579353 0.20210077 -0.20748313
0000c0 3a 6b 3f 3d ee 4a 97 bd 25 1e 3f bc ad c2 69 3e
       0.04673312 -0.073873386 -0.011664902 0.22828169
0000d0 0d 03 42 be b1 87 d0 3c 39 06 e0 bd 04 0c 96 3d
       -0.18946476 0.025455328 -0.10938687 0.073265105
0000e0 95 f7 d1 bd f6 67 09 be 2b a8 43 3d 78 7c 99 bd
       -0.10252301 -0.13418564 0.0477678 -0.07494444
0000f0 3e ab 0a 3e 65 79 f5 3c 32 fc 9b 3d 99 d1 42 be
       0.13541886 0.029965112 0.07616462 -0.19025268
000100 e9 e5 99 bd 30 19 ea 3d 91 e9 21 be 5e f9 b1 3c
       -0.07514555 0.114305854 -0.15811755 0.021725353
000110 38 d6 c1 3d b6 14 f9 3c ba ea 70 bc 58 60 46 3d
       0.09464687 0.030405384 -0.014704401 0.048431724
000120 3f 78 b3 3d e4 f3 a4 bd 16 f3 b6 bd cc c0 43 bd
       0.087631695 -0.08054331 -0.08933084 -0.047791287
000130 8f 21 12 be 93 e2 e0 3d 0e 78 99 3d 75 a2 b7 3d
       -0.14270614 0.109807156 0.07493602 0.08966533
000140 2a 6a 0c be a3 d9 35 be ef 0e 0e be 2b b9 a3 bd
       -0.13712373 -0.17758803 -0.13872884 -0.07994302
000150 73 9f 16 3e 93 d8 cb 3d fe b6 23 be 4b 4a ea ba
       0.14709263 0.09953418 -0.15987775 -0.0017874924
000160 3f f7 cf bd 7b c1 1c be b0 d1 a5 3d 67 0b e7 3c
       -0.1015458 -0.15308182 0.08096635 0.02820368
000170 ac bd 21 bd 5e 83 bc 3d 06 75 8b 3d 05 77 b5 3c
       -0.039487526 0.09204744 0.0680943 0.02215148
000180 a6 05 19 be 0b 55 ac bd 41 29 9d bd 27 84 15 bd
       -0.14943561 -0.08414658 -0.07673884 -0.036502983
000190 7c 07 a9 bc 7e 55 51 3c 68 67 2e 3d ab 76 2b be
       -0.020633452 0.012776731 0.042579085 -0.16744487
0001a0 5b df f2 3d c7 1a dc bd 64 ed 33 be cb b7 05 bd
       0.11859008 -0.10747295 -0.17571026 -0.03264598
0001b0 53 86 6d bd bd 0f 7f bd 8e 3d 07 bc 83 a5 01 3e
       -0.05798943 -0.06227087 -0.008254422 0.12660794
0001c0 d2 1e c9 3d c4 08 cf 3d c1 77 80 bd 2d c2 a7 3b
       0.09820332 0.10109094 -0.06272841 0.005119583
0001d0 9e ca ea 3d b2 c8 69 bd 42 a4 7f 3d 1b 4f bf bd
       0.114644274 -0.057076164 0.062412508 -0.0934126
0001e0 15 7d 0a be 04 a9 88 3d 8a b7 c7 bd 64 81 0e 3c
       -0.13524278 0.06672862 -0.09751804 0.008697841
0001f0 35 2a fa bc 03 d1 f8 3c ab 91 a7 3d 6b 6a 17 be
       -0.030537704 0.030373102 0.08182081 -0.14786689
000200 18 54 43 be f7 07 f9 3d 00 dc 41 be ea 50 da bd
       -0.19075048 0.12159722 -0.1893158 -0.106599644
000210 e4 fa fd 3d 2d fc 8e bc 02 18 b7 bc f1 ef 0d bc
       0.12401369 -0.017454231 -0.022350315 -0.0086631635
000220 b2 b2 12 be 53 ea 8a 3d 39 83 27 be ee 96 37 3e
       -0.1432598 0.06782975 -0.16358651 0.17928669
000230 d2 b0 39 be 89 8e 04 bd 4b 0a 2c 3e a3 de a1 bd
       -0.18133858 -0.032362495 0.16800801 -0.07903793
000240 46 68 82 bd 39 77 a0 bd f6 bc 07 3e 7a 1f 07 be
       -0.06367545 -0.0783524 0.13255677 -0.13195601
000250 d2 c6 31 bd b4 c9 ba bd 7c 5e 3e be e9 d8 f9 3c
       -0.0434025 -0.09120503 -0.1859073 0.030498939
000260 5e 09 07 3e c3 5b 9d 3d aa 41 0e bd 26 06 f9 bd
       0.13187167 0.07683518 -0.03473059 -0.12159376
000270 01 50 5e 3d a2 05 40 be cf b4 21 be d7 a9 4b bd
       0.054275516 -0.18752149 -0.15791629 -0.04972252
000280 34 49 43 bd f6 fe 2b 3d a7 85 c0 bd 6d a6 af bd
       -0.047677234 0.041991197 -0.09400492 -0.08576665
000290 1a 51 40 3e cf 94 0b be 78 10 25 3e e6 5f 04 3e
       0.18780938 -0.13630985 0.16119564 0.12927207
0002a0 df ce e7 bd cd 14 51 be d4 c4 97 bc a0 cd cb bd
       -0.113187544 -0.20418091 -0.018526472 -0.09951329
0002b0 da 4f d8 3d 3e f6 9a 3d a4 19 ca 3c 19 50 59 3d
       0.105621055 0.07566498 0.02467043 0.053054903
0002c0 c7 1a bb 3d 59 7e 94 bd 0d 67 f7 3d 38 c9 9b bb
       0.09135967 -0.072506614 0.12080202 -0.0047542118
0002d0 41 1f fa bd d4 0b 45 bd d7 98 97 bd 5b a6 4f bd
       -0.122129925 -0.048106983 -0.07402199 -0.05069576
0002e0 68 5d c5 3d 98 0a 88 3c 74 5a 41 be d0 17 f5 3d
       0.096369565 0.016606614 -0.18882161 0.119674325
0002f0 79 c1 dd bc 3a 0c ba 3d 9c 7e 14 be 4d 89 33 be
       -0.027069794 0.09084363 -0.14501423 -0.17532845
000300 00 85 cc bb 90 31 60 bc 88 3a 83 3d fc 31 33 be
       -0.006241441 -0.013683692 0.06407648 -0.17499536
000310 e8 ee 1d bd f2 04 ae 3d c0 54 da bb 90 cd 35 bc
       -0.038557917 0.08497037 -0.006662935 -0.011096373
000320 f0 c8 01 3c d5 45 2f 3e d0 ab c9 bc 7a 82 2d be
       0.007921442 0.17116483 -0.02461806 -0.16944304
000330 b8 8e fa bc 50 28 48 3d ce 22 fc 3d b6 25 2a be
       -0.030585632 0.04886657 0.12311326 -0.16615948
000340 c2 5b 58 bd 68 f4 b5 bc 00 f3 29 ba d0 60 66 3d
       -0.052821882 -0.022211269 -0.0006483048 0.05624467
000350 be 1a 9d 3d 80 2a d7 bd b6 42 ee 3d 18 7a e1 3c
       0.07671116 -0.10506153 0.11633818 0.02752404
000360 18 ba 79 bd a2 2e df 3d b8 08 3f bd 92 ea 1a be
       -0.06096849 0.108975664 -0.046639174 -0.15128544
000370 52 12 95 bd 7c 41 30 3d 93 25 22 3e d4 00 32 3d
       -0.07278885 0.0430312 0.15834646 0.04345782
000380 0d 3e 90 bd f2 44 07 3d b3 b6 1d be 8f 74 e6 bd
       -0.07043085 0.033024736 -0.15401725 -0.112527005
000390 ed 37 cf bd e8 0a 9c 3c 3f 34 bd bd 09 a5 19 3e
       -0.10118089 0.01904817 -0.09238481 0.15004362
0003a0 4d 51 66 3c 83 c3 70 3d 1f 40 e9 bc 3b 50 a8 3d
       0.01405747 0.058780205 -0.028472958 0.08218428
0003b0 7f 18 0f 3e 49 13 16 3d 1e 68 2e 3e 34 76 31 bd
       0.13974188 0.036639486 0.17031905 -0.043325618
0003c0 78 30 c7 bd 70 56 02 be f8 31 2d 3e cf ae 3f 3e
       -0.097260416 -0.12728286 0.16913593 0.18719028
0003d0 da 55 dc bd d1 81 a2 bd 65 16 0c 3e 3a 03 2b be
       -0.107585624 -0.07934917 0.13680418 -0.1670045
0003e0 4e 48 06 3d 80 85 5e 3c 14 df d1 3d 5b a7 28 3c
       0.0327838 0.013581634 0.10247627 0.010293807
0003f0 88 33 a8 bd 32 e1 15 3e a2 a7 13 3e ed a2 14 bd
       -0.08212954 0.14636686 0.14419416 -0.03628819

lstm.bias_ih_l0 f4 [128]
000000 53 13 9d bd 25 97 bb bd 32 f9 0a 3d f2 98 40 3e
       -0.076697014 -0.09159688 0.033929057 0.18808344
000010 77 8c 03 3e ea 99 1f 3e ba eb 81 3d 56 a0 a3 bd
       0.12846552 0.15586057 0.063437894 -0.07989566
000020 40 86 36 3e 95 92 ee bd 8e cb b9 bc b4 a6 2c be
       0.1782465 -0.11649052 -0.02268007 -0.16860467
000030 ea e3 8f bd 78 a7 05 be 1a 53 d0 bd 4e df 14 3d
       -0.07025893 -0.13052166 -0.101721 0.036345772
000040 8b c4 4b be 08 f1 e3 bd 14 36 65 3e c8 09 96 3c
       -0.19899194 -0.111299574 0.2238391 0.018315211
000050 38 d3 b8 3d 64 18 19 3d dd 84 1d be 3f e3 28 3d
       0.09024662 0.037376776 -0.15382715 0.041232344
000060 27 de 67 3e 4d 92 d3 bd 6e 28 1d 3e fe b4 de bd
       0.22643338 -0.10330639 0.15347454 -0.10874365
000070 fc b6 0f 3e 40 ed 6c bd 18 77 01 be 28 d9 1c 3e
       0.14034647 -0.057843447 -0.12643087 0.15317214
000080 5d 84 a9 3d 76 d0 c1 bc ba 5c 9a bc 6f d3 a9 3d
       0.082771994 -0.023658972 -0.018843044 0.08292281
000090 bf e1 14 be 7e 36 08 3d b1 01 d0 bd 81 29 c7 3c
       -0.1453924 0.033255093 -0.101565726 0.024311783
0000a0 78 50 fb 3c 4d a4 36 bc 2f b3 c9 3c 12 6e 06 3e
       0.030678019 -0.011147571 0.024621574 0.13127926
0000b0 58 80 2e 3d 8f 31 f7 3d 85 65 74 bb 70 af 49 3d
       0.042602867 0.120699994 -0.0037291956 0.049239576
0000c0 e1 60 0f 3e 98 cf 36 3e 43 d3 8a bd e3 2a 08 bb
       0.140018 0.17852628 -0.06778576 -0.0020777516
0000d0 78 fc e9 bb bd 47 2e 3e 04 b2 67 bd 91 21 fa 3c
       -0.0071406923 0.17019553 -0.056566253 0.030533584
0000e0 e9 c3 df bd 7d 59 f8 bd 20 e2 e3 bd b2 e7 9f 3d
       -0.10926039 -0.121264435 -0.11127114 0.07807864
0000f0 f3 f6 95 3b 74 93 1b 3c 6d 49 4a 3d 0e 39 21 be
       0.004576558 0.009495605 0.04938643 -0.15744421
000100 6f 1a 17 be e4 66 00 3e 6c 72 33 be 4e a7 37 bd
       -0.14756177 0.1253925 -0.17524117 -0.04483729
000110 f7 c3 d5 bd 19 b3 1d 3e 62 bc df 3d 7f 40 28 bd
       -0.10437768 0.15400352 0.10924603 -0.041077133
000120 13 28 fa bd b0 e0 fa 3d a2 85 9f bd b5 86 d9 3d
       -0.12214675 0.12249887 -0.0778916 0.106213965
000130 40 fa cf 3b 8b 3c 01 be 5a 1f 2d 3e d0 e2 47 bc
       0.006346971 -0.12620752 0.16906491 -0.012200072
000140 ce 34 65 3d ce 6c 90 3d 1c 98 4b 3d 5f ba 4e 3d
       0.05595856 0.07052003 0.04970561 0.050470706
000150 67 50 6c 3d 92 5a 83 3d 4f da 0e be f8 a8 03 bd
       0.057693865 0.06413759 -0.13950466 -0.032143563
000160 21 aa 9f 3d dc 73 c8 bc b8 49 04 be f1 65 24 3e
       0.077961214 -0.024469309 -0.12918746 0.16054513
000170 bd ae 92 3b 78 aa 66 bd 0e 43 a8 3d 3a 0b 10 3e
       0.004476397 -0.056314915 0.08215915 0.14066783
000180 4b 15 a2 3d a1 8f 4c 3e bc 53 bb 3c 4c a9 60 bd
       0.079142176 0.19976665 0.022867076 -0.054848954
000190 7b e4 2e 3e 11 e9 ac 3d cb f5 c9 bc c6 02 fc bc
       0.17079346 0.084428914 -0.024653336 -0.030763041
0001a0 2d 53 52 3e 2f 5c 11 3d b4 41 00 3e 4e b3 1f 3e
       0.20539542 0.035488304 0.12525064 0.15595743
0001b0 54 ea c7 3d 5f 8c 00 be 54 2f 70 3c a9 68 4e 3c
       0.097614914 -0.12553547 0.014659721 0.012598195
0001c0 4a 84 da 3d 7e 1a 38 bd 2a 81 7c bd b2 6a d7 3d
       0.106697634 -0.04494714 -0.061646618 0.105183974
0001d0 5c 39 1c be 01 c1 38 bd 0f 18 bb 3d 3d 9a c2 bd
       -0.15256256 -0.045105938 0.09135448 -0.09502075
0001e0 27 5b 45 bd 7a 07 bc bd 1b 74 62 bd fd 90 ab bc
       -0.048182633 -0.091811135 -0.055286508 -0.02094316
0001f0 a7 58 81 3b c9 80 2b 3e 70 ea 12 3e ed 2a 1b 3e
       0.0039473358 0.16748346 0.14347243 0.15153094

lstm.bias_hh_l0 f4 [128]
000000 9b cd eb 3d c0 99 87 bd f0 51 f3 3d c8 e4 02 3d
       0.115138255 -0.06621122 0.11880863 0.031956464
000010 6a 6e dd 3d 74 2a a9 bd 30 66 ba bc 84 e8 e1 bd
       0.108120754 -0.082600504 -0.022753805 -0.11030677
000020 b8 f4 d4 3c 42 ba 2b 3d 7a 61 b8 bc 84 b5 b0 3d
       0.025995597 0.041925676 -0.022507418 0.08628371
000030 05 60 e8 3c b9 00 b0 3d a2 17 02 3d ad a5 a1 3d
       0.028366098 0.08593888 0.03176082 0.07892928
000040 43 bf 86 bd 2a 68 27 3e 4b 79 9f bb 2d 3e d6 bd
       -0.06579449 0.16348329 -0.004866754 -0.10461078
000050 40 5b eb bd 9f 3e 20 be 5f 34 33 3c 06 ee 1d 3e
       -0.11492014 -0.15648888 0.010937779 0.1542283
000060 29 8c 59 3e cc 05 19 3e 04 b1 ce bd c8 a0 0a 3c
       0.21244873 0.14943618 -0.10092357 0.008461185
000070 01 86 08 be 8b ba b9 bd 4b 6f 11 3d 28 ef 4e bd
       -0.13332368 -0.090687834 0.035506528 -0.050521046
000080 ce f0 ba bd b0 29 e1 bd ef 53 43 3e 5f d0 86 bd
       -0.09127961 -0.109942794 0.19074987 -0.065827124
000090 7b c6 df bd ac 48 55 3e ba f6 b0 3d db cb 8f 3d
       -0.10926529 0.20828503 0.08640809 0.07021304
0000a0 09 b5 9d 3d 74 c7 1b 3e 6a ba 42 bd eb 74 2c be
       0.07700545 0.15212804 -0.04754106 -0.16841476
0000b0 c5 72 c2 3c 2f e9 c1 3d 1a 54 f4 bd dd c5 d3 bd
       0.023736367 0.09468304 -0.119301036 -0.10340474
0000c0 a2 87 c9 bd bd b9 61 3e 45 02 83 bd f1 dd 21 3e
       -0.09840323 0.2204351 -0.06396917 0.1580732
0000d0 d2 10 42 3d 7e 73 0c bb 70 7c bd 3d 78 65 a0 3c
       0.047379322 -0.0021431143 0.0925225 0.019579634
0000e0 9d fe 84 bd 7e 30 db 3d 70 0a 3f 3d d5 33 fb 3d
       -0.06493876 0.107026085 0.046640813 0.122657456
0000f0 9d 2a 3a 3e d0 5d f3 bd 39 a8 e2 3d 4a 37 60 3c
       0.18180318 -0.11883128 0.11067242 0.013685057
000100 b1 5d e5 bd 3a 1d 29 bd 76 82 8a 3d ba 3f 77 3c
       -0.11199511 -0.04128764 0.06763165 0.015090877
000110 34 e2 20 3e 50 78 48 3c 54 a3 30 be c0 79 1b 3c
       0.1571129 0.012235716 -0.17249805 0.009489477
000120 60 6e 17 bd 6a db 1b be 99 d7 8c bd a7 dc 1c be
       -0.036970496 -0.15220419 -0.068770595 -0.15318547
000130 00 97 4d 3a 6e a8 8c bd 9e c7 d2 bd ec d5 f6 bd
       0.000784263 -0.06868063 -0.1029198 -0.12052521
000140 59 08 44 3e 78 b7 2b be b6 38 c8 bd 75 88 be 3d
       0.1914381 -0.16769207 -0.09776442 0.09303371
000150 95 e9 54 bd f3 30 1c be 4b ac 52 3e 22 5f 1a be
       -0.051980574 -0.15253048 0.20573537 -0.15075353
000160 8d c7 f0 3d 01 ff 70 bd 50 b5 6d bc 88 5f d6 3d
       0.11756811 -0.05883694 -0.01450856 0.1046744
000170 f2 2c a8 bc a4 aa 05 3e 00 c8 6e ba 65 0f 83 bd
       -0.020529244 0.13053375 -0.0009108782 -0.06399421
000180 e8 49 f5 ba ca 67 83 bc b6 7f f0 3d 9b 59 62 bd
       -0.0018714042 -0.016040701 0.11743109 -0.055261236
000190 fd e6 60 3e 07 73 59 bc 30 11 15 3d e3 6f ba bd
       0.21963115 -0.013272054 0.036393344 -0.09103372
0001a0 c3 d4 66 bc 86 98 de bd 95 d3 13 bd 4b 32 9f bd
       -0.014088812 -0.10868935 -0.036090452 -0.077732645
0001b0 05 1b 05 be b0 0c e3 bc 52 03 38 3e 31 43 44 3e
       -0.12998588 -0.02771601 0.17970017 0.19166256
0001c0 92 88 78 bd ba 67 de 3d 09 4d 5f bd 82 c5 e4 3d
       -0.06067712 0.10859628 -0.054516826 0.11170484
0001d0 7f dd dc 3d 00 8f 13 bb f3 7b 36 be 9d 28 df bd
       0.107844345 -0.0022515655 -0.1782072 -0.10896418
0001e0 c4 68 2e 3e 3a d7 03 be aa 47 3d bd dd cc 3b 3c
       0.17032152 -0.12875071 -0.046210922 0.011462417
0001f0 27 cc 2e 3e 96 c5 4d 3d 3f ef 04 3e e7 1b a5 3c
       0.17070065 0.05023726 0.1298189 0.020154906

fc1.weight f4 [16, 32]
000000 80 96 0b 3d d0 b1 19 be d8 f8 d2 bc e1 0f 07 3e
       0.034079075 -0.15009236 -0.025753424 0.13189651
000010 40 86 7c bc e8 a9 59 3d 88 22 20 bd 54 d1 10 be
       -0.015412867 0.05314055 -0.03909543 -0.14142352
000020 50 89 14 3c 16 9b 96 3d 38 c5 e7 bd d8 9f 78 3d
       0.009065941 0.07353799 -0.11316913 0.060699314
000030 9b e2 f4 bd b6 2e d6 3d 66 08 c9 3d 78 e5 b3 bc
       -0.11957284 0.10458128 0.09816055 -0.021960005
000040 d0 0e 3b bd 3c 0c f1 bd d4 1a fc bd 00 29 f0 3c
       -0.045668423 -0.11769912 -0.123098046 0.029316425
000050 fb 2a 0e 3e ad b8 27 3e 80 bd 36 bb 7b 63 ca bd
       0.13883583 0.16379042 -0.0027883947 -0.09882256
000060 90 6f 78 3d ac 8f 09 be 5c 27 78 3d 04 8f 06 be
       0.06065327 -0.13433713 0.06058441 -0.13140494
000070 c0 2a 94 3b 84 f1 94 bd 7e a7 85 3d 61 08 13 3e
       0.0045216978 -0.07272628 0.06526087 0.14358665
000080 c9 c0 82 3d 01 7e 2c 3d fa 82 08 be 02 fd 0d 3e
       0.06384427 0.042112354 -0.13331214 0.13866046
000090 48 06 21 be 15 65 79 bd 5b e3 e0 bd f1 be 36 be
       -0.15725052 -0.060887415 -0.109808646 -0.17846276
0000a0 a3 78 04 bd ad b7 3c 3e e9 26 0c 3e 21 bc 33 3d
       -0.03234161 0.18429442 0.13686718 0.043880586
0000b0 d3 f6 08 be 4f a6 33 3e b0 66 3a 3d d4 22 81 3d
       -0.13375406 0.1754391 0.045508087 0.06305471
0000c0 87 fb 03 be 95 c0 0e 3e fe db 44 be 30 08 e1 3c
       -0.12888919 0.13940652 -0.19224545 0.027469724
0000d0 ca 8c 3d 3d 01 2c c2 bd 9f f3 bc 3d dc 6b d0 bd
       0.046276845 -0.09481049 0.092261545 -0.101768225
0000e0 69 0b 26 be 81 82 e2 3d 62 4c 54 3d 6e 50 3e be
       -0.1621529 0.11060048 0.051830657 -0.18585369
0000f0 82 9b 23 3e 47 2a ac bd f5 62 03 be ae 8a e4 bd
       0.1597729 -0.08406501 -0.12830718 -0.111592636
000100 d9 82 e4 3d 19 90 b4 3d a2 af c1 3c d0 cb 2c 3e
       0.1115777 0.08816547 0.023643319 0.16874623
000110 0f 03 3b 3d 20 8e fb 3d 4e f0 d7 bc 7b 54 a8 bc
       0.045657214 0.122829676 -0.026359703 -0.020548096
000120 02 ae cb bd e5 8e 71 bd 10 f6 97 bd a3 4f ef 3d
       -0.09945299 -0.058974165 -0.074199796 0.116851114
000130 a5 00 91 3d 8f 3a f9 3d 4d 0a 9b bc 03 08 30 3e
       0.07080201 0.12169372 -0.01892581 0.17190556
000140 d5 4c 2c 3d 20 a6 89 bd 2c dc 2d be 5a 83 2a 3d
       0.04206546 -0.06721139 -0.1697852 0.041629173
000150 99 66 17 3e 21 90 4a 3e 2a 35 24 3e 24 1d c2 bb
       0.14785232 0.19781543 0.16035905 -0.005923884
000160 0f 0d 39 be 82 e8 1a be bd 54 dd bd f2 32 d4 3d
       -0.18071388 -0.15127757 -0.10807178 0.103612795
000170 7e 99 a3 3d dd ac 12 be 1e 80 7d 3d b5 d9 49 3e
       0.07988261 -0.14323755 0.06188976 0.19711955
000180 13 85 90 bd 82 5b d1 3d 48 93 18 bd 16 f5 f7 bd
       -0.07056632 0.10222532 -0.037249833 -0.12107293
000190 da c2 6c bd e3 18 e0 bd e9 47 2e 3e f4 08 84 3d
       -0.057803012 -0.10942247 0.17019619 0.0644702
0001a0 ce a7 ee 3d ba 15 98 3d e8 af 40 bd 83 d5 1a be
       0.116531 0.07426019 -0.047042757 -0.15120511
0001b0 9f de 0f 3e 39 cd 01 3e 1f f7 2e 3e 4a 44 01 be
       0.14049767 0.12675942 0.17086457 -0.12623706
0001c0 90 fe e7 bc 63 5b 29 3e a4 06 ee bd f4 37 6f 3d
       -0.028319627 0.16538768 -0.1162236 0.05840297
0001d0 00 42 79 bc 04 34 20 be 00 41 14 3b cc e2 9d bd
       -0.0152134895 -0.15644842 0.002262175 -0.07709274
0001e0 58 53 ef bc 1c f7 8e 3d 3a a2 b5 bd 87 98 21 3e
       -0.029214546 0.06980726 -0.08868833 0.15780841
0001f0 7b 4f 1e 3e 62 97 be bd 0a 16 d2 3d d8 5d 25 3d
       0.15460007 -0.09306218 0.1025811 0.0403727
000200 6d c8 4d bd 6e 43 56 3d 4d de f9 3d ac 8a 5f bd
       -0.05023997 0.0523104 0.12200604 -0.054575607
000210 c5 14 30 3e 0e 22 93 3b f8 d0 3c bb 07 22 f7 3c
       0.17195423 0.0044901436 -0.0028811079 0.030167593
000220 d0 cb bd bc 08 ef 17 3e 07 de 77 bd ac 99 f4 bd
       -0.023168474 0.14837277 -0.060514476 -0.11943373
000230 45 85 1c be 88 c6 05 3e 28 6e 73 bd 95 6d d4 bd
       -0.15285213 0.13064015 -0.059431225 -0.103724636
000240 1a 35 01 be 1b 71 08 3e 6f c5 10 bd 02 26 c3 bd
       -0.12617913 0.13324396 -0.035344537 -0.09528734
000250 80 71 f2 3d d0 db 7f 3c 4f eb 00 be a9 0b b5 3d
       0.11838055 0.015616372 -0.12589763 0.088401146
000260 6a f8 e2 3d 3f f9 c7 3c da 24 a1 3c 9c 2e 21 3e
       0.110825375 0.024410842 0.019670893 0.15740436
000270 05 da 23 be 65 cb 87 bd 29 de 06 be 5d 72 37 3d
       -0.16001137 -0.06630591 -0.13170685 0.0447868
000280 12 e1 27 3e 1b 7d 23 bd 4e e8 ce 3b 14 6d ae 3d
       0.16394451 -0.03991423 0.006314314 0.08516899
000290 e9 35 58 bd db 7a 24 3d 75 f0 5a bd e0 22 0e bd
       -0.052785788 0.040156227 -0.053451974 -0.03470123
0002a0 2e 0a 10 3e 18 29 02 bd 8e 4a a4 3d dc 1c 3f be
       0.14066383 -0.03177747 0.08022033 -0.18663353
0002b0 e7 d8 2b 3e ec b3 03 be 6a ff d2 bd 79 4b 1b 3e
       0.1678196 -0.12861603 -0.103026226 0.1516551
0002c0 9b 40 f3 bd 52 9f 04 be fa b5 8c bd c8 9e 04 3e
       -0.11877557 -0.12951401 -0.06870647 0.12951195
0002d0 0a 15 00 3e ca 6d 93 3d ed 41 8d bd 54 b3 99 3d
       0.12508026 0.07198675 -0.0689734 0.07504907
0002e0 71 06 20 be bc b8 eb bd c9 b1 bd 3d 72 f0 ba 3c
       -0.15627457 -0.11509845 0.092624255 0.022819731
0002f0 6a 9b 9a 3c 1d b2 89 bd a9 0a bc 3c 88 b7 17 bd
       0.018872935 -0.067234255 0.022954302 -0.037040263
000300 92 77 e1 3d f9 e4 e4 bc 38 47 ee bd 27 14 26 bd
       0.11009134 -0.027941214 -0.11634678 -0.040546563
000310 47 2d da bd db 9d 39 bd 4f d1 b7 3d ff 4d eb 3d
       -0.10653167 -0.04531656 0.08975469 0.11489486
000320 54 f9 38 3e 8b b6 b7 bd 38 d0 c9 bd 8a 80 10 3e
       0.18063861 -0.08970364 -0.09854168 0.14111534
000330 cf 11 8e 3d e7 69 da 3d 3a 4d c0 3c 0f d4 8e bd
       0.069369905 0.106647305 0.023474324 -0.06974041
000340 8c 62 e7 3c f3 68 16 bd 6d ad c9 bd 96 12 1f 3e
       0.028245233 -0.03672118 -0.098475315 0.15534434
000350 fa a9 1e be e0 62 bd bc e9 fe e1 3c 36 60 3f 3e
       -0.15494528 -0.023118436 0.027587371 0.18689045
000360 31 35 66 3d d2 8d 06 bd 66 60 2d 3e a2 5c 10 3e
       0.05620307 -0.032850094 0.16931304 0.14097837
000370 ca c3 33 3d 8f 60 12 3e 4c 81 85 bd 98 e3 5c bd
       0.04388789 0.14294647 -0.06518802 -0.053927988
000380 33 a4 6b bd 3e 11 23 3e 6c e3 ca 3b 0b 16 ab bd
       -0.05752964 0.15924546 0.0061916616 -0.08353814
000390 c3 2f 83 bd 58 1f 3c 3d 46 9a 9d bb 61 d7 81 3a
       -0.06405594 0.04592833 -0.0048096506 0.0009906107
0003a0 46 92 9f 3d e0 91 34 bd 7b da 30 bd 48 74 f3 bc
       0.07791571 -0.04408443 -0.04317711 -0.029718533
0003b0 9e 2e 16 be 88 01 c2 bd cd 9d 3b be ea cf cf 3d
       -0.1466622 -0.09472948 -0.18321915 0.10147078
0003c0 f4 85 04 be 31 e5 9c 3c a8 13 12 3e 2a ca ce 3d
       -0.12941724 0.019152256 0.14265311 0.100971535
0003d0 56 23 2d bd 19 d9 39 3e 5c dd 1a be b9 6e 19 be
       -0.042270027 0.18149222 -0.15123504 -0.14983644
0003e0 0a 42 f2 ba c6 47 cc 3d 43 e8 bf 3d f1 90 a3 bd
       -0.0018482816 0.09974627 0.09370472 -0.0798663
0003f0 cf f9 93 3c 94 41 25 bd f6 fb a2 3d 19 ac 3b bd
       0.018063454 -0.040345743 0.07958214 -0.045818422

fc1.bias f4 [16]
000000 83 01 2d be ea 78 22 3e dc b8 c3 bd bb 8a 30 be
       -0.16895108 0.15866438 -0.095567435 -0.17240421
000010 b7 1b 2a be 66 cd 3c be 1c fd f1 bd 3b b3 27 be
       -0.16612135 -0.18437728 -0.11815855 -0.16376965
000020 72 ab 25 be ad 71 01 be 90 6d 18 be c0 0a a8 bd
       -0.16178682 -0.1264102 -0.14885545 -0.082051754
000030 b7 27 c3 bd 20 9d 10 be 1d 82 ff 3d 5f 80 74 3d
       -0.095290594 -0.14122438 0.12475989 0.059692737

out.weight f4 [1, 16]
000000 40 54 12 bd 40 67 2d be 93 15 23 bd 18 ea cc bd
       -0.03572488 -0.16933918 -0.039815497 -0.10005587
000010 dd ff 80 bb 16 4e 34 bd ad 3c ce bb a3 72 ff bd
       -0.0039367513 -0.04401978 -0.006293854 -0.12473037
000020 58 cb 34 bd ba 4b 1c 3e e0 18 c4 bd a8 2f 31 bd
       -0.044139236 0.15263262 -0.09575057 -0.04325834
000030 f8 88 88 3e 14 19 0c be 61 26 39 3e 6d 36 3c be
       0.26667 -0.13681442 0.18081047 -0.18380137
