artifacts/territory/lstm/199__0__0/model.pt (torch, 23217 bytes, 7 tensors)

lstm.weight_ih_l0 f4 [128, 1]
-0.01831388 -0.1641366 -0.032939762 0.0701952 0.16994685 0.013878929 0.09947585 0.12939133
-0.038740605 0.049928404 0.10052686 -0.13794926 0.1437055 0.011271656 -0.017704966 0.15838487
0.0017248071 0.10767999 0.04983637 0.00096596684 -0.022148963 -0.00040784184 0.13769116 0.08044707
-0.10797461 0.039691135 -0.021287598 -0.014072405 0.16199392 0.079847954 3.9337086e-05 -0.030753128
-0.03788411 -0.124990925 -0.11119705 -0.085249335 -0.06857567 -0.07089056 0.15482862 -0.12797
-0.06451377 -0.021526178 0.10672561 -0.028273173 -0.065767445 -0.16833147 -0.15773858 0.15741901
0.14207973 -0.03900538 -0.12606865 0.14477098 -0.047833405 0.090251215 0.09017285 0.1435808
-0.069693565 -0.043749373 0.08256629 -0.017099954 0.010013207 0.0072502843 0.09222944 0.12122535
-0.14372942 -0.01721772 -0.12565768 -0.09712937 -0.12739715 -0.12501815 0.15946321 -0.17556219
0.114492044 0.041946013 0.16493194 -0.054943334 0.13652678 0.03986027 0.15631597 -0.11841524
-0.04925241 -0.14811721 -0.12049447 0.11699946 0.10890873 0.040915783 0.020390287 -0.03725892
0.12195371 0.010741416 -0.11340459 -0.17417008 -0.16661486 0.10131718 -0.14962211 0.057890393
0.1846445 -0.17669225 0.08195191 -0.02617453 -0.05541395 0.11949839 0.06999201 -0.16621657
-0.13832337 0.14339107 0.039359875 0.06584807 -0.06096054 -0.042558614 -0.022203729 -0.15689942
0.025793554 0.080387376 0.108483985 -0.027024776 0.17103472 0.057637375 -0.1516337 -0.06927067
0.016785856 0.073115975 -0.02425148 0.092669204 0.059854325 0.099847056 0.026651874 0.08813654
00000000: fd06 96bc 6d13 28be d8eb 06bd 80c2 8f3d
00000010: 8c06 2e3e 7364 633c ffb9 cb3d 297f 043e
00000020: 78ae 1ebd ba81 4c3d 07e1 cd3d 9242 0dbe
00000030: 8927 133e c0ac 383c 010a 91bc a52f 223e
00000040: ec12 e23a 5487 dc3d 3921 4c3d f038 7d3a
00000050: be71 b5bc 9bd3 d5b9 e9fe 0c3e 6fc1 a43d
00000060: cb21 ddbd 2c93 223d 5463 aebc f28f 66bc
00000070: bce1 253e 5387 a33d e0fd 2438 fced fbbc
00000080: 5e2c 1bbd 3efb ffbd 47bb e3bd 3497 aebd
00000090: 6771 8cbd 122f 91bd 658b 1e3e 910a 03be
000000a0: cc1f 84bd ab57 b0bc f592 da3d 249d e7bc
000000b0: 15b1 86bd 165f 2cbe 3986 21be 7332 213e
000000c0: 597d 113e 1bc4 1fbd 2418 01be d83e 143e
000000d0: f6ec 43bd a1d5 b83d 8bac b83d d806 133e
000000e0: 80bb 8ebd 8b32 33bd 8418 a93d 3415 8cbc
000000f0: 6f0e 243c cb93 ed3b cae2 bc3d ff44 f83d
00000100: ce2d 13be 2d0c 8dbc 68ac 00be c3eb c6bd
00000110: 6674 02be c204 00be 534a 233e 93c6 33be
00000120: ce7a ea3d 95cf 2b3d ebe3 283e 430c 61bd
00000130: adcd 0b3e 8644 233d 4b11 203e b083 f2bd
00000140: e5bc 49bd 0aac 17be cec5 f6bd 6a9d ef3d
00000150: 8a0b df3d 4f97 273d 8809 a73c cf9c 18bd
00000160: dec2 f93d c4fc 2f3c aa40 e8bd a459 32be
00000170: 169d 2abe 627f cf3d 8a36 19be 7a1e 6d3d
00000180: 7313 3d3e d0ee 34be 67d6 a73d f86b d6bc
00000190: bdf9 62bd 92bb f43d f957 8f3d ad34 2abe
000001a0: a4a4 0dbe 1cd5 123e d237 213d 5adb 863d
000001b0: c2b1 79bd f151 2ebd 98e4 b5bc 3eaa 20be
000001c0: 014d d33c 23a2 a43d da2c de3d 1063 ddbc
000001d0: ba23 2f3e 2b15 6c3d dd45 1bbe c8dd 8dbd
000001e0: 7e82 893c d4bd 953d 0aab c6bc 5ac9 bd3d
000001f0: cf29 753d 9d7c cc3d 0855 da3c ee80 b43d

lstm.weight_hh_l0 f4 [128, 32]
-0.15422727 0.10045554 0.017490275 -0.015121386 0.08609858 0.042910814 0.21190032 -0.05994835
-0.014572109 0.1248434 0.043602858 0.024960883 0.068480946 -0.03649061 -0.0789062 -0.14256705
0.09077889 -0.18033136 -0.13061121 -0.09540413 0.1799396 -0.10796753 0.15242107 -0.118759446
0.0008853437 0.18386678 -0.12055669 -0.002346759 -0.009122664 0.057144627 -0.07601353 -0.023469122
-0.016919121 -0.08426316 0.022937164 -0.0753801 -0.041393235 0.08156006 -0.07373947 0.08768518
0.067207575 0.02631621 0.13274007 -0.008403659 0.13823898 0.17005588 -0.048971727 -0.16982453
0.11900334 -0.103597075 -0.08123529 0.10389878 -0.089379005 -0.026824936 0.11546908 0.136524
0.16014062 0.115245596 -0.16168709 0.15391715 -0.10382798 -0.12785843 0.048957393 0.013281167
0.18908717 -0.15578824 0.019865887 -0.031349864 -0.13541077 -0.069917746 0.13792123 -0.044583127
0.036602594 0.00957925 0.049970012 0.119488016 0.0417144 0.13560428 -0.17647938 -0.11693568
0.0035380367 0.15057637 0.0752476 -0.06476112 -0.1749764 -0.032189406 0.043635234 0.16421078
-0.008687881 -0.016268507 -0.15062796 -0.15271671 -0.09552355 0.12636843 -0.051360294 0.13147032
0.16373797 -0.07169162 0.10807215 -0.069383696 0.10040109 0.03657415 0.1490772 0.13229255
0.17307623 -0.043816715 -0.06801202 0.056849077 0.09331507 -0.12620959 0.054713134 0.12629513
-0.19645223 -0.0066148224 0.16055503 -0.16319129 0.059215076 -0.095150016 0.102818355 0.11836378
-0.12655883 0.07195729 0.07892318 -0.08909757 -0.03755162 0.0033879846 -0.15856785 -0.10312477
0.14403681 0.1486937 -0.044011354 -0.044056058 -0.13151696 -0.16175266 -0.026371043 0.05840078
-0.07391763 -0.08830856 -0.13933724 0.011227578 0.08113788 -0.056169696 -0.05902061 0.063792735
-0.14964207 0.056208152 -0.032580208 -0.0847849 -0.06815742 -0.02871165 -0.04524894 0.14084609
-0.057885833 0.008615716 0.02714866 -0.13005333 -0.1515772 0.056814615 0.17122 0.0056908303
-0.12899671 0.0066002635 -0.13314864 -0.0452655 -0.10677619 -0.116151534 -0.018073598 -0.0021682843
0.06314345 0.0853223 -0.10269589 -0.1475646 -0.13024844 0.085387155 0.19125855 -0.0013424793
-0.09310795 -0.08090936 -0.19999059 -0.027626624 0.1934112 -0.12666516 -0.06055505 -0.19269423
0.040026493 0.13937952 0.043300793 0.08869624 -0.01679295 0.19497788 0.12421696 -0.12220297
0.16701414 0.09221153 0.029632851 0.09462978 -0.115624756 0.039073817 0.016920313 0.038115874
0.057296664 0.161477 0.14774561 0.17412128 0.13650577 -0.04147467 0.17114241 -0.029068679
0.035441715 -0.022584405 0.13401166 0.01163581 -0.10997815 0.013639814 0.00907135 0.14446898
-0.007726699 0.17680779 0.023728132 0.10585768 -0.03919946 0.14739157 0.14718857 -0.10781404
0.11636655 0.06276779 -0.0726289 0.09696849 0.017464623 -0.109985024 0.02380572 0.15210722
-0.13082418 0.036943097 -0.02112967 -0.069185466 -0.020288438 -0.11212252 0.03054589 0.021168396
-0.16234285 0.15041804 0.052866444 0.16633861 -0.09739538 -0.11500351 0.006908357 0.051888585
-0.12937419 0.11372316 0.09557094 0.014108055 0.075251766 0.021287566 -0.1766657 -0.02906172
00000000: c1ed 1dbe a2bb cd3d c447 8f3c b1bf 77bc
00000010: 7454 b03d 40c3 2f3d 66fc 583e 678c 75bd
00000020: dbbf 6ebc e6ad ff3d e998 323d c47a cc3c
00000030: bd3f 8c3d 2e77 15bd 9399 a1bd 19fd 11be
00000040: 48ea b93d c9a8 38be f2be 05be 3e63 c3bd
00000050: 1642 383e 151e ddbd 4514 1c3e 2738 f3bd
00000060: 6916 683a 9347 3c3e 6de6 f6bd 15cc 19bb
00000070: 3a77 15bc 7c10 6a3d fbac 9bbd 5142 c0bc
00000080: f899 8abc 2a92 acbd b8e6 bb3c e260 9abd
00000090: f48b 29bd f608 a73d b804 97bd 4a94 b33d
000000a0: 20a4 893d 1895 d73c 03ed 073e 80af 09bc
000000b0: 858e 0d3e 2123 2e3e 9496 48bd 7be6 2dbe
000000c0: 06b8 f33d b42a d4bd b05e a6bd e2c8 d43d
000000d0: 570c b7bd f8bf dbbc 0e7b ec3d f3cc 0b3e
000000e0: e7fb 233e e205 ec3d 4d91 25be 759c 1d3e
000000f0: c4a3 d4bd 52ed 02be 8c87 483d 4099 593c
00000100: 11a0 413e f486 1fbe c9bd a23c b768 00bd
00000110: 1fa9 0abe 0931 8fbd 393b 0d3e cc9c 36bd
00000120: 9aec 153d 49f2 1c3c 5bad 4c3d 22b6 f43d
00000130: b8dc 2a3d d9db 0a3e 03b7 34be f97b efbd
00000140: 68de 673b b130 1a3e 6a1b 9a3d 7aa1 84bd
00000150: 032d 33be 0ad9 03bd dcba 323d df26 283e
00000160: 9d57 0ebc 8845 85bc 373e 1abe c561 1cbe
00000170: daa1 c3bd ba66 013e 2c5f 52bd 28a0 063e
00000180: edaa 273e 0ed3 92bd ee54 dd3d 0a19 8ebd
00000190: 169f cd3d c7ce 153d b2a7 183e b377 073e
000001a0: e53a 313e 2879 33bd e349 8bbd 94da 683d
000001b0: f91b bf3d 163d 01be e11a 603d 8353 013e
000001c0: c62a 49be 27c1 d8bb 8a68 243e 9e1b 27be
000001d0: 828b 723d 03de c2bd 6e92 d23d b668 f23d
000001e0: a398 01be 585e 933d 7aa2 a13d c978 b6bd
000001f0: bacf 19bd f308 5e3b 9c5f 22be 1433 d3bd
00000200: 637e 133e 2943 183e 4045 34bd 2074 34bd
00000210: 62ac 06be 7da2 25be 1608 d8bc a835 6f3d
00000220: 2062 97bd 1edb b4bd 6cae 0ebe e0f3 373c
00000230: 9e2b a63d 3212 66bd 98bf 71bd c4a5 823d
00000240: c53b 19be 853a 663d d372 05bd b5a3 adbd
00000250: 1e96 8bbd b234 ebbc f456 39bd f539 103e
00000260: b219 6dbd ef28 0d3c de66 de3c b32c 05be
00000270: 0e37 1bbe 71b6 683d 4c54 2f3e 257a ba3b
00000280: b717 04be 0647 d83b 1e58 08be 5168 39bd
00000290: 7aad dabd dbe0 edbd 150f 94bc c619 0ebb
000002a0: 5a51 813d 75bd ae3d 3952 d2bd 2d1b 17be
000002b0: d95f 05be 76df ae3d 48d9 433e 21f6 afba
000002c0: 62af bebd ceb3 a5bd 55ca 4cbe 3b51 e2bc
000002d0: 960d 463e 83b4 01be 9208 78bd a351 45be
000002e0: d2f2 233d 81b9 0e3e 2c5c 313d 60a6 b53d
000002f0: 5e91 89bc 48a8 473e 7665 fe3d 8d45 fabd
00000300: c105 2b3e 66d9 bc3d 98c0 f23c 42cd c13d
00000310: accc ecbd de0b 203d 789c 8a3c 641f 1c3d
00000320: e8af 6a3d 3a5a 253e a04a 173e d94c 323e
00000330: 2bc8 0b3e 58e1 29bd f53f 2f3e 7021 eebc
00000340: 552b 113d ee02 b9bc 5a3a 093e 20a4 3e3c
00000350: 393c e1bd 8779 5f3c 00a0 143c adef 133e
00000360: 4030 fdbb 1a0d 353e 8061 c23c e9cb d83d
00000370: 9d8f 20bd d1ed 163e 9ab8 163e 9bcd dcbd
00000380: 9651 ee3d 668c 803d 76be 94bd 6a97 c63d
00000390: f811 8f3c d43f e1bd 3704 c33c ffc1 1b3e
000003a0: c6f6 05be a551 173d 2118 adbc 1cb1 8dbd
000003b0: f033 a6bc 7ea0 e5bd 603b fa3c 5869 ad3c
000003c0: 343d 26be 3007 1a3e 7c8a 583d ab54 2a3e
000003d0: 3b77 c7bd f686 ebbd 805f e23b 2089 543d
000003e0: ab7a 04be b0e7 e83d b2ba c33d 7925 673c
000003f0: 991d 9a3d 4363 ae3c dae7 34be d812 eebc

lstm.bias_ih_l0 f4 [128]
0.051625803 -0.066947445 -0.15553194 0.16785407 0.0037477687 -0.13984069 -0.024697356 -0.12092579
0.05816075 -0.03533183 -0.16932665 -0.028972862 0.07719553 0.1232786 -0.17078027 -0.100959904
0.12746555 0.15840088 0.0976393 0.11496725 -0.023153309 -0.15734012 -0.039121166 -0.034257878
0.10367903 0.1767387 0.074155755 -0.1006641 -0.02869502 -0.017383238 0.07638041 0.052997705
-0.074017 0.06083584 0.0049605137 0.0035342672 0.005495444 0.0149463555 0.039061457 -0.12925477
-0.12751985 0.0129892435 -0.09287628 0.10864401 -0.11521503 0.16904828 0.11088784 0.16465653
-0.007983337 -0.09117566 0.06390091 -0.13687842 0.05840819 -0.17450051 0.0010239617 0.12804201
-0.07371796 -0.0028775914 0.124485515 -0.16058825 -0.102838695 -0.070442565 -0.0139845135 0.11546562
-0.036990672 -0.0020199572 -0.06801266 0.0260152 -0.048189446 0.16733591 0.12827857 -0.05727803
-0.05152382 0.043604422 0.17142008 -0.09229223 0.17362459 0.13734084 0.14798872 0.0644823
0.021060176 0.15760045 0.08522488 -0.028657407 0.10115318 -0.04224415 0.09515429 -0.16364859
0.03926693 -0.08834407 0.06557369 -0.06285762 0.11477475 -0.06882487 0.08025618 -0.08152441
-0.06168766 0.0034605577 -0.08183291 -0.061617 0.14099146 0.103742845 -0.14376347 0.10384564
-0.005666293 0.080581814 0.16181953 0.120018035 0.00818405 0.066631384 0.11196992 -0.105401464
0.08553247 -0.0862272 0.055433717 -0.036637392 -0.052337687 -0.113781 -0.11906366 -0.038306788
0.16034323 -0.13885826 -0.17167789 -0.038155045 0.14142002 -0.00075889507 0.16552682 -0.05595154
00000000: 9475 533d be1b 89bd c443 1fbe f0e1 2b3e
00000010: 209d 753b 6632 0fbe 1c52 cabc f1a7 f7bd
00000020: f739 6e3d 1cb8 10bd f763 2dbe 7f58 edbc
00000030: b118 9e3d 7e79 fc3d 06e1 2ebe 11c4 cebd
00000040: 5486 023e d733 223e 1df7 c73d f373 eb3d
00000050: 02ac bdbc c51d 21be 843d 20bd fd51 0cbd
00000060: ac55 d43d fdfa 343e f9de 973d fb28 cebd
00000070: d211 ebbc 4b67 8ebc 556d 9c3d 1f14 593d
00000080: 3a96 97bd 002f 793d ce8b a23b 2a9f 673b
00000090: 2013 b43b 8fe1 743c e8fe 1f3d 5d5b 04be
000000a0: 9094 02be d6d0 543c eb35 bebd c080 de3d
000000b0: dcf5 ebbd fe1a 2d3e 2a19 e33d b99b 283e
000000c0: 8bcc 02bc 4eba babd 7bde 823d db29 0cbe
000000d0: 6d3d 6f3d 43b0 32be 7436 863a 721d 033e
000000e0: 71f9 96bd f995 3cbb 43f2 fe3d 3f71 24be
000000f0: 189d d2bd 3144 90bd 4d1f 65bc 3d79 ec3d
00000100: 8883 17bd 4261 04bb 394a 8bbd d41d d53c
00000110: 4c62 45bd 1b5a 2b3e 755b 033e 5e9c 6abd
00000120: a40a 53bd 8d9a 323d bf88 2f3e b503 bdbd
00000130: a5ca 313e 14a3 0c3e 5b8a 173e 4c0f 843d
00000140: 6486 ac3c 0362 213e 628a ae3d f0c2 eabc
00000150: 6629 cf3d 3408 2dbd 41e0 c23d 7f93 27be
00000160: 5cd6 203d bced b4bd 804b 863d 7fbb 80bd
00000170: 060f eb3d 0ef4 8cbd 5a5d a43d 45f6 a6bd
00000180: 33ac 7cbd 86ca 623b 0398 a7bd 1b62 7cbd
00000190: 1160 103e 2177 d43d bb36 13be 06ad d43d
000001a0: 50ac b9bb 1408 a53d 05b4 253e 04cc f53d
000001b0: 6516 063c 0976 883d 7c50 e53d b9dc d7bd
000001c0: a62b af3d e397 b0bd 770e 633d 1711 16bd
000001d0: 0b60 56bd 0306 e9bd a6d7 f3bd 94e7 1cbd
000001e0: 0431 243e dc30 0ebe 54cc 2fbe 7748 1cbd
000001f0: 69d0 103e 96f0 46ba dd7f 293e 712d 65bd

lstm.bias_hh_l0 f4 [128]
-0.058400173 -0.04829514 0.03676399 -0.051791318 -0.081674695 0.20048809 0.16305056 -0.13269436
0.09951437 0.16368824 0.019925078 0.11236892 -0.1718668 -0.13507347 -0.035283484 0.06102456
0.023359558 0.02010981 0.012910621 -0.059640154 0.13642858 -0.16734532 -0.14119786 -0.14759763
0.16635406 0.016986663 -0.019778444 0.11956703 0.16333614 -0.11099364 -0.007634999 0.06428702
-0.16127905 0.15426822 0.08358836 0.09690738 -0.11497429 0.07183195 0.104730144 0.16991016
-0.1500183 0.09178028 -0.16159107 -0.15400426 -0.0033067004 0.12273595 0.085756704 -0.14957695
0.03926067 -0.15891361 -0.0136533035 -0.021630213 -0.039151456 -0.078745656 0.13062687 0.110640585
-0.10803744 -0.14517465 -0.18799314 0.0001603141 0.025349468 0.19282435 0.10390994 0.15254486
-0.1546399 0.065019816 -0.10774115 -0.13998951 -0.1431014 -0.14480424 0.17308961 0.13260426
-0.16795062 -0.11781441 0.13815297 0.08787077 -0.17018113 -0.0085185915 -0.06287825 -0.09080939
-0.10951909 -0.032904252 0.077699855 -0.06343212 0.10506518 -0.043967173 0.079370625 -0.050780695
0.06538032 0.089344874 0.07370819 -0.0038588196 -0.11730515 0.17480536 0.0974461 0.07015095
0.09779592 -0.0264308 -0.0952932 0.10952452 0.13900347 -0.09350058 -0.13809791 -0.08760957
-0.15197118 0.10688764 0.043569718 -0.14382033 -0.17579077 0.08057364 -0.025127942 0.15624917
0.042399783 -0.09129858 -0.09704267 -0.0383391 -0.010729585 -0.15064064 0.02813587 0.16191465
0.059134234 -0.06800756 -0.064512335 -0.12981868 -0.050509878 0.06604607 0.0005715259 -0.07291641
00000000: 0535 6fbd 20d1 45bd d695 163d 2223 54bd
00000010: 1045 a7bd c04c 4d3e baf6 263e 08e1 07be
00000020: 31ce cb3d e49d 273e eb39 a33c ad21 e63d
00000030: dafd 2fbe b350 0abe 6a85 10bd e4f4 793d
00000040: 8b5c bf3c 54bd a43c 1287 533c 3c49 74bd
00000050: efb3 0b3e 925c 2bbe 2c96 10be d523 17be
00000060: b858 2a3e 9d27 8b3c 6706 a2bc 8fdf f43d
00000070: 9741 273e a250 e3bd 042f fabb eaa8 833d
00000080: 5626 25be 7df8 1d3e 6030 ab3d 6077 c63d
00000090: a477 ebbd a11c 933d c27c d63d eefc 2d3e
000000a0: 669e 19be 4df7 bb3d 2178 25be 4bb3 1dbe
000000b0: 3ab5 58bb fc5c fb3d 36a1 af3d b32a 19be
000000c0: cccf 203d 40ba 22be 1bb2 5fbc d831 b1bc
000000d0: 475d 20bd 6745 a1bd 0dc3 053e 8897 e23d
000000e0: bc42 ddbd aaa8 14be 4681 40be fd19 2839
000000f0: b0a9 cf3c bf73 453e bcce d43d b834 1c3e
00000100: ec59 1ebe 1c29 853d 64a7 dcbd 6959 0fbe
00000110: 2c89 12be 9047 14be 673e 313e 69c9 073e
00000120: 3ffb 2bbe ae48 f1bd f977 0d3e 97f5 b33d
00000130: f643 2ebe 9091 0bbc 50c6 80bd 46fa b9bd
00000140: 8b4b e0bd 9cc6 06bd 1a21 9f3d b3e8 81bd
00000150: 6a2c d73d ec16 34bd 118d a23d 6bff 4fbd
00000160: 1ee6 853d 72fa b63d 52f4 963d 40e4 7cbb
00000170: af3d f0bd 2d00 333e d291 c73d 4dab 8f3d
00000180: 3a49 c83d 6885 d8bc 1529 c3bd 644e e03d
00000190: ed56 0e3e 3b7d bfbd 8a69 0dbe a56c b3bd
000001a0: 559e 1bbe e8e7 da3d 2976 323d a345 13be
000001b0: 7f02 34be cb03 a53d 1dd9 cdbc c8ff 1f3e
000001c0: 65ab 2d3d c0fa babd 4fbe c6bd 7609 1dbd
000001d0: 24cb 2fbc 8a41 1abe 327d e63c f4cc 253e
000001e0: bd36 723d 8c47 8bbd 0b1f 84bd 30ef 04be
000001f0: 72e3 4ebd 2943 873d 74d2 153a 3355 95bd

fc1.weight f4 [16, 32]
-0.08555371 -0.033992216 0.090151824 -0.1148026 -0.04368776 0.044811703 0.14785744 0.14527975
-0.05691462 -0.061346836 0.14198484 0.0703997 -0.17133588 0.025670478 0.13688771 0.093627706
-0.056531094 -0.011138729 -0.088602126 0.07088994 -0.082395345 -0.12968758 -0.11353374 0.15174791
-0.14473978 0.05810327 0.015876781 -0.06914023 0.13585593 -0.101001345 -0.11153556 -0.1662874
-0.059170827 -0.013369739 -0.039241314 -0.10408764 -0.07818213 -0.026366476 0.0794598 0.1082304
-0.014657557 0.08745078 -0.050660178 0.07597392 0.11873987 -0.07407612 -0.007063837 -0.1762779
-0.06982696 -0.12284177 -0.04957482 -0.122330904 -0.08788772 -0.17782457 -0.118038595 0.034091763
-0.11488459 -0.11860531 -0.120049104 -0.1578633 0.14993452 0.087223336 -0.026277784 -0.0895472
-0.0024620718 -0.16438647 0.0832079 -0.1703636 0.10250494 -0.077900395 0.2199791 -0.14780223
-0.08031156 -0.06164101 0.1443973 0.04817178 -0.0028986176 -0.06716315 -0.049593147 0.082557335
-0.2246371 -0.05234006 -0.014605166 -0.037976027 0.185078 0.17259306 -0.14116418 0.12898007
0.029754227 -0.09064801 0.16020332 0.0069224914 -0.103587754 0.15385827 -0.20711207 0.16163251
-0.059330713 0.07884909 -0.048584037 -0.12049603 0.06366827 0.15893072 0.012362729 0.1328399
0.15649398 -0.14838237 0.093071364 -0.0511187 0.004099692 -0.11554676 0.16049941 0.04091993
0.04719903 -0.13554128 0.113869235 -0.11420146 -0.019639174 -0.137385 -0.06368199 0.115616
-0.14165169 0.12178787 0.1259375 0.07724709 0.18455876 0.12872942 -0.13606079 0.0068745543
0.09638648 0.027649552 0.045152154 0.18021367 0.12837933 0.13257062 -0.13736956 -0.1356445
-0.073634885 0.048274774 -0.018967187 0.06559111 0.121441744 0.08095336 0.16010486 0.022060081
-0.14772229 -0.15320364 -0.099943005 0.020040778 0.16011018 -0.1646759 0.02029173 -0.10836885
0.021634102 -0.089132324 0.08883449 -0.086745664 0.14159925 0.13413915 -0.05444571 0.1052726
0.17634743 0.027987048 -0.12535092 -0.15358481 -0.1419741 0.04870241 0.07628937 -0.14649327
-0.02217348 0.026315698 -0.11293112 -0.06453247 0.061291777 0.042830355 -0.13460164 0.1413611
-0.10983692 -0.15253046 -0.020250082 0.14166737 0.16010334 -0.17367439 -0.16699508 0.04412641
-0.16585526 -0.08735986 -0.0072403373 -0.054470897 -0.13264945 -0.097523645 0.098993324 -0.1164022
0.114274904 0.046603933 0.10039063 -0.030393615 0.035407186 -0.071762 -0.069291905 0.08397104
-0.08531797 0.054153576 -0.045555472 0.067261755 0.019754797 -0.15171804 -0.042645633 -0.019947529
0.09866069 -0.0540872 0.14216991 -0.03103593 0.09828718 0.037175924 -0.118553326 0.11557935
-0.038466558 -0.09382274 0.007149264 0.10043241 0.14634393 0.003055632 -0.10345517 0.096391454
-0.051673245 0.12592866 -0.003963442 0.08580483 0.1368036 -0.033462808 0.19227526 -0.14072844
-0.08778651 -0.113818385 0.09226564 -0.06991751 -0.031084562 -0.09281304 0.1266351 -0.06566802
-0.20948277 -0.1619246 0.03293165 -0.048625886 -0.13375518 0.02483739 0.01393643 0.084402345
0.12705557 0.16722484 -0.01279392 0.018597508 -0.13921387 0.20120332 -0.15416043 -0.0017667105
00000000: c936 afbd 6c3b 0bbd 85a1 b83d a01d ebbd
00000010: f0f1 32bd 7a8c 373d f167 173e 37c4 143e
00000020: 4e1f 69bd d246 7bbd 7964 113e b82d 903d
00000030: ac72 2fbe e54a d23c 4b2c 0c3e e2bf bf3d
00000040: 268d 67bd 377f 36bc 0875 b5bd bf2e 913d
00000050: e4be a8bd d2cc 04be 6184 e8bd ce63 1b3e
00000060: aa36 14be b2fd 6d3d 0610 823c 6599 8dbd
00000070: d11d 0b3e cbd9 cebd c16c e4bd 3f47 2abe
00000080: 1c5d 72bd c00c 5bbc 80bb 20bd e72b d5bd
00000090: f41d a0bd 82fe d7bc d2bb a23d e6a7 dd3d
000000a0: 4026 70bc 6519 b33d 0c81 4fbd 3798 9b3d
000000b0: e42d f33d 39b5 97bd c277 e7bb 3282 34be
000000c0: 7001 8fbd 7794 fbbd f70e 4bbd a088 fabd
000000d0: 7afe b3bd a517 36be 38be f1bd cea3 0b3d
000000e0: 9d48 ebbd 57e7 f2bd 4edc f5bd eba6 21be
000000f0: 6f88 193e 26a2 b23d 8244 d7bc 8664 b7bd
00000100: b65a 21bb ed54 28be e768 aa3d cc73 2ebe
00000110: 1cee d13d 3e8a 9fbd 3442 613e 7859 17be
00000120: 637a a4bd 497b 7cbd e3dc 133e c64f 453d
00000130: bcf6 3dbb d58c 89bd 2f22 4bbd d213 a93d
00000140: 4507 66be 8862 56bd 824a 6fbc c08c 1bbd
00000150: 1685 3d3e 3cbc 303e 588d 10be 5a13 043e
00000160: 23bf f33c aaa5 b9bd 570c 243e 11d6 e23b
00000170: d125 d4bd 068d 1d3e 3015 54be fe82 253e
00000180: c304 73bd a27b a13d 0e00 47bd 9fc6 f6bd
00000190: 8364 823d bcbe 223e 0b8d 4a3c 2f07 083e
000001a0: f53f 203e 8cf1 17be 339c be3d d861 51bd
000001b0: b656 863b c8a3 ecbd f559 243e a89b 273d
000001c0: c553 413d 55cb 0abe 4634 e93d 74e2 e9bd
000001d0: 55e2 a0bc a7ae 0cbe b46b 82bd 15c8 ec3d
000001e0: 240d 11be eb6b f93d c3f5 003e b933 9e3d
000001f0: f9fc 3c3e a5d1 033e 8553 0bbe f143 e13b
00000200: 4666 c53d 5081 e23c 77f1 383d ef89 383e
00000210: df75 033e 98c0 073e 9baa 0cbe 64e6 0abe
00000220: e3cd 96bd c5bb 453d 1361 9bbc a254 863d
00000230: 73b6 f83d e0ca a53d 87f2 233e 58b7 b43c
00000240: 8344 17be 6ae1 1cbe ebae ccbd 8f2c a43c
00000250: ecf3 233e cda0 28be d83a a63c 7df0 ddbd
00000260: 003a b13c 028b b6bd dbee b53d b6a7 b1bd
00000270: 65ff 103e c65b 093e 7702 5fbd 2999 d73d
00000280: 6c94 343e 1845 e53c fe5b 00be 5645 1dbe
00000290: a961 11be 2e7c 473d 9a3d 9c3d 5502 16be
000002a0: 28a5 b5bc 0594 d73c 6e48 e7bd 9a29 84bd
000002b0: 160d 7b3d e26e 2f3d 03d5 09be f7c0 103e
000002c0: 2ef2 e0bd f230 1cbe 80e3 a5bc 4011 113e
000002d0: 21f2 233e b3d7 31be c200 2bbe e5bd 343d
000002e0: f6d5 29be bae9 b2bd 5a40 edbb e01c 5fbd
000002f0: 42d5 07be 7aba c7bd 03bd ca3d 4764 eebd
00000300: f608 ea3d c4e3 3e3d 9a99 cd3d 08fc f8bc
00000310: 2007 113d f5f7 92bd eae8 8dbd 02f9 ab3d
00000320: 30bb aebd 24d0 5d3d 6098 3abd 88c0 893d
00000330: d0d4 a13c f95b 1bbe 30ad 2ebd 0069 a3bc
00000340: 9e0e ca3d 8a8a 5dbd fd94 113e 103f febc
00000350: ca4a c93d c845 183d 16cc f2bd deb4 ec3d
00000360: 1c8f 1dbd 2326 c0bd 6044 ea3b 82af cd3d
00000370: 2fdb 153e 0041 483b 4ee0 d3bd e268 c53d
00000380: 53a7 53bd 71f3 003e c3df 81bb 71ba af3d
00000390: 3e16 0c3e 4c10 09bd cee3 443e 1e1b 10be
000003a0: 6ac9 b3bd 9d19 e9bd c5f5 bc3d e930 8fbd
000003b0: 0da5 febc c314 bebd a2ac 013e f47c 86bd
000003c0: a782 56be 90cf 25be 56e3 063d f02b 47bd
000003d0: 1ef7 08be c877 cb3c a055 643c 23db ac3d
000003e0: db1a 023e fd3c 2b3e 979d 51bc cd59 983c
000003f0: 158e 0ebe 3e08 4e3e 3bdc 1dbe f890 e7ba

fc1.bias f4 [16]
-0.14635284 -0.11428332 0.09132982 0.10113059 0.04120291 -0.0436665 0.061283335 -0.013099413
0.13719054 -0.0073869675 -0.18930693 0.16436122 0.040449753 0.037054323 0.101035826 0.0066761537
00000000: 85dd 15be 600d eabd 210b bb3d 8e1d cf3d
00000010: 62c4 283d a5db 32bd 3c04 7b3d ec9e 56bc
00000020: ad7b 0c3e 600e f2bb add9 41be 4f4e 283e
00000030: a4ae 253d 46c6 173d dfeb ce3d a3c3 da3b

out.weight f4 [1, 16]
-0.11242751 -0.024842396 0.15745102 -0.065159984 -0.042867783 -0.07487687 -0.21678069 0.19514494
-0.21288425 0.18378016 -0.026150094 -0.16866025 -0.13521817 -0.0526832 -0.15693882 0.00934448
00000000: 6540 e6bd 4882 cbbc d73a 213e 9972 85bd
00000010: 2196 2fbd 0b59 99bd c2fb 5dbe 13d4 473e
00000020: 54fe 59be de30 3c3e b938 d6bc 46b5 2cbe
00000030: a276 0abe 57ca 57bd 92b4 20be 9719 193c
