artifacts/territory/lstm/625__638__640/model.pt (torch, 23217 bytes, 7 tensors)

lstm.weight_ih_l0 f4 [128, 1]
0	0x3d06ecc3	0.032940637
1	0x3e546a18	0.20743597
2	0xbb0b74ca	-0.0021279329
3	0xbca838f5	-0.020534972
4	0xbe3270dd	-0.17425866
5	0x3e454d1e	0.19267699
6	0xbc7a594a	-0.015280077
7	0xbc418686	-0.011811858
8	0x3e262874	0.16226369
9	0xbe0e12ff	-0.13874434
10	0x3db20bce	0.08693658
11	0x3d9e476d	0.07728467
12	0x3cd37224	0.025811262
13	0xbdc21d0e	-0.09478198
14	0x3e029e9c	0.12755817
15	0xbd17fe24	-0.0371076
16	0x3e12c06d	0.14331217
17	0xbe2f33b6	-0.1710957
18	0x3ddb8e2e	0.10720478
19	0x3d7628c4	0.06009747
20	0x3e06520a	0.13117233
21	0xbdd4423a	-0.10364194
22	0x3e07805c	0.13232559
23	0x3e2b6cb5	0.16740687
24	0x3d599287	0.053118255
25	0xbd8663e4	-0.065620214
26	0x3dd9f3e9	0.10642225
27	0x3dd40ede	0.10354398
28	0x3e022ba8	0.12711966
29	0x3d0ca6ee	0.034338884
30	0x3d9ffffc	0.07812497
31	0x3e02e04b	0.12780873
32	0xbbdc3792	-0.0067204917
33	0xbda13ff3	-0.078735255
34	0x3c995436	0.018716913
35	0xbe09ac66	-0.13444671
36	0xbddd0d25	-0.10793523
37	0xbcb75b18	-0.022382304
38	0x3ce22190	0.027603894
39	0xbe066099	-0.13122787
40	0xbd9ab1bd	-0.07553432
41	0xbe1fd751	-0.1560948
42	0x3d8e211c	0.06939909
43	0xbd23deb3	-0.040007304
44	0xbdda6ad5	-0.10664908
45	0x3e23e230	0.16004252
46	0xbdaf02a6	-0.08545427
47	0xbdd36bc6	-0.103232905
48	0x3e1d3c31	0.15354992
49	0x3c43ce3c	0.011951026
50	0xbc741ec0	-0.0148999095
51	0x3c2d86b3	0.010591197
52	0x3c7593c4	0.014988843
53	0x3da1606f	0.078797214
54	0xbc9dc572	-0.019259188
55	0x3df61c34	0.12017098
56	0xbbbf072c	-0.0058297124
57	0xbdb30f0a	-0.08743103
58	0x3e1233c1	0.14277555
59	0x3c1d5660	0.009603113
60	0x3bec8456	0.007217924
61	0x3d93624a	0.071964815
62	0x3cb1d1a6	0.021706413
63	0x3c470c65	0.012148951
64	0xbe284059	-0.16430797
65	0xbd85f39b	-0.06540605
66	0xbe36e880	-0.17862129
67	0xbe221260	-0.15827322
68	0x3cfd3158	0.030907318
69	0x3dfed467	0.12442856
70	0x3e24a11e	0.16077086
71	0x3d091f47	0.033477094
72	0x3cd5bfa4	0.026092358
73	0xbc52581a	-0.012838388
74	0xbd073064	-0.033005133
75	0xbe139e71	-0.1441591
76	0xbd71974f	-0.05898219
77	0x3ca6bdc1	0.020354154
78	0xbd4fc931	-0.05072898
79	0xbd6231b5	-0.055223186
80	0x3d73a362	0.059481986
81	0xbc539eab	-0.012916247
82	0x3de1e9b2	0.11030902
83	0xbe176910	-0.14786172
84	0x3ddafbf0	0.106925845
85	0x3e00b762	0.12569955
86	0x3e0aedbc	0.13567251
87	0x3e24527e	0.16047093
88	0xbdf142bd	-0.117803074
89	0xbe074d5a	-0.13213101
90	0xbd66507c	-0.0562291
91	0xbe0fdd5e	-0.14049289
92	0xbd3ce703	-0.046118747
93	0xbb8f8722	-0.0043801228
94	0x3cce59ab	0.025189241
95	0xbe26217d	-0.16223712
96	0x3c90068a	0.017581243
97	0x3dfa22dc	0.1221368
98	0x3e3352db	0.17512076
99	0xbd0d3414	-0.034473494
100	0xbd158906	-0.03650763
101	0x3e27350c	0.1632883
102	0x3c1a0767	0.009401179
103	0x3e37c63a	0.17946711
104	0xbdd8c93c	-0.105852574
105	0xbd9119ce	-0.07085
106	0xbd98c400	-0.07459259
107	0xbe3a70a3	-0.1820703
108	0xbd15700d	-0.036483813
109	0xbd3510d2	-0.044205494
110	0x3c213246	0.009838646
111	0xbccf5816	-0.025310557
112	0x3c8045b6	0.01565824
113	0xbe0d2e8a	-0.13787284
114	0x3d21a9af	0.039468464
115	0x3d6121a4	0.054963723
116	0x3c632cc9	0.013865658
117	0xbd2e7a5c	-0.04259716
118	0x3dfdd779	0.12394614
119	0x3e44d1a0	0.1922059
120	0x3e160497	0.14650188
121	0x3e64a013	0.22326688
122	0xbd197d43	-0.037472975
123	0x3dfb1f11	0.12261785
124	0xbde976d8	-0.11399621
125	0xbda1a593	-0.07892909
126	0x3e389963	0.18027262
127	0x3e248c00	0.16069031

lstm.weight_hh_l0 f4 [128, 32]
0	0x3dc400b2	0.09570445
1	0x3d9da27d	0.07697008
2	0x3c110e8e	0.008853568
3	0x3c7f5ae4	0.015585635
4	0xbe031eef	-0.12804769
5	0xbd864e34	-0.06557885
6	0x3e248337	0.1606568
7	0x3c62724c	0.013821196
8	0x3e362f35	0.17791446
9	0x3e30bd99	0.17259826
10	0x3c16bbc4	0.00920004
11	0xbda6f745	-0.08152632
12	0x3ba81764	0.0051297415
13	0x3dba7883	0.09105017
14	0xbe12086c	-0.14261025
15	0xbdbd08e4	-0.092302114
16	0x3db1cea9	0.086819954
17	0xbc867b4a	-0.01641621
18	0xbda111c4	-0.07864717
19	0xbde87546	-0.11350493
20	0xbcb19acd	-0.02168026
21	0xbc9069e2	-0.017628614
22	0x3e1fc50e	0.15602514
23	0xbdc18188	-0.09448534
24	0x3d4e2c5a	0.050335266
25	0x3cb79a01	0.022412302
26	0xbde6977e	-0.112593636
27	0xbe36a880	-0.17837715
28	0xbd587f3a	-0.052855708
29	0xbe303a68	-0.1720978
30	0xbdd0d755	-0.10197321
31	0xbe30b8c5	-0.17257984
32	0xbdcbe41b	-0.09955617
33	0x3d00bd49	0.031430516
34	0x3d48a60a	0.048986472
35	0x3da1103d	0.07864425
36	0xbe2d56c6	-0.16927633
37	0xbd03956a	-0.032124914
38	0x3d9e6cf9	0.07735629
39	0x3da85559	0.08219404
40	0x3d5fd067	0.054642107
41	0xbcf23608	-0.02956678
42	0xbd84922b	-0.06473192
43	0x3e339e9c	0.17540973
44	0x3db51b77	0.08843129
45	0x3d0ac118	0.033875555
46	0x3da3f796	0.08006208
47	0xbe264997	-0.1623901
48	0x3d8a8fda	0.06765719
49	0x3dc4a31a	0.09601422
50	0x3e0929ad	0.13394804
51	0xbda882b7	-0.08228057
52	0xbb00b55c	-0.0019639349
53	0x3d993613	0.07481017
54	0x3e0d37fb	0.13790886
55	0x3d8ee64d	0.0697752
56	0x3dece321	0.11566759
57	0xbe2b92c4	-0.16755205
58	0x3dc0b14a	0.09408815
59	0xbdc84f33	-0.09780731
60	0x3d0fbfe2	0.035095103
61	0x3df25cb7	0.1183409
62	0x3e3aeaf2	0.18253687
63	0xbdec530e	-0.11539279
64	0xbdd7c044	-0.10534719
65	0x3d979bd6	0.0740277
66	0xbe3d3c38	-0.18480003
67	0x3d82c1e9	0.06384642
68	0xbc870c31	-0.016485306
69	0x3e293d54	0.16527301
70	0xbd8b581c	-0.06803915
71	0xbc951132	-0.018196676
72	0x3e1201ba	0.14258471
73	0x3e017537	0.1264237
74	0x3dae20b5	0.08502332
75	0x3e044f8f	0.12920974
76	0xbe1ff74e	-0.15621683
77	0x3def4c41	0.11684466
78	0x3dcf9a1e	0.101368174
79	0xbdc65e9b	-0.09686013
80	0xbdd12dfa	-0.102138475
81	0xbe0e846a	-0.139177
82	0x3e67de18	0.22643316
83	0xbe3f2291	-0.1866553
84	0xbc24dd4c	-0.010062527
85	0x3ca83621	0.020533623
86	0x3e443c14	0.19163543
87	0x3e5992f1	0.2124746
88	0xbdba69bd	-0.09102199
89	0x3dd90252	0.10596146
90	0x3caffe83	0.021483665
91	0xbb08e4e6	-0.0020888387
92	0x3d5699c2	0.05239273
93	0x3de03d15	0.109491505
94	0x3e5843be	0.21119592
95	0xbd9ae947	-0.07564025
96	0x3dea9058	0.11453313
97	0xbda886bc	-0.082288235
98	0x3e31b131	0.1735275
99	0xbde006d8	-0.10938805
100	0x3e22349a	0.15840378
101	0xbc8b245a	-0.016985107
102	0x3ba6da9c	0.0050919782
103	0xbde300fb	-0.110841714
104	0x3d1eefc2	0.03880287
105	0xbd502a21	-0.050821427
106	0x3e010062	0.12597802
107	0xbd983d0f	-0.07433521
108	0x3bd7238d	0.0065655173
109	0x3e1e5477	0.15461908
110	0x3d7ad465	0.06123771
111	0xbd81c072	-0.06335534
112	0xbdcd1983	-0.100146316
113	0xbdc0c652	-0.094128266
114	0xbe37e234	-0.17957383
115	0x3dad9b10	0.084768414
116	0x3d8ada14	0.06779876
117	0xbda6d7ff	-0.08146667
118	0xbcd3f1fe	-0.025872227
119	0xbdf955b6	-0.12174551
120	0x3d9055ab	0.0704759
121	0x3cd96226	0.026536059
122	0x3e3a049a	0.18165818
123	0xbe00f5a3	-0.12593703
124	0x3d8b7629	0.06809647
125	0x3d8bf56b	0.06833919
126	0xbe06fe72	-0.13183
127	0xbdc0fd7a	-0.09423347
128	0x3e46df06	0.19421014
129	0xbd6db344	-0.05803229
130	0xbd8ec333	-0.06970825
131	0x3daa96a1	0.083295114
132	0x3d810e2a	0.0630153
133	0xbcd2f4e5	-0.02575154
134	0xbe2ddf3e	-0.16979691
135	0xbe3087c4	-0.1723929
136	0x3dea5aed	0.11443124
137	0xbe091981	-0.13388635
138	0x3d053170	0.03251785
139	0x3dc5a4d4	0.09650579
140	0xbe0deb15	-0.13859208
141	0x3e1d0299	0.15333022
142	0x3d8b8712	0.06812872
143	0x3d5af623	0.05345739
144	0xbe1a3fff	-0.15063475
145	0x3d9fa6b8	0.07795471
146	0x3d8d2f0e	0.068937406
147	0xbe1ad6cd	-0.15121002
148	0xbdd8d329	-0.105871506
149	0xbd566917	-0.052346315
150	0x3d96d5b1	0.07364977
151	0xbe118d11	-0.14213969
152	0x3e49b930	0.1969955
153	0x3e26eb2e	0.16300651
154	0x3dc1a906	0.09456067
155	0xbdd28f16	-0.10281198
156	0xbd98e84a	-0.074661806
157	0x3dd2993f	0.102831356
158	0xbca034fb	-0.019556513
159	0x3cd6d449	0.026224272
160	0xbdafc155	-0.08581797
161	0xbe4335e6	-0.1906353
162	0x3d6c1348	0.057635576
163	0xbbb6020a	-0.0055544423
164	0xbdbc4a7c	-0.09193894
165	0x3e453942	0.19260123
166	0xbe11fdea	-0.14257017
167	0xbd41463d	-0.047186125
168	0xbdf2c04e	-0.118530855
169	0xbe1e6350	-0.15467572
170	0x3c42c5d8	0.01188799
171	0xbc5f2010	-0.013618484
172	0x3d9a7684	0.07542136
173	0xbe13839b	-0.14405672
174	0xbe19a1db	-0.15003149
175	0xbe11f93c	-0.14255232
176	0x3c621af5	0.013800372
177	0xbd8c62ae	-0.06854759
178	0x3e0e287f	0.13882636
179	0xbdb1a5cf	-0.086742036
180	0x3d51e111	0.05124003
181	0x3de726f1	0.11286724
182	0x3e15cf91	0.14629962
183	0x3e0bee33	0.13665085
184	0x3dd7ff47	0.10546737
185	0x3d1f2d63	0.038861644
186	0xbd646d12	-0.05576808
187	0xbe3d060e	-0.18459341
188	0xbdbbccb5	-0.09169904
189	0x3d880f29	0.066435166
190	0x3cc850cb	0.024452588
191	0xbe1371fb	-0.14398949
192	0xbe5e4cfd	-0.21709056
193	0xbdbbbed6	-0.091672584
194	0xbe5ff3eb	-0.21870391
195	0xbe21f679	-0.15816678
196	0x39d62e39	0.000408517
197	0xbca044e3	-0.019564098
198	0xba305e62	-0.00067279313
199	0x3e46792f	0.19382165
200	0x3d1629e5	0.036661047
201	0x3d59a780	0.053138256
202	0x3da1c388	0.07898623
203	0xbe1d5495	-0.15364297
204	0x3d3496c7	0.044089105
205	0x3e179704	0.14803702
206	0xbdb05bfe	-0.08611296
207	0x3cbd28a1	0.023090662
208	0x3cd7dec5	0.026351342
209	0xbe2af1a5	-0.16693743
210	0x3e375f32	0.17907408
211	0xbc383fef	-0.011245712
212	0x3e4b52d9	0.19855823
213	0x3e09e125	0.13464792
214	0xbdc9dfbb	-0.09857126
215	0xbbca6e56	-0.006177704
216	0xbe6bc6a2	-0.23024991
217	0xbc6b7d6e	-0.0143731665
218	0xbe71d6b0	-0.23617053
219	0xbca53827	-0.020168377
220	0xbe50b702	-0.20382312
221	0xbe4dfa57	-0.20115028
222	0x3caea554	0.021319069
223	0xbd969d78	-0.073542535
224	0xbd477482	-0.048695095
225	0x3d61d397	0.05513343
226	0x3c6ddfc9	0.014518687
227	0xbc96d84d	-0.018413687
228	0x3e033673	0.1281374
229	0x3cafd674	0.021464564
230	0x3e019a9f	0.1265664
231	0xbdce31fe	-0.10068129
232	0xbd55500e	-0.0520783
233	0xbe2911e5	-0.16510732
234	0x3b76d733	0.003766489
235	0xbe28248d	-0.16420193
236	0x3d76e435	0.06027623
237	0x3e3f3ffe	0.18676755
238	0xbe4c34b2	-0.19941977
239	0x3e025edb	0.12731497
240	0x3ba675cc	0.0050799605
241	0xbdd55cf7	-0.10418122
242	0xbd9f8285	-0.077885665
243	0x3d4c69a5	0.049905438
244	0xbde9af80	-0.11410427
245	0x3d046ac4	0.032328382
246	0x3da9f0be	0.08297871
247	0xbd06c9ad	-0.032907177
248	0xbd530419	-0.05151758
249	0x3c9873ad	0.018609846
250	0xbdd8f1e8	-0.10593015
251	0xbe309139	-0.17242898
252	0xbe3c6b83	-0.18400387
253	0xbe1420fb	-0.14465706
254	0x3c8a1720	0.01685673
255	0x3dcbe73e	0.09956215

lstm.bias_ih_l0 f4 [128]
0	0x3e1ce38d	0.15321179
1	0x3e0ebad7	0.13938461
2	0x3e22ebd5	0.15910275
3	0xbe3456f1	-0.1761129
4	0x3e136214	0.14392883
5	0xbcac5d18	-0.021040484
6	0xbdd3588e	-0.10319625
7	0x3ddad8e7	0.10685902
8	0x3b5c3376	0.003360001
9	0xbd977085	-0.07394508
10	0x3c295469	0.010335066
11	0xbdf8970e	-0.121381864
12	0x3d8f4582	0.069956794
13	0xbce572a5	-0.028008768
14	0xbc9cbdc6	-0.01913346
15	0xbb5a0c12	-0.0033271355
16	0x3d3415a0	0.043965936
17	0x3d4f1831	0.05056018
18	0xbd90ee01	-0.07076646
19	0xbd5b0805	-0.053474445
20	0xbda5a753	-0.08088555
21	0x3d14c226	0.036317967
22	0x3dd3d17b	0.103426896
23	0xbda7d18b	-0.08194264
24	0xbe117232	-0.14203718
25	0xbdb11d99	-0.086482234
26	0xbdf5077e	-0.1196432
27	0xbd1f75c9	-0.038930688
28	0x3aecc477	0.0018063922
29	0xbcfd6ab8	-0.030934677
30	0x3d65c8a8	0.056099564
31	0x3e3f8ce2	0.18706086
32	0xbc9aaf3c	-0.018882386
33	0xbdc9028f	-0.09814941
34	0x3cefab7a	0.029256571
35	0xbdfcc35d	-0.1234195
36	0xbdaffc44	-0.08593038
37	0xbd74f6f9	-0.059805844
38	0x3e466179	0.1937312
39	0xbbcad156	-0.0061895056
40	0xbe1e0eaa	-0.15435281
41	0x3db29872	0.08720483
42	0x3dc9dfcd	0.0985714
43	0xbe3c2550	-0.18373609
44	0xbe06cf62	-0.13165048
45	0x3e1e1f9f	0.1544175
46	0x3e05bb83	0.13059811
47	0x3e46ced1	0.19414832
48	0xbe2e1056	-0.16998419
49	0x3d2b5da9	0.04183737
50	0xbe04ba2e	-0.12961647
51	0xbe1030cb	-0.14081113
52	0xbcfc52a9	-0.030801134
53	0xbd85cb2f	-0.06532895
54	0x3e2d59b5	0.16928752
55	0xbdbf8248	-0.09351021
56	0xbcd2413a	-0.025665868
57	0x3d802453	0.06256928
58	0xbe119d65	-0.14220197
59	0x3bb49936	0.005511428
60	0xbd91d5b6	-0.0712084
61	0x3dc0ed44	0.09420255
62	0x3df9f9e6	0.122058675
63	0x3e43c55e	0.19118258
64	0x3e07d663	0.13265376
65	0x3ddc2ed1	0.10751117
66	0xbb63e799	-0.0034775494
67	0xbda946c3	-0.0826545
68	0xbdee0f5f	-0.116240256
69	0x3d4b4099	0.049622152
70	0x3d9fd401	0.078041084
71	0xbd83c963	-0.06434896
72	0xbd8e9f25	-0.06963948
73	0xbcfcd6e2	-0.030864183
74	0xbdf8ce99	-0.121487804
75	0xbd93c8d3	-0.072160386
76	0x3c140fe6	0.009036994
77	0x3dbbf466	0.09177475
78	0x3d540bb0	0.05176896
79	0xbdc9ab10	-0.09847081
80	0xbdb2ab77	-0.087241106
81	0x3cdce5e8	0.026965097
82	0xbd16c898	-0.036812395
83	0xbe0140c9	-0.1262237
84	0x3ddb54cd	0.10709534
85	0x3e1e92db	0.15485708
86	0xbe1ffb1a	-0.15623131
87	0xbc9ed11d	-0.019386822
88	0xbc4de513	-0.012566823
89	0x3e2d35ad	0.16915007
90	0xbe278523	-0.16359381
91	0xbd706082	-0.058685787
92	0xbc5f52d9	-0.013630592
93	0xbb14fa07	-0.0022732036
94	0xbdb70a1b	-0.08937474
95	0x3daec118	0.085329235
96	0x3e6a9170	0.22907043
97	0x3e0d16fd	0.137783
98	0xbdec9cba	-0.11553331
99	0x3d99a973	0.07503023
100	0xbdb129a3	-0.0865052
101	0x3d6bbd6a	0.057553686
102	0xbd27ea92	-0.040995188
103	0xbd9fb4f7	-0.07798188
104	0xbe000106	-0.1250039
105	0x3c8ca8e9	0.017170386
106	0xbe47e9c2	-0.19522765
107	0xbe48eb55	-0.19621022
108	0x3cce562a	0.02518757
109	0x3d870f59	0.06594724
110	0xbd1b6a3e	-0.037943117
111	0x3a90d78c	0.0011050566
112	0x3dfccda3	0.123439096
113	0xbdc9dad7	-0.098561935
114	0x3dc0bf28	0.0941146
115	0x3e057e96	0.1303657
116	0x3dea931c	0.1145384
117	0x3c591455	0.013249476
118	0xbe0b3f41	-0.13598348
119	0xbddbde15	-0.10735718
120	0x3e20e02a	0.15710512
121	0x3e2a2da1	0.16618969
122	0x3db97d39	0.090570875
123	0x3e0fb0ba	0.1403226
124	0x3e4cd7a5	0.20004137
125	0xbe3a04dc	-0.18165916
126	0xbc5825bd	-0.013192591
127	0xbd234f00	-0.039870262

lstm.bias_hh_l0 f4 [128]
0	0x3e61dcff	0.2205696
1	0xbc42e0b8	-0.011894397
2	0xbd0c17bf	-0.034202334
3	0xbe4de23a	-0.2010583
4	0xbcef5ede	-0.02922004
5	0xbdeee315	-0.11664406
6	0x3d99548d	0.0748683
7	0xbdca4cac	-0.09877905
8	0xbdfb47d9	-0.12269563
9	0x3dce9d11	0.10088552
10	0x3e168d9e	0.1470246
11	0xbcd915b8	-0.026499614
12	0xbe1cc4d7	-0.15309463
13	0xbdb648b2	-0.08900584
14	0x3e3b1ea0	0.18273401
15	0x3d03a221	0.03213704
16	0xbdf059c0	-0.117358685
17	0x3e06090b	0.13089387
18	0x3c81fda8	0.015868023
19	0x3e2e6728	0.17031538
20	0xbdf5fc08	-0.12010962
21	0xbd0a6840	-0.033790827
22	0x3e21b429	0.15791382
23	0xbe0537da	-0.13009587
24	0x3d66b591	0.0563255
25	0x3e4c17e8	0.19930995
26	0xbe181b77	-0.14854227
27	0xbd849a11	-0.06474698
28	0x3e235059	0.15948619
29	0x3d3cd06e	0.04609721
30	0xbd88fcc3	-0.066888355
31	0x3d971766	0.0737751
32	0xbd131b31	-0.035914604
33	0xbcd4e82a	-0.02598961
34	0x3d9eeb2f	0.077597015
35	0x3c966382	0.018357996
36	0xbdc6a178	-0.096987665
37	0xbc34b0fc	-0.0110285245
38	0x3e5c9aa5	0.21543367
39	0x3d7e5249	0.062090192
40	0x3daa82cb	0.08325728
41	0xbe108c07	-0.14115916
42	0xbd4f62be	-0.050631277
43	0x3d95e664	0.07319334
44	0xbe3efe30	-0.18651652
45	0xbe13f081	-0.14447214
46	0xbcf2ffb0	-0.029662937
47	0x3e33ef5f	0.17571782
48	0x3e2a222d	0.166146
49	0x3d9e071d	0.077162005
50	0xbd8bf1c7	-0.06833225
51	0x3e1da2bc	0.1539411
52	0xbcecd1f3	-0.028908705
53	0xbd0f8d98	-0.035047144
54	0xbd3ec41b	-0.04657374
55	0xbd7bd54c	-0.061482713
56	0x3db3341a	0.08750172
57	0xbcbfdd0a	-0.02342083
58	0xbd4b1029	-0.04957596
59	0x3e3f4ec9	0.18682398
60	0x3d3418c0	0.043968916
61	0xbde13316	-0.10996072
62	0x3d9f7108	0.07785231
63	0x3dec79d1	0.11546672
64	0x3d22fd40	0.0397923
65	0xbc56cac0	-0.013109863
66	0x3df95b8a	0.12175663
67	0x3df4dbe2	0.11956002
68	0xbdac5884	-0.084153205
69	0x3d3dcb65	0.04633655
70	0x3e2c08e3	0.16800265
71	0xbd83976c	-0.06425366
72	0x3da341c3	0.079715274
73	0xbe07b935	-0.13254245
74	0xbda22199	-0.079165645
75	0xbd5e46b1	-0.054266635
76	0x3dcbc451	0.09949554
77	0xbccc344a	-0.024927277
78	0x3d04f700	0.03246212
79	0xbdcfe6b2	-0.101514235
80	0x3cdeb539	0.027186023
81	0x3e03aa08	0.1285783
82	0xbdb777f4	-0.08958426
83	0xbdfcd73a	-0.12345739
84	0x3e2af144	0.16693598
85	0x3e0035b9	0.12520494
86	0x3e29042e	0.165055
87	0x3debbbf5	0.11510459
88	0xbe37baf5	-0.17942412
89	0x3e0d8505	0.13820274
90	0xbdb01886	-0.085984275
91	0x3dd6a6bf	0.10481023
92	0xbe54dc7e	-0.20787236
93	0xbce0231d	-0.027360493
94	0x3d5d6a4d	0.054056454
95	0xbdae9c1f	-0.085258715
96	0x3e482860	0.19546652
97	0x3dafaf43	0.085783504
98	0x3e10ed1a	0.14152947
99	0xbccf204b	-0.025283953
100	0xbce2375f	-0.027614294
101	0x3da2aae0	0.07942748
102	0x3de0e79e	0.109816775
103	0xbe011b5d	-0.12608095
104	0xbd7b8c95	-0.061413366
105	0xbe16e339	-0.14735116
106	0xbdb4db11	-0.08830846
107	0xbe17f19e	-0.14838263
108	0xbde6d659	-0.11271352
109	0xbdb0b07a	-0.0862741
110	0xbdc5764a	-0.096417025
111	0x3e26a9bc	0.16275686
112	0xbd2c301b	-0.042038064
113	0xbe288748	-0.16457856
114	0xbe0ec25b	-0.13941328
115	0x360e5380	2.1208252e-06
116	0x3cc2c539	0.023775684
117	0xbdf6eb44	-0.12056592
118	0xbda43864	-0.08018568
119	0xbcebdb4d	-0.028791094
120	0x3b221d00	0.0024736524
121	0x3e288b05	0.16459282
122	0xbde6892f	-0.112566344
123	0xbc5d076f	-0.013490542
124	0x3d7f281f	0.06229412
125	0x3d937833	0.072006606
126	0xbda7a4fb	-0.081857644
127	0x3d22802f	0.039673027

fc1.weight f4 [16, 32]
0	0x3df337b0	0.11875856
1	0x3e51636d	0.20448084
2	0x3cb887cb	0.022525689
3	0x3dbeb8d9	0.09312601
4	0x3df7cd2f	0.120996825
5	0x3c7a7fc2	0.015289249
6	0x3d92d437	0.07169383
7	0x3e12c98a	0.14334694
8	0xbe1f947e	-0.15583989
9	0xbd6b85a6	-0.057500504
10	0xbda50f02	-0.08059503
11	0xbd5cd98d	-0.05391841
12	0xbcae6acf	-0.021291165
13	0x3e293ccd	0.165271
14	0x3d8790d2	0.06619419
15	0x3da4c276	0.08044903
16	0xbe116213	-0.14197569
17	0x3e04223a	0.12903681
18	0x3e112a7a	0.1417636
19	0xbd26e250	-0.040743172
20	0xbe40eddd	-0.18840738
21	0x3de035bc	0.10947749
22	0xbe4bbe4d	-0.19896813
23	0x3e135fdd	0.14392038
24	0x3d498768	0.0492014
25	0x3dba134a	0.0908571
26	0xbe01d3d5	-0.12678464
27	0xbdad1fcb	-0.0845333
28	0x3d8155c6	0.06315188
29	0xbdbb3ecf	-0.09142839
30	0x3d86f9ad	0.065905906
31	0x3dda6029	0.10662872
32	0x3b885bf0	0.0041613504
33	0xbe34cd5b	-0.17656462
34	0xbe586dc5	-0.21135624
35	0x3deac09b	0.11462518
36	0x3a993e64	0.0011691567
37	0x3ddca7de	0.107742056
38	0xbdb8e72d	-0.09028468
39	0x3e22010f	0.15820716
40	0xbdc681c3	-0.09692719
41	0xbe1e0ca7	-0.15434514
42	0xbe1455d7	-0.1448587
43	0x3e10d864	0.14145046
44	0xbd5e5ca6	-0.054287575
45	0x3df0e3c6	0.11762194
46	0xbddfe14a	-0.10931642
47	0xbe27d3d9	-0.16389407
48	0x3ded37a9	0.11582882
49	0xbe280879	-0.16409482
50	0xbbb7a54f	-0.005604423
51	0x3dbea19a	0.09308167
52	0x3da1ae1b	0.07894536
53	0x3c6370c9	0.013881871
54	0x3db74873	0.089493655
55	0x3d8abbcb	0.067741
56	0xbe46fa19	-0.19431342
57	0xbd628846	-0.05530574
58	0x3d144828	0.036201626
59	0xbd2b9f92	-0.041900225
60	0xbba48b93	-0.0050215214
61	0xbe15911a	-0.14606133
62	0xbc3665fb	-0.0111327125
63	0xbd8b505e	-0.06802438
64	0x3cede4b8	0.029039726
65	0x3caae928	0.02086313
66	0xbe059800	-0.13046265
67	0xbdfee562	-0.12446095
68	0x3d878ca0	0.06618619
69	0xbde0e5c3	-0.109813236
70	0xbe06ff8a	-0.13183418
71	0x3e007123	0.12543158
72	0x3c0de730	0.008661076
73	0x3d0b6494	0.034031466
74	0xbd2b412c	-0.0418102
75	0xbd1cff00	-0.038329124
76	0x3d7945bc	0.06085752
77	0xbde70b81	-0.11281491
78	0x3e1648ff	0.14676283
79	0x3d18ad98	0.037274927
80	0xbe047eef	-0.12939046
81	0x3d914ec4	0.070951015
82	0xbd4338cc	-0.047661588
83	0x3dcaad02	0.0989628
84	0x3e1e392f	0.15451501
85	0xbc7d3e60	-0.015456766
86	0xbd1253d8	-0.03572449
87	0xbdcc870f	-0.09986698
88	0x3e1dc9d9	0.1540903
89	0xbe010d18	-0.12602651
90	0xbd496fb0	-0.04917878
91	0xbe16dbd2	-0.14732292
92	0xbc0e69b0	-0.00869219
93	0x3d692004	0.056915298
94	0x3e03949d	0.1284966
95	0x3d0419c0	0.03225112
96	0xbbc35170	-0.005960636
97	0xbcfecb4d	-0.0311028
98	0xbd1d262f	-0.038366493
99	0x3ca1d832	0.01975641
100	0x3e068abd	0.13138862
101	0xbc24c139	-0.0100558335
102	0xbe33e1f4	-0.17566663
103	0x3cbf72ad	0.023370111
104	0xbd0d09dd	-0.034433234
105	0x3c0af710	0.008481756
106	0xbe05ee85	-0.13079269
107	0x3b12a880	0.0022378266
108	0xbe032a51	-0.12809111
109	0xbd910a5d	-0.07082055
110	0x3d67d04d	0.056595135
111	0x3df24474	0.11829463
112	0x3d1eeb04	0.038798347
113	0xbdb3eb77	-0.08785146
114	0x3e097f17	0.13427387
115	0xbd5c3334	-0.05375977
116	0x3ded57c8	0.115890086
117	0xbded9f01	-0.11602593
118	0xbce7091a	-0.028202582
119	0xbdfcd141	-0.123445995
120	0x3dc275ad	0.09495101
121	0xbd4284d1	-0.047489945
122	0x3e0a893f	0.13528918
123	0x3dc13474	0.09433833
124	0x3d9d2059	0.076721855
125	0xbb4be5ea	-0.0031112381
126	0xbde00964	-0.10939291
127	0xbdf5119b	-0.119662486
128	0xbe29ae67	-0.16570435
129	0xbd60bf41	-0.054869894
130	0xbe1a2bf6	-0.15055832
131	0x3d80f10d	0.06295977
132	0xbcd5d03b	-0.026100269
133	0xbcb67732	-0.022273634
134	0x3e6ccbdd	0.23124643
135	0x3deacd19	0.114649005
136	0xbd7e495c	-0.06208168
137	0xbd2d22f0	-0.042269647
138	0x3d958112	0.07300009
139	0xbca8c770	-0.020602912
140	0xbd65ba1d	-0.056085695
141	0x3d0421a3	0.03225864
142	0x3c9a5ade	0.018842157
143	0x3b795def	0.0038050374
144	0xbdc39e8a	-0.09551723
145	0x3db0bcf0	0.08629787
146	0x3b5bf570	0.003356304
147	0xbe5caa68	-0.2154938
148	0xbcc0ac00	-0.023519516
149	0xbc2fc6f8	-0.01072859
150	0x3decb34b	0.11557635
151	0x3e0e94c1	0.13923933
152	0xbe309607	-0.17244731
153	0xbe0d4591	-0.13796069
154	0x3d12ad58	0.035809845
155	0xbdee259e	-0.11628269
156	0xbe3ac249	-0.18238176
157	0xbe3a0747	-0.18166839
158	0x3e45705b	0.19281141
159	0xbe15599e	-0.14584967
160	0x3df5073e	0.11964272
161	0xbdfe54de	-0.12418531
162	0xbe17304e	-0.1476452
163	0xbe10b779	-0.1413249
164	0xbe2ce4c8	-0.16884148
165	0xbe026df2	-0.12737253
166	0xbc4dc720	-0.012559682
167	0x3dce8be6	0.10085277
168	0xb9f53800	-0.00046771765
169	0xbdde08e9	-0.10841543
170	0x3df13776	0.117781565
171	0xbcc815a0	-0.024424374
172	0x3e037705	0.12838371
173	0x3dc5c592	0.09656824
174	0x3de44a36	0.11146967
175	0xbd10de18	-0.035368055
176	0x3d5a5f8c	0.053313777
177	0x3ce36668	0.027758792
178	0xbd3f1a78	-0.046656102
179	0x3bce6240	0.0062983334
180	0x3d646780	0.055762768
181	0x3dd3db16	0.10344522
182	0xbcc61818	-0.02418141
183	0xbdfd33dc	-0.12363407
184	0x3de43d8a	0.1114455
185	0x3d475094	0.04866083
186	0x3c9a79b0	0.018856853
187	0x3d6ccf70	0.057815015
188	0x3dd0a67e	0.10188006
189	0x3da8bbd6	0.08238952
190	0xbe014c88	-0.1262685
191	0xbd07e658	-0.033178657
192	0xbdb496d4	-0.08817831
193	0xbd3ee7fa	-0.04660795
194	0x3df8bb87	0.12145143
195	0xbe16acf8	-0.1471442
196	0x3d52fee9	0.051512633
197	0x3e383b1f	0.17991303
198	0xbccd4707	-0.025058283
199	0x3e0aa122	0.1353803
200	0x3e652d57	0.22380577
201	0x3d481300	0.048846245
202	0x3d41d814	0.04732521
203	0xbdc8cea0	-0.098050356
204	0x3ddb0c5a	0.10695715
205	0x3e2fa505	0.17152794
206	0xbe53bd8c	-0.20677775
207	0xbdac2d7a	-0.084071115
208	0xbda59cd5	-0.08086554
209	0x3a5db214	0.00084570167
210	0x3e15e348	0.14637482
211	0xbd65c05c	-0.05609165
212	0x3e206d99	0.15666808
213	0x3df99c01	0.121879585
214	0x3d924e81	0.0714388
215	0x3df635c4	0.12021974
216	0xbdda1be8	-0.10649854
217	0x3d90d312	0.070715085
218	0xbd9bdcc5	-0.07610468
219	0xbe1b7f6e	-0.1518533
220	0x3dde3b99	0.10851211
221	0xbe3593e6	-0.177322
222	0xbdd38906	-0.103288695
223	0xbd1326b1	-0.03592557
224	0x3dfa3143	0.12216427
225	0xbe1a485f	-0.1506667
226	0x3e039979	0.12851514
227	0x3e3ceb2f	0.1844909
228	0x3dd3dd4d	0.10344944
229	0xbce2d865	-0.027691076
230	0x3d6b133b	0.057391386
231	0x3db3ee8b	0.08785733
232	0xbd82c4f5	-0.06385223
233	0x3dafdf69	0.08587534
234	0x3e238666	0.15969238
235	0x3d946cc3	0.07247307
236	0x3d2363ab	0.039889973
237	0x3cbf92e9	0.023385482
238	0xbc91c2eb	-0.01779314
239	0xbd331427	-0.04372039
240	0xbd874bcd	-0.06606255
241	0x3d075d4f	0.03304797
242	0x3ddbe320	0.1073668
243	0xbccaad26	-0.024740767
244	0xbde68e92	-0.11257662
245	0x3c54244c	0.012948107
246	0x3dd7a928	0.10530311
247	0xbc804480	-0.015657663
248	0x3e21675b	0.15762083
249	0x3c8d60d1	0.01725808
250	0x3e378300	0.17921066
251	0x3d9b06b0	0.07569635
252	0x3db92420	0.090400934
253	0xbe100e45	-0.14067943
254	0xbc063fd0	-0.008193925
255	0x3cc7be69	0.024382787

fc1.bias f4 [16]
0	0x3ccb0873	0.024784302
1	0x3e3fed46	0.18742856
2	0x3dba023a	0.09082456
3	0xbe0ccf4d	-0.13750954
4	0xbdd707a0	-0.10499501
5	0xbd3e6c34	-0.04648991
6	0x3e41a4d9	0.1891054
7	0xbdfaf123	-0.122530244
8	0xbe32a62d	-0.17446204
9	0x3d2d327c	0.042284474
10	0xbd35b47c	-0.044361576
11	0x3da0c1c1	0.078494556
12	0xbdca177a	-0.09867759
13	0x3b35a4b8	0.0027716588
14	0xbd89f508	-0.06736189
15	0x3ceed09e	0.02915221

out.weight f4 [1, 16]
0	0xbdfd0b98	-0.12355727
1	0x3d45a645	0.04825427
2	0xbe59b490	-0.21260285
3	0xbdc6cf6f	-0.097075336
4	0x3e999c87	0.30002233
5	0xbdc62810	-0.0967561
6	0x3d32f3fd	0.043689717
7	0xbc096958	-0.008386932
8	0x3db42174	0.08795443
9	0xbb132000	-0.0022449493
10	0x3e5ee36e	0.21766445
11	0xbcc67c38	-0.024229154
12	0xbe33d014	-0.17559844
13	0x3d9dbd07	0.0770207
14	0x3e707d20	0.23485231
15	0x3e96caca	0.2945159
