artifacts/territory/lstm/370__379__0/model.pt (torch, 23217 bytes, 7 tensors)

lstm.weight_ih_l0 f4 [128, 1]
000000 46 67 d9 3d 0d e1 00 3e d1 e7 02 3e f5 41 21 3e
       0.10615401 0.1258585 0.12783743 0.15747817
000010 da 2a aa 3d 7a 42 1c be 03 3d aa 3d a1 7e 27 3e
       0.083089545 -0.15259734 0.08312418 0.16356899
000020 49 4b 06 3c da ab 70 bd c3 03 0f bd 10 e4 ce 3c
       0.00819666 -0.05875764 -0.034915697 0.025255233
000030 51 2e b4 bd 45 8c 92 bd 16 56 04 be 85 8f 90 3c
       -0.08797897 -0.071556605 -0.12923464 0.01764656
000040 22 eb f3 3d 55 6a 2e 3e 78 41 b1 3d b2 b7 db 3d
       0.119100824 0.1703275 0.08655065 0.107283965
000050 8c d5 0a ba 99 5b 16 3e 41 7a 2a 3e 32 28 8b 3b
       -0.0005296103 0.14683379 0.16648199 0.004246735
000060 cb 54 aa bc 55 dd 16 be bd a6 2b 3e ae 25 97 bd
       -0.020792386 -0.14732869 0.16762824 -0.07380234
000070 d6 14 aa 3d 3b 40 04 3e 9b ec 5d 3d f5 2c 14 3e
       0.083047554 0.12915127 0.054180723 0.14470275
000080 30 02 f2 bd 65 d8 08 3e ab d8 1c 3e 9b c6 25 be
       -0.118168235 0.13363798 0.15317027 -0.16189043
000090 09 6e 7b 3d e2 1c 06 be ef 57 27 3c 9a 18 e4 bd
       0.061384235 -0.13096955 0.010213836 -0.11137505
0000a0 f2 1e b0 3d b8 0d a9 bd 05 70 b8 bd 7e c3 69 3b
       0.08599652 -0.0825457 -0.09005741 0.00356695
0000b0 ad 42 a9 bd 0d 68 98 bd 7c 13 10 3d b3 c7 30 3e
       -0.082646705 -0.07441721 0.03517483 0.17263679
0000c0 1e e5 97 3c fd 84 1d 3e b8 fd b8 bc 1a 5e a8 3d
       0.018541869 0.15382762 -0.02258192 0.082210734
0000d0 f5 74 11 3e ac 87 09 3c 5e d0 ee 3d 5d 9a 29 3c
       0.14204772 0.008394163 0.11660837 0.0103517445
0000e0 10 7b 7c 3d 31 24 af bd c3 6e 46 3c cf df 15 3e
       0.0616408 -0.08551825 0.012111369 0.14636157
0000f0 a7 2d 1c 3c cb cf 37 3c b1 da 0e 3e f2 83 2c 3d
       0.009532369 0.011218975 0.13950612 0.04211802
000100 8d cd b6 bb c2 8a e5 3d 52 bf af 3d ce e5 ab 3d
       -0.005578703 0.112081066 0.08581413 0.08393441
000110 86 cd c5 3d 1d ac 23 3e 8e 8d ff 3d bc bb 28 bd
       0.09658341 0.15983625 0.12478171 -0.041194662
000120 28 29 43 bd cf 0c 8f bc 81 0b 88 bd 00 63 ad 3b
       -0.04764667 -0.017462162 -0.06642819 0.0052913427
000130 bb d1 07 3e 80 17 ad bb ed e4 10 be 57 80 18 3e
       0.132636 -0.0052823424 -0.14149828 0.14892708
000140 f4 39 2a bd 3e 7a f6 bd a3 a9 d1 bd b7 7e ad bd
       -0.041559175 -0.120350346 -0.10237434 -0.084714346
000150 42 5a 00 be 3f 7c 2d bd 16 18 dd 3d 4c 0c 60 3d
       -0.1253443 -0.04235482 0.1079561 0.054699227
000160 88 4e 52 bd a8 f0 85 3d 71 5f 0c be 35 5a 13 3e
       -0.051344424 0.06540042 -0.13708283 0.1438988
000170 e2 fd f9 bd c7 e7 36 bb a0 13 5f bd d6 b1 b9 bc
       -0.122066274 -0.0027909146 -0.054462075 -0.022667807
000180 e4 ac 1d be 18 fb 09 3d 95 ed 50 3d 7d 4f a5 bd
       -0.15397984 0.033686727 0.051007826 -0.08071802
000190 ec bc 8e 3c 58 fb 55 bd db d8 a9 3d 48 9f 9c bd
       0.01742407 -0.052241653 0.08293315 -0.07647568
0001a0 ea 9c f0 3d f5 2c 0a 3e 2c 72 95 3d 41 3b 18 be
       0.11748679 0.13493712 0.07297167 -0.14866354
0001b0 21 18 08 3e 79 6f 1a be f0 e6 dd bd b3 5d 7a bc
       0.13290454 -0.15081586 -0.108350635 -0.015281129
0001c0 6a 12 72 3b a9 dc aa 3c 0e 02 05 bc e4 85 7f bc
       0.0036937245 0.020857172 -0.008118166 -0.015595887
0001d0 ea 2d df 3b f9 cd 43 3d 10 61 41 bd b4 09 6a bd
       0.0068108933 0.047803853 -0.047211707 -0.05713816
0001e0 c1 3e 69 3c 2e c7 e2 3d d2 d2 c1 bc c6 a6 e3 3d
       0.014236153 0.11073147 -0.023660097 0.11115794
0001f0 fc eb 2c 3d 4b fd 00 be be 94 84 3d 4a ec 96 3d
       0.04221724 -0.12596624 0.06473683 0.07369287

lstm.weight_hh_l0 f4 [128, 32]
000000 1a 9c 14 be d7 f3 1e be 3a ab e4 3d de 08 c4 3d
       -0.14512673 -0.15522705 0.111654714 0.09572004
000010 d6 ea 24 be a4 64 f2 bd 3c 69 47 bd 98 31 c3 bc
       -0.16105208 -0.11835602 -0.048684344 -0.02382736
000020 3c 91 84 3d 56 cd 8b 3d 0a 01 80 bd 75 5e 2b be
       0.06473014 0.06826274 -0.06250198 -0.16735251
000030 8e 4e 94 3d e0 68 56 bd ee 7c ec 3d 14 31 70 3d
       0.072415456 -0.05234611 0.11547266 0.058640555
000040 3a 38 ba 3d 60 1f 8a 3d c0 42 f4 bb 60 0d f8 bc
       0.090927556 0.067442656 -0.0074542463 -0.030279815
000050 9a cf c9 3d 39 bd 0f be 98 a5 24 3d f1 25 b3 bd
       0.0985405 -0.14037026 0.040196985 -0.08747471
000060 68 46 8c bc 00 2c fa 39 1c 6b 2f 3d 04 f9 4c 3d
       -0.017123416 0.00047716498 0.042826757 0.050042167
000070 83 9f 15 3e 38 89 3f bd 20 9f 27 3c 15 a5 2e 3e
       0.1461163 -0.04676172 0.010230809 0.17055161
000080 08 3f fa bc 72 10 82 3d 95 a0 a6 bd 30 0c 19 bd
       -0.030547634 0.06350793 -0.08136097 -0.03736514
000090 3f 2c ba bd ff 98 1b 3e e0 bb 22 bc 4a 25 c9 3d
       -0.090904705 0.15195082 -0.009932488 0.098215654
0000a0 00 60 21 ba a0 c6 8f bc 82 9e dd 3d 19 b4 f5 bd
       -0.0006155968 -0.017550766 0.108212486 -0.119972415
0000b0 76 a9 e8 bd 50 66 16 bc 84 1d 68 3d ef 06 83 bd
       -0.11360447 -0.009179667 0.056668773 -0.06397807
0000c0 e2 ec db 3d 20 40 5a bc fa 6a cc 3d a7 82 14 3e
       0.10738541 -0.013320953 0.09981342 0.14502965
0000d0 1f eb c0 bd 06 d6 59 bd 24 8e 07 be 38 5f 40 bd
       -0.09419846 -0.053182624 -0.13237816 -0.046965808
0000e0 29 81 03 3e c9 5d c9 bd 00 93 cc 3a 70 89 68 bc
       0.1284224 -0.09832341 0.0015607774 -0.014192924
0000f0 08 34 19 bd 1a 7f 8d 3d 74 18 36 bd 23 14 0a 3e
       -0.037403136 0.06909008 -0.044456914 0.13484244
000100 48 4a 1a 3d b8 b2 64 bd 6b 28 1b be c8 36 01 be
       0.037668496 -0.055834502 -0.15152137 -0.12618554
000110 d4 39 31 3d 65 d5 2c be 48 ad 47 3d 5d 2c 22 3e
       0.04326804 -0.16878279 0.04874924 0.15837236
000120 56 4a f0 bd eb b3 28 3e 40 11 c5 bd b4 6c 2f 3d
       -0.117329285 0.16474883 -0.09622431 0.042828277
000130 bd 2e 10 3e 10 a1 2f be 20 50 95 bc 23 42 c8 bd
       0.14080329 -0.17151284 -0.018226683 -0.097782396
000140 7e bb d8 3d 40 6f 49 3c 23 14 23 3e 60 6c b5 3b
       0.10582636 0.0122945905 0.1592565 0.005536601
000150 e4 58 f3 bd 62 67 df bd 08 ff c6 bd 2a 05 be 3d
       -0.11882189 -0.109083906 -0.09716612 0.09278329
000160 74 ca 2c bd 80 81 6b bc 2b 11 0b be 9e 73 08 be
       -0.04218526 -0.014374137 -0.13580768 -0.13325354
000170 e8 34 b1 3c a0 7b a9 bc 3a 80 2d be 32 5b d3 3d
       0.021631673 -0.020688832 -0.16943446 0.103201285
000180 61 1c 2b 3e f4 01 51 3d e8 c5 33 3d 11 a9 2f 3e
       0.16710044 0.051027253 0.04388991 0.17154337
000190 f6 a6 04 be b9 31 2b 3e 60 2a fd bb 8c 9c db bd
       -0.12954316 0.16718186 -0.0077259988 -0.10723218
0001a0 eb 20 29 3e 36 41 ce bd bf 21 de bd 08 71 90 3c
       0.16516463 -0.10071032 -0.1084628 0.017632023
0001b0 43 49 03 3e 4c 55 80 3d ad 1d 2d 3e da b0 c7 3d
       0.12820916 0.06266269 0.16905852 0.09750529
0001c0 26 11 f1 3d 72 72 9e 3d 1f 39 07 3e 87 88 f8 bd
       0.11770849 0.077366725 0.13205384 -0.121354155
0001d0 a5 eb 09 3e 06 43 1a be de ba 1b be 79 8c 27 be
       0.13468798 -0.1506463 -0.15208003 -0.1636218
0001e0 e0 79 f8 bd ab 3f 2a be 65 4f b7 bd 1a 64 bf bd
       -0.12132621 -0.1662585 -0.0895069 -0.09345265
0001f0 12 8e f8 3d e8 cd 0d bd 94 fe 1d be 6a 4c 97 bd
       0.12136473 -0.034620196 -0.15429145 -0.07387622
000200 13 0e 0b be 36 a1 e5 3d 67 17 01 3e 00 60 6f 3d
       -0.13579588 0.11212389 0.12606584 0.058441162
000210 36 b1 cc 3d e5 18 bf bd 82 c3 cc 3d fd cd 14 3e
       0.09994738 -0.0933092 0.09998228 0.14531703
000220 c4 dd 9e bd a8 60 c5 bd 40 91 f0 3b 5c b5 05 3d
       -0.07757142 -0.09637576 0.007341534 0.03264366
000230 7c ed 7c 3d ba 5c ed 3d c4 e4 4c 3d 76 60 03 be
       0.06174992 0.11589952 0.050022855 -0.12829766
000240 e9 b5 32 3e 76 7d ea 3d 44 10 93 bd c0 7e e7 3c
       0.17452206 0.11449711 -0.07180837 0.028258681
000250 80 97 59 3b 58 68 dc bc 60 cc 32 bc 16 29 00 be
       0.0033201873 -0.026905224 -0.010912985 -0.12515673
000260 5a c4 e4 3d 6a 19 b8 3d 7c 76 32 be 80 7c 8b 3b
       0.111702636 0.08989222 -0.1742801 0.004256785
000270 a8 ca 0a bd 88 9a 0a 3d bf 51 29 be d0 7b 16 bc
       -0.033884674 0.03383878 -0.1653509 -0.009184793
000280 00 af 18 3c 88 7f 38 bd 62 f5 c6 3d 01 92 1e 3e
       0.009319067 -0.0450435 0.09714772 0.15485384
000290 b4 b7 5a 3d 5e 26 d7 3d 80 b6 af 3c c2 31 15 be
       0.05339785 0.10505365 0.021449327 -0.14569762
0002a0 94 2f 6f bd ba 57 a0 bd a2 2f 1f be f0 91 b1 bc
       -0.058394983 -0.078292325 -0.15545514 -0.021676034
0002b0 e8 ba 05 bd d8 38 a8 bc 40 9e 5e 3b 32 0b 9a 3d
       -0.03264895 -0.020534918 0.0033968836 0.075216666
0002c0 d6 4f d9 3d 86 69 c3 3d 5c f7 41 3d f9 85 ca bd
       0.106109306 0.095416114 0.04735504 -0.098888345
0002d0 48 73 51 bd bf 95 19 3e 78 da c7 bd 30 d0 ef bc
       -0.05113533 0.1499853 -0.097584665 -0.029274076
0002e0 91 84 23 3e c0 15 b7 3b 32 44 bd 3d d2 c5 a6 3d
       0.15968539 0.0055873096 0.09241523 0.081432
0002f0 2e eb 24 be e8 f6 ac 3c 7c 10 7d bd 34 5f 05 be
       -0.16105339 0.021113828 -0.0617833 -0.13024598
000300 fe f4 db 3d 53 b1 d4 3d 4a 31 cf 3d 40 78 4c 3b
       0.10740088 0.103853844 0.10116823 0.0031199604
000310 93 9a 8a bd c2 97 c5 3d e4 dc 0e be 84 5f e5 bd
       -0.06767764 0.09648086 -0.1395145 -0.11199859
000320 12 5f 02 be 4e 15 fe 3c 7c 7e 0e bd 12 a9 77 bd
       -0.12731579 0.031016018 -0.034788594 -0.060463972
000330 8c 0c 00 3d b6 05 f6 bd 22 03 d1 3d db c5 27 3e
       0.031261966 -0.12012808 0.10205676 0.1638407
000340 03 cd d6 ba db 91 f3 bd b0 ec 2f bc 17 f2 e8 3d
       -0.0016388003 -0.11893054 -0.010737583 0.113743
000350 40 18 2b bb 99 5d 9a 3d 4c 6c 6c 3d 1d c5 0c 3e
       -0.0026106983 0.075373836 0.057720467 0.13747068
000360 b4 71 6d bd 90 7b ea 3c c2 47 b9 3d 63 b0 fc 3d
       -0.057969764 0.028623372 0.0904689 0.123383306
000370 97 bd f8 bd b0 61 17 bd 96 3b 4b 39 d6 2d a2 3d
       -0.121455364 -0.036958396 0.00019381786 0.07918899
000380 a8 77 73 3d ac 31 20 be 8a 95 fc 3d 80 1c d7 bc
       0.059440285 -0.15643948 0.1233321 -0.026258707
000390 ec b7 05 be 2f c5 31 3e 50 9b 6c 3c 82 4b 9d bd
       -0.13058442 0.17360376 0.014441326 -0.076804176
0003a0 dd f6 02 3e 0a c1 b3 bd ea e2 ba 3d 40 29 42 3c
       0.12789483 -0.08777054 0.09125312 0.011850655
0003b0 d0 c2 63 bd 00 a8 fd 39 c3 8f 1c 3e 0c 24 21 be
       -0.05560571 0.0004838109 0.15289216 -0.15736407
0003c0 4f 9f 1e be 48 a6 78 bd 70 5e f6 3c 17 7a 09 be
       -0.15490459 -0.060705453 0.030074328 -0.1342548
0003d0 b2 b9 b0 3d ca f7 e9 bd e8 f9 38 bd dc 00 13 be
       0.086291686 -0.11424215 -0.045160204 -0.14355797
0003e0 27 fb 21 3e d0 c4 3b 3d ea b8 a2 3d 00 a1 21 3c
       0.15818463 0.045841992 0.07945426 0.009865046
0003f0 44 7e 29 bd 50 7d 30 3c b3 a6 9a bd 50 42 f8 bd
       -0.041380182 0.010772064 -0.075513266 -0.12122023

lstm.bias_ih_l0 f4 [128]
000000 c8 1c 3a 3d ea 2b e0 3d 80 ff 8a bd fb 9d 1f 3e
       0.045437604 0.10945876 -0.06787014 0.15587609
000010 43 ab ea bd 6e 23 5e bd 57 a9 c0 bc 0e cd f5 bd
       -0.11458447 -0.054233007 -0.023518248 -0.12002002
000020 b9 1a 63 3e c6 f1 e2 bc 37 48 4c 3d 48 9d 83 bc
       0.22178163 -0.027703177 0.049873557 -0.016066208
000030 0b bb 46 3d 00 1c 30 39 00 d5 30 3d a4 19 26 3e
       0.04851822 0.00016795099 0.043171883 0.16220719
000040 51 d6 e8 bd 70 d7 7a bd b6 23 f0 bd 95 47 24 3e
       -0.113690026 -0.061240613 -0.11725561 0.16042931
000050 56 45 24 3e ba 45 af bd 51 7d 1b be 20 d3 d1 3d
       0.16042075 -0.08558221 -0.15184523 0.10245347
000060 05 fb 1a 3e dd 56 f3 3d 21 2e 2b be a4 eb 8c 3d
       0.15134819 0.11881802 -0.16716816 0.068808824
000070 28 20 2c bd 43 8c 2f 3e 1d 68 fe bd 2a 2e df 3d
       -0.042022854 0.1714335 -0.12422202 0.10897477
000080 1a 27 a1 3d 58 36 5e 3d 40 66 50 3b 32 e3 b4 bd
       0.07868786 0.054251045 0.0031799227 -0.088323966
000090 34 35 5a 3c cc 0b 79 3d 5d 91 91 bb 7a cd e7 3d
       0.013318349 0.060802266 -0.0044423775 0.113184884
0000a0 a9 1f c7 bd 95 dd 21 3e 91 31 03 3e 6c 62 1c bd
       -0.097228356 0.15807183 0.12811877 -0.0381798
0000b0 ee 98 98 3d 19 b1 1e 3e 61 b3 2e 3e ee 4f f1 3d
       0.07451044 0.15497245 0.17060615 0.117828235
0000c0 c6 7c 0f be 68 3f 8f 3c b9 f2 03 3e 04 26 58 3d
       -0.14012441 0.01748629 0.1288556 0.05277063
0000d0 c9 94 12 be df 17 1b 3e c3 be af bd 27 38 67 3d
       -0.1431457 0.15145825 -0.08581307 0.056450035
0000e0 8b 95 06 be f0 da 58 3c 43 dd 21 3e 40 44 bd 3c
       -0.13142984 0.0132357925 0.15807061 0.023103833
0000f0 fd 17 50 3d 01 04 86 bd 80 a9 df 3b a3 0d 59 3d
       0.050804127 -0.065437324 0.006825626 0.05299152
000100 a4 1f 1f be 38 bf 8e bc 88 1a de bd 1c 7f 01 3d
       -0.15539414 -0.017425165 -0.10844904 0.03161536
000110 be 1d ed 3d 8c 4d 61 3d 1e ff d5 3d 31 36 11 3e
       0.115779385 0.055005595 0.1044905 0.14180829
000120 f9 bf d0 3c b9 21 74 3d 20 85 28 bc 48 58 42 3d
       0.025482165 0.059602473 -0.010285646 0.047447473
000130 68 fd cc 3c e0 f2 82 bc d4 b8 01 bd fc 56 2f bd
       0.025023177 -0.015984952 -0.031670406 -0.042807564
000140 c3 02 06 3e 20 2c 2f be bc 61 21 be 96 65 d3 3d
       0.13086991 -0.17106676 -0.15759939 0.1032211
000150 ce 8a ce 3d 82 aa cf 3d 0c 16 32 3d 38 df aa bc
       0.10085069 0.10139944 0.043478057 -0.020858392
000160 6e 63 cf 3d 10 2f 2e 3d e8 cb 9d 3c 7d 1d 1d be
       0.101263866 0.04252535 0.01926227 -0.1534328
000170 59 e2 e2 bd 1e e1 9a 3d 9c f0 3b bd 72 d1 7f bd
       -0.11078329 0.07562469 -0.04588376 -0.062455602
000180 f0 63 23 3d 8a af d5 3c 0a 4f 35 3e 1c 1f 43 be
       0.03989023 0.02608468 0.17705932 -0.19054836
000190 5e 6f e9 bd cf 74 b2 bd 4e 26 b8 bd b7 11 a9 3d
       -0.11398195 -0.08713686 -0.08991681 0.08255332
0001a0 d0 93 44 bc 8f 3b 83 bd 6b e7 ae ba ff 09 2e 3e
       -0.011998132 -0.06407844 -0.0013344114 0.16996
0001b0 fa eb a1 3d bf d7 13 be c2 8c f2 bd 8a f9 95 bd
       0.07906337 -0.1443777 -0.11843254 -0.073229864
0001c0 5c b9 b2 bb 9c 42 16 3e 2f 4b f5 bd e3 c3 bd 3d
       -0.0054542255 0.14673847 -0.11977231 0.09265878
0001d0 28 cf 5f bd 0f 83 b2 3d 23 c7 99 3d 68 85 e3 bd
       -0.05464092 0.08716404 0.075086854 -0.111094296
0001e0 3d 29 a9 3d f8 08 43 bd 43 77 19 3e ea 15 90 bd
       0.08259819 -0.047615975 0.14986901 -0.0703543
0001f0 4c ba a7 3d 20 38 ea bd 08 b2 38 3e 99 1c 47 3e
       0.0818983 -0.11436486 0.18036664 0.19444503

lstm.bias_hh_l0 f4 [128]
000000 04 f6 30 bd 40 b5 c2 bc 57 cc 27 be b4 04 2a be
       -0.04320337 -0.023768067 -0.16386543 -0.16603357
000010 62 18 9f 3d 30 81 28 bd 55 4a 0a 3e 34 08 3c 3d
       0.077683225 -0.041138828 0.13504918 0.04590626
000020 01 94 f0 bd 07 cf 0f 3e ed 46 21 3e 00 60 56 ba
       -0.117469795 0.14043818 0.15749712 -0.0008177757
000030 93 25 ef 3d de eb 96 3d 6d 2b 27 3e d8 a9 d9 3c
       0.116770886 0.07369207 0.1632516 0.026570246
000040 fb 94 24 be b1 85 25 3e 83 bc 2c bc 38 6e 64 bd
       -0.16072457 0.1616428 -0.010542992 -0.055769175
000050 50 f7 fe 3d c0 0b a0 bb 46 a7 2d be 73 50 15 be
       0.12449515 -0.004884213 -0.16958341 -0.1458147
000060 85 8b 38 be 5e 25 f4 bc 14 fa 1d be 54 cb e6 bc
       -0.18021972 -0.029802974 -0.15427428 -0.028173126
000070 d8 3d 9d bd ff 6c 27 be b5 2a 83 bd b0 17 93 3c
       -0.076778114 -0.16350172 -0.0640463 0.017955631
000080 6f ee d1 bd 08 63 97 bc b4 50 7b bd 07 ef 9f bd
       -0.10250556 -0.018479839 -0.06135626 -0.07809263
000090 67 72 1c 3e b8 ec 08 be 24 8f 4d 3e 92 db 60 bd
       0.15278016 -0.13371551 0.20074135 -0.0548969
0000a0 a5 1f ce bd be c3 16 be 37 50 1e 3e 4b 03 91 bd
       -0.100646295 -0.14723107 0.15460287 -0.07080706
0000b0 45 f9 17 be a7 de 1c be b4 46 14 be a4 95 f2 bd
       -0.14841183 -0.1531931 -0.14480096 -0.11844948
0000c0 2a 1c bd bc ee 98 96 bd 76 b8 f6 3d 2a 40 8a 3d
       -0.023084719 -0.07353388 0.12046902 0.067505196
0000d0 ef 02 0c 3e 68 f8 85 bd ee b1 eb 3d 0e 0f 29 3e
       0.13672994 -0.0654152 0.11508547 0.16509649
0000e0 3c 84 85 bd 48 91 eb 3c 42 d7 98 bd 4f 91 ea bd
       -0.06519362 0.028755799 -0.07462932 -0.11453497
0000f0 d5 8f dd bd 68 3d ff bc 78 50 d2 3c 98 cb ec 3d
       -0.108184494 -0.03115721 0.025673136 0.1156227
000100 d6 41 f7 3d 68 60 94 bc 20 d5 b1 bd da d3 bf 3d
       0.12073104 -0.018112376 -0.086832285 0.09366579
000110 a1 6b 17 3e ca f0 ee bd 51 61 10 be 88 b1 35 3d
       0.14787151 -0.116670206 -0.14099623 0.04435876
000120 77 5a ae bc e9 e7 48 be 70 4c 3d 3c 4d b8 cc bd
       -0.021283371 -0.19619717 0.011553869 -0.0999609
000130 bc ed 88 3d ab e3 ce bd ba e2 d4 3d c0 05 2e bb
       0.06685969 -0.10102018 0.10394807 -0.002655372
000140 9b 9d 05 3e f2 a5 2c be 56 18 f6 3d da 44 c8 3d
       0.13048403 -0.16860178 0.120163605 0.097787574
000150 92 2a a7 3d 5e 07 24 be c7 93 9f bd 60 d9 85 bc
       0.081624165 -0.16018435 -0.07791858 -0.016339004
000160 40 ae dc bb 6a d5 b2 3d e6 4b a2 3d 7e d8 ea 3d
       -0.0067346394 0.08732112 0.07924633 0.11467074
000170 a9 80 bb bd 40 32 02 bb eb 78 33 3e a8 ba ee 3d
       -0.09155399 -0.0019866377 0.17526595 0.116566956
000180 ae f9 f8 3d 7e 38 c7 bd 43 82 ba bc 08 e7 00 3e
       0.121569976 -0.09727572 -0.022767192 0.12588131
000190 ae 97 90 3d ee 7f 95 3d 87 fe b5 bd bc c7 27 bd
       0.070601806 0.07299791 -0.08886438 -0.040961966
0001a0 28 70 9d 3c 10 ee 25 3d fe 37 eb 3d 39 d7 a7 bd
       0.01921852 0.040510237 0.11485289 -0.08195347
0001b0 aa 1c dd 3d 7e 6f 95 bd 00 8f 41 ba ae 6f e5 3d
       0.10796483 -0.07296656 -0.00073836744 0.11202942
0001c0 c4 8f 36 3e 3e 1c 45 3e df c5 cc 3c 2e 9b f8 3d
       0.1782828 0.19249055 0.024996696 0.12138973
0001d0 59 6d 09 3e 77 98 2b 3e c5 46 2f 3d 3c 69 c6 bb
       0.13420619 0.1675738 0.0427921 -0.0060550254
0001e0 68 85 14 3e 5d ea f8 bd 44 c0 08 3e cd 23 10 3e
       0.14504015 -0.12154076 0.13354594 0.14076157
0001f0 f6 c4 37 3e 22 b5 13 be 9f 36 10 be 54 5f b3 bc
       0.17946228 -0.14424565 -0.14083336 -0.021896042

fc1.weight f4 [16, 32]
000000 e0 d8 27 3c 90 3c ef 3c 30 82 8b 3d 14 d8 ef bd
       0.010244578 0.029203683 0.06811941 -0.117111355
000010 22 4e 9d 3d 61 88 12 3e 8c 83 ef bd 8a 2d 99 3d
       0.07680918 0.14309837 -0.116950125 0.07479389
000020 65 90 32 3e 5f c7 95 bd 6d 5c 11 3e fc fa 50 3d
       0.17437895 -0.07313418 0.14195414 0.051020607
000030 28 21 0c bd e0 1a 35 bc 0f eb 26 3e 0c cc 29 be
       -0.034211308 -0.011053771 0.16300605 -0.16581744
000040 c0 16 8d 3d 59 7a 03 3e 82 50 d8 3d 64 e4 5f 3d
       0.06889105 0.1283964 0.10562231 0.05466117
000050 54 20 4e bd 4a 0a 90 3d fa df 28 be fa dc 67 bd
       -0.0503238 0.070332125 -0.1649169 -0.056607224
000060 a0 86 4f 3c cd bf 0c 3e d6 1d a2 3d 90 35 7c 3d
       0.012666374 0.13745041 0.07915847 0.06157452
000070 5b e9 f4 bd 8e be cd 3d 2a cb 01 be 22 05 e3 3d
       -0.119585715 0.10046111 -0.12675157 0.110849634
000080 20 2a d7 3d 9e 0b 40 bd cf 2e 80 bb 4c 9d f2 bc
       0.105060816 -0.04688608 -0.00391183 -0.02961602
000090 30 d4 47 3d a0 1b 26 3c 5d a3 5b 3e fb 57 fd bd
       0.048786342 0.010138422 0.21449037 -0.123702966
0000a0 78 be b4 bd c1 15 88 3d aa 23 3c be cb 77 4f bc
       -0.088253915 0.06644774 -0.1837298 -0.012662838
0000b0 59 c0 d5 3d 46 c3 1b be 80 3b 28 3b 90 c2 26 bd
       0.10437078 -0.1521121 0.002567023 -0.040712893
0000c0 c4 b5 3e be 9a 08 d8 bd 7f 2e 6d bd 5e a1 92 bd
       -0.18624026 -0.105485156 -0.05790567 -0.071596846
0000d0 01 89 b3 bb 1d 2e 57 be 4e 88 53 3d 0a 47 5a 3e
       -0.0054789786 -0.21013685 0.051643662 0.21316162
0000e0 8b f0 00 3d 59 6f 0d 3e 3a ad 4b be 81 0a 89 bd
       0.0314794 0.13812007 -0.198903 -0.066914566
0000f0 29 21 b9 bd a3 fa 51 ba e9 67 57 be 81 53 25 be
       -0.09039528 -0.0008010065 -0.21035732 -0.16145135
000100 b8 42 55 bd d4 71 30 3d f2 f1 fa bd c8 46 84 3d
       -0.05206558 0.043077305 -0.12253179 0.06458813
000110 e4 84 45 bd e1 77 10 3e e0 03 58 3d 87 2b d7 bd
       -0.048222438 0.1410823 0.05273807 -0.10506349
000120 00 38 82 3d b7 b3 cc bd fe 6d d8 bd 96 05 f1 bd
       0.063583374 -0.099952154 -0.10567854 -0.117686436
000130 ac 04 9c bd 8c e4 90 bd b8 cf 72 3d 5c 91 1a 3d
       -0.076180786 -0.07074842 0.059280127 0.03773628
000140 2b 0e 17 be 2a 95 b6 3d 18 67 c6 bd 68 4c 3d 3d
       -0.14751498 0.089151695 -0.09687632 0.046215445
000150 7e e8 ab bd fd 18 22 3e 13 70 8b bd c8 2c 69 bd
       -0.08393954 0.15829845 -0.06808486 -0.056927472
000160 dc 84 3f 3d 0c c4 e9 bd b0 2c 02 be 10 83 56 3d
       0.046757564 -0.11414346 -0.1271236 0.052371085
000170 fc c3 56 3d 50 24 a4 bc 93 b6 27 3e 85 69 0c 3e
       0.052433 -0.020036846 0.1637824 0.13712128
000180 6e 55 e4 3d c5 15 d5 bd 77 2e 39 3e c6 85 ba bd
       0.11149107 -0.10404543 0.18084131 -0.091075465
000190 dd 1c 5c 3e d4 19 13 3d 0b 16 0b bd bc 8b 01 3e
       0.21495385 0.035913303 -0.03395657 0.1265096
0001a0 5a cf 50 bc c2 5f 8e 3d cd 32 52 be f8 0f 31 3e
       -0.012744749 0.06951858 -0.20527191 0.17291248
0001b0 43 a4 46 3e 9a 85 db 3d a1 17 0c 3e b4 2c ea 3c
       0.19398598 0.10718842 0.13680889 0.02858577
0001c0 b7 16 ea bb 28 aa 1b be 7e 5e 4a be a4 8c 16 be
       -0.007143821 -0.15201628 -0.19762608 -0.14702088
0001d0 26 6b c8 3d 46 9d 88 bd a9 ac 11 3e f9 86 dd 3d
       0.09786062 -0.066706225 0.14226021 0.108167596
0001e0 94 dd da bd ab 4c 1e be e4 f3 9d 3c fd 72 48 3e
       -0.10686794 -0.15458934 0.019281335 0.19575115
0001f0 38 6a 5c 3d 97 bd 62 3d de e6 a7 bd 8d 2f 5e be
       0.053812236 0.05535659 -0.08198331 -0.21697827
000200 70 d8 9e 3c e3 4f 53 bc 88 f6 4c 3e 6f 7c 9e bd
       0.019390315 -0.012897464 0.20015919 -0.077385776
000210 80 0e 39 3e 9d e3 c5 bd 6e 02 e8 3c c0 40 96 3d
       0.18071938 -0.096625544 0.028321471 0.07336569
000220 1b f9 3b be a9 04 6c 3b 11 e1 32 3d f3 45 87 bb
       -0.18356745 0.003601352 0.04367167 -0.0041282116
000230 f0 c5 df bd 22 eb 9b 3d d6 ce 77 bd ac 63 3f bd
       -0.109264255 0.076132074 -0.06049999 -0.046725914
000240 95 c5 e1 bd 47 5d ce bd d3 60 53 be 1e 6f fa 3d
       -0.11024014 -0.10076385 -0.20642404 0.12228225
000250 2b 41 38 be 8d 02 d9 bd b6 96 22 3e 5b 35 a7 3c
       -0.1799361 -0.1059619 0.15877804 0.020411184
000260 81 9d 74 3d d9 2e cd 3b 2c ff d0 bd df d1 1d be
       0.05972052 0.006261688 -0.1020492 -0.1541209
000270 9b 9b 97 3d ce 01 fc 3d 88 df 4e be fe fc b0 bd
       0.07402726 0.12305032 -0.20202458 -0.086420044
000280 6a 93 32 be e8 c1 2c be d5 b1 a9 bd 40 fc f4 3b
       -0.17439047 -0.16870844 -0.08285872 0.0074763596
000290 db ce 0f be 52 ea a6 3d 2c e6 89 bd 3e e6 db 3d
       -0.14043753 0.08150162 -0.06733355 0.107372746
0002a0 12 36 8d 3d bf c7 21 3e 53 f8 fb bd 54 3b 74 bd
       0.06895079 0.15798853 -0.123032235 -0.059626892
0002b0 40 a3 8a bb 92 5a 79 bd 8c 98 93 bd d2 15 e8 3d
       -0.0042308867 -0.06087739 -0.072068304 0.11332287
0002c0 e8 a0 98 bd 1c b6 02 3d 8d d8 21 be aa 24 ce 3d
       -0.074525654 0.031911954 -0.15805264 0.10065587
0002d0 f4 73 2a bd 60 0e c3 3c 00 1e 39 bc b0 88 2c bd
       -0.041614488 0.023810565 -0.011298656 -0.042122543
0002e0 80 93 a8 3a 4d ab c7 bd f7 f8 c2 bd 3b c8 10 3e
       0.0012861341 -0.0974947 -0.095201425 0.14138882
0002f0 48 6d 15 bd 7e 40 f0 bd f6 54 a9 3d 2d 12 91 bd
       -0.03648117 -0.11731051 0.08268158 -0.07083545
000300 86 c3 20 be 9f 0b 1b be 3c b1 42 3d 62 34 d5 3d
       -0.15699586 -0.15141152 0.047532305 0.10410382
000310 c0 9a 51 bb 1d a2 89 bd 4d 50 28 be af 7b f5 bd
       -0.0031983107 -0.06720374 -0.16436882 -0.119864814
000320 d0 e4 d0 bc f5 ea 31 be f0 f2 da bc 19 e5 1d 3e
       -0.025499731 -0.17374785 -0.02672717 0.15419425
000330 a0 b4 88 3b 74 a9 05 bd fc 47 01 be 40 9b e0 bb
       0.004171923 -0.032632306 -0.12625116 -0.0068544447
000340 3b 28 fe bd d0 99 14 3d 1c 68 85 3d e0 90 0e bd
       -0.12410017 0.0362795 0.06513998 -0.034806132
000350 84 f5 19 3d 4e 58 07 be 70 33 26 be 91 c7 18 be
       0.037587658 -0.1321728 -0.1623056 -0.14919879
000360 a0 23 80 3d 40 85 ad 3c a8 47 db bc 47 ba 0a be
       0.06256795 0.021181703 -0.026767567 -0.13547622
000370 2f dd 28 be c4 35 16 be 66 ae ba bd b5 91 04 3e
       -0.16490625 -0.14668947 -0.09115295 0.12946208
000380 b8 6f 83 bd 00 24 b6 3c b0 75 a4 bd 58 82 0a be
       -0.06417793 0.022233963 -0.080302596 -0.13526285
000390 55 30 df 3d ed 69 18 be ce 58 21 3e 13 0e 3c 3e
       0.108978905 -0.14884157 0.15756533 0.18364744
0003a0 5d 62 97 3d 96 7c 24 3d 15 86 29 3d 7a de fc bd
       0.07391808 0.040157877 0.041387636 -0.123471215
0003b0 4e d6 b1 ba 7d 1c 23 be 6c 22 f1 bd 9b 4d 1b 3d
       -0.0013567896 -0.15928836 -0.117741436 0.037915807
0003c0 13 75 33 3e 38 28 ea 3d 2f 2a 29 3e f1 2c 51 3d
       0.17525129 0.11433452 0.16519998 0.05106825
0003d0 38 c2 dd 3d a7 f0 e9 3d b9 bf ba bd 50 e2 a0 3d
       0.1082806 0.11422854 -0.091185994 0.07855666
0003e0 d1 4c 1b be d8 8f 12 be 00 34 2c 3d c6 6b 85 bd
       -0.15166022 -0.14312685 0.04204178 -0.06514697
0003f0 1d 40 27 be ae 8b 01 be e0 63 e4 3d ad e6 94 bd
       -0.16333051 -0.1265094 0.11151862 -0.072705604

fc1.bias f4 [16]
000000 92 33 9a bd e3 e1 76 bb e5 b7 0c 3e 44 14 e9 3d
       -0.075293675 -0.003767126 0.13742025 0.113808185
000010 1a b8 46 3e 88 84 42 3d 7b 29 e2 bd 76 71 20 be
       0.19406167 0.047489673 -0.11043068 -0.15668282
000020 86 cc 61 3e 01 f4 20 3e cc 7a aa bd 68 3a 63 3d
       0.22050676 0.1571808 -0.08324203 0.055475622
000030 08 5c 57 3d 60 3b 69 3e b2 93 51 3e 9b 6e 20 be
       0.052578002 0.22776556 0.20466498 -0.15667193

out.weight f4 [1, 16]
000000 b0 51 66 3e ed 90 86 3e a6 56 42 3e 15 bc 00 3e
       0.22492099 0.26282445 0.18978366 0.12571748
000010 fd 1b 8b 3e e2 b7 65 be 6a 5f 2e be c6 ed f9 bd
       0.2716979 -0.22433427 -0.17028585 -0.12203555
000020 15 88 6a 3e f0 82 c4 3c 5a 2e 6c 3e 3a 44 70 3e
       0.22903474 0.023988217 0.23064557 0.23463526
000030 4c 69 74 be 7c f4 83 3d d2 c8 5e 3e d8 fd 9c 3d
       -0.23868293 0.06443116 0.21756294 0.07665604
