artifacts/territory/lstm/273__0__0/model.pt (torch, 23217 bytes, 7 tensors)

lstm.weight_ih_l0 f4 [128, 1]
00000000: e083 143e c20b 63bc 1e43 393e 7711 82bd
00000010: 3fd1 b9bd 5ee3 92bd c31b ce3c 2a9a 0a3b
00000020: e3f4 bc3c 9e1a 863c f38b a53d d0b6 ef3d
00000030: eeb4 d9bd a0db bf3d 2202 5d3d 3e8f 163e
00000040: 86b6 c73c 147c eb3b f571 883d 2c1a d2bd
00000050: 20f8 b53d 20ac 513c 572b 993d 4b75 ecbd
00000060: eb64 e33c ddcb c1bd c664 163e 3a95 09be
00000070: d9a3 c13d ebfd 10bd 32e2 f73d 2534 acbd
00000080: 10fd aa3c 1c36 16bd 7ccd 253c 4642 f03d
00000090: 11b7 42bc 6cbe d6bd 00ed d53d 9a57 343e
000000a0: 8d05 a63d 5726 0b3e 45cd db3c b25e 10be
000000b0: f964 93bd bce8 b9bd ac78 ddbd 56aa 9e3d
000000c0: 1eb9 64bc 78e1 813d 6b3f 1c3e 9dc5 e83d
000000d0: 5db3 39bd a026 afbd 6899 1e3e 621d fb3d
000000e0: 3d8c d3bd 37f5 2b3d 6dea 043e ec3c b73d
000000f0: ee08 183e 5de6 353e d612 3dbb 149e 35bd
00000100: 7eb9 04be 5a0e a63d 3f7f 02bd 0984 113e
00000110: 0df6 d1bd f6bd 4a3d 94c2 d93d 9a3a ee3d
00000120: 996d a23d b744 be3b 1750 08be e28b ffbd
00000130: b89d 1dbd 135d dd3a 018c 023e 90d1 30be
00000140: 20c0 203c b019 08be f8f8 b4bd 9f0c 89bd
00000150: eb71 18be f0ac 14be 4d7b 33be 3d06 9bbd
00000160: 6bfd f23d b13f 093e 26c9 16be 641f c43c
00000170: e35d 14be a8c6 31be 825c 86bd 9fb7 a53d
00000180: ef5c 893d 5458 11be b9ba 093e c70d 2dbe
00000190: 8cba d33d a4c6 75bd b7e4 5bbc db25 f83d
000001a0: 61e4 bbbd a6ab 203e 1444 9dbd f097 913b
000001b0: 6517 c9bd 4576 1fbe 39cb cbbc 3339 7f3c
000001c0: 2442 c03c 2413 0a3e e2e5 4cbb d08f abbb
000001d0: 7b99 0f3e 0f59 e73d 60dd 273e 6146 26be
000001e0: 4fdd 0d3e 9fd1 e2bc 8086 81bd 6189 14be
000001f0: 1a0a 403d c27c 94bc 5991 f53d c753 e4bc
0.14503431 -0.013857784 0.1809201 -0.063509874 -0.09073114 -0.07172273 0.025159722 0.0021149018
0.02306599 0.016370114 0.08083334 0.117047906 -0.10630213 0.09368062 0.053957112 0.1470308
0.024379026 0.007186422 0.066623606 -0.10258898 0.08885217 0.012797385 0.074789695 -0.11545809
0.027758082 -0.09462712 0.1468688 -0.13435832 0.094550796 -0.035398405 0.1210369 -0.08408383
0.020872623 -0.036672696 0.010119792 0.11731391 -0.011884467 -0.10485539 0.10445595 0.17611542
0.081065275 0.13588844 0.026831279 -0.14098623 -0.071969934 -0.09077594 -0.10814032 0.07747333
-0.013960151 0.06341833 0.15258567 0.11365817 -0.04533707 -0.08552289 0.15488207 0.12261464
-0.10329483 0.041981902 0.12980051 0.08947167 0.14847156 0.17763658 -0.0028850338 -0.04434021
-0.12961385 0.08108206 -0.031859633 0.14210524 -0.102520086 0.049497567 0.10632816 0.11632271
0.0793106 0.0058065313 -0.13311802 -0.124778524 -0.03848049 0.00168887 0.1274872 -0.17267442
0.009811431 -0.13291049 -0.088365495 -0.066918604 -0.14887206 -0.14519095 -0.17527504 -0.07569549
0.11864742 0.13403203 -0.1472517 0.02394075 -0.1448894 -0.17360938 -0.06560613 0.080916636
0.06707179 -0.14193851 0.13450135 -0.16899787 0.10338315 -0.06000389 -0.013421229 0.12116595
-0.09174419 0.15690479 -0.076790005 0.004443161 -0.09818915 -0.1557246 -0.024877178 0.015577602
0.023469038 0.13483864 -0.003126495 -0.0052356496 0.14023392 0.112962835 0.16393042 -0.16237785
0.13853954 -0.027687846 -0.06324482 -0.14505531 0.046884634 -0.018125895 0.119906135 -0.02787198

lstm.weight_hh_l0 f4 [128, 32]
00000000: 1ef4 39bb d1d8 273e a186 7abc c052 4ebd
00000010: 4846 223e 344d c2bd e8e8 293d d917 1abe
00000020: 9e05 a53d fda3 bc3d 0087 89ba c9f7 03be
00000030: 3695 12be 0a59 d7bd 2489 563d d7de c5bc
00000040: 0caf 903d af29 cebd ec04 ea3d a7cd 05be
00000050: a3fc 9a3d c442 cb3d 6d62 033e bc59 f0bd
00000060: 482d 303d 8760 9abd d4a8 673d 5aa6 2ebe
00000070: 3134 0f3d 12b1 cbbd 097a bd3c a04c bfbb
00000080: 9d71 cbbd b45c 5f3d 9f41 eabd fc33 803d
00000090: b54d a63d 6c86 1abe 89eb fc3d e510 7ebd
000000a0: 80e3 723d 2a3a 833d 6d89 08be 3a01 7b3d
000000b0: 691a c9bd 3a6d e23d 0b53 803b 01cc bbbd
000000c0: e575 c23d 0516 983d a2d1 07be 519f 8b3d
000000d0: ef3a 3a3d 45b1 15bd 7a8f 253e 4a57 c03d
000000e0: 2f8a 9bbd bd59 ba3c e004 75bd 1f1c bdbd
000000f0: f1df 14bd 4cd6 9e3d 1f74 f43d 186c 863d
00000100: f1ec f0bd 6eee e7bd 4b3e 223e 26a1 853d
00000110: d145 363d aa0a a53d 807e 5bbc 5a05 ad3c
00000120: 612d 113e 56f6 e1bd b0bf 3cbc 3abe 96bd
00000130: 20f2 953b aea7 e4bd 10f8 14be 9461 11be
00000140: 3530 1b3e 83ad 833d 693c c0bc dbd2 8abd
00000150: 5f33 eabd 177b 863d eaf7 cdbd b8a4 02bd
00000160: fc99 9b3c 9485 0cbe c8b5 383d a8b6 c8bc
00000170: 9279 123e 24e7 6abd 2c54 20be da5c ca3d
00000180: ddf1 143e e588 323e 483a 49bd a61d 983d
00000190: c64e 343e 9516 0bbe 17be 773c bbc0 1abd
000001a0: a4ef 393d 83b3 f13d a812 9ebc 2771 3abd
000001b0: c008 803d 411f 233e 0a60 a63d fa4b 8cbd
000001c0: e80a 68bb 5c4c fdbd 0a9e bbbd ec48 f13d
000001d0: 221b e5bc 92ef cabd 1db2 eebc f41b 183d
000001e0: 0c61 7c3c b150 33be be84 e83d 0055 6e3d
000001f0: 2425 2ebe dca4 0bbe ef18 eb3c 50bf 05be
00000200: 7d7e 083d 952a 0a3e c8bc 923c 1e0c eb3d
00000210: 207b d63a ea93 27bd 4ee2 19be 6e89 e1bd
00000220: a854 c8bc a6ab 053b 6cb6 22be 83e3 a83c
00000230: d837 db3c d9ac 05be 9bcf c63d c15f 1f3e
00000240: 3546 20bd 75b1 363c c62b f7bd 26d2 0dbe
00000250: 41ab 80bd f6f3 d8bc 81d6 c4bc 15a8 143e
00000260: cdc2 62bd 2023 9cbd 9887 abbd e3db 293e
00000270: cfdb 01be 0f0f cbbd 58d4 483e b7cf 993c
00000280: 5524 eebd d032 533d dea3 37bd 1246 cc3d
00000290: 1c44 333e b0e4 423d 80e2 5ebd 75a3 9cbc
000002a0: a4c0 9cbd aca7 2ebe 359b 33be 25c9 423e
000002b0: 78e8 f0bc b2a1 fb3d 29ef 11be de70 58bc
000002c0: 3ed0 0c3e 6ea2 7fbd a60d 23be a968 993c
000002d0: 5796 d23d d01a bbbd 447d 153e dc34 343d
000002e0: 7581 643d 8e70 d43d 6f48 1a3e 4f4d 99bd
000002f0: ac22 153e ba4b a3bd c7ee c8bb a88c 4d3d
00000300: 3073 fabd 889a 0b3d ef13 07be ede0 153e
00000310: 0bb2 c5bd d130 f7bd c9e4 b2bd 2c92 053c
00000320: 8585 163e 6226 cbbd 9c97 de3c 313f 133e
00000330: 56ea cdbd 3406 943d 76b8 9d3d 7ac5 6e3d
00000340: 1b64 1f3e 6d20 05be 747b dbbd c186 d9bc
00000350: 4b9e 08be 22c3 13bd 9046 283d 9cb5 d6bd
00000360: 0c41 d0bd caea 933d d086 6c3d 4e0e 27be
00000370: d089 1f3e 517c ecbd a9ff 3f3c df7c fa3d
00000380: ea6d 45be ec80 26bd b070 2ebe 8d53 fa3d
00000390: 6b1e 2ebe d2ef 05be 953b f33c 2c7f c6bd
000003a0: 9a51 b9bd a65c 463e 91d6 003e e283 573c
000003b0: fe38 2b3e 0424 ee3a 14df 7c3b 9d3c 03bd
000003c0: 1220 803d 9c4f a13d c2eb 3dbe a5ea 07bc
000003d0: 50b5 f8bd 9216 68bd 775d 5fbe 55e1 023e
000003e0: 684c 1abd 0654 edbd 7a8b 24be 8d02 19be
000003f0: c22d 403d fa74 f43d bfda 51bd 3773 02be
-0.0028374265 0.16391303 -0.015290887 -0.050371885 0.15847123 -0.094873816 0.041481882 -0.1504816
0.08057712 0.09210966 -0.0010492504 -0.12887491 -0.14314732 -0.1051503 0.05237688 -0.02415411
0.070646375 -0.10066544 0.1142672 -0.13066731 0.07567718 0.09924844 0.12830515 -0.117358655
0.043011934 -0.075379424 0.05655749 -0.17055646 0.034961883 -0.09945883 0.02312948 -0.005837992
-0.099337794 0.054531768 -0.114382975 0.06259915 0.0812029 -0.1509034 0.12349612 -0.06202783
0.059298992 0.06407578 -0.13333674 0.061280467 -0.098194905 0.110559896 0.0039161495 -0.0916977
0.09495143 0.07426075 -0.13263562 0.068174966 0.04546636 -0.03654601 0.16168013 0.09391649
-0.07594716 0.022747869 -0.059819102 -0.09233879 -0.03634638 0.07755718 0.11936211 0.06563586
-0.11763943 -0.11324774 0.15844075 0.06524877 0.044500176 0.08058675 -0.013396859 0.021120716
0.14177467 -0.11033313 -0.011520311 -0.073605016 0.0045759827 -0.11164795 -0.14547753 -0.1419738
0.15155108 0.06429579 -0.023466306 -0.06778499 -0.114355795 0.06566446 -0.100570515 -0.03189537
0.018994324 -0.13722831 0.045095235 -0.02450116 0.14304188 -0.05734934 -0.15657109 0.09880991
0.14545389 0.17435034 -0.049127847 0.0742753 0.17608175 -0.13582833 0.015121005 -0.03778146
0.045394555 0.11801817 -0.019296005 -0.045518067 0.06251669 0.15929891 0.08123787 -0.06850429
-0.0035406891 -0.1236808 -0.09161003 0.11781487 -0.02796704 -0.09908976 -0.029137665 0.037136033
0.015403997 -0.1751125 0.113534436 0.05818653 -0.17006356 -0.13637108 0.028698413 -0.13061261
0.033323754 0.13492806 0.017912284 0.114769205 0.0016363598 -0.040912546 -0.15027735 -0.11012541
-0.02445443 0.00203965 -0.15889901 0.020616299 0.026760027 -0.13054217 0.09707566 0.15563871
-0.039129455 0.0111507075 -0.12068896 -0.13849697 -0.06282664 -0.026483517 -0.024028065 0.14517243
-0.055361558 -0.07623887 -0.08375472 0.16587786 -0.12681507 -0.099149816 0.19612253 0.018775804
-0.116280235 0.05156213 -0.04483401 0.09974302 0.1750645 0.047581375 -0.054415226 -0.019120911
-0.07653931 -0.17056149 -0.17539676 0.19022043 -0.029407725 0.122867 -0.14251389 -0.013210503
0.13751313 -0.062410764 -0.15923175 0.018726664 0.10282581 -0.091359735 0.14598566 0.043995723
0.055787522 0.103730306 0.15066694 -0.074854486 0.14564008 -0.07973428 -0.00613198 0.05018297
-0.122290015 0.03408292 -0.13191198 0.14636584 -0.096530996 -0.12069858 -0.087350436 0.008152526
0.14699371 -0.0991943 0.027171902 0.14379574 -0.10054462 0.07227746 0.07701199 0.058293797
0.15565531 -0.1300065 -0.10716906 -0.026553513 -0.13341634 -0.036074765 0.04108292 -0.10483858
-0.10168657 0.07222517 0.057745755 -0.1631405 0.15579915 -0.11547149 0.011718669 0.122308485
-0.1928021 -0.040650293 -0.17035174 0.12222967 -0.17003791 -0.13079765 0.029691497 -0.09692225
-0.090487674 0.1937128 0.1258185 0.013154002 0.1672096 0.0018168692 0.0038585113 -0.032040227
0.06256117 0.078765124 -0.18546966 -0.00829569 -0.121439576 -0.05666215 -0.21812998 0.1278127
-0.037670523 -0.11588292 -0.16068831 -0.1494238 0.046918638 0.11936374 -0.051234003 -0.12739263

lstm.bias_ih_l0 f4 [128]
00000000: 5a4a ea3d 7953 9f3d 525c 1bbe d823 903d
00000010: d3ad f5bd 24a0 e93c 460b a5bd 450e f93d
00000020: 8a54 d33d 3b94 ee3a 6f81 043e 4685 33be
00000030: 1047 5abd 6ec6 04bd 5d10 0abe e7be bcbd
00000040: dd96 6c3d 77d8 003e ebe3 193d 9f9e 203d
00000050: 8c68 8a3d 48a3 b13a 72cd 663d ba4a d03d
00000060: 2ea5 313e 8921 013c 95c0 143d f6e1 0fbd
00000070: f57f e63c aa24 473e 2aa9 213d da20 cbbd
00000080: b0c8 00be a7c6 0fbd c2d6 403e 0e51 cc3d
00000090: e70f 493d e064 143e 2a4f e3bd df86 b9bc
000000a0: ccce cebd 7571 253e d314 2cbe ef33 a2bd
000000b0: 26f5 a13d 9ad3 a8bd 5413 36bd f1ed bd3d
000000c0: fdd9 463d 37d6 b73c 81ab 1fbe eb75 863d
000000d0: c704 2c3e 9e80 303e eb91 e13d 433d 293e
000000e0: 9618 b9bd 63aa 1abe 33d8 653d 494e 273e
000000f0: a7cc 963d 8f83 ec3d 797f f33b 4ed2 1d3e
00000100: 98ce edbc 6d25 3bbc da95 f33d 0d12 27be
00000110: 698b 833d e5d9 873d a44f 84bd 55b4 92bd
00000120: dba2 173d 8436 cb3d c32f 0d3e 1cd9 15be
00000130: 741f 113e fd44 4a3d e0be 0dbe 7c17 943d
00000140: 054c 2f3c ef53 093e 8ef6 0d3e 7cce dbbd
00000150: 7084 3c3d f830 3dbd 6815 e2bd ba69 01be
00000160: 983f 3f3d a5ee adbd 2a41 d83d a313 babd
00000170: 3e6e 22be 6033 a53b f56d 6abb 902e fd3c
00000180: c595 08be bde8 453d cc88 3b3b 8826 0a3e
00000190: 0a93 ec3c bd78 3d3d 355b 2a3d 93ec 80bd
000001a0: f23e 3b3e 57de 17be cc78 c43d 7bb3 9e3d
000001b0: 84b7 a23d 3433 43bd c1c2 0f3e b822 193e
000001c0: 37d7 a03c 2bd5 a8bd 14d1 053e c55d 8fbd
000001d0: 6699 83bd 8887 12be c848 9c3d 4afc 29be
000001e0: f74f 233e ccf4 f03d 198c 04be 9a98 26be
000001f0: 99b3 313e e2df 193e 0271 ba3d 7385 dcbc
0.11439963 0.07779593 -0.15171936 0.07038087 -0.11996045 0.028518744 -0.08058791 0.12160925
0.10318859 0.0018202135 0.1294 -0.17531309 -0.053290427 -0.0324158 -0.13482805 -0.09216099
0.057761062 0.12582575 0.037570875 0.039213773 0.06758222 0.001355269 0.05634827 0.10170503
0.17348167 0.007881531 0.036316473 -0.035127603 0.028137187 0.1944758 0.039467968 -0.09918375
-0.12576556 -0.03510156 0.18831924 0.099763975 0.04908743 0.14491606 -0.11099084 -0.02264732
-0.10098037 0.16156562 -0.16804819 -0.07920062 0.079080865 -0.08243485 -0.044452026 0.09273899
0.048547734 0.022441013 -0.15592767 0.0656546 0.16798697 0.17236564 0.1101416 0.16527276
-0.090378925 -0.1510406 0.056114387 0.16338457 0.07363253 0.1154853 0.0074309674 0.15412256
-0.029029176 -0.011422497 0.11893816 -0.1631548 0.06423075 0.06633357 -0.06460503 -0.07163302
0.037020545 0.099225074 0.13787751 -0.14633602 0.14172155 0.0493822 -0.13842344 0.07231042
0.010699277 0.13410924 0.13863584 -0.10732743 0.04602474 -0.04618928 -0.11039239 -0.12637988
0.046691507 -0.084927835 0.10559304 -0.09085777 -0.15862367 0.005041525 -0.0035771106 0.030905992
-0.13338383 0.04831766 0.0028615473 0.13491261 0.028878707 0.046257723 0.041590888 -0.06295123
0.1828573 -0.1483091 0.09593353 0.07749077 0.07945159 -0.047656253 0.14039136 0.1495465
0.019633872 -0.082437836 0.13068038 -0.07000307 -0.06425743 -0.14309514 0.076310694 -0.16600147
0.15948473 0.11765441 -0.12944068 -0.1626915 0.17353667 0.15026811 0.09103586 -0.026919102

lstm.bias_hh_l0 f4 [128]
00000000: 2d4e 253b 447e f2bd 1ac3 8a3d 1ae0 323c
00000010: 061b a9bd 39be 0e3e 0b64 c1bb 1ef0 7b3d
00000020: c4d4 0cbe e9a0 cc3d ad9e 233e a275 b73c
00000030: c53f 2abe bc61 013e dd48 ff3d 8cc6 3c3d
00000040: f55f ad3d ac82 65bd c368 393e aaea af3d
00000050: f258 09be 4639 10bd 4519 fe3c 001b 103e
00000060: 5a95 5c3d fb04 da3c dd31 a93c 2050 5ebd
00000070: 17c7 6c3d fd73 963d 8b98 053e b56f 33be
00000080: 9129 dc3d 59f3 5f3d 9a2f 99bc 2ca8 493d
00000090: e6e1 0b3e d8d1 aabc d00c 733c 48a3 efbd
000000a0: 432a a0bd f991 d8bd 4d7f 1d3e 73c5 24be
000000b0: b697 1dbe 8508 aabc 1155 08bd f4fb 5fbc
000000c0: f8a9 29be edda 33bd 642e 8a3d 9959 a3bc
000000d0: 2b36 343c 377d 69bd 9ad8 0abe 56fb a1bd
000000e0: 06a2 4e3e 6dc0 c2bd 9660 c93c c06c 053d
000000f0: c788 493d d7ee 07be 2b2f d0bd 2360 1f3c
00000100: 0463 2e3d 03da 2dbe e600 5fbd 97d3 2d3e
00000110: a3ec 0f3e c6e2 b0bd 1649 2dbe 980f 3ebc
00000120: d544 c03c 01ad 19be 468a 20be 57aa 303e
00000130: 9e3a e83c 0796 cebd a013 32bc b786 0ebe
00000140: d707 87bd 1614 ef3d e267 22be 39ea f93d
00000150: 192d 273e 6cc0 42bd c095 543b ad83 1fbe
00000160: edf0 15be 5c15 3fbd fabe cf3d 8c57 293d
00000170: 1a56 7ebd 20ae fcbc 7cf5 77bd b8d4 be3d
00000180: 4774 23be d150 85bd 017c 313e 73d6 08bd
00000190: c5a2 34bd de60 a839 4f68 673e 56fa 5c3d
000001a0: 8c27 e53c 8819 283e f2fc 8d3d 1ab5 5e3d
000001b0: 3dad 12be 52fa 193e 2049 03bd b5a4 0bbd
000001c0: f64a 75bd 2d5f ccbd fa78 27bc c993 aabd
000001d0: 8aa0 013e 15eb 1f3c 95a8 17be 7fe2 14bd
000001e0: 13c7 c4bd 98f6 d43d 6476 743c 54c3 22bd
000001f0: b360 e23d 5a75 d53d 2c28 b23d a1d2 0c3e
0.0025223598 -0.118404895 0.06775494 0.010917688 -0.082571074 0.13939752 -0.0059018186 0.06150829
-0.13753039 0.09991629 0.15978499 0.022394959 -0.16625889 0.12634939 0.124650694 0.046087787
0.08465568 -0.05603282 0.1810637 0.085896805 -0.13412836 -0.03521087 0.031017909 0.140728
0.05385337 0.026613703 0.02065366 -0.054275632 0.057807054 0.07346342 0.13046472 -0.17523082
0.10750116 0.054675434 -0.018699456 0.049232647 0.13660392 -0.020852014 0.014834598 -0.11701065
-0.07820561 -0.10574717 0.15380593 -0.16090946 -0.15389904 -0.020756016 -0.03328425 -0.01367091
-0.16568744 -0.043909956 0.067471296 -0.019940184 0.010999243 -0.05700418 -0.1355919 -0.07909267
0.20178995 -0.095093586 0.024582189 0.032574415 0.049202707 -0.13274704 -0.101652466 0.009727511
0.042574897 -0.16977696 -0.054444216 0.16975246 0.14055113 -0.086370036 -0.16922411 -0.0116003975
0.023470322 -0.15007402 -0.15677747 0.1725248 0.028348263 -0.10087209 -0.010868937 -0.13918577
-0.06593292 0.11673753 -0.1585994 0.122028776 0.16325797 -0.04754679 0.003243789 -0.15577574
-0.14642687 -0.04665123 0.10143848 0.041343257 -0.06209383 -0.030844748 -0.060536847 0.09317917
-0.15962325 -0.06509555 0.1733246 -0.03340764 -0.04410054 0.0003211563 0.22598384 0.053949676
0.027972959 0.1641599 0.06933011 0.05437193 -0.14323898 0.15036896 -0.03205216 -0.034092624
-0.05988594 -0.09979091 -0.010221714 -0.08328969 0.12658897 0.009760638 -0.14810403 -0.036348816
-0.09608283 0.103985965 0.014920805 -0.03973706 0.110536 0.10422774 0.086990684 0.13752224

fc1.weight f4 [16, 32]
00000000: 185b f4bd 10d6 5f3d e11f 0dbe 8878 d83d
00000010: 6455 743d 22c6 efbd ff75 053e bc90 453e
00000020: 933c babd ceb0 ae3d 85f1 35be 851a 25be
00000030: be3b 85bd 2365 1fbe 83a4 1d3d c136 663d
00000040: 0919 033e 3ace 893d 69d2 58be eac5 063d
00000050: dbb6 f13d a8f4 54be 5858 37be 414c 29be
00000060: e29b 4e3e df0a 5e3d 4192 a2bd 235b c03c
00000070: 8ab4 e6bd dda3 55be 8230 47bc ef8c ad3d
00000080: b73d 49bd 357a c5bd dd63 03be 2d15 013e
00000090: a302 d73d f7db 04be 245b 533e fd59 bebd
000000a0: 2d07 ff3d 346f 2c3c b5de 63bd 1e34 793d
000000b0: f0af 28be 5cbb 783b 9afa 283e 0a49 0abe
000000c0: 1e21 56be 3a65 1bbe 708a f9bc 17c9 da3c
000000d0: 4805 16be d1bc 20be 7bf1 d53c 6171 d5bb
000000e0: 00cf 5b3e 9bc9 14be a932 e3bd 0359 c6bb
000000f0: 35be 47be 7cf1 9bbc 0a82 0e3d 9843 403d
00000100: 1564 24be 51de 0d3e b974 4bbc 2797 223e
00000110: 67c5 d9bd fd2d dcbd f4b0 723c 388f f03c
00000120: 5f89 5d3e cbab e03d 6fbd 22be 4206 963d
00000130: bd16 bdbd 7ad9 d6bb 505f 5e3e d6ab 28be
00000140: 708e 1b3d e03f 0ebe a121 9a3d 2bb6 b83d
00000150: bb02 f6bd 7d8d d5bd b597 62be f0d1 d5bd
00000160: b685 83bd af91 1cbe 6162 323a 064f 2cbd
00000170: d3f9 7abd f67c 40be 5387 eebc a4ca edbd
00000180: 5df2 bcbd 3a6b 3c3d 3e40 b63c 0216 ea3d
00000190: 34d4 31bd d70c 3c3e 6a4d cf3d 046d 5ebd
000001a0: 68f9 d2bd 2267 583e b228 cfbd 16f0 fbbd
000001b0: cd3b 2f3e 5933 23be cdb6 353e 2688 a2bd
000001c0: 805a febd 1f03 28bd cbc6 023d 9cc4 26be
000001d0: 5369 b23d b915 25be 2c52 d3bd ca1b d93b
000001e0: a908 fabc 39f9 163c 433c db3d deaf 5fbd
000001f0: 6f52 68be 6087 41be 2e2d 003d 2bff 243e
00000200: c44c 74bd 340c e53d b7e0 5b3d 19f2 2dbd
00000210: 49de f5bd c42b 953c 367b e7bd 2625 b23d
00000220: 37b1 703c 2d8f f13c 3eb7 7e3d f83c ea3c
00000230: adbc 84bc fa32 7f3c 45df e6bd 4123 693d
00000240: 8faa 383d 9e1c 51bd 5ef5 343e d101 733d
00000250: a2de d63d bbce 51bc 713c 89bd 6bb2 343e
00000260: 66b5 d9bd ddce babd a46b 7b3d 35c6 10bd
00000270: 6a73 f43d 78e0 92bd 0877 1fbc 82ba f83d
00000280: e0ce 4a3c 78e9 953d 48b9 3b3d aa31 ea3d
00000290: a443 523d d31c 2a3e e9b3 94bd 9aab d1bd
000002a0: 90d5 1abd 7456 953d 50d0 fdbc dcc6 1dbd
000002b0: ce33 b53d 371c 0d3e 22f6 13be 2ab3 d53d
000002c0: 6a75 f33d 80a2 03bd 2861 efbd 32bd 0bbe
000002d0: e04d 903d c451 6b3d 800c e8ba 92b4 2fbe
000002e0: 2b1f 8fbd ea6b ab3d bb1d 2fbe 8962 c3bd
000002f0: 7780 333e f0d2 26bc a794 0b3e 39d3 17be
00000300: 8112 933d 4ca3 973d 52f4 d6bd f104 92bd
00000310: 6455 7cbd ff7f 2b3e e76e b53d 5f1f 263e
00000320: 48a3 423e 6f29 19be c686 cabc 7c30 043e
00000330: 111f 20be 7677 983d 867e 1cbe 244e 9f3d
00000340: a588 203e 3035 813d f683 01be d532 873d
00000350: 5705 b7bd be23 0bbe 2477 b9bd e973 a1bb
00000360: dd18 c33d ec1d f03d 0683 23bd d846 b4bd
00000370: 16fa b2bd 3118 413d 17e0 b13d d34d c63d
00000380: c7e3 88bd 0687 c1bd 871f 353e f0c1 e2bc
00000390: 8605 bb3d a85b 19bd bbd7 253e 9bc3 063e
000003a0: 6591 9b3c 0ce1 4dbd d715 31bd e949 19be
000003b0: b658 e63d 72d4 f93c 7ed2 23be 86be b73c
000003c0: 2854 1cbe 7499 823d 3c51 e33d 213f 633d
000003d0: 7736 003c 6808 8dbd ee27 6e3d 7d09 863b
000003e0: c898 233e bd6b 8a3b 21d5 1bbe a2f4 dd3d
000003f0: f055 d53c 88a0 8abc 6f33 553d 3c6f bbbb
-0.11931437 0.054647505 -0.13781692 0.105698645 0.059651747 -0.11707713 0.13033293 0.19293493
-0.09093585 0.085298166 -0.17767914 -0.16123398 -0.065055355 -0.15565924 0.03848697 0.05620456
0.12802519 0.06728788 -0.21174015 0.03290359 0.11802455 -0.20796454 -0.17904794 -0.16532995
0.20176652 0.054209586 -0.07938052 0.023480957 -0.11264904 -0.2086329 -0.012157561 0.084741466
-0.04913112 -0.0964245 -0.12831064 0.12605734 0.1049855 -0.12974535 0.20640236 -0.09294508
0.124525405 0.01052456 -0.05563231 0.06084072 -0.16473365 0.0037953472 0.16501847 -0.13504425
-0.2091107 -0.15175334 -0.03046152 0.026707215 -0.14650452 -0.15697028 0.026116123 -0.00651376
0.21465683 -0.14530031 -0.11093647 -0.0060530915 -0.19506152 -0.019036047 0.034791984 0.046939462
-0.16053803 0.13854338 -0.012417966 0.15877973 -0.10633355 -0.10750959 0.014812697 0.029365167
0.21634434 0.10970267 -0.15892576 0.07325412 -0.092328526 -0.006556687 0.21716046 -0.164718
0.037977636 -0.13891554 0.075259455 0.09019121 -0.120122395 -0.104273774 -0.22128184 -0.10440433
-0.06421988 -0.15289949 0.0006804821 -0.04206755 -0.061273407 -0.18797669 -0.029117262 -0.11610916
-0.092259146 0.046000697 0.02224743 0.11429979 -0.043415263 0.18364273 0.101221874 -0.054303184
-0.10301477 0.21133092 -0.10115184 -0.12301652 0.17112656 -0.15937556 0.17745514 -0.079361245
-0.12419605 -0.0410186 0.031927865 -0.16285938 0.08711495 -0.16121568 -0.103184074 0.006625627
-0.030521708 0.009214693 0.107048534 -0.05461108 -0.22687696 -0.18899298 0.031293087 0.16112964
-0.059643522 0.11183968 0.0536811 -0.04246721 -0.12005288 0.018209346 -0.113027975 0.08698492
0.014690689 0.029487217 0.062186472 0.028593525 -0.016203249 0.015576119 -0.11273054 0.056918386
0.045084532 -0.051052682 0.17671725 0.059327904 0.104916826 -0.012805636 -0.067009814 0.17646186
-0.10630302 -0.09121487 0.06138195 -0.035345275 0.11936076 -0.0717172 -0.009732969 0.121449485
0.012378424 0.07319921 0.045830995 0.11435254 0.05133404 0.16612558 -0.07260878 -0.102378085
-0.037801325 0.0729188 -0.03098312 -0.038519725 0.088477716 0.13780294 -0.14449361 0.104345635
0.11887629 -0.032137394 -0.11688453 -0.13646391 0.070461035 0.057451025 -0.0017703921 -0.17158726
-0.06988367 0.08370192 -0.17101185 -0.095402785 0.17529474 -0.010182127 0.13630925 -0.14826669
0.07181264 0.07404193 -0.10495819 -0.07129849 -0.061604872 0.16748045 0.088590436 0.16222905
0.190076 -0.14957212 -0.024722468 0.1290912 -0.15636851 0.0744466 -0.1528264 0.07778576
0.15677126 0.06308973 -0.12647995 0.06601492 -0.08936565 -0.13587853 -0.090559274 -0.0049271476
0.09526227 0.11724457 -0.039919876 -0.08802575 -0.08739106 0.04714221 0.0868532 0.096828125
-0.0668407 -0.09449582 0.17687808 -0.027680367 0.09131913 -0.037440926 0.16195576 0.13160555
0.018990228 -0.05026345 -0.04323372 -0.149696 0.11247389 0.03049681 -0.15998265 0.022429716
-0.15266478 0.06376925 0.110994786 0.055480126 0.007825485 -0.06886369 0.05814355 0.0040904866
0.1597625 0.004224269 -0.15218021 0.10837676 0.026041955 -0.01692225 0.052051004 -0.0057200473

fc1.bias f4 [16]
00000000: 1604 96bd 5abd 453c f330 683e e8c8 f23d
00000010: c8ee bb3d d3b2 18be ea2f a9bc 87f1 8dbd
00000020: 8ba0 6fbc 34d6 1abe a016 21bc d539 8f3c
00000030: 7dcd c0bd ab2a a4bc 3211 aabd 8dba 253e
-0.07324998 0.012069071 0.22674923 0.11854726 0.09176403 -0.14911966 -0.02065273 -0.06930833
-0.014625679 -0.15120775 -0.009832054 0.017483631 -0.09414194 -0.020039877 -0.08304061 0.16184445

out.weight f4 [1, 16]
00000000: b107 fb3d c1d9 b73d 6990 903e 7dc7 903d
00000010: b2cc 35be 24fc 1b3e e6d8 ed3d bad9 44be
00000020: ce71 9a3e a07c 023c 7448 2fbe 1a69 35be
00000030: 2d3b 8f3e 77ca 973e 2a9e 113e 233b e6bd
0.122573264 0.0897708 0.28235176 0.07069299 -0.17753866 0.15232903 0.11613636 -0.19223681
0.3016495 0.007964283 -0.17117482 -0.17715874 0.27974835 0.29646656 0.14220491 -0.11241748
