artifacts/territory/lstm/4__0__0/model.pt (torch, 23217 bytes, 7 tensors)

lstm.weight_ih_l0 f4 [128, 1]
0	0x3d575a4d	0.052576352
1	0x3e1d7f47	0.15380584
2	0x3d26878b	0.040656608
3	0xbcbf5aea	-0.02335878
4	0x3e1e8d9e	0.1548371
5	0x3e2d8183	0.16943936
6	0xbdb3b3a8	-0.08774501
7	0x3e7399c4	0.23789126
8	0x3e0a2546	0.13490781
9	0x3e03451b	0.1281933
10	0x3cd05a72	0.025433753
11	0x3e0f3166	0.13983688
12	0x3dd0c0e9	0.10193045
13	0x3c32e035	0.010917713
14	0x3c2d7f06	0.010589367
15	0x3dc80e07	0.097683005
16	0x3dd7f1a5	0.10544137
17	0xbe2874e0	-0.16450834
18	0x3e440c47	0.19145308
19	0x3c34da1c	0.011038329
20	0x3e47dd70	0.19518065
21	0x3db691bd	0.08914516
22	0x3ca7b4bc	0.020471923
23	0x3e203564	0.15645367
24	0x3db6683c	0.089066
25	0x3dca1270	0.09866798
26	0x3e0835ee	0.13301823
27	0x3e4dbc8e	0.20091459
28	0xbe13b594	-0.14424735
29	0x3d8e3550	0.06943762
30	0x3e1a2126	0.15051708
31	0x3c0ccd83	0.00859392
32	0xbde62085	-0.11236671
33	0x3ca6e73a	0.02037393
34	0x3e39c956	0.1814321
35	0x3d6d0261	0.057863597
36	0xbcfdccf1	-0.030981513
37	0xbde4de02	-0.11175157
38	0x3d385d16	0.04501065
39	0xbd565e6a	-0.052336134
40	0x3e1146c8	0.14187157
41	0x3bf634e3	0.007513629
42	0x3c4a841f	0.012360602
43	0x3e31d799	0.173674
44	0x3c62d83c	0.0138455
45	0x3db93740	0.09043741
46	0x3e275b1a	0.16343346
47	0x3c6ee21d	0.014580277
48	0x3e56c066	0.20971832
49	0x3dc9637f	0.098334305
50	0xbbf9b129	-0.007619996
51	0x3c9d8538	0.019228563
52	0x3c86ea56	0.016469162
53	0x3c829606	0.015940677
54	0xbc18ae59	-0.0093189115
55	0xbd447355	-0.04796155
56	0x3e205956	0.15659079
57	0xbe35ca9b	-0.17753069
58	0x3e0eb5ae	0.13936493
59	0xbde9210a	-0.11383255
60	0x3da8e01e	0.08245872
61	0xbe207b71	-0.15672089
62	0x3e00824f	0.12549709
63	0x3e697166	0.22797164
64	0xbe131e7d	-0.14367099
65	0x3d51f6f7	0.051260915
66	0x3e2b7d04	0.16746908
67	0xbe5d912d	-0.21637411
68	0xbd2a5438	-0.041584224
69	0x3dba511f	0.09097504
70	0x3d1f3672	0.038870282
71	0x3d89b4bf	0.06723928
72	0x3e10f715	0.14156754
73	0x3e39455d	0.18092866
74	0xbe2436dc	-0.16036552
75	0x3e117ccb	0.14207761
76	0x3e172cfa	0.14763251
77	0xbe392b81	-0.18083002
78	0x3e317caa	0.17332712
79	0x3d8af303	0.06784632
80	0xbdbe799b	-0.09300538
81	0xbe0bf4f3	-0.1366766
82	0x3e0085e5	0.12551077
83	0xbdb8f14d	-0.090303995
84	0x3e35a124	0.17737252
85	0x3e3c6cf5	0.18400939
86	0x3db7c7b6	0.08973639
87	0xbc86b26d	-0.016442502
88	0xbbdc592e	-0.0067244982
89	0xbdc51bd6	-0.0962445
90	0x3e383b31	0.1799133
91	0x3e32e3d6	0.17469725
92	0xbdfb91e8	-0.12283689
93	0xbce9eda7	-0.028555704
94	0x3e1df78e	0.15426466
95	0xbe5833a2	-0.21113446
96	0xbd6c9872	-0.05776257
97	0x3cc6d739	0.024272548
98	0x3cb412c9	0.021981614
99	0x3e26d93c	0.16293806
100	0xbdf18cde	-0.117944464
101	0xbd42a0d1	-0.047516648
102	0x3def01da	0.11670275
103	0xbb4b5dbd	-0.0031031214
104	0xbe5b0ad0	-0.21390843
105	0x3e638c7f	0.22221564
106	0x3df55c6c	0.11980519
107	0x3e5fda6a	0.21860662
108	0x3e5c79b4	0.21530801
109	0x3d29ce9e	0.04145681
110	0xbe0af51b	-0.13570063
111	0x3cca8691	0.02472237
112	0xbc8f2ecf	-0.017478375
113	0x3dd9acf5	0.10628692
114	0x3d258573	0.04041047
115	0x3dec7d77	0.11547368
116	0x3c29b7bc	0.010358747
117	0x3cf7deae	0.03025755
118	0x3e571c7b	0.21006958
119	0xbce780f7	-0.028259737
120	0x3e658408	0.22413647
121	0x3e1e019c	0.15430301
122	0x3e024b2e	0.12723991
123	0x3e51d947	0.20493041
124	0xbd866209	-0.065616675
125	0xbd9667e8	-0.07344037
126	0xbdb903d9	-0.09033937
127	0x3e2e4f21	0.17022373

lstm.weight_hh_l0 f4 [128, 32]
0	0xbe346da5	-0.17619951
1	0x3e637642	0.2221308
2	0xbdc07d57	-0.09398907
3	0xbd99ac41	-0.07503558
4	0x3e34633a	0.17615977
5	0x3e15a3a7	0.1461321
6	0xbd379b17	-0.04482564
7	0xbd976433	-0.07392158
8	0xbd955c0c	-0.07292947
9	0x3c97df72	0.018539164
10	0xbdce1ea7	-0.1006444
11	0xbd96f451	-0.073708184
12	0xbd59a3cc	-0.053134724
13	0xbcd60ade	-0.026128229
14	0xbd9f1247	-0.07767158
15	0x3df787a4	0.12086418
16	0xbcdfd814	-0.027324714
17	0xbe3235a7	-0.17403279
18	0x3dbd13c7	0.09232288
19	0x3c128fff	0.008945464
20	0xbb4da511	-0.0031378905
21	0x3d656191	0.05600125
22	0x3d8b38a1	0.067979105
23	0x3cdf2a5b	0.027241876
24	0xbc568515	-0.013093253
25	0xbe57fa1e	-0.21091506
26	0xbd8c0075	-0.06836025
27	0x3e686a68	0.22696841
28	0xbd055dc6	-0.032560132
29	0xbdde9afd	-0.108694054
30	0xbd73c22f	-0.05951136
31	0xbe52c5aa	-0.20583215
32	0xbd52eea2	-0.05149711
33	0xbd811eae	-0.0630468
34	0x3d8e5017	0.0694887
35	0xbe0a82b7	-0.13526426
36	0x3e2701fe	0.16309354
37	0x3c6d51b4	0.014484812
38	0xbd7727f3	-0.060340833
39	0xbe1f575a	-0.15560666
40	0x3dbfc37a	0.09363456
41	0xbb7981c7	-0.0038071738
42	0xbcd2413f	-0.025665877
43	0x3dfa93ac	0.122351974
44	0xbe0c72f5	-0.13715728
45	0x3dc2ddda	0.09514971
46	0xbd8f070d	-0.06983767
47	0xbd94a7c4	-0.07258561
48	0xbd919742	-0.07108928
49	0xbd9f2514	-0.07770744
50	0x3e34f220	0.17670488
51	0x3d15c3bf	0.03656363
52	0xbceebe4a	-0.029143471
53	0x3c5279f2	0.012846457
54	0x3e13c23c	0.14429563
55	0x3e2a86a4	0.16652924
56	0x39ea6cb7	0.00044712957
57	0xbd3aca55	-0.045603115
58	0xbddb6c3b	-0.10714003
59	0x3d99d730	0.07511747
60	0x3e1005e1	0.14064743
61	0x3c632bda	0.0138654355
62	0xbddb8607	-0.10718923
63	0x3e0dc09e	0.13843009
64	0xbe47fd7d	-0.19530292
65	0x3e79731a	0.24360314
66	0x3dd13a7e	0.102162346
67	0xbe4ba985	-0.19888885
68	0xbe2f0e14	-0.17095214
69	0xbd4a90d4	-0.049454525
70	0x3d6f1666	0.05837097
71	0xbdb5819f	-0.08862614
72	0xbb97c0c3	-0.0046311333
73	0xbd8e3a5a	-0.069447234
74	0xbe231881	-0.15927316
75	0xbe12a3ba	-0.14320269
76	0x3c9b8d28	0.018988207
77	0x3d97f7b3	0.07420292
78	0xbdf90a2f	-0.121601455
79	0x3de1bec0	0.11022711
80	0x3da0f170	0.078585505
81	0x3e1ebb83	0.15501218
82	0x3e1c96ca	0.15291896
83	0x3cc71f75	0.024306992
84	0x3e7a3b3f	0.24436663
85	0x3dcb6385	0.09931091
86	0x3e63cb62	0.22245553
87	0x3e2f417c	0.17114824
88	0xbd90e4e8	-0.070749104
89	0x3c8f877f	0.017520664
90	0x3e4a8123	0.19775824
91	0xbd9b1c4f	-0.07573759
92	0x3c5cd23d	0.013477859
93	0xbd0eb96f	-0.034844812
94	0x3d1de35f	0.038546916
95	0x3beeeb2a	0.0072912173
96	0xbbcc3103	-0.0062314286
97	0x3e2d0df2	0.16899851
98	0x3dab017d	0.08349893
99	0xbc9b740a	-0.01897623
100	0xbe27d4e4	-0.16389805
101	0x3b135004	0.0022478113
102	0x3e25a176	0.16174874
103	0x3e0c1387	0.13679324
104	0x3e3908a2	0.180697
105	0x3c4cae57	0.012492738
106	0xbe69d8ee	-0.22836658
107	0x3df405b6	0.11915152
108	0x3da94b64	0.08266333
109	0xbc9acffa	-0.018898
110	0x3e0d10bb	0.13775913
111	0x3e576938	0.21036232
112	0xbe6502a5	-0.2236429
113	0xbe5a0182	-0.21289638
114	0x3ea0f5c9	0.3143752
115	0xbe074b2d	-0.13212271
116	0xbd2cc2f6	-0.042178117
117	0x3e3fb208	0.18720257
118	0x3de49b89	0.111624785
119	0x3e328758	0.17434442
120	0xbb7a6456	-0.0038206778
121	0xbe4a8171	-0.1977594
122	0xbcdf8bbb	-0.027288308
123	0x3e8090aa	0.2511037
124	0xbdd92c8a	-0.10604198
125	0x3c295d47	0.01033718
126	0xbd1c46d4	-0.038153484
127	0xbe94bc2e	-0.2904982
128	0xbda45e6d	-0.08025823
129	0x3d52e5fd	0.051488865
130	0xbd3f653c	-0.046727404
131	0xbba40d6e	-0.0050064838
132	0x3e1d77d5	0.15377744
133	0xbe34c6eb	-0.17654006
134	0x3d1d16ee	0.038351946
135	0x3deda430	0.11603582
136	0xbcf97ce0	-0.030455053
137	0xbdb90932	-0.09034957
138	0xbd57bfc3	-0.052673113
139	0x3d8d5274	0.06900492
140	0x3cbeebd6	0.023305815
141	0x3a16c21a	0.0005750969
142	0x3e0a735d	0.1352057
143	0x3e2afd17	0.16698109
144	0xbe0e6627	-0.13906156
145	0x3e08039a	0.13282624
146	0xbe030683	-0.12795453
147	0xbda0cad7	-0.07851189
148	0x3e0231dc	0.12714332
149	0xbd2fd24f	-0.042925175
150	0x3e20453c	0.15651411
151	0x3d09d6ff	0.033652302
152	0x3bbdb5b5	0.0057894834
153	0xbd6160da	-0.055024005
154	0x3dbd3a94	0.092396885
155	0x3e3d13f9	0.1846465
156	0xbdbe7414	-0.09299484
157	0x3d99ce9e	0.07510112
158	0xbdc91376	-0.09818165
159	0xbc7ca65a	-0.015420521
160	0xbd9d91cb	-0.076938234
161	0xbdf63379	-0.120215364
162	0xbe0b8280	-0.13624
163	0x3df081a8	0.1174348
164	0xbe29d363	-0.16584544
165	0x3da2f2cc	0.07956466
166	0xbd32fb22	-0.04369653
167	0x3dcb963f	0.099407665
168	0xbd823b52	-0.06358971
169	0xbd3775c6	-0.044790052
170	0xbe2a6842	-0.16641334
171	0xbe279df6	-0.16368851
172	0x3d2b8485	0.041874427
173	0x3d06258c	0.03275065
174	0x3e238bbd	0.15971275
175	0x3d9791df	0.074008696
176	0xbdcea0af	-0.10089242
177	0xbdeabf8c	-0.11462316
178	0x3c8ca521	0.017168583
179	0x3d99ae66	0.07503967
180	0x3db1d676	0.08683483
181	0xbda4bd4c	-0.08043918
182	0xbc62828d	-0.013825071
183	0x3c217de3	0.009856674
184	0x3e33cd3c	0.1755876
185	0x3d7b3200	0.06132698
186	0x3d9be6f5	0.07612411
187	0xbd8576b6	-0.06516783
188	0xbd759929	-0.059960518
189	0xbdca5dad	-0.098811485
190	0xbe357720	-0.17721224
191	0x3df4b53c	0.1194863
192	0xbe1cd052	-0.15313843
193	0x3e4d40ea	0.20044294
194	0x3e46c662	0.19411615
195	0xbca36e06	-0.019949924
196	0x3e02eb06	0.12784967
197	0xbcd29112	-0.02570394
198	0xbddc3694	-0.107525975
199	0xbdea153b	-0.11429831
200	0x3e209ea1	0.15685512
201	0x3daae543	0.083445095
202	0xbd89d582	-0.067301765
203	0x3e17eebd	0.14837165
204	0x3dc3c72a	0.09559472
205	0xbe06f78d	-0.1318037
206	0xbd8c9253	-0.06863847
207	0xbd7492b3	-0.059710216
208	0x3d8dd890	0.06926072
209	0xbba48b93	-0.0050215214
210	0xbc197de1	-0.009368391
211	0xbe4530eb	-0.19256942
212	0x3e1f99b1	0.15585972
213	0x3e4a384d	0.1974804
214	0xbcdc4c19	-0.026891755
215	0xbe2ee15d	-0.17078157
216	0xbc7ba338	-0.015358739
217	0xbd7a10ab	-0.061051052
218	0xbde58372	-0.11206712
219	0x3db3b132	0.08774032
220	0xbde0cd79	-0.10976691
221	0x3c45b253	0.012066442
222	0xbe2e07cf	-0.16995166
223	0xbe64dfcf	-0.22351001
224	0x3cae1d1b	0.021254113
225	0x3e56fafc	0.2099418
226	0x3e0b5a7c	0.13608736
227	0xbde9b970	-0.114123225
228	0x3d3043cf	0.043033417
229	0xbde7ff0a	-0.11327942
230	0x3c7e2a4e	0.015513016
231	0xbcac6bf6	-0.021047574
232	0x3e149d1f	0.14513062
233	0x3e37a083	0.17932324
234	0xbe28024d	-0.16407128
235	0x3d9973ea	0.07492812
236	0x3c187bf8	0.0093069
237	0xbde6e04d	-0.11273251
238	0x3d996dd6	0.07491653
239	0xbd89d3fc	-0.06729886
240	0xbdaddc6b	-0.08489307
241	0x3d751a16	0.05983933
242	0x3d974c46	0.07387595
243	0x3dc30c8f	0.0952388
244	0x3cfdd60a	0.03098585
245	0x3e5fc695	0.21853097
246	0x3e53be3f	0.20678042
247	0x3e1917cc	0.14950484
248	0x3ddd431d	0.108038165
249	0xbd9c4736	-0.0763077
250	0x3e01990b	0.12656038
251	0x3e2f6f34	0.17132264
252	0x3d8ed9ff	0.06975173
253	0x3da7da63	0.08195951
254	0xbdf83026	-0.121185586
255	0x3da8b27f	0.082371704

lstm.bias_ih_l0 f4 [128]
0	0x3d49d9ee	0.0492801
1	0xbd1a797c	-0.037713513
2	0x3cb949af	0.022618143
3	0x3dd2c578	0.102915704
4	0xbdd87183	-0.10568526
5	0x3da812c7	0.082067065
6	0x3e2adbf1	0.16685463
7	0x3d983a72	0.074330226
8	0x3cc89d86	0.024489176
9	0xbda6c71e	-0.08143447
10	0xbe0bbae8	-0.13645518
11	0xbd429ca5	-0.04751267
12	0xbd05857b	-0.032598
13	0x3d01cb59	0.031688068
14	0x3d9cb1d9	0.07651109
15	0x3e0f6958	0.14005029
16	0x3e61bc85	0.2204457
17	0xb9a843b8	-0.0003209391
18	0xbe1bcc2a	-0.15214601
19	0x3e091607	0.13387309
20	0xbd629fef	-0.055328306
21	0xbdf4c1bc	-0.119510144
22	0x3e7e7e29	0.24852814
23	0xbdaa5a1c	-0.08317968
24	0x3d3135e2	0.043264277
25	0xbca9d735	-0.020732502
26	0xbdc432e3	-0.09580018
27	0xbc7af6e7	-0.015317655
28	0x3d87010c	0.065919966
29	0x3c49b767	0.012311793
30	0xbde030de	-0.10946821
31	0xbcb11527	-0.021616532
32	0x3bbd8a44	0.005784305
33	0xbdb1ec1e	-0.08687614
34	0xbe0dfb87	-0.13865481
35	0x3e8c6b42	0.2742558
36	0x3c8ceb34	0.017201997
37	0xbdb43919	-0.08799953
38	0x3d4ecacb	0.050486367
39	0xbcfd5546	-0.03092445
40	0xbdadfb9c	-0.08495256
41	0x3d5b0b37	0.053477492
42	0x3ccd46f9	0.025058256
43	0xbdeb378f	-0.11485206
44	0xbd15411c	-0.036439046
45	0x3e61548a	0.22004905
46	0xbdec7e10	-0.11547482
47	0x3deb8fa7	0.11502009
48	0x3c8d61f5	0.017258624
49	0xbd995be0	-0.07488227
50	0x3db4dd3c	0.088312596
51	0x3d22dbc3	0.039760362
52	0x3d90e0be	0.07074116
53	0xbd81f7dd	-0.06346104
54	0x3dab48a6	0.08363466
55	0x3d8b8a24	0.068134576
56	0xbd16fca6	-0.036862038
57	0xbe0d9e5d	-0.13829942
58	0x3d9a9496	0.07547872
59	0x3dc61aeb	0.09673103
60	0xbda765f2	-0.081737414
61	0x3dbfa71b	0.09358045
62	0x3d817306	0.06320767
63	0x3e0fe20b	0.14051072
64	0xbd427f98	-0.047484964
65	0x3e23577b	0.1595134
66	0xbc0fcb9b	-0.008776571
67	0xbdf5d447	-0.12003379
68	0x3d97da26	0.074146554
69	0x3c422a7e	0.011850951
70	0x3cbfea93	0.023427283
71	0x3e0d008e	0.13769743
72	0xbbac081e	-0.005249991
73	0xbe09da38	-0.1346215
74	0xbe432df9	-0.19060506
75	0xbd7379ba	-0.05944226
76	0x3e0a2786	0.1349164
77	0xbdca1ba0	-0.0986855
78	0xbce86e7c	-0.028372996
79	0xbd41cb93	-0.047313284
80	0x3c87419b	0.016510775
81	0xbdf819e2	-0.12114312
82	0x3e122e34	0.14275438
83	0xbd91a247	-0.0711103
84	0x3e1b95d2	0.1519387
85	0x3e0f10a9	0.13971199
86	0x3df3c48f	0.11902725
87	0xbe04e3c3	-0.12977509
88	0x3d771932	0.060326762
89	0x3dc4b62e	0.096050605
90	0x3deeef9a	0.11666794
91	0xbd8898e4	-0.066697866
92	0xbd88eb2f	-0.06685483
93	0xbdf54573	-0.11976137
94	0x3dc2a56f	0.0950421
95	0xbe04bd10	-0.12962747
96	0x3d142e33	0.03617687
97	0x3e262a48	0.16227067
98	0x3c661372	0.014042722
99	0x3de5d8f1	0.11223019
100	0x3e18c1b7	0.14917646
101	0x3e1cbeed	0.15307207
102	0xbdfd8c3b	-0.123802625
103	0x3e2ade86	0.16686448
104	0xbe16bb0f	-0.14719795
105	0xbd2ef965	-0.04271831
106	0x3e128a43	0.14310555
107	0x3e1bdd77	0.15221201
108	0x3dec573c	0.11540076
109	0x3e3d0015	0.18457063
110	0xbdaf43b6	-0.08557837
111	0xbd2c0b18	-0.042002767
112	0xbd6d5e6a	-0.05795137
113	0x3ca6e4f4	0.020372845
114	0xbd767154	-0.060166672
115	0x3e2599d3	0.1617196
116	0x3e15f0bb	0.14642613
117	0x3e1204a4	0.14259583
118	0xbce4f394	-0.027948178
119	0xbdce5701	-0.100751884
120	0x3def9ab0	0.11699426
121	0xbdaebdd1	-0.08532298
122	0xbddd23ce	-0.10797845
123	0x3dcb420c	0.09924707
124	0xbbd23dd3	-0.0064160614
125	0x3dc11848	0.094284594
126	0xbd7bc334	-0.061465457
127	0x3e6ef1cd	0.23334427

lstm.bias_hh_l0 f4 [128]
0	0x3e17802d	0.14794989
1	0xbc866ba9	-0.016408758
2	0x3e2d8736	0.1694611
3	0xba74930c	-0.0009329773
4	0x3e49f91f	0.19723938
5	0xbd3e19a2	-0.046411164
6	0x3e2d155c	0.16902679
7	0xbcaf4fec	-0.021400414
8	0x3e112e42	0.14177802
9	0xbcb4a973	-0.022053456
10	0x3e33cc6f	0.17558454
11	0x3df07235	0.11740533
12	0xbd196fb1	-0.037460033
13	0x3df843af	0.121222846
14	0x3c12bd01	0.008956195
15	0xbcb234ca	-0.021753687
16	0x3e0e85b9	0.13918199
17	0x3d08b54a	0.033376016
18	0x3b83de70	0.0040243194
19	0xbd816784	-0.06318572
20	0x3debb1d6	0.11508529
21	0x3e0ae147	0.13562499
22	0x3df07834	0.11741677
23	0xbddfb345	-0.10922865
24	0x3dca052c	0.09864268
25	0xbddaed0a	-0.10689743
26	0xbdf9d5dc	-0.121989936
27	0x3d8683ce	0.065681085
28	0x3ddd8419	0.10816211
29	0x3e00f1b3	0.12592201
30	0xbd30ed88	-0.043195277
31	0x3e3b9eca	0.18322292
32	0x3e0b3803	0.13595586
33	0x3d85fa19	0.06541843
34	0xbc9f4cc4	-0.019445784
35	0xbba41abd	-0.0050080703
36	0x3dd2f9a0	0.103015184
37	0xbc4f7bdc	-0.012663808
38	0x3bc1e83b	0.0059175766
39	0x3e75e2b8	0.24012268
40	0xbcaee05c	-0.021347217
41	0x3e372b97	0.17887722
42	0xbd809542	-0.06278469
43	0xbd0d4a6e	-0.03449481
44	0x3de8a8b6	0.11360304
45	0xbd85ee82	-0.065396324
46	0xbdc0d22a	-0.094150856
47	0x3e384ece	0.17998812
48	0x3d0d5ea2	0.034514077
49	0x3d1667dc	0.03672014
50	0xbdb9edb6	-0.09078543
51	0x3e20165f	0.15633534
52	0x3e208bcf	0.15678333
53	0x3d98dbe0	0.07463813
54	0x3e585a2b	0.21128146
55	0x3d0dde79	0.034635995
56	0xbdeb3d95	-0.11486355
57	0xbd9721cf	-0.07379495
58	0xbdeb10c6	-0.11477809
59	0xbd4b407d	-0.049622048
60	0x3d306151	0.04306156
61	0x3e0ceaa1	0.13761379
62	0x3dc10354	0.09424463
63	0xbda786d4	-0.08180013
64	0xbd12dd85	-0.03585579
65	0xbd625d3e	-0.055264704
66	0x3e03af64	0.12859875
67	0xbd9d3311	-0.07675756
68	0x3d90dd44	0.07073453
69	0x3dd3950b	0.10331162
70	0x3e503f1f	0.20336579
71	0xbdd2b9c1	-0.10289336
72	0x39063050	0.00012797234
73	0xbcd4271b	-0.025897553
74	0xbdeaeeeb	-0.11471351
75	0xbd38213a	-0.044953562
76	0x3db207ec	0.08692917
77	0xbe07d565	-0.13264997
78	0xbb686eba	-0.0035466389
79	0x3e43dc3f	0.19126986
80	0xbe15a784	-0.14614683
81	0x3d09fd25	0.033688683
82	0xbdbac5d5	-0.09119765
83	0xbd51ae11	-0.051191393
84	0x3cc7a0ce	0.02436867
85	0xbb31ef93	-0.0027150854
86	0x3de146a1	0.109997995
87	0xbe546b4a	-0.20744053
88	0x3da3c926	0.079973504
89	0x3d647289	0.05577329
90	0xbcaeee30	-0.021353811
91	0x3c6eb30c	0.014569055
92	0x3c782ed5	0.015147884
93	0x3d8e4e9d	0.06948588
94	0x3dfc8cf3	0.123315714
95	0xbe5dec5b	-0.21672194
96	0xbc9176bd	-0.017756814
97	0xbb544a6f	-0.0032392999
98	0x3cdb0e1b	0.026740124
99	0x3d53098d	0.05152278
100	0x3b06b972	0.0020557311
101	0x3d57b560	0.052663207
102	0x3e3ed59a	0.1863617
103	0x3c3bb772	0.011457311
104	0x3d85bb50	0.06529868
105	0xbd9f8be3	-0.07790353
106	0xbddd1a74	-0.10796061
107	0x3e395cdf	0.18101834
108	0xbcec740a	-0.028863925
109	0x3e2116a5	0.15731294
110	0x3c8e0c99	0.017339991
111	0x3e8ee1c7	0.2790663
112	0xbe53c846	-0.20681867
113	0xbd79f2fd	-0.061022747
114	0x3e309a46	0.1724635
115	0x3e09ec4c	0.13469046
116	0x3e2edcbc	0.17076391
117	0x3cdb5f8f	0.026778964
118	0x3dac270d	0.08405886
119	0xbd2dcb2a	-0.04243008
120	0x3e33b5ce	0.17549822
121	0xbe2e4aa8	-0.17020667
122	0xbc0f1181	-0.008732201
123	0x3e40a846	0.18814191
124	0x3e029d39	0.12755288
125	0xbd668879	-0.056282494
126	0x3d8a2fdc	0.0674741
127	0x3d471927	0.04860797

fc1.weight f4 [16, 32]
0	0xbcee4f3e	-0.02909052
1	0x3e06586f	0.13119672
2	0x3e2b6e56	0.16741309
3	0xbd5a18f7	-0.053246465
4	0xbe57a271	-0.2105806
5	0xbc48993a	-0.012243563
6	0x3e73122c	0.23737401
7	0x3d2c78e5	0.04210748
8	0x3e4f0262	0.20215753
9	0x3de75161	0.11294819
10	0xbe971cd0	-0.2951417
11	0x3bf58917	0.007493149
12	0x3e9a13c0	0.30093193
13	0x3bdf5dac	0.0068165865
14	0x3e047794	0.1293624
15	0x3e47da44	0.19516855
16	0xbd65770f	-0.056021746
17	0xbe86984b	-0.26288065
18	0x3dbfec78	0.09371275
19	0xbcea62e6	-0.028611612
20	0x3dad22b7	0.08453887
21	0x3e3ea1d5	0.18616422
22	0x3e560cda	0.2090334
23	0x3da5cfd4	0.08096281
24	0xbe16824d	-0.14698143
25	0x3ba8beea	0.005149712
26	0x3dc3ec7c	0.0956659
27	0x3e778291	0.24170901
28	0x3d196f8a	0.037459888
29	0xbe500656	-0.20314917
30	0x3e53a33d	0.20667739
31	0xbe8c6062	-0.27417284
32	0xbdcb071f	-0.099134676
33	0xbe0b3065	-0.1359268
34	0x3d7956ab	0.06087367
35	0x3e087d05	0.13328941
36	0xbe40bdaa	-0.18822351
37	0x3e197c95	0.1498893
38	0x3d79a189	0.060945068
39	0xbdd1b359	-0.10239286
40	0xbcbe4370	-0.023225516
41	0x3cdfe935	0.027332881
42	0x3dd9598d	0.106127836
43	0xbde4e45a	-0.11176367
44	0x3d9eac8a	0.07747753
45	0xbc739906	-0.014868027
46	0x3e051a50	0.12998319
47	0xbc96855d	-0.01837414
48	0x3e3d1821	0.18466236
49	0x3d539685	0.05165722
50	0x3df7ceea	0.121000126
51	0x3d7aaa48	0.06119755
52	0x3deb3a10	0.11485684
53	0x3d957b28	0.07298881
54	0xbd62ae9d	-0.055342305
55	0xbd8f2a3e	-0.06990479
56	0x3df20428	0.11817199
57	0x3dc9721b	0.09836217
58	0xbdcd9a46	-0.10039191
59	0x3dab92f8	0.083776414
60	0xbd92f346	-0.07175307
61	0x3e125439	0.14289941
62	0xbe207218	-0.15668523
63	0x3e21f9df	0.15817975
64	0xbdc97286	-0.09836297
65	0x3e0914b4	0.13386804
66	0x3e575433	0.21028213
67	0xbe5ca07b	-0.21545593
68	0xbcbf7485	-0.02337099
69	0xbc367a8c	-0.011137616
70	0x3e40c8b1	0.18826558
71	0x3e8b16ce	0.27165836
72	0xbdc962e5	-0.09833316
73	0x3d9fab3a	0.07796331
74	0xbc98442e	-0.018587198
75	0x3e64d64e	0.22347376
76	0x3e2202cb	0.15821378
77	0xbe9a8baa	-0.3018468
78	0xbc5fe68e	-0.013665808
79	0x3e5eb308	0.21747983
80	0x3c083836	0.008314183
81	0xbd6ae2d3	-0.057345223
82	0x3e5dce92	0.21660832
83	0xbd0a6e80	-0.033796787
84	0x3e6dc728	0.23220503
85	0x3e8c7dee	0.27439827
86	0x3e97f804	0.29681408
87	0xbd8ce504	-0.06879619
88	0xbe546a5a	-0.20743695
89	0x3d29f9ae	0.04149788
90	0x3e52bbf8	0.20579517
91	0x3dacdcd5	0.08440558
92	0x3daca8b8	0.08430618
93	0xbd3d0150	-0.04614383
94	0xbdde9a0e	-0.10869227
95	0xbe00503f	-0.12530611
96	0xbdefcce2	-0.11709
97	0xbc989649	-0.018626349
98	0xbd6f1415	-0.05836876
99	0x3c9773c5	0.01848782
100	0x3c8712a5	0.016488383
101	0x3d1f53e4	0.038898364
102	0x3c208d2c	0.009799283
103	0x3db58dc1	0.08864928
104	0xbdd87427	-0.10569029
105	0x3d813483	0.06308844
106	0x3e11e342	0.14246848
107	0x3dbe0346	0.09277968
108	0xbd201c24	-0.039089337
109	0x3e5c440f	0.21510337
110	0x3cc629ea	0.024189908
111	0xbe20d851	-0.15707518
112	0xbc47c45b	-0.012192811
113	0xbd93ab9c	-0.07210466
114	0x3e02403d	0.12719817
115	0x3e11cf36	0.14239201
116	0xbe0392c9	-0.12848963
117	0xbde4fed8	-0.1118142
118	0x3d57d70e	0.052695327
119	0xbdc7861a	-0.09742375
120	0x3d302461	0.043003444
121	0xbdd687f2	-0.10475148
122	0x3ccd99ff	0.025097845
123	0xbcaea7d4	-0.021320261
124	0x3cbd165a	0.023081947
125	0x3c7bd81f	0.0153713515
126	0xbdfb98d2	-0.122850075
127	0xbc24e152	-0.010063486
128	0x3d97bf82	0.07409574
129	0x3e116c00	0.14201355
130	0xbddb5203	-0.10709002
131	0xbe208bc9	-0.15678324
132	0xbdaef27c	-0.08542344
133	0x3dd22cab	0.10262426
134	0x3dcb54b2	0.09928264
135	0xbe184ae8	-0.14872324
136	0xbe013364	-0.1261726
137	0x3d8882a6	0.06665544
138	0xbe047e19	-0.12938727
139	0x3e100db4	0.14067727
140	0xbc7e33fe	-0.015515326
141	0x3d207f4a	0.039183892
142	0xbaa15f88	-0.0012311796
143	0x3e0987ae	0.13430664
144	0x3bc31e40	0.005954534
145	0xbdfb48d5	-0.12269751
146	0xbe360659	-0.17775859
147	0x3e241458	0.16023386
148	0x3cc67d90	0.024229795
149	0xbe2cf3ab	-0.16889827
150	0xbdc94b09	-0.09828765
151	0x3e306a89	0.1722814
152	0x3e176b96	0.14787135
153	0x3e016945	0.12637813
154	0xbc74497e	-0.0149101
155	0xbbdd67be	-0.006756752
156	0xbcb31237	-0.021859271
157	0x3d5efce3	0.05444039
158	0x3d1c3e74	0.038145497
159	0xbde26d8d	-0.110560514
160	0xbd86bef7	-0.065793924
161	0xbe32a475	-0.17445548
162	0xbdfc78b5	-0.123277105
163	0x3c5cc8d0	0.013475612
164	0x3c2cbcb0	0.0105430335
165	0x3df712a2	0.12064101
166	0xbcbdc0e8	-0.023163274
167	0xbe0e2c33	-0.13884048
168	0x3de6fc1e	0.11278556
169	0x3e2fc83f	0.17166232
170	0x3dc8315e	0.09775041
171	0xbdd84a2c	-0.10561022
172	0x3db0b5da	0.086284354
173	0x3c6beb40	0.01439935
174	0xbd5c5034	-0.053787425
175	0x3d5ed960	0.054406524
176	0x3e284ab1	0.16434743
177	0x3d653874	0.05596204
178	0xbcd43a10	-0.025906593
179	0xbe0ab4f2	-0.13545588
180	0x3e2c4a9f	0.1682534
181	0xbe01d417	-0.12678562
182	0xbd306ec0	-0.04307437
183	0x3ad10400	0.0015946627
184	0x3d8abe5a	0.06774588
185	0x3e0e0e73	0.138727
186	0xbdd8a51d	-0.10578368
187	0x3dca0cfe	0.09865759
188	0x3cb03d18	0.021513507
189	0x3e1fd397	0.15608059
190	0x3dc2433e	0.09485482
191	0xbe2dbb31	-0.16965939
192	0x3bfd9a5c	0.0077393483
193	0x3dd1bf1b	0.102415286
194	0x3e7ba952	0.2457631
195	0xbe1c44a6	-0.15260562
196	0xbc8c8b70	-0.017156333
197	0x3c9e3534	0.019312479
198	0x3dd648b8	0.10463089
199	0x3e4f8b70	0.20268035
200	0x3e64acdb	0.22331564
201	0x3e4b07f0	0.19827247
202	0xbe75ae40	-0.23992252
203	0x3dd4159d	0.10355685
204	0x3e71cdd6	0.23613676
205	0x3ce0fe33	0.027464962
206	0x3e85b387	0.2611353
207	0x3e8f8cb4	0.28037035
208	0x3b5eea04	0.0034013996
209	0xbdc9f578	-0.098612726
210	0xbd07b87a	-0.033134915
211	0xbe657bb3	-0.22410469
212	0x3d197671	0.03746647
213	0x3ded3d66	0.115839764
214	0xbd238a18	-0.03992662
215	0xbd5db3b6	-0.054126464
216	0xbe8566d4	-0.26055014
217	0x3c814948	0.015782014
218	0x3dfc4a6f	0.123188846
219	0xbce00dea	-0.027350385
220	0xbe6be916	-0.23038134
221	0xbe0d507e	-0.13800237
222	0xbcbfc5e9	-0.0234098
223	0xbe7891c7	-0.2427436
224	0xbd53d48c	-0.051716372
225	0x3da0c63a	0.07850309
226	0x3e171013	0.14752226
227	0xbdead67e	-0.114666924
228	0x3e294681	0.16530801
229	0xbdd7d339	-0.105383344
230	0x3e00dd97	0.1258453
231	0xbdafcea9	-0.08584339
232	0xbc7aa2a0	-0.015297562
233	0x3dc40a4a	0.09572275
234	0x3d3fae24	0.046796933
235	0xbe18e3d6	-0.14930663
236	0xbe339503	-0.17537312
237	0xbd0c4064	-0.034241095
238	0x3dfee59a	0.12446137
239	0xbe247f8e	-0.16064283
240	0xbd4eeb00	-0.050517082
241	0x3e0817c7	0.1329032
242	0x3ddb8eb2	0.10720576
243	0x3e0198bf	0.12655924
244	0x3d77c900	0.060494423
245	0x3c69b220	0.01426366
246	0x3cbf8a18	0.023381278
247	0x3c891288	0.01673247
248	0x3dc26c2e	0.0949329
249	0xbd2df290	-0.042467654
250	0xbde9c420	-0.11414361
251	0x3dde5af6	0.10857193
252	0x3dc2a62a	0.095043495
253	0xbdbb2cfe	-0.09139441
254	0x3d00796c	0.031365797
255	0x3dc5ca2a	0.096577

fc1.bias f4 [16]
0	0xbc096838	-0.008386664
1	0x3dcba760	0.099440336
2	0x3e633f5c	0.22192138
3	0xbc65b7a1	-0.014020831
4	0xbc02845e	-0.007966129
5	0x3db11a3e	0.086475834
6	0x3e619949	0.2203113
7	0x3daf1956	0.08549754
8	0xbe32315d	-0.17401643
9	0xbdb47e13	-0.08813109
10	0x3e502e01	0.20330049
11	0x3cd67f18	0.02618365
12	0xbdf192eb	-0.117956005
13	0x3d74cfbe	0.05976843
14	0xbd8e6613	-0.06953063
15	0x3e31ee03	0.1737595

out.weight f4 [1, 16]
0	0x3e198dbf	0.14995478
1	0xbdfa94e1	-0.12235428
2	0x3e9bdc58	0.30441546
3	0xbe1771c1	-0.14789487
4	0xbe5a0ddf	-0.21294354
5	0xbd71a560	-0.058995605
6	0x3e14f4a1	0.14546444
7	0xbd1a0b18	-0.037608236
8	0xbddfbf58	-0.10925168
9	0xbe0dd0b2	-0.13849142
10	0x3e05c41c	0.13063091
11	0x3e5e960e	0.21736929
12	0xbdcca402	-0.099922195
13	0xbe356614	-0.17714721
14	0x3e8b74bc	0.272375
15	0x3eafdebd	0.34349623
