artifacts/territory/lstm/950__0__0/model.pt (torch, 23217 bytes, 7 tensors)

lstm.weight_ih_l0 f4 [128, 1]
-0.055798307 -0.08745144 -0.16025412 0.17611529 -0.06820988 0.009884929 -0.09565443 0.083751775
-0.00711886 0.050918844 0.070509575 0.16716242 -0.02430535 -0.17138797 -0.15625603 -0.1764635
0.19368322 -0.06069708 0.0028470294 0.026152985 0.14504564 -0.071123324 0.05937861 0.11130981
0.037255257 0.21607713 -0.013215879 0.011884945 0.12722157 -0.020421699 -0.028671583 -0.11474071
-0.0043668305 -0.109825134 -0.16207509 0.14423913 0.040233012 0.085378334 0.046916965 0.08858116
-0.11422151 -0.06762777 -0.027197605 0.013681828 0.01987431 0.042699106 0.15717688 0.07616203
0.06677485 -0.030797567 0.10349361 0.040546387 -0.043730915 0.02947801 0.089800596 0.16430931
0.037246797 0.008022995 -0.17529275 -0.035041012 0.03600943 0.07791146 0.07718585 -0.007974758
0.0608012 -0.1763959 -0.14295213 0.062340833 0.118059374 0.017172782 -0.09737655 -0.08041627
0.09381908 0.08653593 0.13033772 -0.03098442 0.07132703 0.018594857 -0.015094955 0.061960954
0.08951233 -0.036575194 0.041631382 -0.18716238 0.07298443 0.19062386 0.12954363 0.03451594
-0.08285092 0.17410852 0.1464393 -0.1273802 0.07113157 -0.10903098 0.116611004 -0.17110848
-0.119917825 0.18232016 0.18412703 -0.097312495 0.0714273 -0.029265935 0.0009525977 -0.13127281
-0.15871309 0.012724161 0.14059973 0.07925251 -0.044513553 0.112558395 -0.11434554 0.041383445
0.056123275 -0.14466448 -0.03154239 0.2236112 0.16244018 0.13782515 -0.08472965 0.05367407
0.15428424 0.03880926 0.06597623 0.22162364 0.15557705 0.016244385 0.123763464 -0.116023935
00000000: c48c 64bd be19 b3bd a819 24be 9157 343e
00000010: 9fb1 8bbd 66f4 213c 78e6 c3bd 0d86 ab3d
00000020: 5345 e9bb 4790 503d 5367 903d a02c 2b3e
00000030: 031c c7bc 5480 2fbe 9501 20be d9b2 34be
00000040: e554 463e 809d 78bd 3a95 3a3b c93e d63c
00000050: d886 143e 1ba9 91bd fc36 733d 66f6 e33d
00000060: f898 183d 5343 5d3e 6a87 58bc 13b9 423c
00000070: 5f46 023e 684b a7bc abe0 eabc 2dfd eabd
00000080: a117 8fbb 00ec e0bd 03f7 25be 6cb3 133e
00000090: 5fcb 243d d6da ae3d 012c 403d 0a6a b53d
000000a0: f8ec e9bd 6e80 8abd 83cd debc bf29 603c
000000b0: 73cf a23c 42e5 2e3d faf2 203e d7fa 9b3d
000000c0: 41c1 883d 2e4b fcbc 75f4 d33d f813 263d
000000d0: 301f 33bd de7b f13c 60e9 b73d b340 283e
000000e0: 1990 183d e172 033c f17f 33be 2a87 0fbd
000000f0: a07e 133d 0b90 9f3d 9d13 9e3d 8fa8 02bc
00000100: ae0a 793d 20a1 34be 0b62 12be 1a59 7f3d
00000110: 1dc9 f13d efad 8c3c 5b6d c7bd 49b1 a4bd
00000120: 3824 c03d c039 b13d 4077 053e 0ad3 fdbc
00000130: e813 923d 3e54 983c d550 77bc c5ca 7d3d
00000140: 3e52 b73d dfcf 15bd ab85 2a3d 7fa7 3fbe
00000150: dc78 953d e732 433e 16a7 043e 9660 0d3d
00000160: bead a9bd 8149 323e 2ff4 153e f56f 02be
00000170: 6ead 913d a24b dfbd c0d1 ee3d 1037 2fbe
00000180: 7a97 f5bd 23b2 3a3e cc8b 3c3e c64b c7bd
00000190: 7a48 923d 1dbf efbc c0b7 793a 616c 06be
000001a0: af85 22be 0079 503c 60f9 0f3e 244f a23d
000001b0: d853 36bd 0485 e63d ff2d eabd b081 293d
000001c0: 85e1 653d ed22 14be 9832 01bd 56fa 643e
000001d0: b856 263e 0922 0d3e bd86 adbd 57d9 5b3d
000001e0: b0fc 1d3e 75f6 1e3d 8c1e 873d 4ff1 623e
000001f0: 974f 1f3e f212 853c b377 fd3d f59d edbd

lstm.weight_hh_l0 f4 [128, 32]
-0.17129122 0.13655402 -0.05934605 0.045832902 0.11326301 0.1709513 0.14108826 -0.12936595
-0.11990536 -0.12794423 -0.019395985 -0.14644316 -0.052611828 0.15547618 0.10274644 0.11234223
0.12656559 0.09176682 -0.10644105 0.088281095 -0.09742451 0.1723894 0.15232745 0.17242622
-0.046780918 0.16873299 0.20570615 0.06143103 -0.08123076 0.056368917 0.1771469 0.03374602
0.006631126 -0.059378386 -0.061330378 -0.13044314 -0.20749258 0.13789618 -0.16828476 -0.005185284
0.10531771 -0.19207492 0.020411108 0.039022274 -0.16563152 -0.06524116 0.111031026 -0.013847313
-0.09704926 0.006054435 0.14923435 -0.009358196 0.05721566 0.06140057 -0.15023123 -0.0668832
0.17120837 0.09395461 0.118519664 0.05639948 -0.17225903 -0.08680512 -0.016132783 0.14708586
-0.12183503 0.022620508 -0.13828456 0.124652706 -0.15328181 -0.11458899 0.021864414 -0.10439279
-0.11355912 -0.056143977 0.09228628 -0.120110966 0.1310858 0.0021489593 -0.08184452 -0.12722807
-0.13408451 -0.09080604 0.13343117 -0.043391544 0.1290061 0.060287695 -0.05260446 0.09994629
-0.096832 0.14098875 0.11199159 -0.21475315 -0.08149806 0.038654275 -0.08681292 0.14441435
0.16649543 -0.12795928 0.0017247349 -0.10315022 -0.09518613 -0.013862752 0.1190566 0.046873167
0.07358743 -0.023866676 -0.11151012 0.076629736 -0.070056506 -0.03921476 -0.11045631 0.16716798
-0.09771543 -0.1291376 -0.0722156 0.13000438 0.1774414 0.026554987 0.11442511 0.14606681
-0.17490847 0.07361791 -0.1417343 -0.018506207 -0.13379529 -0.1658086 0.13306054 0.039900526
0.16706106 0.071870856 0.030744001 0.12176627 0.11581079 -0.04083407 0.16098307 -0.12752654
0.13577773 0.051152308 0.12979539 -0.009122441 0.1782873 0.022620505 -0.1569847 -0.067859635
-0.02239129 -0.11457776 0.0018942208 -0.055280503 0.19869022 -0.02444428 0.061058205 0.16648349
-0.19430062 0.025309872 -0.084022604 -0.06866224 0.22741593 0.004274479 0.112262614 -0.149079
0.05721626 -0.0003944821 -0.026681146 0.07926188 0.14067577 -0.07867423 -0.1216371 0.11981344
0.024239209 -0.035532795 -0.04489607 -0.00043686305 0.021696026 0.14273046 -0.005948048 0.05333544
-0.11770701 0.0900166 -0.05377106 0.13192089 -0.00605121 -0.030387603 -0.0003038483 -0.018663855
0.15124334 0.033344463 0.06656179 -0.15722875 -0.0017181311 0.026503911 -0.102074 0.06716205
0.09275615 0.0024016392 -0.11857967 -0.11155251 -0.06654934 0.18005955 -0.045057554 -0.10520891
0.08305218 0.10572913 0.15764375 -0.056770355 -0.08295491 -0.12640555 -0.04204329 0.0036131847
0.21498023 -0.12890276 0.13648933 -0.16939554 0.15309744 0.14857282 0.1210949 -0.01290684
-0.1272886 -0.00497743 0.11251893 -0.18477038 -0.041922994 -0.047710042 0.004267319 -0.1266439
0.13053505 0.037439443 0.12126143 0.13239707 -0.13276237 -0.083585724 -0.1399885 -0.097690426
0.0032015145 0.038565952 0.013677228 0.0699491 0.038404103 -0.087932974 -0.06624132 0.044250876
-0.15250671 0.03912349 -0.06372328 -0.104910776 0.07813032 0.10150351 0.07194121 -0.014438697
0.10235815 -0.07420074 0.034370825 -0.17897795 0.10984513 -0.005103413 0.17664148 0.11268
00000000: f766 2fbe d1d4 0b3e d814 73bd 48bb 3b3d
00000010: 70f6 e73d dc0d 2f3e 7179 103e 8278 04be
00000020: f190 f5bd d003 03be 54e4 9ebc 32f5 15be
00000030: 807f 57bd 2635 1f3e ba6c d23d af13 e63d
00000040: 699a 013e 3ef0 bb3d c4fd d9bd b8cc b43d
00000050: 8086 c7bd d986 303e bafb 1b3e 8090 303e
00000060: 599d 3fbd 57c8 2c3e a2a4 523e 1b9f 7b3d
00000070: 505c a6bd 18e3 663d ff65 353e 4439 0a3d
00000080: eb49 d93b c036 73bd 9035 7bbd e392 05be
00000090: ef78 54be a834 0d3e d752 2cbe 51e9 a9bb
000000a0: d0b0 d73d 4aaf 44be 3235 a73c d2d5 1f3d
000000b0: 4f9b 29be 289d 85bd 3c64 e33d d7df 62bc
000000c0: c3c1 c6bd 4864 c63b e4d0 183e 1e53 19bc
000000d0: f85a 6a3d 2a7f 7b3d 37d6 19be 0ffa 88bd
000000e0: 3f51 2f3e 466b c03d 70ba f23d 2403 673d
000000f0: ac64 30be e2c6 b1bd e628 84bc ad9d 163e
00000100: a584 f9bd a54e b93c 789a 0dbe eb49 ff3d
00000110: e8f5 1cbe a2ad eabd 001d b33c e3cb d5bd
00000120: af91 e8bd 3af7 65bd 9700 bd3d bdfc f5bd
00000130: 5b3b 063e 8ed5 0c3b 1a9e a7bd 1348 02be
00000140: 734d 09be 84f8 b9bd 2ea2 083e 55bb 31bd
00000150: 2d1a 043e 3bf0 763d c677 57bd a4b0 cc3d
00000160: db4f c6bd 5b5f 103e d95b e53d 40e8 5bbe
00000170: 74e8 a6bd f253 1e3d f9ca b1bd 5be1 133e
00000180: c77d 2a3e c207 03be 8010 e23a 6c40 d3bd
00000190: f2f0 c2bd 9920 63bc f2d3 f33d 14fe 3f3d
000001a0: 02b5 963d 0c84 c3bc 6b5f e4bd 0df0 9c3d
000001b0: c979 8fbd a89f 20bd eb36 e2bd 152e 2b3e
000001c0: 071f c8bd a63c 04be c6e5 93bd de1f 053e
000001d0: 33b3 353e d889 d93c b657 ea3d 8a92 153e
000001e0: 351b 33be fdc4 963d cc22 11be 549a 97bc
000001f0: a201 09be bbc9 29be 0641 083e bc6e 233d
00000200: 0e12 2b3e 0731 933d d8da fb3c 9860 f93d
00000210: 352e ed3d a041 27bd bfd8 243e 5196 02be
00000220: 5109 0b3e 1585 513d 15e9 043e 4a76 15bc
00000230: f290 363e a34e b93c 99c0 20be fef9 8abd
00000240: f06d b7bc bfa7 eabd 8147 f83a cf6d 62bd
00000250: 7375 4b3e 5f3f c8bc 2b18 7a3d a67a 2a3e
00000260: bef6 46be a656 cf3c 0b14 acbd ca9e 8cbd
00000270: b9df 683e ee10 8c3b f1e9 e53d 2aa8 18be
00000280: 995b 6a3d 7ed2 ceb9 6b92 dabc 0d54 a23d
00000290: 4f0d 103e f41f a1bd df1c f9bd c060 f53d
000002a0: 4e91 c63c d68a 11bd f1e4 37bd c40a e5b9
000002b0: ddbb b13c ef27 123e d8e7 c2bb 4376 5a3d
000002c0: 5f10 f1bd a05a b83d 0b3f 5cbd 4516 073e
000002d0: 3b49 c6bb 6cef f8bc d44d 9fb9 f1e4 98bc
000002e0: 89df 1a3e 3494 083d 8c51 883d 9300 21be
000002f0: ea32 e1ba bb1e d93c 2c0c d1bd 428c 893d
00000300: f0f6 bd3d d264 1d3b e6d9 f2bd a475 e4bd
00000310: 054b 88bd 8861 383e 458e 38bd c577 d7bd
00000320: 4317 aa3d 8488 d83d 5d6d 213e 0888 68bd
00000330: 44e4 a9bd 7570 01be 9635 2cbd 2ecb 6c3b
00000340: c723 5c3e 16ff 03be dcc3 0b3e 0676 2dbe
00000350: 93c5 1c3e 7923 183e 9a00 f83d 3677 53bc
00000360: f157 02be b619 a3bb 5370 e63d 7234 3dbe
00000370: 72b7 2bbd 9b6b 43bd ded4 8b3b f0ae 01be
00000380: fbaa 053e 1a5a 193d ea57 f83d 1993 073e
00000390: dcf2 07be fe2e abbd 2559 0fbe eb11 c8bd
000003a0: 80d0 513b 55f7 1d3d 7416 603c 7941 8f3d
000003b0: 9f4d 1d3d 3416 b4bd 87a9 87bd 6840 353d
000003c0: b82a 1cbe f43f 203d 5a81 82bd 76db d6bd
000003d0: ca02 a03d 12e1 cf3d ea55 933d 4990 6cbc
000003e0: 26a1 d13d 8ff6 97bd 6cc8 0c3d ff45 37be
000003f0: 7cf6 e03d 883a a7bb 81e1 343e c6c4 e63d

lstm.bias_ih_l0 f4 [128]
-0.0011549237 0.053106893 -0.03055346 0.16467528 -0.028087523 0.010561627 0.12934224 0.102514304
0.11086553 -0.0015500063 0.10339268 -0.029773215 -0.027652862 0.0064544985 -0.052526616 -0.045099087
-0.05963446 0.04985155 -0.22763267 0.08980635 0.19564964 0.087356456 0.09964512 0.11818922
-0.0052737975 0.019849084 -0.018155063 0.051793806 -0.061287593 0.21850443 -0.0074242908 0.003782238
-0.15140252 0.031564288 -0.119310096 -0.022056032 0.17325433 -0.15706372 -0.09973274 -0.04975031
-0.10880717 -0.050399687 -0.060547322 0.069705255 0.0037311118 -0.095818914 0.013697949 -0.21107058
-0.017466903 0.138073 0.0050119315 -0.029152907 0.03967784 -0.001532153 -0.1434232 -0.006374752
0.046107955 -0.062074933 -0.18681574 0.014515465 -0.09785303 -0.0066586295 0.13313213 -0.18169305
0.045772605 0.09631293 -0.13965008 -0.05870454 0.067536846 -0.12992457 0.021060279 -0.12322633
0.03294111 0.058115896 -0.034662634 -0.15534069 -0.12173837 -0.092939906 -0.05659158 0.11756368
0.013600314 0.052761104 0.1055069 0.13482305 0.11719549 0.04664602 -0.05688833 -0.089592
0.16992842 -0.077028655 0.10294997 0.021340897 0.036791675 -0.07460049 -0.014364585 -0.13486366
0.20303561 0.16073768 -0.026020573 -0.072400495 0.065105654 0.15706353 0.19787937 0.051881116
0.12897383 -0.06728609 0.12467531 -0.112503156 0.05081321 -0.07945321 0.006169994 -0.0047866753
0.06811795 0.10276582 -0.08140588 0.16361752 0.18160447 -0.036860943 0.22294903 -0.064623
-0.11288314 0.11738898 0.120321214 -0.03396152 -0.08599868 0.052534282 -0.037030093 0.160906
00000000: cf60 97ba 9d86 593d 404b fabc a3a0 283e
00000010: ce17 e6bc ad0a 2d3c 4b72 043e 05f3 d13d
00000020: 780d e33d 9529 cbba 8bbf d33d f5e6 f3bc
00000030: 4188 e2bc 4280 d33b 2626 57bd d2b9 38bd
00000040: 4343 74bd 2431 4c3d 8a18 69be 64ec b73d
00000050: 6158 483e f1e7 b23d be12 cc3d 310d f23d
00000060: d2cf acbb 8c9a a23c edb9 94bc be25 543d
00000070: b308 7bbd a0bf 5f3e 7747 f3bb 6ddf 773b
00000080: 4309 1bbe 8e49 013d da58 f4bd daae b4bc
00000090: 9569 313e 50d5 20be ae40 ccbd fbc6 4bbd
000000a0: 4bd6 debd e76f 4ebd 7800 78bd a1c1 8e3d
000000b0: ab85 743b b53c c4bd 5d6d 603c e322 58be
000000c0: c016 8fbc 0263 0d3e 213b a43b 14d2 eebc
000000d0: 3b85 223d 86d2 c8ba 88dd 12be 4ce3 d0bb
000000e0: b2db 3c3d 4942 7ebd a04c 3fbe 46d2 6d3c
000000f0: 2b67 c8bd a230 dabb ca53 083e be0d 3abe
00000100: 0e7c 3b3d b73f c53d 6e00 0fbe 2c74 70bd
00000110: c250 8a3d f20a 05be 9b86 ac3c 165e fcbd
00000120: 42ed 063d ef0a 6e3d 68fa 0dbd a111 1fbe
00000130: f751 f9bd 4757 bebd 93cc 67bd 3ac5 f03d
00000140: dad3 5e3c 071c 583d 0014 d83d 0e0f 0a3e
00000150: 3004 f03d e60f 3f3d bd03 69bd 037c b7bd
00000160: b701 2e3e 33c1 9dbd 6fd7 d23d 1bd3 ae3c
00000170: deb2 163d 24c8 98bd 7059 6bbc b319 0abe
00000180: 91e8 4f3e 6b98 243e 1929 d5bc b646 94bd
00000190: 1d56 853d 43d5 203e e4a0 4a3e 4b81 543d
000001a0: b711 043e 4acd 89bd c555 ff3d 0e68 e6bd
000001b0: 8321 503d 5db8 a2bd a92d ca3b 8bd9 9cbb
000001c0: 6c81 8b3d e376 d23d 20b8 a6bd 5a8b 273e
000001d0: 86f6 393e 80fb 16bd c04c 643e 1059 84bd
000001e0: 472f e7bd a269 f03d f86a f63d 3c1b 0bbd
000001f0: 1320 b0bd 302e 573d deac 17bd 8bc4 243e

lstm.bias_hh_l0 f4 [128]
0.19117479 -0.019103799 0.08285687 0.0048156097 -0.08862355 -0.009531773 0.18687347 0.10580722
-0.08942267 0.13587329 0.050630588 -0.06552419 0.06904063 0.115738615 0.07948486 -0.04303836
0.0387071 -0.1339307 -0.078360096 -0.11249183 -0.04650942 -0.090587795 0.024242623 0.029181344
0.13246179 0.11595037 0.053558253 0.16817008 -0.10434424 0.024135802 0.12899481 0.13053624
-0.1122584 0.007978153 -0.06468325 0.026248025 -0.02564507 0.013372757 0.089749455 0.045484748
-0.15121378 -0.07069797 0.047103066 0.046928108 0.026289707 -0.17478456 -0.023923537 0.020376718
0.076146364 -0.11152611 -0.00829155 -0.1640721 0.08445374 -0.090566374 -0.011899927 0.10452239
0.093737364 0.12613922 -0.018108604 0.0051902076 -0.071003444 0.17208923 0.11525799 0.13120483
-0.0048496467 0.104947984 -0.12799238 -0.006570479 -0.090073995 0.03181225 -0.052602716 0.05250729
-0.07789796 -0.056890894 0.01894799 -0.09319357 0.043627106 -0.1387647 -0.1644169 0.022842726
-0.123436555 -0.1201492 -0.1436666 -0.035561375 -0.051588096 -0.025438352 0.14691153 -0.010468204
-0.154794 0.18376988 0.1688769 0.14560889 -0.046922326 -0.02711852 -0.12753518 0.15690133
0.21704768 -0.06315255 0.06670761 -0.15340719 0.04307772 0.1971001 0.04914735 0.095892295
-0.18985322 -0.0007841064 0.08891829 0.15514177 -0.010554049 -0.087801635 0.06255246 -0.051004548
-0.10109613 -0.1450556 0.12818198 0.024005143 0.1466101 0.19357796 -0.008127409 0.15186974
-0.06803255 -0.110948145 0.03524015 -0.09355869 -0.016503762 0.08046112 -0.08979513 0.095085025
00000000: 53c3 433e 927f 9cbc ddb0 a93d 43cc 9d3b
00000010: 4480 b5bd 272b 1cbc c25b 3f3e 75b1 d83d
00000020: 3c23 b7bd 5e22 0b3e 0562 4f3d 8c31 86bd
00000030: 2c65 8d3d 5e08 ed3d f5c8 a23d fe48 30bd
00000040: 568b 1e3d 2125 09be 427b a0bd 1e62 e6bd
00000050: a980 3ebd 1886 b9bd 7798 c63c b70d ef3c
00000060: 10a4 073e 6377 ed3d e65f 5b3d c734 2c3e
00000070: 6fb2 d5bd 72b8 c53c 3717 043e 4bab 053e
00000080: bbe7 e5bd cdb6 023c a778 84bd 1906 d73c
00000090: 9c15 d2bc 6819 5b3c 90ce b73d 374e 3a3d
000000a0: c9d7 1abe 19ca 90bd 25ef 403d b037 403d
000000b0: 835d d73c b9fa 32be 4bfb c3bc 13ed a63c
000000c0: a0f2 9b3d cd67 e4bd 48d9 07bc 8402 28be
000000d0: 15f6 ac3d dd7a b9bd e9f7 42bc d60f d63d
000000e0: 60f9 bf3d a42a 013e 7f58 94bc 9e12 aa3b
000000f0: 416a 91bd 2938 303e 620c ec3d 8f5a 063e
00000100: c9e9 9ebb f8ee d63d 6f10 03be 2c4d d7bb
00000110: b778 b8bd 904d 023d f275 57bd e211 573d
00000120: f788 9fbd 6d06 69bd d138 9b3c 45dc bebd
00000130: 56b2 323d 5518 0ebe e75c 28be ab20 bb3c
00000140: 4ecc fcbd c910 f6bd 561d 13be cea8 11bd
00000150: 0a4e 53bd 1764 d0bc fa6f 163e d482 2bbc
00000160: 5182 1ebe 2c2e 3c3e 11ee 2c3e 7f1a 153e
00000170: a031 40bd a927 debc 9598 02be beaa 203e
00000180: bf41 5e3e 2056 81bd 009e 883d c616 1dbe
00000190: 4372 303d 9cd4 493e bb4e 493d 2e63 c43d
000001a0: e268 42be 7d8c 4dba cb1a b63d 7cdd 1e3e
000001b0: e4ea 2cbc 58d1 b3bd 811b 803d 25ea 50bd
000001c0: 7d0b cfbd 7589 14be 2342 033e 6fa6 c43c
000001d0: f520 163e 4d39 463e d328 05bc be83 1b3e
000001e0: a654 8bbd c838 e3bd fa57 103d b39b bfbd
000001f0: e632 87bc cdc8 a43d 82e6 b7bd f0bb c23d

fc1.weight f4 [16, 32]
0.011835759 0.03446385 0.025698632 -0.02851612 0.13108833 0.060772464 -0.17723958 0.0628561
-0.0072601982 -0.057487592 0.12141295 -0.16678445 -0.037655346 0.16083787 0.11188665 -0.06442968
0.14585994 -0.022003748 0.19591029 -0.22426653 0.0738383 -0.014629779 0.10154458 0.11423081
-0.17865571 0.20245196 -0.06643338 -0.07883251 0.22613873 0.1119145 0.02344648 0.025559578
0.047780458 -0.13782246 0.016244795 -0.05118246 -0.13143499 -0.1757073 -0.13634978 0.06706106
-0.15435323 0.13490124 -0.18039595 0.052241012 -0.19139755 0.04829952 -0.16174167 0.073516384
0.10858456 -0.14603978 -0.09623263 0.061670426 -0.11284097 0.11200302 -0.09936045 0.0702062
-0.04594782 0.07807531 -0.12541953 -0.09157416 -0.04550888 0.046331324 -0.10995244 -0.08824912
-0.040861785 0.16981964 -0.16012567 0.1254809 -0.087546274 -0.105362274 0.13893946 -0.09156576
-0.06425548 -0.0931871 0.16627051 0.16802941 -0.057296135 0.078406855 -0.053256884 0.07975261
-0.16835232 -0.10461362 0.112106755 -0.0708603 -0.15167281 -0.09647892 0.1369497 -0.030102268
0.13143797 -0.021368578 0.050735682 -0.08958026 0.0889322 0.008203521 -0.09853335 -0.16606075
0.14399831 0.07800742 -0.019566504 -0.03756724 0.20759636 -0.045236345 0.031798225 -0.13347408
0.08073226 -0.049233228 0.09146652 0.10522385 -0.028557198 -0.14600563 -0.096850075 0.004262065
0.12175662 -0.22219713 0.16261302 -0.12452162 0.14170595 0.0728157 0.22161867 0.080041245
-0.19942702 0.022903787 0.07361991 -0.22364719 0.2181015 -0.13526785 0.190818 0.12142829
0.03545566 -0.15016024 -0.057780735 -0.12882295 -0.07049465 0.08772646 -0.015770614 0.019962326
0.15371694 -0.15647781 -0.09832565 0.046107575 0.046004966 0.09618394 0.068213224 -0.08910398
-0.0028329045 -0.012473404 0.12727992 0.10383575 0.13098298 -0.09580076 -0.080594555 0.05501005
0.08265577 -0.15105988 -0.038884386 -0.017476216 0.0013231188 -0.08860016 -0.048507884 0.0028348863
0.06076436 0.061289817 -0.1197428 0.08972432 -0.012558258 -0.14611061 0.09537464 0.022176912
0.11695899 -0.013764046 0.02413409 -0.1111498 -0.01604174 -0.10590642 0.07443254 -0.14944609
0.001467831 0.15373296 -0.11629296 -0.0059282435 -0.11687714 -0.005853926 -0.098028414 -0.013332532
0.07927199 0.008091837 0.025844758 -0.089401945 -0.20313743 0.15959373 0.11085092 0.03724144
0.11550931 0.06218671 -0.0020697562 -0.16150446 -0.07738754 -0.086374156 0.06068458 -0.12864113
-0.022990407 -0.05035416 -0.066196516 0.035831496 0.15281925 -0.15166984 -0.17001593 0.038377076
0.08551917 -0.15606064 -0.02118395 -0.042841718 0.10247707 -0.18944001 0.11111747 0.0878384
0.13614726 -0.065611705 0.14972065 0.07151762 -0.10110033 0.19390176 -0.05798119 -0.070731044
0.01755105 -0.16683425 -0.0111028105 0.09764059 -0.049625084 0.13272895 -0.09108296 0.058419436
0.14607711 -0.16990434 -0.108572386 -0.083852105 -0.053861164 0.17635123 -0.13258524 0.06727891
0.042992666 -0.014026582 -0.1514072 -0.1532402 0.098992005 0.1455717 0.020293355 -0.14024532
0.11302237 -0.15388195 -0.13103065 0.014196709 -0.032043263 -0.042291075 -0.12594454 -0.1236037
00000000: c5ea 413c f729 0d3d f085 d23c a39a e9bc
00000010: 053c 063e 8cec 783d 4b7e 35be b3ba 803d
00000020: f5e6 edbb 1c78 6bbd 5aa7 f83d 8bc9 2abe
00000030: 7e3c 1abd afb2 243e d424 e53d b5f3 83bd
00000040: 4f5c 153e 3441 b4bc b59c 483e 20a6 65be
00000050: 8938 973d beb1 6fbc 9bf6 cf3d d8f1 e93d
00000060: 86f1 36be 914f 4f3e 390e 88bd f072 a1bd
00000070: e990 673e 6e33 e53d d512 c03c 5262 d13c
00000080: 71b5 433d 5521 0dbe ce13 853c b3a4 51bd
00000090: e596 06be 9dec 33be 479f 0bbe 4f57 893d
000000a0: c60e 1ebe 8d23 0a3e b7b9 38be acfa 553d
000000b0: b8fd 43be b8d5 453d 9c9f 25be c28f 963d
000000c0: 9561 de3d 748b 15be 9d15 c5bd 219a 7c3d
000000d0: 2b19 e7bd d761 e53d 7e7d cbbd 45c8 8f3d
000000e0: c833 3cbd f3e5 9f3d fa6d 00be 3c8b bbbd
000000f0: 8567 3abd eac5 3d3d bf2e e1bd f4bb b4bd
00000100: b05e 27bd 33e5 2d3e fcf7 23be 117e 003e
00000110: 764b b3bd 2dc8 d7bd 2546 0e3e d486 bbbd
00000120: 6198 83bd e1d8 bebd d142 2a3e e70f 2c3e
00000130: 5aaf 6abd c693 a03d e423 5abd 5655 a33d
00000140: 8d64 2cbe aa3f d6bd 3a98 e53d 341f 91bd
00000150: 1e50 1bbe bd96 c5bd 8b3c 0c3e 0899 f6bc
00000160: ad97 063e 280d afbc 38d0 4f3d db75 b7bd
00000170: 1622 b63d 1068 063c dacb c9bd d40b 2abe
00000180: 4b74 133e 5bc2 9f3d ef49 a0bc 1be0 19bd
00000190: 2494 543e bf49 39bd db3e 023d 6ead 08be
000001a0: f556 a53d c8a8 49bd cd52 bb3d 9a7f d73d
000001b0: c9f0 e9bc 8082 15be 5559 c6bd cba8 8b3b
000001c0: 895b f93d a587 63be 0784 263e 3105 ffbd
000001d0: 5d1b 113e 6620 953d 01f0 623e aaec a33d
000001e0: 9936 4cbe b9a0 bb3c 09c6 963d c503 65be
000001f0: 0056 5f3e a883 0abe cb65 433e 65af f83d
00000200: f439 113d 9bc3 19be 7eab 6cbd 2aea 03be
00000210: 805f 90bd eea9 b33d 6031 81bc 0888 a33c
00000220: f967 1d3e b83b 20be f55e c9bd 4cdb 3c3d
00000230: b46f 3c3d 16fc c43d 60b3 8b3d 267c b6bd
00000240: 40a8 39bb 405d 4cbc ab55 023e d6a7 d43d
00000250: 6720 063e 3033 c4bd c20e a5bd 3852 613d
00000260: 6e47 a93d 71af 1abe 3c45 1fbd 482a 8fbc
00000270: 806c ad3a 0074 b5bd 34b0 46bd 80c9 393b
00000280: 0de4 783d 080b 7b3d b73b f5bd 62c1 b73d
00000290: 27c1 4dbc 059e 15be c753 c33d 5bac b53c
000002a0: 3288 ef3d 9882 61bc dbb4 c53c 82a2 e3bd
000002b0: f869 83bc 77e5 d8bd 1670 983d 6508 19be
000002c0: 3c64 c03a 2c6c 1d3e 012b eebd b641 c2bb
000002d0: 485d efbd 4ad2 bfbb 1fc3 c8bd b170 5abc
000002e0: 5a59 a23d a093 043c 63b8 d33c 5e18 b7bd
000002f0: 4203 50be 8a6c 233e cf05 e33d 7b8a 183d
00000300: 2590 ec3d 7eb7 7e3d bfa4 07bb 6d61 25be
00000310: 5c7d 9ebd efe4 b0bd 6590 783d 80ba 03be
00000320: 6156 bcbc 2a40 4ebd 0a92 87bd 0cc4 123d
00000330: a67c 1c3e 574f 1bbe a818 2ebe 4831 1d3d
00000340: ad24 af3d 5cce 1fbe f789 adbc cc7a 2fbd
00000350: 80df d13d 90fc 41be 8e91 e33d 9ee4 b33d
00000360: 306a 0b3e 6e5f 86bd 5f50 193e d477 923d
00000370: b10d cfbd 2f8e 463e af7d 6dbd 70db 90bd
00000380: 38c7 8f3c 99d6 2abe 90e8 35bc caf7 c73d
00000390: ac43 4bbd 19ea 073e b489 babd 3849 6f3d
000003a0: 3d95 153e 67fb 2dbe 335b debd a7ba abbd
000003b0: 869d 5cbd 6b95 343e 6dc4 07be 86c9 893d
000003c0: 1419 303d c0cf 65bc 7d0a 1bbe 00eb 1cbe
000003d0: 52bc ca3d bf10 153e 403e a63c 789c 0fbe
000003e0: 4678 e73d 3b93 1dbe e62c 06be 5099 683c
000003f0: cc3f 03bd 6839 2dbd 9bf7 00be f023 fdbd

fc1.bias f4 [16]
-0.08513821 -0.14832121 -0.1251869 0.03402708 -0.08902373 0.120181434 -0.12662962 -0.033064395
-0.13189179 -0.019157872 0.10682682 0.1100589 -0.02789488 0.017934877 0.14473474 -0.12529686
00000000: f15c aebd 84e1 17be ff30 00be fb5f 0b3d
00000010: 1352 b6bd af21 f63d 32ab 01be 886e 07bd
00000020: a40e 07be f8f0 9cbc 05c8 da3d 9066 e13d
00000030: ce83 e4bc 2aec 923c 5835 143e d24d 00be

out.weight f4 [1, 16]
0.26889572 -0.101760834 0.23552254 0.12605913 -0.038731873 -0.17089055 -0.0778472 0.04073292
0.14836589 0.21353263 0.003786209 0.2436019 0.10500291 0.11249247 0.16506651 0.23596713
00000000: b3ac 893e fc67 d0bd d22c 713e a515 013e
00000010: 50a5 1ebd effd 2ebe 5a6e 9fbd 90d7 263d
00000020: 3aed 173e 4ca8 5a3e 0c22 783b c772 793e
00000030: c40b d73d 7462 e63d 3207 293e 5ea1 713e
