artifacts/territory/lstm/523__575__577/model.pt (torch, 23217 bytes, 7 tensors)

lstm.weight_ih_l0 f4 [128, 1]
0.03635792 -0.062147107 -0.07991803 -0.05180202 0.04733573 0.097686976 0.019628974 0.070847094
0.051440205 -0.023406237 -0.012608112 -0.110034764 -0.040581692 0.11413961 -0.10002121 0.08258696
-0.13505337 0.06378972 -0.09826472 0.16364695 0.11070632 0.10797535 0.0028153579 -0.101704486
-0.06173605 0.06345476 -0.09339569 0.0047955886 -0.038843166 -0.06648847 0.07036425 -0.06535746
-0.085772805 0.08826357 0.041923728 0.045530275 -0.052550375 0.104090035 -0.06319055 -0.027070241
0.014184845 0.019552596 -0.047574725 -0.09511101 0.12770247 0.06754628 -0.061859734 -0.13837819
-0.13144504 0.17224725 0.10982154 0.09563544 0.10607291 0.101321325 0.13842914 0.09445439
0.10237343 0.063133076 0.044223834 0.039353758 0.024219057 0.104212634 0.15925111 -0.0763802
0.034168396 -0.077304415 0.051173612 0.059044506 0.0056018475 -0.1275734 -0.13812573 -0.038393915
0.13808256 -0.09964304 -0.12971511 -0.11573268 -0.055107582 0.036578607 0.066195905 0.009834255
-0.0036772275 0.08512728 0.12831512 0.121072456 0.07207048 -0.051278576 -0.14680968 -0.075062655
-0.023704167 -0.16912733 -0.15132931 0.08572438 0.15030399 0.11415062 0.043805663 0.084121674
0.03413046 -0.09736152 0.09615567 0.0768906 -0.1304742 -0.015642568 0.08363326 -0.12498723
-0.11044567 0.085677005 -0.18390192 -0.08240553 0.1987927 0.13146797 -0.06017157 -0.018125901
0.13588072 -0.012560134 0.058407705 -0.0017306445 0.07965544 -0.12310013 0.059871588 0.220608
0.09005384 -0.09398868 -0.18906273 0.1679103 0.2238305 -0.086020716 0.01704534 -0.027293682
00000000: 0bec 143d f78d 7ebd 10ac a3bd 5b2e 54bd
00000010: 1ce3 413d 1c10 c83d f1cc a03c 4818 913d
00000020: f7b2 523d 70be bfbc 4192 4ebc e859 e1bd
00000030: fd38 26bd 07c2 e93d ecd7 ccbd 5a23 a93d
00000040: 6e4b 0abe 2fa4 823d 033f c9bd 1193 273e
00000050: ffb9 e23d 2e22 dd3d de81 383b 714a d0bd
00000060: f1de 7cbd 92f4 813d 3d46 bfbd 5024 9d3b
00000070: 031a 1fbd 1b2b 88bd 221b 903d 22da 85bd
00000080: a7a9 afbd 88c3 b43d 37b8 2b3d f47d 3a3d
00000090: 103f 57bd 282d d53d 0c6a 81bd 69c2 ddbc
000000a0: 8d67 683c c42c a03c b7dd 42bd 90c9 c2bd
000000b0: 70c4 023e b455 8a3d a260 7dbd 03b3 0dbe
000000c0: 8799 06be 9561 303e 1eea e03d 83dc c33d
000000d0: c13c d93d 8e81 cf3d 5ec0 0d3e 4e71 c13d
000000e0: 29a9 d13d ea4b 813d 0d24 353d 6831 213d
000000f0: 0b67 c63c 6f6d d53d b912 233e 396d 9cbd
00000100: 29f4 0b3d c751 9ebd 6c9b 513d a7d8 713d
00000110: b48f b73b 9aa2 02be d570 0dbe f042 1dbd
00000120: 8465 0d3e a611 ccbd 0ad4 04be 4105 edbd
00000130: 7db8 61bd 73d3 153d b891 873d db1f 213c
00000140: a4fd 70bb 3657 ae3d 0a65 033e d6f4 f73d
00000150: b099 933d 7c09 52bd 4755 16be 73ba 99bd
00000160: 3e2f c2bc b72f 2dbe 12f6 1abe 4490 af3d
00000170: 4ae9 193e cdc7 e93d 916d 333d fc47 ac3d
00000180: 62cc 0b3d 7a65 c7bd 44ed c43d d278 9d3d
00000190: 079b 05be d824 80bc ea47 ab3d 4ef9 ffbd
000001a0: 5731 e2bd 6d77 af3d c950 3cbe 3bc4 a8bd
000001b0: 5090 4b3e 8a9f 063e 7776 76bd c57c 94bc
000001c0: 5124 0b3e 05c9 4dbc eb3c 6f3d cbd6 e2ba
000001d0: 6422 a33d ec1b fcbd e93b 753d 10e7 613e
000001e0: 266e b83d 237d c0bd a999 41be adf0 2b3e
000001f0: d333 653e a12b b0bd aba2 8b3c 0097 dfbc

lstm.weight_hh_l0 f4 [128, 32]
-0.17301007 -0.025667742 0.0598137 -0.074068844 -0.03150899 0.18008529 0.045922175 0.14336385
0.05233608 -0.13689986 0.117911346 -0.14214739 -0.021519903 0.008896184 0.091368385 0.17096636
-0.077029444 -0.1761998 0.0029078939 0.099106446 -0.12777103 -0.042831082 -0.05569739 -0.14817533
0.108562104 0.066641524 -0.06993416 -0.12565519 0.090494744 0.0791549 -0.035419334 0.018838929
0.1016117 -0.160301 0.03127101 -0.1374851 -0.057662413 -0.16391039 -0.19507913 0.1368619
0.12889045 0.15465024 0.036510333 0.120404705 -0.064766675 -0.044651378 -0.028166905 0.080329835
0.06497753 -0.04270085 0.12519112 0.031580403 -0.08530747 0.15595333 -0.10331508 -0.035824403
0.10141747 0.0055885813 -0.11349657 0.010117063 0.072469436 0.103272095 -0.10116589 -0.09441132
0.17630397 0.13542189 -0.093970224 -0.10706549 -0.009841446 0.10226885 -0.06323902 -0.16935217
0.12202315 -0.15275282 -0.14387792 -0.120796576 -0.11746794 0.14953211 0.08650807 -0.07293849
0.070362516 0.17417796 0.062143903 -0.030864974 0.021740174 0.07728598 0.034010246 -0.12712751
0.019810753 0.06576696 -0.011504367 -0.019816015 0.03987364 -0.0947136 0.16462193 -0.078604184
-0.19378869 0.06799771 -0.12150303 -0.18335915 0.02099988 0.022262163 0.03252538 0.018281976
0.11303806 -0.0995866 -0.009934706 0.169994 0.039921526 -0.0031714337 -0.16890591 0.07260435
-0.10474818 0.1050927 0.04237866 0.045855567 -0.022934427 0.09176031 0.13914435 -0.13487127
0.098086365 -0.08286882 -0.045802254 -0.06454074 -0.044884592 0.11711471 -0.027312169 0.054397944
0.11317781 0.11915569 -0.16043264 -0.10277708 -0.14284372 -0.11442251 -0.06629395 -0.050248593
-0.124387756 0.13487385 0.04086548 0.048778176 -0.07640286 0.0864537 0.017405242 0.10284243
-0.040365294 0.12033024 0.052655347 0.07288252 0.037269097 0.17093204 -0.073365316 0.12096124
0.089673296 0.07765534 -0.0069384426 -0.01245354 0.08278397 -0.05233673 -0.20512263 -0.026119472
0.12994647 -0.105175875 -0.15078327 0.042402886 -0.05164574 -0.14410457 -0.037060894 0.1403497
-0.13524382 0.1317817 -0.02724883 0.1153938 0.069464445 -0.07242903 0.13609256 0.042662356
-0.009210184 -0.07219115 -0.05007635 0.1624146 -0.009940674 0.06513135 -0.08108246 -0.057639837
0.115693375 -0.08103621 -0.06052018 -0.123669274 -0.027256355 0.13734083 0.15406075 -0.010851158
-0.029100725 0.0328779 -0.07958961 -0.11944349 0.13103764 -0.18703802 0.14299986 -0.2044447
-0.07708841 0.11326475 0.10006671 -0.00811826 -0.04401344 -0.1437351 -0.013341559 -0.043585617
0.13003908 -0.09791767 0.17672236 0.09911768 0.09092354 -0.030954313 -0.1274492 0.07671405
-0.14847359 -0.14039394 0.092888996 0.1927617 -0.037442017 0.061818797 0.0029270346 0.05528942
0.029162249 0.019327551 0.022806961 0.199817 0.11417557 -0.12909476 0.13029967 0.026616216
-0.15403584 0.06559855 -0.081003204 -0.098631755 -0.04347672 -0.12683944 -0.16070977 0.13398474
-0.08500307 0.1671541 -0.09020014 0.16243626 0.0017871053 -0.1614489 0.08940881 -0.06975906
-0.007977626 0.11541222 -0.163411 -0.12236553 0.03379845 0.01035206 0.09492797 -0.116593085
00000000: 8d29 31be 2845 d2bc 36ff 743d 68b1 97bd
00000010: 920f 01bd 4768 383e e418 3c3d f9cd 123e
00000020: 5c5e 563d 7a2f 0cbe 817b f13d 168f 11be
00000030: 824a b0bc 4dc1 113c 591f bb3d ce11 2f3e
00000040: 9dc1 9dbd b86d 34be 5d92 3e3b 52f8 ca3d
00000050: 69d6 02be a56f 2fbd f222 64bd 46bb 17be
00000060: cf55 de3d 5a7b 883d a439 8fbd c1ab 00be
00000070: 4f55 b93d f71b a23d dd13 11bd 1954 9a3c
00000080: cc19 d03d f225 24be 0816 003d e5c8 0cbe
00000090: 6c2f 6cbd 20d8 27be d3c2 47be 8725 0c3e
000000a0: dcfb 033e a25c 1e3e dc8b 153d be96 f63d
000000b0: 64a4 84bd 5de4 36bd 48be e6bc f883 a43d
000000c0: f012 853d 16e7 2ebd 1a32 003e 745a 013d
000000d0: afb5 aebd 3bb2 1f3e db96 d3bd 9cbc 12bd
000000e0: f6b3 cf3d 6b20 b73b e470 e8bd 0ac2 253c
000000f0: db6a 943d 5280 d33d 1030 cfbd b95a c1bd
00000100: 0789 343e 09ac 0a3e 7673 c0bd 2745 dbbd
00000110: 043e 21bc 5572 d13d 7683 81bd a86a 2dbe
00000120: 46e7 f93d 3c6b 1cbe bc54 13be 3264 f7bd
00000130: 0893 f0bd f21e 193e 252b b13d c660 95bd
00000140: 391a 903d b55b 323e 9b8a 7e3d 8bd8 fcbc
00000150: 7318 b23c 1d48 9e3d 544e 0b3d b72d 02be
00000160: 294a a23c d4b0 863d d07c 3cbc 3255 a2bc
00000170: 8b52 233d 34f9 c1bd a792 283e 3bfb a0bd
00000180: 8b70 46be 6242 8b3d 95d6 f8bd 80c2 3bbe
00000190: f107 ac3c 245f b63c 5539 053d 15c4 953c
000001a0: 8080 e73d 0ff4 cbbd 2dc5 22bc e812 2e3e
000001b0: c184 233d d4d7 4fbb acf5 2cbe 97b1 943d
000001c0: 3786 d6bd d73a d73d 3f95 2d3d 0cd3 3b3d
000001d0: fbe0 bbbc d4ec bb3d db7b 0e3e b21b 0abe
000001e0: 81e1 c83d 21b7 a9bd 259b 3bbd ef2d 84bd
000001f0: e8d8 37bd d6d9 ef3d c5bd dfbc 61d0 5e3d
00000200: c5c9 e73d e607 f43d 7448 24be ca7c d2bd
00000210: a045 12be 5956 eabd 1fc5 87bd 78d1 4dbd
00000220: 02bf febd 5f1c 0a3e 9062 273d a0cb 473d
00000230: 1a79 9cbd a30e b13d 7095 8e3c 0d9f d23d
00000240: 1456 25bd b36f f63d 22ad 573d 6e43 953d
00000250: 7ba7 183d cf08 2f3e 8e40 96bd 87ba f73d
00000260: a2a6 b73d c309 9f3d e05b e3bb ef09 4cbc
00000270: a48a a93d 0a5f 56bd ab0b 52be 81f8 d5bc
00000280: b010 053e 7366 d7bd ee66 1abe a6ae 2d3d
00000290: 7c8a 53bd 2690 13be 2acd 17bd d5b7 0f3e
000002a0: 5b7d 0abe c8f1 063e f038 dfbc 9653 ec3d
000002b0: 6043 8e3d ac55 94bd d95b 0b3e b9be 2e3d
000002c0: 50e6 16bc f4d8 93bd dc1c 4dbd 0350 263e
000002d0: 35de 22bc 9663 853d 900e a6bd c017 6cbd
000002e0: a6f0 ec3d 50f6 a5bd 02e4 77bd 5146 fdbd
000002f0: b848 dfbc 13a3 0c3e 1ac2 1d3e 0ec9 31bc
00000300: a564 eebc faaa 063d e1ff a2bd ca9e f4bd
00000310: bb2e 063e e586 3fbe 8e6e 123e f459 51be
00000320: 87e0 9dbd 59f7 e73d c6ef cc3d 7302 05bc
00000330: 7047 34bd 4b2f 13be 8e96 5abc d586 32bd
00000340: f728 053e 0f89 c8bd b5f6 343e 36fe ca3d
00000350: 1f36 ba3d e693 fdbc 0b82 02be 411c 9d3d
00000360: 7609 18be 6ec3 0fbe 963c be3d 5363 453e
00000370: cd5c 19bd b535 7d3d 7ed3 3f3b 2977 623d
00000380: abe5 ee3c d054 9e3c aad5 ba3c d49c 4c3e
00000390: e2d4 e93d 6b31 04be 476d 053e 400a da3c
000003a0: 92bb 1dbe 8858 863d 02e5 a5bd 72ff c9bd
000003b0: a514 32bd 33e2 01be 1a91 24be 4c33 093e
000003c0: 1716 aebd 722a 2b3e daba b8bd b155 263e
000003d0: 4e3d ea3a dc52 25be f71b b73d d7dd 8ebd
000003e0: 97b4 02bc 3e5d ec3d 3755 27be c79a fabd
000003f0: 3e70 0a3d b09b 293c 9869 c23d 5bc8 eebd

lstm.bias_ih_l0 f4 [128]
0.07178351 -0.08305207 -0.09002489 -0.1507431 0.038965996 -0.04376229 0.1665062 0.16500464
-0.1192882 0.1952051 -0.008790566 0.09784736 0.1235516 0.029027687 0.064630166 -0.04974742
0.0872318 -0.0857807 -0.10092909 -0.023566574 0.09035224 0.059549212 -0.01398184 0.018196488
0.14936265 -0.022443766 0.09501043 -0.07339886 0.22355473 0.09759997 -0.10157169 -0.08741367
-0.057240777 -0.04573272 0.11565888 -0.14557543 0.031174928 -0.12342703 -0.06790798 -0.08195566
-0.11782528 0.038826495 -0.12125375 0.1530982 -0.07290387 0.09997629 -0.086522646 -0.017374521
-0.0131014455 0.016313016 -0.0071142474 0.029336017 -0.0017267109 -0.10179052 0.2103296 0.16453156
-0.15033403 -0.054573536 -0.020895258 0.121357545 0.08097781 0.121066354 -0.01842378 0.0063368957
-0.017458953 -0.03768243 0.13594186 0.014093805 -0.007584203 -0.014570415 -0.15471932 0.021773472
-0.16565138 0.0630861 0.029542482 0.0014910315 -0.07383472 0.11723688 0.13584366 -0.018147059
-0.013775446 -0.13304049 -0.038997956 0.12272586 0.045198157 0.15541364 -0.034184117 -0.02174508
0.073679015 -0.16033992 -0.05130987 -0.077276394 -0.12034336 -0.0833656 0.040291525 -0.06933007
0.0908235 0.15393704 -0.04682009 -0.11287635 0.08017466 -0.065814584 0.025742512 0.1453611
0.13602225 0.019219596 -0.009932125 0.1633799 0.14492832 -0.12207941 -0.026107583 0.12260514
-0.09282795 -0.0034815432 0.12773499 -0.12529385 0.21081613 -0.051048856 0.070926 0.0875553
0.18166803 -0.054716263 -0.0729455 0.1778232 0.14001004 0.2113214 -0.07003582 -0.14209239
00000000: 3c03 933d 3417 aabd f85e b8bd 665c 1abe
00000010: cf9a 1f3d 1640 33bd 9a80 2a3e faf6 283e
00000020: 5f4d f4bd d9e3 473e 4e06 10bc 3264 c83d
00000030: 9f08 fd3d 79cb ed3c d25c 843d f3c3 4bbd
00000040: 96a6 b23d cbad afbd e9b3 cebd b00e c1bc
00000050: 980a b93d e0e9 733d 1614 65bc cd10 953c
00000060: 86f2 183e fddb b7bc d494 c23d 2452 96bd
00000070: 88eb 643e 7ee2 c73d d104 d0bd f005 b3bd
00000080: 4e75 6abd 3c52 3bbd 90de ec3d ba11 15be
00000090: 9062 ff3c 50c7 fcbd 5713 8bbd 5ed8 a7bd
000000a0: 614e f1bd 8808 1f3d e353 f8bd c6c5 1c3e
000000b0: a04e 95bd 5ec0 cc3d c932 b1bd 0355 8ebc
000000c0: 72a7 56bc e0a2 853c a21e e9bb 1652 f03c
000000d0: ce52 e2ba 8c77 d0bd a560 573e f67a 283e
000000e0: 2af1 19be 8088 5fbd 882c abbc 4e8a f83d
000000f0: b2d7 a53d a3f1 f73d 78ed 96bc bca5 cf3b
00000100: 1406 8fbc e458 1abd 5834 0b3e b4e9 663c
00000110: e884 f8bb c0b8 6ebc be6e 1ebe 485e b23c
00000120: 84a0 29be 4933 813d 1303 f23c b76e c33a
00000130: a836 97bd e419 f03d 9a1a 0b3e 24a9 94bc
00000140: 69b2 61bc c43b 08be 52bc 1fbd b257 fb3d
00000150: b421 393d c124 1f3e a504 0cbd bd22 b2bc
00000160: 06e5 963d 2630 24be 4c2a 52bd 1643 9ebd
00000170: 9476 f6bd 95bb aabd ba08 253d ecfc 8dbd
00000180: ac01 ba3d aca1 1d3e 6cc6 3fbd b72b e7bd
00000190: 9d32 a43d ccc9 86bd f6e1 d23c 8ad9 143e
000001a0: 6b49 0b3e 6a72 9d3c 5aba 22bc 0f4d 273e
000001b0: 1768 143e c504 fabd 92df d5bc 6718 fb3d
000001c0: 951c bebd 9a2a 64bb f6cc 023e 084d 00be
000001d0: 2fe0 573e 9b18 51bd a741 913d 3150 b33d
000001e0: 2f07 3a3e 291e 60bd 7364 95bd 4917 363e
000001f0: cb5e 0f3e a364 583e f16e 8fbd ab80 11be

lstm.bias_hh_l0 f4 [128]
0.07237247 -0.112985335 0.152084 -0.1814815 -0.031757563 0.037805222 0.113070555 0.07432392
-0.08733202 -0.0650294 0.13591437 -0.04866698 0.030425536 0.1412494 -0.010755722 0.042436842
-0.093887575 -0.034989305 -0.08429875 -0.11991897 0.08006057 0.015999034 -0.04398538 0.012458277
0.07621051 0.08463181 0.05882335 -0.058382455 -0.059756547 0.2030301 0.12667231 -0.0689918
-0.05343104 -0.1526054 0.013455082 0.09039262 -0.15101746 0.030457856 -0.03768884 0.043286417
-0.117884405 0.15008202 0.050264765 0.05729033 0.06746661 -0.077759825 -0.17382841 -0.017082397
-0.027999638 -0.046140045 0.0006212365 -0.15782931 0.17978309 0.039722756 -0.064389296 -0.011725367
-0.11408247 0.052943073 -0.09587299 0.09438808 -0.09702483 -0.13175151 0.16206793 -0.15958035
-0.09339455 0.011222776 0.07212987 -0.20981662 0.07809441 -0.0928968 -0.19138627 -0.083531864
0.009332356 -0.14944544 -0.016860614 -0.17172006 -0.055415545 -0.08513062 0.06765652 0.025445743
-0.015614102 -0.11904295 0.11289115 0.0709039 0.05101651 -0.07699569 -0.06886358 -0.060689606
-0.076289244 0.090487584 0.06853509 0.096042745 0.14527394 -0.062514074 0.1053571 -0.19209912
-0.015861284 0.001176054 0.1559746 0.037121747 -0.030434307 -0.15464173 0.102741264 0.034573447
0.10972114 0.024020752 -0.09328459 0.18367663 0.15350641 -0.090937525 -0.10405817 -0.09138099
0.10102867 0.023573123 0.12090557 0.18062264 0.020492872 0.102582954 0.02406397 0.003457109
-0.017086726 0.04121827 -0.115699954 -0.080284975 0.18621111 0.043645397 -0.1256052 0.025796294
00000000: 0438 943d db64 e7bd e8bb 1b3e 49d6 39be
00000010: 3814 02bd a6d9 1a3d 8991 e73d 2437 983d
00000020: 21db b2bd 222e 85bd 232d 0b3e 0757 47bd
00000030: f93e f93c afa3 103e c538 30bc 41d2 2d3d
00000040: 2148 c0bd f250 0fbd d3a4 acbd 1498 f5bd
00000050: ccf6 a33d 6810 833c 042a 34bd cd1d 4c3c
00000060: 4214 9c3d 7153 ad3d c1f0 703d 7122 6fbd
00000070: 48c3 74bd 1fe7 4f3e 63b6 013e 934b 8dbd
00000080: 82da 5abd 9744 1cbe b472 5c3c c41f b93d
00000090: 52a4 1abe c182 f93c 9d5f 1abd 194d 313d
000000a0: 616d f1bd 1aaf 193e 6de2 4d3d 44a9 6a3d
000000b0: ef2b 8a3d 8b40 9fbd 1300 32be 62f0 8bbc
000000c0: 7f5f e5bc 58fd 3cbd 7ada 223a 029e 21be
000000d0: 0f19 383e 54b4 223d 89de 83bd c11b 40bc
000000e0: 12a4 e9bd d6da 583d 0f59 c4bd 8a4e c13d
000000f0: f4b4 c6bd dee9 06be 23f5 253e 0869 23be
00000100: a445 bfbd bcdf 373c d3b8 933d 2bda 56be
00000110: f6ef 9f3d ad40 bebd c3fa 43be c112 abbd
00000120: bde6 183c 3a08 19be 451f 8abc 62d7 2fbe
00000130: 69fb 62bd f658 aebd 808f 8a3d 9773 d03c
00000140: 4ad2 7fbc cacc f3bd 7a33 e73d 1036 913d
00000150: b0f6 503d ebaf 9dbd 5908 8dbd aa95 78bd
00000160: 893d 9cbd 8e51 b93d 205c 8c3d 0fb2 c43d
00000170: b1c2 143e 6107 80bd 77c5 d73d a2b5 44be
00000180: 86ef 81bc d325 9a3a ceb7 1f3e f90c 183d
00000190: 5e51 f9bc 675a 1ebe 036a d23d e39c 0d3d
000001a0: 7ab5 e03d 2bc7 c43c fe0b bfbd ba15 3c3e
000001b0: c930 1d3e 743d babd 731c d5bd f525 bbbd
000001c0: 1fe8 ce3d 6c1c c13c 579d f73d 24f5 383e
000001d0: abe0 a73c 0317 d23d ce21 c53c aa90 623b
000001e0: 76f9 8bbc 7dd4 283d 19f4 ecbd 736c a4bd
000001f0: 20ae 3e3e 84c5 323d a69e 00be c052 d33c

fc1.weight f4 [16, 32]
0.039603088 -0.17874302 -0.1204892 -0.038957376 0.1748646 -0.097580254 0.12904076 0.054755587
0.09974377 0.048270036 0.1416928 -0.19644153 -0.009687951 0.07647598 0.009503441 0.1358725
-0.07686515 0.063398436 -0.13376045 0.18030702 0.08994629 -0.119885795 0.03810294 0.087862484
-0.20856781 0.10756326 0.06511297 -0.050714716 0.041374642 0.12139142 0.12759836 0.17222673
0.03982697 -0.12128516 0.21701013 0.05762831 -0.01225343 0.06028321 -0.124446794 0.05923542
-0.10445534 -0.16506754 -0.061854277 -0.121268876 -0.10357599 0.12869503 0.03047473 0.0018016854
-0.007188404 0.09128369 -0.11121624 -0.101946235 0.22958973 0.033703327 0.07491242 0.03991318
-0.14777511 0.0016866483 0.003240003 0.055548526 -0.016235217 0.18516244 0.1333368 0.037590187
0.08544206 0.030214943 0.114524886 0.15862612 -0.015701104 -0.11847121 -0.22808671 -0.1273962
-0.09748371 -0.21020623 -0.10460438 -0.16385181 0.01806095 0.012087855 0.081452794 -0.15302111
-0.18336633 -0.0027825912 -0.110122204 0.106673114 0.015418879 -0.12666656 -0.20819294 0.032892518
-0.14825717 0.015943106 -0.10254488 -0.08292234 -0.04794866 0.16214557 -0.10630194 -0.053160116
-0.12032651 -0.17266832 0.040541768 -0.010039702 0.040757924 0.085583284 0.0060128123 0.018661276
-0.11102569 -0.020320296 -0.07184208 -0.1230346 0.036333725 0.038494587 0.12186585 0.0032926798
0.08092661 0.12426768 0.08432774 -0.080537885 -0.09951621 -0.13193755 0.015362948 -0.095905006
-0.16405998 -0.11811742 0.1300642 0.009962246 -0.14591433 0.013224438 -0.09837875 0.032445803
0.076778665 -0.13383226 -0.019824907 0.15232684 -0.0070938617 0.10939254 0.100798115 0.05080217
-0.022411078 0.065843105 0.048456207 -0.14331728 -0.026706979 -0.11100274 0.17213257 -0.07188891
-0.031845376 0.09136371 0.13182332 -0.03368956 0.036349744 -0.112683326 0.032064423 0.028713137
0.04447736 -0.10904178 0.10374151 0.094010785 0.05903907 0.075393215 -0.1425159 0.09305899
0.015487654 0.16403681 -0.09247229 -0.0450345 0.10248371 -0.14342165 0.14584424 0.22125725
-0.042739052 0.0072284727 0.119281135 0.18165173 0.078609735 0.11874691 -0.1055925 0.082060136
0.0452857 -0.21221562 -0.09586585 -0.0011775478 0.0045701037 0.002927671 -0.045781456 0.07406546
-0.038593296 0.123890154 -0.051664226 -0.100310035 -0.1722974 -0.11723971 0.06769491 0.09267139
-0.07705121 -0.0016658537 -0.092357725 -0.014675396 -0.026376966 0.1486083 0.19516803 -0.11939221
-0.16860569 0.04200017 -0.036079682 -0.011305263 0.1664428 0.05667206 -0.1364578 -0.040040996
0.08783676 -0.060851876 -0.0470584 0.13242638 0.0807372 0.13460699 0.17482924 0.19403926
0.13331632 0.12717052 -0.037394673 0.113828115 -0.21395624 0.017385874 -0.17500089 0.07777003
-0.14564379 -0.046239078 0.03800139 0.11811195 0.058634713 -0.13730295 0.1447515 -0.14358383
-0.17326753 -0.114792146 0.077152446 -0.16257778 -0.08166565 -0.12886648 0.12690423 -0.048322603
0.047597483 0.02370432 -0.16351566 -0.094010144 -0.07120693 -0.13327283 -0.03875719 0.12157746
-0.10900827 -0.08803402 0.022462755 0.07962884 0.07211144 -0.012640595 0.09956132 -0.090916716
00000000: d936 223d 6908 37be 0bc3 f6bd c591 1fbd
00000010: b50f 333e 28d8 c7bd 4323 043e 6547 603d
00000020: 7646 cc3d cdb6 453d eb17 113e f827 49be
00000030: 36ba 1ebc 709f 9c3d 52b4 1b3c 2922 0b3e
00000040: 7a6b 9dbd 0ad7 813d 80f8 08be 67a2 383e
00000050: c335 b83d af86 f5bd d411 1c3d 3ff1 b33d
00000060: cd92 55be 204a dc3d f359 853d 3cba 4fbd
00000070: 7578 293d 119c f83d 25a9 023e 345c 303e
00000080: 9b21 233d 5b64 f8bd e737 5e3e aa0b 6c3d
00000090: 9cc2 48bc 87eb 763d f6dd febd d7a0 723d
000000a0: aeec d5bd 7707 29be e95a 7dbd d15b f8bd
000000b0: a61f d4bd a1c8 033e 24a6 f93c 8826 ec3a
000000c0: b48c ebbb f1f2 ba3d 57c5 e3bd 30c9 d0bd
000000d0: 9219 6b3e 800c 0a3d af6b 993d 017c 233d
000000e0: 5c52 17be 8712 dd3a 3b56 543b da86 633d
000000f0: b8ff 84bc 399b 3d3e 7189 083e 2bf8 193d
00000100: 3ffc ae3d 5485 f73c 068c ea3d e36e 223e
00000110: 9a9f 80bc 09a1 f2bd 908f 69be 2674 02be
00000120: 8aa5 c7bd 4d40 57be d23a d6bd c5c8 27be
00000130: 8ff4 933c 230c 463c b9d0 a63d 91b1 1cbe
00000140: 62c4 3bbe 225c 36bb c087 e1bd 6f77 da3d
00000150: 779f 7c3c e1b4 01be 8830 55be 4eba 063d
00000160: bad0 17be 1e9b 823c 0d03 d2bd 30d3 a9bd
00000170: d065 44bd 7d09 263e d5b4 d9bd 6cbe 59bd
00000180: bf6d f6bd f7cf 30be 200f 263d 907d 24bc
00000190: c8f1 263d 4a46 af3d 2007 c53b 88df 983c
000001a0: 7061 e3bd c076 a6bc f121 93bd 90f9 fbbd
000001b0: acd2 143d 80ac 1d3d ce94 f93d 00ca 573b
000001c0: dabc a53d 0e80 fe3d 06b4 ac3d 0cf1 a4bd
000001d0: 28cf cbbd a31a 07be e0b4 7b3c d869 c4bd
000001e0: 57ff 27be 8ce7 f1bd 8d2f 053e b038 233c
000001f0: 916a 15be 50ab 583c cc7a c9bd e4e5 043d
00000200: 223e 9d3d 530b 09be d867 a2bc 91fb 1b3e
00000210: a073 e8bb 3209 e03d 3e6f ce3d f015 503d
00000220: 7097 b7bc c0d8 863d 047a 463d c4c1 12be
00000230: 98c8 dabc 6855 e3bd 8543 303e 7e3a 93bd
00000240: 4c70 02bd e61c bb3d b1fc 063e 10fe 09bd
00000250: 78e3 143d 84c6 e6bd fc55 033d d037 eb3c
00000260: e42d 363d 4c51 dfbd 6e76 d43d ba88 c03d
00000270: f4d2 713d c267 9a3d b0ef 11be b695 be3d
00000280: eebf 7d3c 44f9 273e 1d62 bdbd 1976 38bd
00000290: fbe2 d13d 20dd 12be 3158 153e 4391 623e
000002a0: 250f 2fbd d3dc ec3b ab49 f43d e902 3a3e
000002b0: 24fe a03d 9431 f33d e140 d8bd 250f a83d
000002c0: 807d 393d 0d4f 59be 5155 c4bd f357 9aba
000002d0: cfc0 953b 2bde 3f3b 5685 3bbd a2af 973d
000002e0: 0114 1ebd 1fba fd3d de9d 53bd 596f cdbd
000002f0: bb6e 30be 601b f0bd a1a3 8a3d 7fca bd3d
00000300: 06cd 9dbd c658 daba 0c26 bdbd 1271 70bc
00000310: 8214 d8bc c62c 183e 21da 473e e783 f4bd
00000320: f8a6 2cbe 5f08 2c3d 4ac8 13bd b639 39bc
00000330: fb6f 2a3e f620 683d 98bb 0bbe 0702 24bd
00000340: c2e3 b33d d13f 79bd 4fc0 40bd c89a 073e
00000350: 8c59 a53d 6ad6 093e 7006 333e 3ab2 463e
00000360: 1384 083e fd38 023e 282b 19bd b71e e93d
00000370: 5817 5bbe d26c 8e3c 6f33 33be e545 9f3d
00000380: a523 15be 3065 3dbd 58a7 1b3d aee4 f13d
00000390: f42a 703d 2599 0cbe bd39 143e a407 13be
000003a0: 0b6d 31be 2518 ebbd 1a02 9e3d ca7a 26be
000003b0: 5240 a7bd 93f5 03be 2ff3 013e eced 45bd
000003c0: 94f5 423d 902f c23c a670 27be 6488 c0bd
000003d0: f0d4 91bd ac78 08be dcbf 1ebd 9afd f83d
000003e0: ba3f dfbd 2e4b b4bd d003 b83c 7214 a33d
000003f0: 2aaf 933d 801a 4fbc cee6 cb3d 8b32 babd

fc1.bias f4 [16]
0.1771897 -0.11994173 -0.017061029 0.11587478 0.04249896 -0.077595145 0.05304339 -0.17619015
-0.0952301 0.109138265 -0.0061467392 0.11495894 -0.040581737 0.14351739 -0.040259067 -0.016904175
00000000: 3771 353e 02a4 f5bd 92c3 8bbc c24f ed3d
00000010: 6413 2e3d 34ea 9ebd 0744 593d 316b 34be
00000020: 0008 c3bd e283 df3d 966a c9bb 986f eb3d
00000030: 0939 26bd 39f6 123e b1e6 24bd a07a 8abc

out.weight f4 [1, 16]
0.03408462 0.09985399 0.061369825 0.06841946 -0.16629249 -0.22041704 -0.109057374 0.22642267
0.09135512 0.0011351903 -0.12252512 -0.19607793 -0.0061334996 0.30232796 -0.04349458 -0.022159815
00000000: 519c 0b3d 4080 cc3d ed5e 7b3d 801f 8c3d
00000010: 9448 2abe 01b5 61be 7959 dfbd 58db 673e
00000020: 6518 bb3d aaca 943a 73ee fabd a7c8 48be
00000030: 86fb c8bb bbca 9a3e 5f27 32bd 8088 b5bc
