artifacts/territory/lstm/273__1085__0/model.pt (torch, 23217 bytes, 7 tensors)

lstm.weight_ih_l0 f4 [128, 1]
00000000: 8e49 813d 8109 04be df58 4b3c f6ea c7bd
00000010: 5755 213e 52d9 23bd 8c5b 233e 0b95 8bbc
00000020: 8700 093e 814a 393e d58b d53d 018b 133e
00000030: 4c5f 11bd 59b0 eabd d233 c93d 0f4e 6a3d
00000040: 2198 0fbe 67bf 2e3e 12d1 203e 9eb2 9abd
00000050: 6c97 9fbd 7c79 673a 764a 37bd 47a7 d9bc
00000060: 004e 29be 3d88 d5bd bdd5 af3c 3639 86bd
00000070: f97d ca3d 7e17 103e debe db3b fae3 10be
00000080: ad88 ef3d 1ccd 5c3d be1c d43c fdb2 c33c
00000090: aee0 103c fa83 f63d d0fc 083e abf9 b43d
000000a0: 592c b7bd 17b3 6b3d e8ed b73d 8fef 673d
000000b0: f905 17be 1257 443e 9fd9 e6bd 45c7 6bbd
000000c0: 47a7 d8bb b74b 3b3c 5629 f23d c806 153e
000000d0: 48f9 e93d 0f20 2a3e 6f26 82bc 168c cfbd
000000e0: ef32 543c 057b dc3c 3c75 d73d 4caa debc
000000f0: a1ab f03c 16a4 c43d e905 9f3c 0e1e abbc
00000100: be59 0a3e 7bf4 ffbd 562c bebd 21d1 f33d
00000110: e95d 363c 86aa f33d 37a0 42bc a33b cbbd
00000120: 2255 943d 5964 1b3e 46d4 ecbd 50ea 0bbc
00000130: 3822 dd3d 4d75 263e 4b8f 8a3c bfce cebc
00000140: f3a7 35bd 1de7 bfbd cdca 30bc 5734 07bd
00000150: b94a 9cba 44e1 e33d 0de7 36bd dced 7cbb
00000160: 4757 80bc b1f7 003e 75a8 7cbc 70eb d83d
00000170: 6e69 17bc 7cc1 fbbc 1768 183c 70c2 a33d
00000180: 8e2f 043e 25d2 203e bfd4 8ebd 1926 ecbc
00000190: d0db cf3d d7f7 a8bd 8987 7dbd f270 42bd
000001a0: 6137 cebd c9fb 21be 9c54 d4bd 96d8 21bc
000001b0: 876f 2ebe 27ea 013e c88e ef3d cb3e 903c
000001c0: 6602 c13d 44f5 a93d 8756 1c3e 6935 8cbd
000001d0: 5c5f 1d3d 3ffc c13d 14b9 f93d ef88 10be
000001e0: 7438 26be f4ae f4bd a7c7 21be d105 693d
000001f0: f3c1 4a3c aa70 db3d d99f e83d 69d9 f53c
0.063128576 -0.1289425 0.012411325 -0.09761612 0.15755211 -0.040002175 0.15952891 -0.017038843
0.13379107 0.18094827 0.104270615 0.14408495 -0.035491273 -0.11459417 0.09824337 0.05720335
-0.14022876 0.17065202 0.15704754 -0.075536 -0.07792553 0.0008830053 -0.044748746 -0.026569022
-0.16533661 -0.10426376 0.021464223 -0.06553881 0.098873086 0.14071462 0.0067061028 -0.14149466
0.11695991 0.053906545 0.025892612 0.02388906 0.00884263 0.12036891 0.1337769 0.08836683
-0.089440055 0.05754384 0.08980924 0.056624945 -0.14748372 0.1917384 -0.11271977 -0.057563085
-0.006611738 0.011431626 0.118242905 0.14553368 0.114245 0.16613792 -0.015887467 -0.10134141
0.012951597 0.026914129 0.105204076 -0.027180813 0.029378714 0.096016094 0.019411998 -0.020888355
0.13510796 -0.12497803 -0.092858 0.119051225 0.011130788 0.11897759 -0.0118790185 -0.09923484
0.072428 0.15174998 -0.115639254 -0.008539751 0.10797542 0.16255684 0.01691403 -0.025245069
-0.044349622 -0.09370253 -0.010790539 -0.0330089 -0.0011924125 0.111269504 -0.04465394 -0.0038593924
-0.015666617 0.12594487 -0.015421023 0.10591781 -0.009241445 -0.030731909 0.009302161 0.079960704
0.12908766 0.15705164 -0.06974172 -0.02882676 0.10149348 -0.08250397 -0.061896835 -0.047470994
-0.100691564 -0.15818705 -0.103677005 -0.009878298 -0.17034732 0.12686978 0.11697155 0.017608067
0.094242856 0.08298734 0.15267383 -0.06846125 0.03842102 0.0947194 0.12193504 -0.14114736
-0.16232473 -0.11947432 -0.15798818 0.056890313 0.012375343 0.10714848 0.113586135 0.030010896

lstm.weight_hh_l0 f4 [128, 32]
00000000: 76df 8e3d e17e ba3d 29c5 14be 0e21 1fbe
00000010: 4a5a be3d 1e50 0dbe fe84 97bd 67c6 a53c
00000020: ddd3 b23d fa2f fe3a a68f a63d 3bd2 db3d
00000030: f919 e7bc b550 dfbd 300e 96bc 5726 e0bc
00000040: 7d4b 05be 344c 0b3e b5a3 ccbd 9f73 22bd
00000050: 2198 a13c 40f4 e63c 7cb1 c6bc 5eda 1bbe
00000060: e808 183e 56e7 c8bd 2a68 213e d672 253e
00000070: aa6c 17be 8ab7 463e 42bd 1e3b bd3e 8d3c
00000080: c936 5ebc d357 0bbe e91d 2cbe 0b14 123d
00000090: 806b 32bd 39eb f33d 3c05 dc3d 4ff6 38be
000000a0: 7304 d83d 8f84 483e f430 983c f937 2d3d
000000b0: 8da1 6c3d 7b4b 0cbe 5169 b1bd b977 b23d
000000c0: 1065 24be 8055 d83b 146a 39be 0e00 683d
000000d0: 7ae8 513d ac40 07be 541e 44bd 23c0 f3bc
000000e0: 0484 05be a556 c1bd 47e0 3bbb bb7d a63d
000000f0: 099c 34be 3666 ab3d 4f0f 1c3c fe49 3d3e
00000100: f694 a8bd f5da f9bd 630f 3ebe dd78 bc3d
00000110: 4eec 133e f96e fc3d 7c21 943d b89a 053e
00000120: 16ba a53d 07e8 383e 1713 93bd b01f 233e
00000130: c4fb 773c 306a 243d d1c9 153e 82ff f43d
00000140: 0678 9a3c d6b6 eebc bdfa 193e 3e79 aabd
00000150: 982e 933c 9072 e1bd 9546 8a3d e595 efbd
00000160: 9bd4 b6bd 9664 2cbe 0efa 0bbe 02c2 0d3c
00000170: 9e4e 5a3d 6e99 203d 5882 073e eb9a 1ebe
00000180: 88b4 1b3e 0d06 06be 97f0 1b3e 53e8 be3d
00000190: 79e8 c13b 4d2e 3f3d 4bad 80bd 1435 313e
000001a0: 80e8 f63c 384d 873d 148f 223e ce61 383d
000001b0: 424f d33d 4119 2b3e 8a37 60bd 43be a63d
000001c0: 415d a6bd 1135 eebd f475 a9bd 8075 78bc
000001d0: 8fe2 fcbd 1c53 ffbd bc1b 1b3e ab05 c53d
000001e0: d2a2 b6bd c979 3cbe 7cf5 d7bd 3294 4cbc
000001f0: 4e78 ffbc ec44 3cbc 1228 70bd d714 14be
00000200: 3b67 86bd 1dba fa3d 1c40 fd3d 8a30 783b
00000210: 98b7 0bbe 9f81 f4bd 98a7 ffbd e8d2 fb3d
00000220: dcb9 1a3e 2dd4 b73d 6e7d f23c 09ae 033d
00000230: a203 113c 9821 ccbd 476c 0ebe 6d3f 1ebe
00000240: c57e 123d bfb0 acbd 5c6a 043d 9eac 313e
00000250: ce13 753c caa6 bdbd 3088 9ebd 051a d6bd
00000260: 8d22 5bbd 747d 3b3d 17ea d8bd 3b0e c9bc
00000270: c48b aebc dfe4 a7bd aa74 2c3e 441b f1bd
00000280: b805 843d bb2e b9ba 05d1 e1bc a9b8 31be
00000290: 06f2 06be 3682 c9bd 8b63 17be ddd5 a6bd
000002a0: d98e 1dbe e87f 543d 5ee4 803d d60f 06be
000002b0: 09af 3c3c f7ff f4ba 2c96 efbd 1d66 153e
000002c0: c921 1bbe e89f 813c 7f80 e3bc 08de d43d
000002d0: f3d8 cf3d 6919 27be f34d 313e 64b1 163e
000002e0: 2d89 ee3b 2946 0abd 4d41 1abd 3c83 2e3e
000002f0: 1928 cabd fcba 2f3e 6500 e7bd fbc1 afbd
00000300: e8e9 03be 86f5 fabd bdde 0cbe a641 a53d
00000310: 7ec6 25be d67d 05be 439c 25be 56e4 9b3d
00000320: 7924 4f3b d900 fa3d 073d 3e3d ad79 5bbd
00000330: ed34 d5bd 7efd 0f3e 81b7 06be 3f7d c6bc
00000340: e742 d43d 878f 79bb 7c0b 68bb aa5c cebd
00000350: 45a8 0bbe aac7 6abd e69f 26be 1cb1 25bd
00000360: f67b bc3d 647a e4bd a974 933d 0d5d 093e
00000370: 8cc4 32bd 7326 adbd 4336 0c3e f160 42bc
00000380: d026 adbd b0b9 af3c 028f a7bc 1fe6 203e
00000390: 941d 24bd 0986 203a b850 d73d 72e5 fa3d
000003a0: c892 9bbd 1b1d 93bd 061f cbbd 5313 883d
000003b0: 7cc0 c13b a36e 1a3e 9232 a33d 7251 2d3e
000003c0: 47bc 1f3e 1cdb 413e 938c 463e 2d7f 763d
000003d0: 9f18 09be 2d88 013e d360 f73d 1ba9 b93d
000003e0: 89fd 183b dfd6 bd3d e4db 8e3d d42e ad3d
000003f0: 78bc 073e 6c23 02be 1f09 833d 6a66 1bbe
0.069762155 0.091062315 -0.14528336 -0.15539953 0.09294565 -0.13800094 -0.07398413 0.020236207
0.08731816 0.001939296 0.081328675 0.10733458 -0.028210627 -0.109040655 -0.018317312 -0.027362032
-0.13017078 0.13603288 -0.09992162 -0.039661046 0.019725861 0.02819264 -0.024254553 -0.15220019
0.14847147 -0.09809749 0.15762392 0.16157088 -0.14787546 0.19405952 0.0024221693 0.01724183
-0.0135628665 -0.13607721 -0.16808285 0.035663646 -0.04355955 0.119100995 0.10743186 -0.1806271
0.105477236 0.19581817 0.01857803 0.042289708 0.057771254 -0.13700669 -0.08662666 0.087142415
-0.16054177 0.0066019893 -0.18106872 0.056640677 0.051247098 -0.13208264 -0.047880486 -0.029754704
-0.13038641 -0.09440354 -0.0028667615 0.0812945 -0.17637648 0.083691046 0.009525134 0.18485257
-0.08231537 -0.12199966 -0.18560557 0.0920274 0.14445612 0.12325854 0.07232949 0.13047302
0.08092134 0.18057261 -0.071813755 0.15930057 0.015135709 0.04014033 0.14627768 0.11962797
0.01885606 -0.029139917 0.15037055 -0.08323906 0.017966554 -0.11008179 0.06751744 -0.11698512
-0.0892727 -0.16835245 -0.13669607 0.008652212 0.05329763 0.039208822 0.13233316 -0.15488784
0.15205586 -0.13088246 0.15228496 0.09321656 0.0059176055 0.046675015 -0.06283053 0.17305404
0.030140162 0.06606525 0.15874892 0.04501515 0.103178516 0.16708852 -0.054740466 0.08141758
-0.081232555 -0.11631215 -0.08274451 -0.015164733 -0.123479 -0.12467024 0.15147299 0.09620222
-0.08917774 -0.18405832 -0.10544869 -0.012486504 -0.031185295 -0.011491042 -0.058631964 -0.14461075
-0.065626584 0.122425295 0.123657435 0.0037870728 -0.13644254 -0.11938786 -0.12483138 0.122960865
0.15109962 0.08976016 0.029600825 0.032148395 0.008850964 -0.09967345 -0.13908492 -0.15453883
0.035765428 -0.08432149 0.032327995 0.17351004 0.014958335 -0.09260328 -0.077408195 -0.104541816
-0.053499747 0.04577394 -0.10591524 -0.024542918 -0.02130688 -0.081979506 0.16841379 -0.11772779
0.06446403 -0.0014128307 -0.027565489 -0.17355599 -0.13178262 -0.09839289 -0.14784066 -0.0814626
-0.15386523 0.051879793 0.062935576 -0.13091978 0.011516341 -0.0018692006 -0.11698565 0.14589734
-0.15149607 0.01582332 -0.027771233 0.103939116 0.10148802 -0.16318287 0.17314892 0.14716107
0.007279536 -0.033758316 -0.037659932 0.1704225 -0.09870929 0.17161173 -0.11279372 -0.08581921
-0.12882197 -0.12253861 -0.13756843 0.08069162 -0.16189 -0.13036284 -0.1617289 0.07611911
0.0031607433 0.12207193 0.04644492 -0.053582836 -0.104104854 0.14061543 -0.13155939 -0.024229644
0.10364323 -0.0038079934 -0.0035407236 -0.10076268 -0.13638408 -0.05731932 -0.16271934 -0.040452108
0.09203331 -0.11156157 0.071999855 0.13414402 -0.043644473 -0.08454599 0.13692574 -0.011863933
-0.084546685 0.021450847 -0.020453934 0.15712784 -0.04006727 0.00061234884 0.10513443 0.122507945
-0.07596356 -0.07183286 -0.099180266 0.06644311 0.0059128385 0.15081267 0.0796863 0.169256
0.15599166 0.1893124 0.19389562 0.060179878 -0.13388298 0.12649603 0.12079015 0.090654574
0.0023344478 0.09269499 0.069755346 0.084561974 0.13255489 -0.12708825 0.06398224 -0.15175787

lstm.bias_ih_l0 f4 [128]
00000000: 20e0 c73d b1aa 343d 1388 45bd 5f91 28bd
00000010: 1687 e0bd 42c5 0dbe a0b8 1fbe 54c5 9bbd
00000020: 2581 a43d cccc e9bd 9fcb 0a3e c622 d3bd
00000030: 04cd ffbc d4e0 263e f45d 0fbe 0003 42be
00000040: 61db 90bd c039 4cbd 579a d23c a719 18be
00000050: ce29 b1bc 3844 2d3d efcd 8ebd c316 0abc
00000060: 1a6b 003e a9a6 2d3e 5222 90bc 9b16 bcbd
00000070: 7eb8 0a3e 2fa6 5aba 0e19 a6bc ee14 033e
00000080: 5030 4d3d 98ad 00be f39a 973d ac52 69bc
00000090: a1ec cb3d 2bf4 11be 1303 04be 9eb0 773b
000000a0: 5a95 9ebd 8ea4 e13d 0969 c4bd 1afc 27bc
000000b0: 6466 22be dc60 233e 8d4a 1fbd a229 2dbe
000000c0: b2da 59bb 0a92 543e 1a6d 373e 650d 553a
000000d0: 582f 583d 5e91 673c f941 a93d fed0 b73d
000000e0: bdd8 09be 9a45 a53d 9497 72bd acb4 4f3d
000000f0: b582 1fbd b8be 10be 1956 17be d707 193e
00000100: 7e2f bcbd 33e4 13be 148f 2dbe 7c04 1b3e
00000110: 2833 963d 97a1 c43d 62ea 15be 763a 373d
00000120: 360a c7bd 99bf 93bc 2121 1d3e 56f1 273d
00000130: 2352 26be 4783 493d 3dfe fb3d c5b2 12bc
00000140: 8627 1bbe 8982 e43d 9ce4 0d3e 4fb6 ca3d
00000150: 56fe c2bd 6545 403d ea56 8fbc 63e9 dc3d
00000160: 586c 953d ed67 28bd 0d3b c7bd 0d22 053e
00000170: 9aca 503d e74e 12bd 0644 8dbc c61e dabb
00000180: c100 713b e9ae 233e 6829 fcbd 157d 583c
00000190: 023f ae3d c352 6a3d 612a b5bd 305f ed3d
000001a0: 080c 09be 159f a5bd 5a51 05be e32b b7bd
000001b0: 2c8b 08be 4a09 82bc 2ab4 343e 1180 803d
000001c0: a7a9 a3bd ddaa 083e a620 843c 532b 2dbd
000001d0: d8a6 3e3c fc37 16be a665 16be df05 203d
000001e0: 9903 84bc 53f2 1ebe aa3e 3b3e f127 17be
000001f0: 5d00 f6bc b0c4 0a3d fa4d 763d 7c7e 6dbc
0.09759545 0.044108097 -0.048225474 -0.04115426 -0.109632656 -0.13844779 -0.15597773 -0.07605997
0.08032445 -0.11416015 0.13554238 -0.10309367 -0.031225689 0.16296703 -0.14000684 -0.18946457
-0.07073093 -0.049859762 0.02570836 -0.14853536 -0.02162638 0.042301387 -0.069728725 -0.008428278
0.12540856 0.16958107 -0.01759449 -0.09183999 0.1354694 -0.00083408033 -0.020275619 0.12800953
0.050094903 -0.12566221 0.07402601 -0.014240902 0.09957243 -0.14253299 -0.12891798 0.003779448
-0.0774333 0.110177144 -0.09590346 -0.010252977 -0.15859371 0.15954918 -0.038889457 -0.16910413
-0.0033241925 0.20758834 0.17912713 0.0008127301 0.052779526 0.014133779 0.082645364 0.08975409
-0.13461585 0.08069916 -0.059226587 0.05070941 -0.03894301 -0.14135253 -0.14778937 0.14944397
-0.09188746 -0.1444252 -0.16949111 0.1513843 0.07333976 0.09601133 -0.14640191 0.044733487
-0.097187445 -0.018035697 0.15344669 0.04100164 -0.1624227 0.04919746 0.123043515 -0.008953755
-0.15151796 0.1115771 0.13856739 0.09898054 -0.09521167 0.04694118 -0.017497499 0.107867025
0.072960556 -0.041114736 -0.0972806 0.1300127 0.050974466 -0.03571978 -0.01724435 -0.0066565005
0.003677413 0.15984692 -0.12312585 0.013213416 0.085081115 0.057207834 -0.08845974 0.11590421
-0.13383496 -0.08086983 -0.13019314 -0.089439176 -0.1333434 -0.01587357 0.17646852 0.06274427
-0.07991343 0.13346429 0.01612885 -0.042277645 0.011636458 -0.14669794 -0.14687213 0.0390681
-0.016114997 -0.15522127 0.18285623 -0.1476133 -0.03002947 0.033878982 0.060132958 -0.014495488

lstm.bias_hh_l0 f4 [128]
00000000: fbd8 0fbe 76a7 0abe d0b5 a73d b0b2 df3d
00000010: 11be 63bd 6461 39be 4c12 f93d e00e 38be
00000020: 5d7b 1d3e a823 ec3d 649d c2bd 48cd 523d
00000030: 85c2 67bd f0c5 adbd 990b eabd a193 643c
00000040: cd11 123e f25f ad3c d126 e53d f34a 9d3d
00000050: d329 ef3d 64a1 3d3d 1795 1d3d fdf7 623d
00000060: 2365 9c3d 4277 d4bd e977 3d3e 6298 aabc
00000070: 555f 01bd 8659 bdbd 461e 0ebd d132 23bc
00000080: ae86 e13d f61f 0fbe 6a89 163e b1f1 193e
00000090: 03b7 343d 1036 d13d e3cc a23d 54de 1fbe
000000a0: 8d48 e3bd 90da ae3d 2429 243e 02ba e6bd
000000b0: 2319 093e 64b8 48bd c17a 0ebe c677 b73d
000000c0: 039a 09be 5888 163e 76bc 9e3c 41eb 17bd
000000d0: 26e7 16be 0765 efbd ffc0 7fbb fa57 c93d
000000e0: 4b97 a23d e55a 023e 28ba 833d 2471 483d
000000f0: 1c78 d53d fa0c 233e db68 073d 8776 183e
00000100: 00d2 953d 71f6 563d 1fcf 43bd 9ab3 81bd
00000110: 24cb cc3d dcaf 003c a907 7c3d 3cf6 83bc
00000120: f8ec 35be 4411 313d 2c19 12bc a720 66ba
00000130: 0895 f03d b95d 0e3e d923 8bbb ce8f b1bc
00000140: 4fe4 92bd 9103 2ebe 1212 cabc db32 c93d
00000150: 8fe1 56bd 7b65 03be 1074 1cbe b398 19be
00000160: 44e7 81bd fb74 273e 694c 6a3d 6bd2 01bc
00000170: 99b8 19be 6636 ba3d 56ec 1e3c 638e 1abe
00000180: 78ca f53c f3a7 0a3e 9809 3f3e e143 2fbe
00000190: 62fc 1d3e 5317 f5bd 3897 b53d e0f1 36be
000001a0: 974f ae3d 65c0 09be 3f09 5ebd ce80 adbd
000001b0: 8afa 21be 28c4 c83d e1e3 973d a8e7 2dbc
000001c0: 1013 22bd 739c f43d 8c45 123e 25b4 3abc
000001d0: 921c 05be 79ca 353d e787 183e 3f91 d7bd
000001e0: 5f48 01bd a30a 633d 4b56 cc3d c6a7 d4bd
000001f0: 5b0c 3a3e cf5c bbbd 4d85 8fbd 612a 2c3d
-0.14047615 -0.13540444 0.08188975 0.10922754 -0.055601183 -0.18103558 0.12161693 -0.17974424
0.1537909 0.115302384 -0.09502676 0.051465303 -0.056581993 -0.08485019 -0.11427993 0.013951213
0.14264603 0.021163914 0.11189044 0.07680311 0.11677899 0.046296492 0.03847226 0.05541228
0.07636478 -0.10374309 0.18502773 -0.020824615 -0.031585056 -0.09245591 -0.03469684 -0.009960846
0.11012016 -0.13977036 0.14700857 0.15033604 0.044119846 0.1021539 0.07949235 -0.15612155
-0.11097822 0.08537781 0.16031319 -0.11265947 0.13388495 -0.049003974 -0.13914014 0.08958392
-0.13437657 0.14700449 0.019376975 -0.03708959 -0.14736614 -0.11689191 -0.0039024947 0.09831233
0.07939013 0.12729986 0.06431991 0.048936024 0.104233 0.15922919 0.033058982 0.14888965
0.07315445 0.05248112 -0.047804948 -0.063330844 0.099996835 0.007854428 0.061530743 -0.016108625
-0.17766178 0.043229356 -0.008917134 -0.0008778669 0.117471755 0.1390294 -0.0042462167 -0.021675017
-0.07172453 -0.16993548 -0.02466682 0.09824153 -0.052461203 -0.1283168 -0.1527865 -0.14999656
-0.063429385 0.16353218 0.057201777 -0.007923703 -0.15011825 0.09092407 0.009699902 -0.15093379
0.030003771 0.1354063 0.18656003 -0.17115737 0.15428308 -0.11967339 0.08866733 -0.17865705
0.08511274 -0.13452299 -0.054208037 -0.08471833 -0.1581823 0.09803039 0.07416511 -0.010614313
-0.03956896 0.11943903 0.14284343 -0.011395489 -0.1299918 0.044382546 0.14895593 -0.1052575
-0.03156316 0.055430066 0.099773966 -0.10383563 0.18168776 -0.09148561 -0.07007847 0.042032603

fc1.weight f4 [16, 32]
00000000: 3254 8f3d 48ec 13ba f3b8 1e3e 0270 623d
00000010: 9186 a6bd 29f2 903d 2b63 0abe 67ad 30be
00000020: f00e 2fbc 3d7b 18be ba7d 273e 48d9 fe3d
00000030: e869 01be f40b 12be 7a73 8cbc 0885 b63d
00000040: 7e2f bcbc 281e 793d 78c5 00be adef 213e
00000050: 926f 4d3c e6c6 e53c 2341 dfbd 12a1 ec3d
00000060: 0ea7 ae3d 0081 8f3b fc30 33bd dfb1 2b3d
00000070: 9f4c 4cba b798 093e 8fa9 25be 7101 0fbe
00000080: a69f fdbc 30ec b7bd e28e 253e e31c f4bd
00000090: d0c4 b23d d31b ed3c 8929 acba 0c0c adbc
000000a0: a5cc bc3d 36ae ae3d b169 f23c cc24 00be
000000b0: 846e f5bd 2af0 063d 9032 ecbc 9753 263e
000000c0: 69e2 9d3d 99cb 17be 7bc8 f13d c465 803d
000000d0: 56ce 9d3b 1a17 af3d 1743 8b3d 1fee 113e
000000e0: 7e81 01be c5cb 0e3e d0f1 e03c 9f10 c3bd
000000f0: 512f ad3d 82cd 073e 50fe 78bd 73e4 183e
00000100: 60ee cdbd 45c3 39bc 9749 b53d cc23 80bc
00000110: d2fa 8dbd 5dfb e5bd 5657 013c 7888 f43d
00000120: 7840 69bd 4163 33be 8958 d4bd e449 0cbe
00000130: 2d37 173e aae1 e43d fb57 053e 3b71 e63d
00000140: d64b 253c e501 7e3b 6a47 8c3d 2855 8f3d
00000150: 0a05 663c b944 33be 56bf 233e 75be 2e3e
00000160: c05d 68bb 3bf2 2abe 3e0a 93bd dcd3 0fbe
00000170: 9293 7bbd 4cf2 0fbe d8ac 44bd a0a1 85bd
00000180: 62ed 993c bb08 933d 6e97 f4bd 69a7 df3d
00000190: 1bb2 343d c354 003e 0338 d73d 82d0 393e
000001a0: 7e3d 3dbc 0c8b 29be 1a13 f2bc aaf5 103e
000001b0: a6b1 d13d fc48 a0bc 0804 003e 4c42 f3bd
000001c0: 4f1c cfbc 5b99 b73d 590b 03be 6eff e7bd
000001d0: 8c95 133e e741 42bd 7db3 153e 502f 2e3c
000001e0: 9e71 943d 0080 2dbe fcad 86bd 8ab2 3c3b
000001f0: ee26 8dbd 0071 cb3d b73c 7bbd 46cf 803d
00000200: b832 bc3c 0435 d83d 64a5 013e 2842 b2bd
00000210: 5e9a 203e 5b7e 03bc 98d6 a6bd 37df a53d
00000220: 1bcf 163e 26f8 fdbd 1a6e 033e 1c57 aebd
00000230: 65cd 07be 3b48 503e 7a59 fdbc c193 48be
00000240: 7f86 7e3d 1a74 9fbd b4ea 7c3c c31c 85bd
00000250: 527f 54bc b63b c0bc 8686 bfbd e0b9 b3bb
00000260: e333 8abd 9f26 cdbd 48f4 803c 561e 113e
00000270: cedc 1ebe 7f00 15be 6976 2e3e d1b0 313e
00000280: 9f62 013e a08e b1bd 512a cdbd de57 093e
00000290: c9cd debd 424f 2cbe e796 20be 77fc 43bd
000002a0: aeae eabd 8022 e63c e35e 1d3e f162 36bd
000002b0: 6c19 263d cb7d 723e 300a 613e 53ab 28be
000002c0: 74a4 023e a307 28be 2acd e83d 6756 34be
000002d0: 196f f5bd 5660 203e 3458 1abe 0e8c acbd
000002e0: 1073 99bc 887e be3c 8093 a33a b97e e9bd
000002f0: 37ce 51be fcbe 3bbe 0753 e33c 1ccc 49bd
00000300: c5fe 593d f516 15be 0064 4fbe f9ba f8bd
00000310: 3535 e23d 81e0 ee3c 5ebb c93d c251 fdbd
00000320: c9e8 26be cb82 22be a8fa 713d 8870 863c
00000330: 9caf 8cbd c57f 133e 9a57 613e 77ea 25be
00000340: a636 103e 0998 3abe a001 fcbd edcd 643d
00000350: 71b5 9e3d 0a9f 293d 0f98 d03c 1fce bbbd
00000360: f27d ba3d 0b7f 323e 78f8 0ebe 7bb4 4b3e
00000370: 2775 4dbe eb17 4fbe ac34 2d3e 2c72 b7bd
00000380: aacf d3bd a7b9 42bd 6c9c 29be 93fa bdbd
00000390: 1d81 67bd a0e1 e43d c0a1 c7bd 5487 a83d
000003a0: 1928 0fbd e478 adbd 87c1 1fbd 2861 143e
000003b0: f0c8 7fbc 8330 8ebd 27d9 473e 34a3 15be
000003c0: 04af 64bd 493e 09be 519d 3fbe 1063 00bc
000003d0: 2513 a93d ad9d 033e 4899 2bbd 243f 223d
000003e0: cf54 123e d8db 35bd 4188 153e 9c1b c7bd
000003f0: 3ac1 be3d 6d60 e23c 483c 4c3e f7af e0bd
0.06998481 -0.00056428136 0.1550024 0.0552826 -0.08131135 0.070774384 -0.13514392 -0.17253648
-0.010684714 -0.14890762 0.16356555 0.12443787 -0.12638056 -0.14262372 -0.017144907 0.089120924
-0.022971865 0.060819775 -0.12575328 0.15814085 0.0125388075 0.028048944 -0.10901096 0.11554159
0.08527957 0.0043793917 -0.043747887 0.041917678 -0.00077934 0.13437162 -0.16177963 -0.13965394
-0.030959915 -0.08980596 0.16167787 -0.11919572 0.08728945 0.028943932 -0.0013134937 -0.021123908
0.0921872 0.08529322 0.029591413 -0.12514037 -0.1198397 0.032943882 -0.028832704 0.16242824
0.077092 -0.1482376 0.11805817 0.0626941 0.004815857 0.08549328 0.06799906 0.14250992
-0.12647054 0.1394492 0.027459055 -0.095246546 0.084562905 0.13261989 -0.060789406 0.14930896
-0.10055232 -0.01133806 0.08851927 -0.01564207 -0.06932606 -0.11229584 0.007894358 0.11940092
-0.056946248 -0.17518331 -0.10368449 -0.13700062 0.14767142 0.111758545 0.13021843 0.11252066
0.0100888815 0.0038758453 0.06849559 0.06998664 0.014039287 -0.17506684 0.15990958 0.17064841
-0.003545627 -0.16693966 -0.07179688 -0.14045662 -0.06142003 -0.14057273 -0.0480164 -0.06524968
0.01878995 0.071793996 -0.119429454 0.10920603 0.044115167 0.12532334 0.1050873 0.18145946
-0.011550305 -0.16556948 -0.029550124 0.14156213 0.10238962 -0.019566052 0.12501538 -0.118778795
-0.025282053 0.08964797 -0.12797298 -0.11328016 0.14412516 -0.04742613 0.1461925 0.010631397
0.07248233 -0.1694336 -0.06576154 0.002879294 -0.06892191 0.099336624 -0.0613372 0.06289534
0.022973403 0.10556987 0.12660748 -0.087040246 0.15683886 -0.008025731 -0.08146399 0.080992155
0.14727442 -0.12400846 0.12834969 -0.085127085 -0.13261946 0.20340054 -0.030926455 -0.19587614
0.062139984 -0.077858165 0.015436817 -0.064996265 -0.012969809 -0.023465972 -0.0935183 -0.0054848045
-0.06748178 -0.10017132 0.015741482 0.14171728 -0.15513918 -0.1455097 0.17037357 0.17352606
0.12635277 -0.08669782 -0.10017837 0.13412425 -0.10879094 -0.1682711 -0.15682565 -0.04784819
-0.11459099 0.028092623 0.15368228 -0.04452795 0.040551588 0.23680799 0.21976542 -0.16471605
0.12758046 -0.16409163 0.11367257 -0.17611085 -0.11984081 0.15661749 -0.1507271 -0.08425151
-0.018731624 0.023253694 0.0012479872 -0.114011236 -0.20488821 -0.18334574 0.027749551 -0.04926692
0.053221483 -0.14559539 -0.2025299 -0.12145037 0.11045305 0.029159786 0.098501906 -0.1236911
-0.16299738 -0.15870206 0.059076935 0.016411081 -0.06869432 0.14404209 0.22006074 -0.16202722
0.14083347 -0.1822206 -0.123049974 0.05586045 0.07749451 0.041411437 0.025463132 -0.09170174
0.091060534 0.17431276 -0.13961971 0.19893067 -0.20064221 -0.20223968 0.16914624 -0.089573234
-0.10342343 -0.047540333 -0.16563576 -0.09276309 -0.056519616 0.11175847 -0.09747648 0.08228937
-0.03495035 -0.08470324 -0.03900292 0.14490187 -0.015611872 -0.069428466 0.19516431 -0.14613038
-0.05583097 -0.13402666 -0.18712355 -0.007836118 0.08255605 0.12853117 -0.041894227 0.039610997
0.14290164 -0.044399112 0.14602758 -0.09722063 0.09314199 0.02763387 0.1994487 -0.10971063

fc1.bias f4 [16]
00000000: 949a d73d 1df3 46ba b3be fc3d 84f8 19be
00000010: befb afbc 4539 eabd 37e0 dd3d ad9e 6a3e
00000020: dbf1 fb3d 9b27 ca3d 6b7b a53d f615 03bd
00000030: cbdd e33d 68dc d9bd 0ed3 513e e06b 063e
0.1052753 -0.0007589327 0.123410605 -0.15036207 -0.021482345 -0.114367045 0.10833781 0.22912093
0.1230199 0.098708354 0.08080181 -0.032003365 0.11126288 -0.10637742 0.20490667 0.13127089

out.weight f4 [1, 16]
00000000: 1ce2 313e c888 37be c0b3 45be 95e8 1ebd
00000010: 70d1 463e 1cfb 8e3d f5a4 803e 2ce5 bc3d
00000020: 3b9d 20be 05f8 763d 25be b3bd 9f09 74be
00000030: 98ad 3cbe 8e22 0a3e ca79 543e 5336 42be
0.1737141 -0.17923272 -0.1930685 -0.038796026 0.19415832 0.06981489 0.25125852 0.092233986
-0.15684979 0.060295124 -0.087765016 -0.23831795 -0.18425596 0.13489744 0.20749584 -0.18966036
