artifacts/territory/lstm/992__0__0/model.pt (torch, 23217 bytes, 7 tensors)

lstm.weight_ih_l0 f4 [128, 1]
0	0x3dbea2e6	0.09308414
1	0x3df13e57	0.117794685
2	0x3d7ab4dc	0.061207637
3	0xbd900bfb	-0.07033535
4	0xbd902da4	-0.07039955
5	0x3d857196	0.065158054
6	0x3d862e76	0.065518305
7	0x3dd07022	0.10177638
8	0x3c66f2c5	0.014095967
9	0x3e0b2a95	0.13590463
10	0x3dcf075e	0.10108827
11	0x3b38f334	0.0028221132
12	0x3c668965	0.014070843
13	0x3db2327d	0.08701036
14	0xbdda2608	-0.10651785
15	0xbd136c4e	-0.03599196
16	0xbca4e0f2	-0.020126794
17	0x3e506bab	0.20353572
18	0xbe2f133c	-0.17097181
19	0x3dac9bec	0.08428177
20	0xbe0f2c57	-0.13981758
21	0x3da87ce2	0.082269445
22	0xbdecfca4	-0.11571625
23	0xbe04ca6e	-0.12967846
24	0xbd36aad7	-0.04459652
25	0xbcaf05bc	-0.021365039
26	0xbe458730	-0.19289851
27	0x3d460663	0.048345935
28	0x3e083c20	0.13304186
29	0x3c574c29	0.013140717
30	0x3e13c061	0.14428855
31	0x3d4fcdda	0.050733425
32	0x3d5ac6b8	0.05341217
33	0xbd7a1067	-0.0610508
34	0x3e33a34d	0.17542763
35	0xbb88fb58	-0.004180353
36	0xbd0c3394	-0.034228876
37	0x3c259334	0.010105897
38	0x3d9f93ae	0.077918395
39	0xbd6c99ca	-0.057763852
40	0xbb7439a0	-0.0037265792
41	0x3bf9f4b2	0.007628047
42	0xbb8844c2	-0.004158587
43	0x3e3565c0	0.17714596
44	0xbd9c999e	-0.07646488
45	0xbd9a3b53	-0.075308464
46	0xbe042050	-0.12902951
47	0xbdd5f572	-0.104472056
48	0xbe11a516	-0.14223132
49	0xbcde9a43	-0.027173167
50	0x3d39aab4	0.04532881
51	0xbe189b60	-0.14903021
52	0x3c362b30	0.011118695
53	0x3d901102	0.07034494
54	0x3d36f114	0.044663504
55	0xbe1a8e48	-0.15093338
56	0xbd787f19	-0.060668085
57	0xbd2a8674	-0.04163213
58	0x3cd01f88	0.02540566
59	0xbe1698b6	-0.14706692
60	0x3cca8242	0.024720315
61	0xbcebaea6	-0.028769802
62	0x3cea2df9	0.028586375
63	0xbc4ddd1c	-0.012564924
64	0x3e2c6417	0.16835056
65	0x3da2068e	0.079114065
66	0x3e2947cf	0.16531299
67	0x3d1b86b4	0.03797026
68	0x3e4c7057	0.19964729
69	0x3d8f9022	0.07009913
70	0xbd478a14	-0.048715666
71	0xbdbd2bac	-0.092368454
72	0xbd7b0975	-0.061288316
73	0xbe3137a6	-0.17306384
74	0x3e2aafab	0.16668575
75	0xbe20bfbc	-0.15698141
76	0x3d9cd97b	0.076586686
77	0x3e4338a8	0.19064581
78	0x3da83a8a	0.082142904
79	0xbe08a6af	-0.13344835
80	0x3e0bb709	0.13644041
81	0xbdc21f33	-0.09478607
82	0x3db18fd1	0.08670009
83	0x3df95d57	0.12176006
84	0xbd90daab	-0.070729576
85	0xbe1e8210	-0.15479302
86	0xbd5720e7	-0.052521612
87	0x3de7ad5d	0.11312363
88	0xbdb7a720	-0.089674234
89	0xbde66c98	-0.11251181
90	0x3d59fcf1	0.05321974
91	0xbde9fe55	-0.11425463
92	0xbe0f9b72	-0.14024141
93	0xbe1b61c4	-0.15174013
94	0xbdb4e1ae	-0.088321075
95	0xbde9cbc2	-0.11415817
96	0xbdde083b	-0.108414136
97	0x3e3fb0b5	0.18719752
98	0xbde984d4	-0.11402288
99	0xbe383503	-0.17988972
100	0x3e19c715	0.1501735
101	0x3dc0a8cd	0.09407196
102	0xbd1474aa	-0.036244072
103	0xbda0c414	-0.07849899
104	0x3dc19bd3	0.09453549
105	0xbe0be4e0	-0.13661528
106	0x3dd5364c	0.10410747
107	0x3e1f6792	0.15566853
108	0xbc798d20	-0.015231401
109	0x3c7b74a7	0.015347636
110	0x3cdd7187	0.027031673
111	0x3e0b27eb	0.13589446
112	0xbe21209f	-0.157351
113	0x3e3cf1d0	0.18451619
114	0x3cd08823	0.02545554
115	0x3e018fcc	0.1265251
116	0xbe1a4a96	-0.15067515
117	0x3e02031e	0.12696502
118	0xbd56a651	-0.052404705
119	0xbd2e5e26	-0.042570256
120	0x3d8489cf	0.064715974
121	0xbd7ad26f	-0.06123584
122	0x3e13bf81	0.14428522
123	0xbdca7e84	-0.09887412
124	0x3c5a1e8a	0.013312945
125	0x3dbaa4fe	0.09113501
126	0x3deba07c	0.11505219
127	0xbd9d3fc9	-0.07678182

lstm.weight_hh_l0 f4 [128, 32]
0	0x3e22d287	0.15900622
1	0x3d3716b4	0.044699386
2	0x3bc70720	0.0060738474
3	0x3d53de9c	0.05172597
4	0xbcb8f7d8	-0.022579119
5	0xbe1da2c1	-0.15394117
6	0x3c013b80	0.007887721
7	0xbe008352	-0.12550095
8	0xbd1bd6d0	-0.038046658
9	0x3dcdcdee	0.100490436
10	0x3d8ad106	0.06778149
11	0xbd251d3c	-0.040311083
12	0xbd5e9b7a	-0.054347493
13	0x3d89b81c	0.06724569
14	0x3cc343b8	0.023836002
15	0x3dab98f6	0.08378784
16	0x3df195fa	0.11796184
17	0x3e1852e7	0.14875375
18	0xbd885018	-0.06655902
19	0xbc901558	-0.017588302
20	0x3e18ddfd	0.14928432
21	0x3dc2dd02	0.0951481
22	0x3df916a6	0.12162523
23	0x3d8d5db6	0.069026396
24	0xbe10c106	-0.14136133
25	0xbe21475a	-0.15749875
26	0x3d2d5b24	0.042323247
27	0xbe080328	-0.13282454
28	0xbd07a7b8	-0.033118933
29	0xbc720620	-0.014771968
30	0xbe138526	-0.14406261
31	0xbe1c961d	-0.15291639
32	0x3e2c58ad	0.16830702
33	0xbdabb984	-0.08384994
34	0x3d8c2182	0.068423286
35	0xba0d1000	-0.00053811073
36	0x3ceb1037	0.028694255
37	0x3e2f6245	0.1712733
38	0x3af831c2	0.0018935727
39	0xbdf5e2d2	-0.12006153
40	0x3dc7b75b	0.09751769
41	0x3d620d20	0.0551883
42	0xbddf5769	-0.10905344
43	0xbe1aac3e	-0.15104768
44	0xbd9849cc	-0.07435951
45	0x3e40f9ad	0.18845244
46	0xbdb6ef8c	-0.08932409
47	0xbe09b9cc	-0.13449782
48	0xbcea6a60	-0.028615177
49	0xbe4ed51c	-0.20198482
50	0xbdc9556c	-0.09830746
51	0x3d1ac992	0.03778989
52	0x3c30f950	0.010801628
53	0x3c447444	0.0119906105
54	0x3cf0adb8	0.02937971
55	0x3d930186	0.07178025
56	0xbe254315	-0.16138871
57	0x3d0f6be1	0.03501499
58	0x3df7ebaa	0.12105496
59	0x3e30b331	0.17255856
60	0xbde0de60	-0.10979915
61	0xbca385bc	-0.01996123
62	0x3d214f1a	0.039382078
63	0x3dfb1c56	0.12261264
64	0x3e06eae7	0.13175546
65	0xbd1c25f0	-0.038122118
66	0x3e00740f	0.12544273
67	0xbcc53298	-0.024071977
68	0xbda2414f	-0.07922613
69	0xbe0ba9fa	-0.1363906
70	0xbb985a60	-0.0046494454
71	0x3d8ae066	0.06781082
72	0xbe272920	-0.16324282
73	0x3de82b0e	0.11336337
74	0xbc9fdb48	-0.019513741
75	0x3a44a000	0.00075006485
76	0xbdc82a37	-0.09773677
77	0xbdd9880d	-0.10621653
78	0x3d695624	0.056966916
79	0x3d70f874	0.058830693
80	0x3d08550c	0.033284232
81	0xbddf7948	-0.109118044
82	0x3e0d5483	0.1380177
83	0xbe07653f	-0.13222216
84	0x3e27c5bd	0.16384025
85	0xbe0c9f07	-0.13732539
86	0xbd6ce9be	-0.0578401
87	0x3d1d64e4	0.038426295
88	0x3d522b54	0.051310852
89	0xbe32deff	-0.17467879
90	0x3e164223	0.14673667
91	0x3c8f4ce8	0.017492726
92	0xbd16a05c	-0.036774024
93	0x3e095303	0.13410573
94	0x3cb8fd90	0.022581846
95	0x3e292d8f	0.16521285
96	0xbe28da04	-0.16489416
97	0x3d4ce49d	0.05002271
98	0xbdc598ea	-0.09648307
99	0x3d0a090c	0.033700034
100	0x3d0f02d0	0.03491479
101	0xbd741d8b	-0.059598487
102	0x3e1f049f	0.15529107
103	0x3e0fe233	0.14051132
104	0xbd3fa31d	-0.046786416
105	0xbe10aff2	-0.14129618
106	0x3c59483c	0.013261851
107	0xbd82b1b0	-0.063815475
108	0xbdf6f0f1	-0.12057675
109	0x3e1b11cf	0.15143512
110	0x3e10f3e9	0.14155544
111	0x3e2c9aa7	0.1685587
112	0x3cc1ad50	0.023642212
113	0x3dc6ff1b	0.09716626
114	0xbdb93f55	-0.09045283
115	0xbe12e788	-0.14346135
116	0x3b018e80	0.0019768775
117	0xbd1b736b	-0.037951868
118	0xbd16161c	-0.03664218
119	0x3d91bcfc	0.07116124
120	0xbdca33c2	-0.09873153
121	0x3ddc0c95	0.10744587
122	0xbe09b213	-0.13446836
123	0x3de8745e	0.1135032
124	0x3e0f9736	0.14022526
125	0x3d4614e1	0.048359755
126	0xbc561418	-0.013066314
127	0xbe1a1c0e	-0.15049765
128	0xbdc4c1a5	-0.09607247
129	0xbdb22b84	-0.08699706
130	0xbe230a1e	-0.15921828
131	0x3dc2d886	0.09513955
132	0x3d9094a7	0.07059603
133	0xbdc7659e	-0.09736179
134	0xbe04ce16	-0.1296924
135	0x3dd04886	0.10170083
136	0xbdafa5ef	-0.08576571
137	0xbd877e40	-0.06615877
138	0x3ca65cfe	0.020308014
139	0xbe05bd83	-0.13060574
140	0x3e1a673f	0.15078448
141	0x3d09deff	0.03365993
142	0xbb79c249	-0.0038110188
143	0x3db5bc9e	0.088738665
144	0xbc709cb0	-0.014685795
145	0x3dc97cc0	0.09838247
146	0xbdbf4473	-0.093392275
147	0x3e2daf5c	0.16961426
148	0x3e054fdd	0.13018747
149	0xbda1c01c	-0.0789797
150	0xbde07cad	-0.1096128
151	0x3c3dccd0	0.011584476
152	0xbd71a0cf	-0.05899125
153	0xbe2dee59	-0.16985454
154	0xbd3c147c	-0.045917973
155	0xbde32df2	-0.11092748
156	0xbe5f0f84	-0.21783262
157	0x3cd0ce12	0.025488887
158	0xbe4d37de	-0.20040843
159	0x3e00e530	0.12587428
160	0xbd311710	-0.043234885
161	0x3e35b412	0.17744473
162	0xbd9ca609	-0.07648856
163	0xbdd6b00d	-0.10482798
164	0xbe30453a	-0.17213908
165	0x3da38841	0.07984973
166	0x3e01666f	0.12636732
167	0x3d96450e	0.0733739
168	0x3dd258eb	0.10270866
169	0xbe21ba7c	-0.15793794
170	0x3c0e132d	0.008671564
171	0xbdbbc3b6	-0.09168188
172	0x3d3567e7	0.044288542
173	0x39dfef3a	0.00042712112
174	0x3c38660d	0.0112548
175	0xbdb19099	-0.08670158
176	0xbc7dcfc0	-0.015491426
177	0x3dae34dc	0.08506176
178	0xbe0b7536	-0.13618931
179	0x3e1f1c11	0.1553805
180	0xbe0fa81a	-0.1402897
181	0xbe4f174f	-0.20223735
182	0xbdaab9f6	-0.083362505
183	0xbd0b8784	-0.034064785
184	0x3e24f474	0.16108876
185	0xbe4003ca	-0.18751445
186	0x3dd1c4da	0.102426246
187	0x3b3a46d5	0.0028423567
188	0x3d454219	0.04815874
189	0xbdb8e0c1	-0.090272434
190	0xbe36a1e1	-0.1783519
191	0xbd8bffa3	-0.06835868
192	0xbdab9d13	-0.08379569
193	0xbceb82f0	-0.02874896
194	0x3e031867	0.12802278
195	0x3cf9f568	0.030512527
196	0xbe334a27	-0.17508756
197	0xbbef8d20	-0.0073105246
198	0x3d8a50f8	0.06753725
199	0x3e33774f	0.17525981
200	0x3dbba25e	0.091618285
201	0x3e0c3c0b	0.1369478
202	0xbdcc5064	-0.09976271
203	0x3d369b84	0.044581905
204	0x3dfd1372	0.123572245
205	0x3de6b5ea	0.11265166
206	0x3a88d400	0.0010439157
207	0xbe1ba297	-0.15198742
208	0xbd5e66f4	-0.054297403
209	0xbc855678	-0.016276583
210	0x3e04854f	0.12941478
211	0xbe026ee7	-0.12737618
212	0xbe119482	-0.14216807
213	0xbd98e0a3	-0.07464721
214	0xbd235234	-0.039873317
215	0x3e1df771	0.15426423
216	0x3c849b50	0.01618734
217	0x3d02f6fc	0.031973824
218	0xbe3368ce	-0.17520449
219	0x3df70932	0.12062301
220	0xbc718270	-0.014740571
221	0xbe22a7f4	-0.15884382
222	0xbe310668	-0.172876
223	0x3dc463a6	0.09589319
224	0xbb8ec0c0	-0.0043564737
225	0xbc149216	-0.009068033
226	0x3df04eae	0.11733757
227	0xbd52fd84	-0.051511303
228	0x3cb4b790	0.022060186
229	0x3d9d05a3	0.07667091
230	0xbe0bec26	-0.13664302
231	0xbbedba80	-0.0072548985
232	0xbe3c95ec	-0.18416566
233	0x3c166750	0.009179905
234	0x3de1481a	0.110000804
235	0xbe055719	-0.13021506
236	0x3e2ee27e	0.17078587
237	0xbd59cff0	-0.05317682
238	0xbe042291	-0.12903811
239	0xbd88bebd	-0.066770054
240	0xbb5b2780	-0.0033440292
241	0x3abb650d	0.0014297083
242	0x3c225260	0.009907335
243	0xbdf1c8aa	-0.11805852
244	0xbe005c46	-0.125352
245	0x3ddb42ea	0.10706122
246	0xbb9e18e0	-0.0048247427
247	0x3e1ea2c9	0.15491785
248	0x3dafbf9d	0.08581469
249	0xbd8dcfde	-0.06924413
250	0xbd98bc66	-0.07457809
251	0x3e26611b	0.1624798
252	0x3ae24f3c	0.0017266045
253	0xbd1948fc	-0.03742312
254	0x3dd08709	0.10182006
255	0x3e12378f	0.14279006

lstm.bias_ih_l0 f4 [128]
0	0x3dbac56a	0.09119685
1	0x3dce20c0	0.1006484
2	0x3e20c3ad	0.15699644
3	0xbe26771f	-0.16256379
4	0x3cd6e1d0	0.026230723
5	0xbdb26666	-0.08710937
6	0xbd5b848a	-0.053593196
7	0xbddb6a44	-0.10713628
8	0x3de458a4	0.11149719
9	0x3e066b1c	0.13126796
10	0x3e03d405	0.12873848
11	0x3da3a521	0.0799048
12	0x3dbba9c3	0.09163239
13	0x3d87ebed	0.06636796
14	0xbe44d602	-0.19222263
15	0xbdaecae5	-0.08534793
16	0x3d9f5686	0.07780175
17	0xb9cb2e2a	-0.00038753572
18	0xbe053a90	-0.13010621
19	0x3d9ee469	0.077584095
20	0xbe10b740	-0.14132404
21	0xbe0682ae	-0.13135788
22	0xbcf1f5ad	-0.029536093
23	0xbc5d1df8	-0.013495915
24	0x3d4455b6	0.047933303
25	0xbdf0a4d8	-0.117501915
26	0xbd9e14dd	-0.07718823
27	0x3d9d26fd	0.07673452
28	0xbbc3f7a4	-0.005980449
29	0x3dacc449	0.08435876
30	0x3c3c01fe	0.011475084
31	0xbdf2b2cc	-0.11850509
32	0x3e02fe73	0.12792377
33	0xbdbad8a5	-0.09123353
34	0xbe209c0c	-0.15684527
35	0xbd89449d	-0.0670254
36	0x3df8ded4	0.12151876
37	0x3e16e6da	0.147365
38	0x3c5cb4d0	0.013470843
39	0x3e6549f5	0.22391494
40	0xbd77fd42	-0.06054426
41	0x3df84621	0.12122751
42	0x3e579fab	0.21057002
43	0x3e163139	0.14667214
44	0x3d2f5bb3	0.04281206
45	0x3e438e8d	0.19097348
46	0xbde398ab	-0.111131035
47	0xbd6ccec9	-0.057814393
48	0x3d6edcc7	0.05831602
49	0x3e69e85b	0.22842543
50	0xbda54843	-0.080704235
51	0xbdc3ea8f	-0.09566223
52	0xbd62741a	-0.055286504
53	0x3d4235e4	0.047414675
54	0xbe016d88	-0.12639439
55	0xbc911218	-0.017708823
56	0xbe2b8bcf	-0.16752551
57	0xbe3c689d	-0.18399282
58	0x3d0ff228	0.035143048
59	0xbe27bb39	-0.16380014
60	0xbcceceb1	-0.025245043
61	0xbdcc7f6e	-0.09985243
62	0x3da59489	0.080849715
63	0xbe58e547	-0.21181212
64	0x3e07957d	0.13240619
65	0x3d6482b1	0.0557887
66	0xbc611420	-0.013737708
67	0x3e1b609d	0.15173574
68	0x3e60e868	0.21963656
69	0x3e3c7e94	0.1840766
70	0x3d232808	0.0398331
71	0xbcaa506e	-0.020790305
72	0xbda839bd	-0.08214138
73	0x3dfde162	0.12396504
74	0x3d8eb740	0.06968546
75	0xbd86b0f9	-0.065767236
76	0x3ddfc235	0.10925714
77	0x3e3e2e00	0.18572235
78	0xbd7a5e45	-0.06112506
79	0x3d0d6a62	0.034525283
80	0x3d2f219a	0.042756654
81	0xbe2f7e93	-0.17138128
82	0xbdc4e2a0	-0.09613538
83	0x3d162995	0.03666075
84	0xbd27914f	-0.04091006
85	0x3e0d5fe7	0.13806115
86	0xbdcd468a	-0.1002322
87	0x3ce50822	0.02795798
88	0xbd8734b3	-0.066018485
89	0x3e513218	0.20429265
90	0xbde401de	-0.11133169
91	0x3e4e8a7a	0.20170012
92	0x3c8a08cd	0.0168499
93	0xbe0bf5b3	-0.13667946
94	0xbd89e02b	-0.0673221
95	0x3e4e8136	0.20166478
96	0x3e06101c	0.13092083
97	0x3e40a380	0.1881237
98	0x3e505203	0.20343785
99	0x3e14e4a5	0.14540346
100	0xbd737637	-0.05943891
101	0xbbbb2129	-0.00571074
102	0x3e449807	0.19198619
103	0x3e338398	0.17530668
104	0x3e5e1575	0.21687873
105	0xbe50ec0e	-0.20402548
106	0xbd72bf88	-0.05926469
107	0xbe0513b5	-0.12995799
108	0xbc4e1838	-0.012579016
109	0x3b9fff39	0.00488272
110	0xbd5706b5	-0.05249663
111	0x3dd87128	0.10568458
112	0x3dd06398	0.10175246
113	0x3d9717de	0.07377599
114	0xbda23520	-0.07920289
115	0xbd21f91a	-0.039544202
116	0xbd2115ac	-0.03932731
117	0x3e3bad56	0.18327841
118	0xbe0c7074	-0.13714772
119	0xbdabe91e	-0.08394073
120	0xbd419b6d	-0.047267366
121	0xbd4b1b8a	-0.04958681
122	0xbd640010	-0.055664122
123	0x3d453bda	0.048152782
124	0x3e1f58db	0.1556124
125	0x3da53b02	0.080678955
126	0x3d2f776c	0.0428385
127	0xbdbf55ef	-0.093425624

lstm.bias_hh_l0 f4 [128]
0	0x3d82cc06	0.06386571
1	0xbdeb84a2	-0.11499907
2	0xbd672274	-0.05642934
3	0x3c9d68cc	0.01921501
4	0xbd94c6de	-0.072644934
5	0xbd61371c	-0.054984197
6	0xbdd6f698	-0.10496253
7	0x3d941cc8	0.07232052
8	0xbdc29691	-0.095013745
9	0xbd7a1c44	-0.061062112
10	0xbde0444f	-0.10950529
11	0x3d9d2fb1	0.07675112
12	0x3e5227df	0.20523022
13	0x3e536c16	0.206467
14	0x3d77b247	0.060472753
15	0x3a935107	0.0011239358
16	0xbe17f22b	-0.14838473
17	0x3cba1b16	0.022717994
18	0x3e01a487	0.12660418
19	0xbdd96077	-0.10614102
20	0x3e1615a2	0.1465669
21	0x3cd63770	0.026149482
22	0xbe040038	-0.12890708
23	0xbc6deea6	-0.01452223
24	0x3dc4d34d	0.09610615
25	0x3dd0bd42	0.10192348
26	0x3d8dd19f	0.06924748
27	0xbd24b5a3	-0.040212285
28	0xbdc13558	-0.09434003
29	0xbda3a6cd	-0.07990799
30	0xbdb8566c	-0.09000859
31	0x3e0323b8	0.12806594
32	0xbe05ce72	-0.13067034
33	0x3c19025c	0.009338941
34	0x3dc872b6	0.097875044
35	0x3dfd3ccd	0.123651125
36	0xbc41f9dd	-0.011839357
37	0x3c924b26	0.0178581
38	0xbc4a9770	-0.012365207
39	0x3e62e07f	0.22155951
40	0x3e4894f6	0.19588074
41	0xbdeafcdc	-0.1147401
42	0x3e003ba8	0.12522757
43	0x3d936b1f	0.07198166
44	0x3e27c728	0.16384566
45	0xbca985da	-0.020693708
46	0x3d1a31cb	0.037645143
47	0xbd293cd1	-0.041317765
48	0xbcc444a8	-0.02395852
49	0xbdbfba9c	-0.09361765
50	0x3d9c1faa	0.07623227
51	0x3da9dfb9	0.08294625
52	0x3e095f09	0.1341516
53	0xbe2a5fd8	-0.16638124
54	0xbd3d14c0	-0.046162367
55	0x3e0be8f7	0.13663088
56	0x3ddbffd1	0.107421525
57	0xbdc75ebb	-0.09734865
58	0xbd225fe8	-0.039642245
59	0x3cd2a4c1	0.025713326
60	0xbdb8d6e8	-0.09025365
61	0x3d57c068	0.052673727
62	0xbde75740	-0.112959385
63	0x3d8a82fe	0.06763266
64	0xbda9764e	-0.08274518
65	0xbcb7c043	-0.022430545
66	0x3d668008	0.056274444
67	0x3e119d69	0.14220203
68	0x3e3be07a	0.1834735
69	0x3cf7816f	0.030213086
70	0xbe305b86	-0.17222413
71	0xbde296e1	-0.11063934
72	0x3a21c378	0.000617079
73	0xbe098b3c	-0.1343202
74	0x3de038d2	0.109483376
75	0x3cf83fbf	0.030303834
76	0xbde91b38	-0.11382145
77	0xbd07fe41	-0.03320146
78	0x3de2929d	0.110631205
79	0xbd81d0ba	-0.063386396
80	0x3ccf6040	0.02531445
81	0xbc0e86cf	-0.008699133
82	0xbc81b8ce	-0.015835192
83	0xbd8f2677	-0.069897585
84	0xbe06b3d1	-0.13154532
85	0xbd3877b0	-0.045036018
86	0xbc29d58d	-0.010365856
87	0xbb723d1e	-0.0036962698
88	0xbdba1a1a	-0.0908701
89	0x3e2d2778	0.16909587
90	0xbd2a5535	-0.041585166
91	0xbd9c00cf	-0.07617342
92	0x3cc476d5	0.023982445
93	0x3d8a0d06	0.06740765
94	0x3d433665	0.047659297
95	0xbdce479d	-0.10072253
96	0xbd2b61a6	-0.04184117
97	0x3e249054	0.16070682
98	0x3d957b2a	0.07298882
99	0xbdc92a1f	-0.09822487
100	0x3d73d7cb	0.059531968
101	0xbd9f7e0f	-0.07787716
102	0x3d71d3af	0.059039768
103	0xbdabb79f	-0.08384632
104	0xbc3f8774	-0.011690009
105	0xbe09a990	-0.13443589
106	0x3e15ad66	0.14616928
107	0x3d2cff17	0.04223546
108	0xbc01f467	-0.007931805
109	0x3e48a192	0.19592884
110	0x3db7f81f	0.08982872
111	0x3e6d4563	0.23171
112	0xbe3a4e32	-0.18193892
113	0x3c96ec11	0.018423112
114	0xbcc0f959	-0.023556398
115	0xbdf08a9f	-0.1174519
116	0x3cc5f23a	0.024163354
117	0x3e04777b	0.12936203
118	0xbd961cfb	-0.07329746
119	0x3cbe85b9	0.023257123
120	0x3de59b12	0.11211218
121	0xbe237b96	-0.15965113
122	0xbbc203eb	-0.005920877
123	0xbd82d0e6	-0.063875005
124	0xbdf817b2	-0.121138945
125	0xbd8c44ca	-0.06849058
126	0x3e101b8a	0.14073005
127	0xba583a96	-0.0008248476

fc1.weight f4 [16, 32]
0	0xbde864b2	-0.11347331
1	0x3ddefef8	0.10888475
2	0x3e458008	0.19287121
3	0xbda80c27	-0.08205443
4	0x3d051260	0.032488227
5	0x3dc69d66	0.0969799
6	0xbd241cba	-0.04006646
7	0xbe08d88e	-0.13363859
8	0xbe706db7	-0.23479353
9	0x3de6f03d	0.112762906
10	0x3e327124	0.17425972
11	0x3d21da24	0.039514676
12	0xbd5b1754	-0.053489044
13	0x3db4aec5	0.08822397
14	0xbe06cc56	-0.13163885
15	0x3cc7d897	0.02439527
16	0x3ce038fb	0.02737092
17	0xbd89f383	-0.06735899
18	0xbd0364c8	-0.032078534
19	0xbd9bd654	-0.07609239
20	0xbc9d15b2	-0.019175384
21	0xbe17d379	-0.14826764
22	0xbe2ea154	-0.1705373
23	0xbd6c9652	-0.057760544
24	0xbe09e065	-0.13464506
25	0x3df2af1c	0.11849806
26	0xbd6348de	-0.055489413
27	0x3dbc0cff	0.09182166
28	0x3ace53da	0.0015741542
29	0xbe641869	-0.22274937
30	0xbe01e5f9	-0.12685384
31	0x3df2b1d5	0.11850325
32	0x3d8a75c0	0.0676074
33	0x3da7c27a	0.0819139
34	0xbd8f07fd	-0.069839455
35	0xbddb5efe	-0.10711478
36	0xbcf168a8	-0.02946885
37	0xbe1f38dc	-0.15549034
38	0xbd881149	-0.06643922
39	0xbcc7f330	-0.024407953
40	0x3d979fea	0.07403548
41	0xbde0b035	-0.10971109
42	0xbd99d325	-0.07510976
43	0x3d94cef8	0.07266039
44	0xbe282fbb	-0.16424458
45	0x3e1a4017	0.15063511
46	0xbe124d16	-0.14287218
47	0xbd7a2a44	-0.061075464
48	0x3d9e76e6	0.07737522
49	0x3d551f16	0.0520316
50	0x3dae35da	0.08506365
51	0x3deb6c1a	0.11495228
52	0xbe1a1be5	-0.15049703
53	0x3dfd61ca	0.123721674
54	0xbe22e765	-0.15908583
55	0x3dc2f5b2	0.09519519
56	0x3e2a8e2f	0.16655801
57	0xbcb73ec8	-0.022368804
58	0xbe1bf8bd	-0.15231605
59	0xbe2fa08e	-0.1715109
60	0x3d1278bc	0.035759673
61	0xbe00dfaa	-0.12585321
62	0xbe1a344a	-0.15059009
63	0xbde54388	-0.11194521
64	0x3dfd7f56	0.12377803
65	0xbdbc3bc2	-0.091910854
66	0xbcef6d10	-0.02922681
67	0xbe230c20	-0.15922594
68	0xbda7a085	-0.081849135
69	0x3df30093	0.11865344
70	0xbdbb4831	-0.09144629
71	0x3e293fbd	0.1652822
72	0x3d0894ba	0.03334496
73	0x3e178119	0.1479534
74	0xbe3a8efe	-0.1821861
75	0xbce0fb6f	-0.027463643
76	0x3db781ba	0.0896029
77	0x3dfb5422	0.122719064
78	0xbe0ee1c7	-0.13953315
79	0x3e283127	0.16425
80	0xbdabcc4e	-0.083885774
81	0x3e3d8b3d	0.18510146
82	0xbd8168d3	-0.06318822
83	0x3d02e6e2	0.03195847
84	0xbdd1aa93	-0.102376126
85	0xbb8bc15c	-0.0042649936
86	0xbd2d6dc8	-0.042341024
87	0x3d218438	0.039432734
88	0x3b186a40	0.002325669
89	0xbe020bcf	-0.12699817
90	0xbd9419ea	-0.07231505
91	0xbe10ae8c	-0.14129084
92	0x3e329ee1	0.1744342
93	0xbcd1310e	-0.025536086
94	0xbe1e1682	-0.15438274
95	0x3d855942	0.06511165
96	0x3d74ebf8	0.05979535
97	0xbde4cf71	-0.11172379
98	0x3cc1d868	0.02366276
99	0xbdf0ba3c	-0.117542714
100	0xbd88d642	-0.066814914
101	0x3d89ef36	0.06735079
102	0xbdd7bda3	-0.10534217
103	0x3e032c6d	0.12809916
104	0x3d2f0620	0.04273045
105	0xbdd9f3aa	-0.10642178
106	0x3d8465a4	0.06464699
107	0x3e2f6fb5	0.17132457
108	0xbd72a404	-0.05923845
109	0xbdbd21a2	-0.092349306
110	0xbe1cca79	-0.15311612
111	0xbe066471	-0.13124253
112	0xbe16fa67	-0.14743958
113	0x3e16f4f5	0.14741881
114	0x39882200	0.00025965273
115	0x3dc2d792	0.09513773
116	0xbe1d66b5	-0.15371211
117	0x3dc33dae	0.09533249
118	0xbe02c610	-0.12770867
119	0x3e171011	0.14752223
120	0x3dcf7bde	0.10131048
121	0x3d68af34	0.05680771
122	0x3d077b48	0.033076555
123	0x3cf5cb58	0.030004188
124	0x3d4b0f88	0.04957536
125	0xbd5c2ffe	-0.053756706
126	0x3ddce4ae	0.10785805
127	0x3ce6a838	0.028156385
128	0xbe33fe97	-0.17577587
129	0x3dd83374	0.10556689
130	0x3c97b47e	0.018518683
131	0x3e0b92fa	0.13630286
132	0xbe0a3534	-0.13496858
133	0xbe3ef652	-0.18648651
134	0x3e382398	0.17982328
135	0xbdb71dfe	-0.089412674
136	0xbdfb0ed7	-0.1225869
137	0xbd9e76b9	-0.07737488
138	0xbdf5d972	-0.12004365
139	0xbe20d17c	-0.15704912
140	0xbda3fb0f	-0.0800687
141	0x3dcdda59	0.10051412
142	0xbe2fc8fa	-0.1716651
143	0xbd84fc57	-0.064934425
144	0x3ddcc27f	0.10779285
145	0xbdb8afe0	-0.090179205
146	0xbdf799fa	-0.120899156
147	0x3c7c7013	0.01540758
148	0xbd089a71	-0.03335041
149	0x3bd18ae7	0.0063947323
150	0x3e1130b4	0.14178735
151	0xbce3845b	-0.027773073
152	0x3e3a5f62	0.18200448
153	0xbd6dd18f	-0.05806118
154	0xbd12dc27	-0.035854485
155	0x3d845a72	0.064625636
156	0x3e4bcb57	0.19901787
157	0x3ccb50eb	0.024818858
158	0xbc2bcbc9	-0.010485598
159	0x3e37c8ae	0.17947647
160	0xbe0375f8	-0.1283797
161	0xbd9b6491	-0.07587541
162	0x3cc4ee08	0.024039283
163	0xbd96a116	-0.073549435
164	0xbc529180	-0.012852073
165	0xbe31bf9a	-0.17358246
166	0x3d8a0c14	0.06740585
167	0xbb8e8360	-0.004349157
168	0x3c0320d0	0.008003429
169	0x3b1c7900	0.0023875833
170	0x3dbc05c6	0.09180789
171	0x3e307d49	0.17235292
172	0x3d426c50	0.047466576
173	0xbd6ef6dc	-0.058340892
174	0xbd782a96	-0.060587488
175	0xbe16478f	-0.14675735
176	0xbda10e04	-0.078640014
177	0x3de749b6	0.11293356
178	0xbbb18840	-0.0054178536
179	0xbc898fd0	-0.016792208
180	0x3d8afeb2	0.067868605
181	0x3dcfcc9e	0.101464495
182	0x3db983fe	0.09058379
183	0x3bc3f280	0.005979836
184	0x3b946900	0.0045291185
185	0x3e0f1eab	0.13976543
186	0xbe2511e1	-0.16120102
187	0xbd0a0c28	-0.033703
188	0x3c8a4c38	0.016882047
189	0x3d9bce76	0.07607739
190	0xbcc1b1e8	-0.023644403
191	0x3a431700	0.0007442087
192	0x3e410d2f	0.18852685
193	0x3e2f6329	0.1712767
194	0x3df27771	0.11839188
195	0x3c30b9a8	0.010786451
196	0xbb22c6dd	-0.002483777
197	0x3dfb9857	0.12284916
198	0xbe31f4e7	-0.17378579
199	0xb9425a18	-0.00018534844
200	0x3d8e84d8	0.06958932
201	0xbd4b1924	-0.049584523
202	0x3e33af91	0.17547442
203	0xbd7d78b6	-0.061882697
204	0xbd62c788	-0.05536607
205	0xbc802715	-0.015643636
206	0xbd79a04f	-0.060943898
207	0xbe73ee9d	-0.23821492
208	0x3e3cadbd	0.18425651
209	0x3df3930f	0.118932836
210	0x3d85e9e7	0.06538754
211	0x3e4d4cff	0.20048903
212	0xbde45645	-0.11149267
213	0xbe5cb05e	-0.21551654
214	0x3dcb33d8	0.09921998
215	0x3cf7b0cb	0.030235669
216	0xbcf56f58	-0.02996032
217	0xbe07370c	-0.13204592
218	0xbd151cf3	-0.03640456
219	0xbd191ec3	-0.037382852
220	0xbdeb536e	-0.11490522
221	0xbe2d72d8	-0.1693834
222	0xbe510406	-0.20411691
223	0xbe0b5706	-0.13607416
224	0x3d8d352e	0.06894909
225	0x3ddb4aba	0.10707612
226	0xbde3d4d7	-0.1112458
227	0x3ce2dbf8	0.02769278
228	0x3d84e170	0.06488311
229	0x3dc57b9a	0.09642716
230	0x3d9363fe	0.07196806
231	0xbd26d5e8	-0.04073134
232	0x3e14b6d7	0.14522873
233	0xbdc7cdf9	-0.09756083
234	0xbde43595	-0.111430325
235	0x3c56f1c0	0.013119161
236	0x3dc35ad6	0.0953881
237	0xbe27dc04	-0.16392523
238	0x3dc93432	0.098244086
239	0xbddd68f3	-0.10811033
240	0xbd9f6d82	-0.07784559
241	0x3e03d8a7	0.12875615
242	0x39bbba00	0.00035806
243	0x3bc7e880	0.006100714
244	0xbd7e0250	-0.062013924
245	0x3e1928bd	0.14956947
246	0xbd123794	-0.035697535
247	0xbd987a10	-0.074451566
248	0xbd11a048	-0.035553247
249	0xbde4a7ef	-0.11164843
250	0x3d6a865c	0.05725704
251	0xbd6787b4	-0.0565259
252	0x3e26511b	0.16241877
253	0xbe0af72d	-0.13570853
254	0x3da6ca62	0.0814407
255	0xbde19771	-0.11015213

fc1.bias f4 [16]
0	0xbde7fc8f	-0.113274686
1	0xbe2560c4	-0.16150194
2	0xbd9ecc0b	-0.07753762
3	0xbdabef3b	-0.08395239
4	0xbde8f170	-0.113741755
5	0x3d032f1c	0.03202735
6	0xbd450043	-0.048095953
7	0xbe328a45	-0.17435558
8	0xbc5d1fe3	-0.013496372
9	0x3cb867ef	0.022510497
10	0xbddcc952	-0.10780586
11	0xbc5074b3	-0.012723136
12	0xbd53f0f3	-0.05174346
13	0xbc043950	-0.008070305
14	0xba3f43d6	-0.000729618
15	0x3dc720ea	0.09723075

out.weight f4 [1, 16]
0	0x3e94f5eb	0.2909387
1	0xbde071e8	-0.10959226
2	0xbe473d33	-0.1945694
3	0xbe7f9ef0	-0.24962974
4	0xbd3fa82b	-0.046791237
5	0x3dc4c48c	0.09607801
6	0x3db3d826	0.087814614
7	0x3e0b13ba	0.13581744
8	0x3c6cc4c9	0.014451214
9	0x3e6ba4b3	0.23012047
10	0xbe11b166	-0.14227828
11	0xbda30c85	-0.07961372
12	0x3e8d134c	0.27553785
13	0xbe2f5a78	-0.17124355
14	0x3e8bcfc4	0.2730695
15	0x3e5fa984	0.21842009
