artifacts/territory/lstm/992__993__995/model.pt (torch, 23217 bytes, 7 tensors)

lstm.weight_ih_l0 f4 [128, 1]
000000 db fd 0d 3e c4 a7 04 be 46 5e 37 be 1a 14 9a bd
       0.1386637 -0.12954623 -0.17907056 -0.07523365
000010 04 ff c7 bc 88 a2 c3 bb 18 df 1d bc e6 5d b8 bd
       -0.024413593 -0.005970303 -0.009635709 -0.09002285
000020 2b 4c 1a 3c 2a 1b dd bc 14 cb 5a 3e 7d 9a 14 be
       0.009417574 -0.026990492 0.2136653 -0.14512058
000030 e8 e6 e6 3b 99 5f 5d 3e 4d 0c e9 3d 05 f1 33 bd
       0.007046569 0.21618499 0.11379299 -0.043931026
000040 8a 8f c9 bd 55 de d4 3b ce 76 2e 3e da 3b 98 bd
       -0.09841831 0.0064962306 0.17037508 -0.07433291
000050 35 07 af bd 92 a3 c2 bc 51 19 fe bd f0 dc 01 3e
       -0.085462965 -0.023759637 -0.124071725 0.12681937
000060 81 8c 54 3e d3 e0 a5 bd b7 56 6f bb 45 b5 22 3e
       0.20756723 -0.080995224 -0.0036520192 0.15889461
000070 ed 4d 48 3d 0f 8e 4b 3e d1 ad 94 3d 6e 73 c1 bc
       0.04890244 0.1987841 0.07259715 -0.023614611
000080 cd 72 93 3d d6 93 05 be 61 fb 6f 3d 1c a7 ee 3d
       0.07199631 -0.13044676 0.058589343 0.11652967
000090 82 ad 2a bd e2 ef 9a bd df f7 5b be 66 a9 29 be
       -0.041669376 -0.07565285 -0.21481274 -0.16568527
0000a0 7d 1a c0 bd ef f4 04 3d 7d 54 a7 3d 52 5b db bc
       -0.09380052 0.03246015 0.08170412 -0.026776943
0000b0 2f 75 12 be d0 ac 4c 3e ba 14 18 bc 56 68 2c be
       -0.14302514 0.19987798 -0.009282285 -0.16836676
0000c0 bc 0e 41 bd bc 5a 30 be 31 46 3c 3e ea e2 13 be
       -0.047133192 -0.17222112 0.18386151 -0.1444203
0000d0 db 27 4e be 1c b0 1a 3e 28 01 a1 3d 51 85 95 3d
       -0.20132391 0.15106243 0.07861549 0.07300819
0000e0 9a 95 24 bd 69 04 fb bd fb 77 6c bc 9c ca be bd
       -0.040181734 -0.122567005 -0.014432902 -0.093159884
0000f0 4c 11 d4 bd e6 c1 a9 3b f7 57 8c 3c 19 58 20 3e
       -0.103548616 0.005180585 0.017131789 0.15658607
000100 a9 75 52 3e 70 0a 20 3d 2c 1f dd 3c 3a 4d fb bd
       0.20552696 0.039072454 0.026992403 -0.12270589
000110 52 02 4d 3e ca a2 92 3d fd 89 32 bd c1 ff d2 bc
       0.20020416 0.07159956 -0.043588627 -0.025756719
000120 a7 75 90 3d 48 d7 a8 3d ec 55 0f be c9 f0 9b 3b
       0.070536904 0.08244187 -0.1399762 0.0047589284
000130 86 60 b7 bd f2 61 a9 bd cd d3 44 3e 21 b1 b5 3b
       -0.08953957 -0.08270635 0.1922142 0.005544797
000140 f9 d2 2d be 49 42 ca bc b0 5e 41 bd f1 b2 cc 3c
       -0.16975011 -0.02468981 -0.04720944 0.02498767
000150 09 64 04 3c d0 61 4b 3e 8b 75 85 bd 70 e1 81 3d
       0.008080491 0.19861531 -0.0651656 0.06341827
000160 bf d7 1a 3e 28 4a e3 bd cf 10 8b bd 31 8b 50 3b
       0.15121363 -0.110981286 -0.06790315 0.0031821246
000170 66 42 ba 3c 96 f7 59 3d bf e6 01 3c 3d 6e e6 bd
       0.02273674 0.053214632 0.007928549 -0.11251495
000180 22 a9 5e 3e ce c1 a5 bd 5c 7d 2e bc 51 c0 f6 3d
       0.21744207 -0.08093606 -0.010650005 0.120484
000190 a6 16 0b bc fd af b5 3d f5 df e4 3d 41 37 89 3d
       -0.0084892865 0.08871458 0.11175529 0.06699992
0001a0 36 79 01 3d fe 41 c4 bd a7 50 78 3d 30 6b 32 bd
       0.031609736 -0.095828995 0.06062379 -0.043559253
0001b0 ea 5e 77 3d 8c 1d 7e bc b4 ae 41 3e e4 81 05 3d
       0.06039325 -0.015509974 0.189143 0.032594576
0001c0 f5 89 ad 3b 24 8d 33 3d 11 8c 55 3a 47 ec e4 bd
       0.005295987 0.043835774 0.00081461767 -0.11177879
0001d0 a3 49 f8 3d 7f c5 63 3d 3d 83 af 3d 92 b7 ba 3d
       0.1212342 0.05560827 0.085699536 0.091170445
0001e0 2e d0 e2 3d 67 db b3 3d 09 d1 2c 3e 89 59 3a 3c
       0.110748634 0.08782082 0.16876616 0.011373886
0001f0 dd be 45 be b6 21 3d bd de d6 12 be da 41 3c bd
       -0.1931109 -0.046174727 -0.14339778 -0.04596124

lstm.weight_hh_l0 f4 [128, 32]
000000 e1 a1 ce bd cc 95 f2 bd 9b 9c b3 3d db 23 52 be
       -0.1008947 -0.11844978 0.087701045 -0.2052149
000010 61 94 57 3e e3 30 ac bd 98 eb 27 3c 22 88 b9 3c
       0.21052696 -0.08407762 0.010249041 0.022647921
000020 b4 41 67 3e 16 65 c3 bc 9f d0 c4 3d 37 78 f4 3d
       0.22583658 -0.023851912 0.09610104 0.11936992
000030 bd bf 08 be 55 0d 5a 3d 6a d9 0a 3e 0a 35 fc bc
       -0.13354392 0.05323537 0.135595 -0.03078701
000040 23 83 09 bd 8d cb 42 3d 8e 7b 39 bd 97 36 20 bb
       -0.033572327 0.047557402 -0.045283847 -0.00244466
000050 81 78 cb bd 1f 80 3a bd cc dd 3a be c5 4c e7 bd
       -0.09935094 -0.045532342 -0.18248671 -0.112939395
000060 66 f7 3b bd 76 f1 e7 bc 20 af 39 be 9b e5 8f 3c
       -0.045890234 -0.02831338 -0.18133211 0.01756554
000070 7c e4 93 3d 67 c1 40 bd 74 c0 b8 3c b5 62 13 3d
       0.07221314 -0.047059443 0.022552706 0.035982806
000080 fc a0 d1 3d 82 79 fe bd 56 43 0e be 6f d8 24 be
       0.102357835 -0.124255195 -0.13892874 -0.16098188
000090 d6 86 d2 3d e7 ed ef 3c 7d 88 ef 3d 39 49 14 3d
       0.10279624 0.029288245 0.11695955 0.036202643
0000a0 4c 29 ce 3d 87 a5 e2 bd 01 70 d3 bd 27 29 91 3c
       0.100664705 -0.11066728 -0.103240974 0.017719818
0000b0 db 43 2b be b4 40 1f bd a1 76 0d 3d d3 c5 c2 bd
       -0.16725104 -0.038880065 0.03453696 -0.09510388
0000c0 25 0d f7 3d b7 03 04 3e 67 ab 40 bd ef fe 0e be
       0.12063054 0.12892042 -0.047038462 -0.13964437
0000d0 9f ed 1c 3e 85 04 07 be b4 a5 40 be be d7 9a bc
       0.1532502 -0.13185318 -0.1881321 -0.018901702
0000e0 c6 14 2d bd 37 5b 9d bd e7 f2 2b 3d d0 50 b9 bc
       -0.04225614 -0.076834135 0.041979697 -0.022621542
0000f0 e2 d8 a4 3d 85 63 da 3d 40 db 98 3d 81 44 93 3d
       0.080491796 0.10663513 0.074636936 0.071908005
000100 42 36 06 be 97 f5 ea bd 71 6c aa 3d e9 75 06 be
       -0.13106635 -0.11472624 0.08321465 -0.13130917
000110 75 36 5b bd 68 10 19 be a1 e2 30 3e 2c 9c 41 3e
       -0.05351873 -0.14947665 0.17273952 0.18907231
000120 fe 1a 63 bd b7 c5 26 be b1 ff bb bd 4e 65 ba bd
       -0.055445664 -0.1628636 -0.09179629 -0.091013536
000130 e5 2d 1c 3e 72 8d 80 3d e8 33 ec bc de 48 01 3e
       0.15251882 0.062769786 -0.028833345 0.12625453
000140 bc 95 50 3d 82 f1 a7 3d 51 6c 03 3e c5 9b 03 3e
       0.050924048 0.08200361 0.12834288 0.1285239
000150 95 be 41 bc 6b 0c 8e 3d 8e 4c 35 3e 83 76 39 3d
       -0.011825223 0.06935962 0.17704985 0.045279037
000160 ea ce 9c 3d 44 3d f2 3c 6a 5e f4 bd 6f 6e 8e bd
       0.07656653 0.02957023 -0.119320706 -0.06954657
000170 52 db 01 3e 89 23 2d be 94 01 d7 3d 1c 5b c8 bd
       0.1268132 -0.16908087 0.10498348 -0.09783003
000180 c1 2f db bd ce 37 d9 3d cb 36 e8 3d 6a f6 0b be
       -0.10702468 0.10606347 0.11338576 -0.13668218
000190 6c 4a 59 bc d0 1a 1c be 33 f4 4b bd 57 a3 50 3d
       -0.013262372 -0.15244603 -0.049793433 0.050937023
0001a0 12 6a a6 3b 42 0f cc bd b6 91 7e 3d b2 a3 c3 3c
       0.0050785625 -0.09963848 0.06215068 0.023881767
0001b0 0e 7a 1a 3e 20 5b 7a 3d 80 f9 52 bd 9f 24 ea bd
       0.15085623 0.06112206 -0.051507473 -0.11432766
0001c0 fa c5 f3 bd 85 1b 03 3e 23 11 d2 3d 11 69 0b bd
       -0.119029954 0.12803467 0.10257175 -0.034035746
0001d0 7a f1 87 bd 77 ab 8e bd 43 ce db bd d9 a7 09 3e
       -0.06637855 -0.06966298 -0.10732701 0.13442935
0001e0 6a 1b 4b be b8 32 13 3b c5 d6 10 3e d0 ca 0c be
       -0.19834676 0.002246065 0.14144428 -0.13749242
0001f0 2e 78 df bd 9c 0b 82 bd 0e 05 09 be 2f f8 e5 3d
       -0.10911594 -0.063498706 -0.13380834 0.11228978
000200 e4 c2 0e 3d f1 72 00 be 26 c0 99 bd 93 ce d2 bd
       0.03485383 -0.12543847 -0.075073525 -0.10293307
000210 97 93 57 3e f8 da c0 bd 16 f7 22 be 40 7c 95 3d
       0.21052395 -0.09416765 -0.15914568 0.072990894
000220 21 dd 13 3e a3 12 0e 3e 61 c8 c7 3c 81 5e c0 3d
       0.14439823 0.13874297 0.02438754 0.09393025
000230 bf d8 34 be 93 cb 6e be d9 62 b3 3d fc 3f 40 be
       -0.17660807 -0.23319845 0.08759088 -0.18774408
000240 e9 45 0f be 4f 2b 70 be 06 ed e8 bd 5c 09 fa 3d
       -0.13991512 -0.23454021 -0.11373334 0.122088164
000250 3e 88 9c 3d 35 2a de bd 30 52 f9 3b 54 20 73 3e
       0.07643174 -0.10847894 0.0076086745 0.23742801
000260 3b 00 00 3e da af 6d be 4f 0d 50 be cd 75 da bd
       0.12500088 -0.23211613 -0.20317577 -0.10667
000270 20 5b 2f 3e e9 3a 60 3e 19 cb 1f 3e 52 ed f1 bd
       0.17124605 0.21897472 0.1560482 -0.118128434
000280 de b7 5a 3e b0 ca 03 be 16 66 92 3c 9f e3 1f be
       0.21359202 -0.12870288 0.017870944 -0.15614174
000290 60 71 ed 3d 0b 91 4e 3e 78 24 36 be 59 d6 07 be
       0.1159389 0.20172517 -0.17787349 -0.13265361
0002a0 86 ea c6 bd e6 8e d6 bb ce fd 6c be ac 51 d7 bd
       -0.097127005 -0.0065477965 -0.23143694 -0.105136245
0002b0 c1 33 21 be ff 81 8e bd 35 46 b9 bd ac fc 14 be
       -0.15742399 -0.069583885 -0.09046594 -0.14549512
0002c0 e6 36 99 bc fe 66 31 be 7d 81 68 be 28 cd 47 3d
       -0.018702935 -0.17324445 -0.22705646 0.048779637
0002d0 ae 8c 36 be ec 62 7f 3c 13 8f 15 be 88 5e 4f 3e
       -0.17827103 0.01558755 -0.1460536 0.20250905
0002e0 25 f3 14 3e 7f 4a 9f bd 88 8a 93 bd c9 37 03 be
       0.14545877 -0.07777881 -0.07204157 -0.12814249
0002f0 a7 62 37 be 52 18 1c 3d 9f 0f e9 3d b1 35 b3 3d
       -0.17908727 0.03810913 0.113799326 0.08750475
000300 5f 22 0e be d9 70 11 be 1f b8 20 be 33 01 cd 3c
       -0.13880299 -0.14203204 -0.15695237 0.025024986
000310 40 08 d0 bd 23 5f 20 be 2c 3d c1 3d b7 32 2d bd
       -0.101578236 -0.15661292 0.09435496 -0.042284694
000320 3b 91 ca bd 7c b0 d3 3d ee 6e d9 3d 29 6f 28 be
       -0.09890982 0.10336396 0.10616861 -0.16448654
000330 78 d7 9e 3d 29 8a 07 3e 0f 1d 2c bc b1 ad 54 3e
       0.07755941 0.13236298 -0.010504975 0.20769383
000340 e5 67 5a bd 42 dc aa bc 9b 9d 1a 3e d6 8b a4 3a
       -0.053321738 -0.02085698 0.15099184 0.0012553881
000350 18 25 1d bd 3b ef e2 3d fb 2e d1 bd 05 de af bd
       -0.038365453 0.11080786 -0.10214039 -0.08587269
000360 f8 23 17 3e 90 52 43 3e a0 32 c0 bd 39 2a 41 be
       0.14759815 0.19074464 -0.09384656 -0.18863763
000370 3b 87 19 bd b0 9a a3 3d 54 79 a5 bd 0b 2b 1c 3e
       -0.03748248 0.07988489 -0.08079782 0.15250795
000380 4e 23 66 bd f2 c9 fb 3d be 3e b7 bc af f4 ca bd
       -0.056186013 0.122943774 -0.022368785 -0.09909951
000390 52 7c 18 be 17 20 33 be 3d b8 ea 3d 94 00 5c bd
       -0.14891174 -0.1749271 0.11460922 -0.05371149
0003a0 ad e2 f1 3c 71 c4 b5 bc f1 84 e2 3d 19 24 16 be
       0.029527033 -0.022188397 0.11060513 -0.14662208
0003b0 df e4 fe 3b bf 22 99 3d 4b 65 46 3d 73 4c 38 3e
       0.0077787484 0.074773304 0.048436444 0.17997913
0003c0 25 11 c1 bb 20 4c 6e bd 6c 54 e9 3c 75 7b d0 bd
       -0.0058919364 -0.058178067 0.028482638 -0.101797976
0003d0 63 02 03 3d de 8b 6d 3d d9 fb f3 3c 94 9b 84 bd
       0.031984698 0.057994716 0.029783176 -0.06474987
0003e0 32 8d 60 bd 60 10 c1 bc dc a3 fc bb dc d2 fd bd
       -0.054822154 -0.023567379 -0.0077099632 -0.12393734
0003f0 73 dc 0a be 62 09 5b be 6e 31 12 3e fb 5c 5e 3e
       -0.13560657 -0.21390298 0.14276668 0.21715157

lstm.bias_ih_l0 f4 [128]
000000 f2 f2 fa bd f2 c7 8c bd f9 f6 19 3e 1c fa fb 3c
       -0.122533694 -0.06874074 0.15035619 0.03075891
000010 8e f6 30 3e 37 65 91 bd cc e9 bc 3c c2 76 1a be
       0.17281553 -0.07099383 0.023060702 -0.15084365
000020 1a fa ba 3d 51 9f c8 bd 93 5f 69 bd 09 91 10 be
       0.09129734 -0.09796012 -0.056975912 -0.14117827
000030 29 5d 0f 3e a2 c3 fc bb c1 5e 48 3e 1b c6 0d 3e
       0.14000382 -0.007713751 0.19567396 0.13845102
000040 c9 26 ad bc 30 98 fa bd 45 98 20 3d 3d 10 07 3e
       -0.021136658 -0.12236059 0.039207716 0.13189788
000050 ef 09 10 3e 20 3f 69 3e f4 ab 02 3e 3e 3e 44 3e
       0.1406629 0.22777987 0.12760907 0.19164369
000060 60 d6 43 3e 8f d7 74 3d 01 33 64 3e 2a 64 c2 bd
       0.19124746 0.059775885 0.22285081 -0.09491761
000070 6a 9d 04 3e eb 13 00 3e 22 7f 96 bd e7 75 ae bd
       0.12950674 0.12507598 -0.073484674 -0.08518582
000080 4b c8 b3 3d 83 77 90 bd b5 5a bf 3d ec 11 eb 3c
       0.08778437 -0.07054045 0.09343473 0.02869507
000090 b9 c8 4b 3e 40 a3 1c bd 49 91 43 bd dc 21 0e bc
       0.19900788 -0.038241625 -0.047745977 -0.008675065
0000a0 ee 74 23 bc 3c 35 d1 3d 30 e5 04 bd 22 7e 45 be
       -0.009976609 0.10215232 -0.032445133 -0.19286397
0000b0 7b 23 80 bd 6a 50 cc 3d a7 97 9a 3d 26 6d 33 3d
       -0.06256767 0.09976275 0.07548457 0.043805264
0000c0 8b ba e7 3c 1a d4 cf bd f8 8f ce 3d 0f a8 d6 bd
       0.028287193 -0.10147877 0.100860536 -0.104812734
0000d0 e1 69 1a 3e 65 c7 87 3d 9f 29 08 be 53 3c c1 3d
       0.15079452 0.06629828 -0.13297127 0.09435334
0000e0 cd ef b2 bd 2c be 84 3d b5 dd 67 3e 81 a5 ee bd
       -0.087371446 0.06481585 0.22643168 -0.11652661
0000f0 a8 53 2c be 40 36 02 3c dc 0c 0f 3e 67 83 19 3e
       -0.16828787 0.0079475045 0.13969749 0.14991532
000100 3f 49 55 bd 86 1a 67 bc 9f 7f 14 be f2 62 1c 3e
       -0.052071806 -0.014105445 -0.14501809 0.1527212
000110 ac 55 8a bc a6 6a 09 3e 5e e7 5c 3e 06 f8 a8 3b
       -0.016886555 0.1341959 0.21572635 0.00515652
000120 8a 05 d5 3d 2b c6 ef bd a4 61 f3 bc 8a 5f c0 3d
       0.10401447 -0.117077194 -0.029709645 0.09393223
000130 22 87 cf bd d0 5f 65 3c ba 2c 0d 3e 00 7d b5 3c
       -0.101331964 0.013999894 0.13786593 0.022154331
000140 6e 51 01 be f2 35 3c 3e 09 4d be bc da c0 81 bd
       -0.12628719 0.18379954 -0.023230093 -0.06335612
000150 21 83 69 3e 0f 23 f5 bc 23 b8 bb 3d 59 7b 52 3e
       0.22803928 -0.029923944 0.09165981 0.20554866
000160 53 10 db 3c a5 60 cd 3c b6 01 b5 3d 0d fc 57 be
       0.026741182 0.025070498 0.08838217 -0.21092243
000170 ba 1f 37 3e 38 37 06 3d b9 03 34 3e 62 6b 91 bd
       0.17883196 0.032767504 0.17579545 -0.0710056
000180 58 9b 12 bd a8 22 b3 3c 8e f1 07 3d 1a 01 1a bd
       -0.03579268 0.021867111 0.03318935 -0.037598707
000190 bc 04 65 3e 43 fc 18 3e 43 b6 dd bd 7b fd 4d bc
       0.22365087 0.1493998 -0.10825779 -0.0125726415
0001a0 25 ce 1a 3e 56 a6 dd bb 7a 72 14 3e 34 c6 90 3b
       0.151177 -0.0067642136 0.14496794 0.004418159
0001b0 3e 6f 9c bd d6 08 61 3e 1b 83 60 3e 93 0b d5 3c
       -0.07638405 0.21976027 0.21925013 0.026006496
0001c0 88 6d 09 be 1d ed 38 be ed 96 e6 bd 07 44 76 3a
       -0.13420689 -0.18059202 -0.112592556 0.0009394292
0001d0 ea 92 f7 bd 89 ea 1f 3e 98 6e d5 bd 22 ca 37 3e
       -0.120885685 0.15616812 -0.10421485 0.17948201
0001e0 bd e4 35 3e 01 a7 0a be 7f ce f0 bd 7b d6 99 bd
       0.17763038 -0.1354027 -0.11758136 -0.07511612
0001f0 0a cf 43 be 98 ad 3c 3e 2a 5f cc bd 92 ab b3 3c
       -0.19121948 0.18425596 -0.099790886 0.021932397

lstm.bias_hh_l0 f4 [128]
000000 b0 e0 4a bd 14 db 39 3e 3e 38 a4 3d 30 7e 3a be
       -0.049530685 0.18149978 0.0801854 -0.18212199
000010 d9 e9 af 3d 02 e3 4d 3e 36 70 e7 3d ea a2 3b be
       0.08589525 0.20106128 0.113006994 -0.18323866
000020 4d 88 60 bc 7d 3e d1 3d 96 b4 01 be da 67 8f 3d
       -0.013704372 0.10216997 -0.12666544 0.0700223
000030 9e 84 eb bd 85 d4 81 3d 0a 68 69 3d c4 c8 4a 3c
       -0.11499904 0.06339363 0.056983985 0.012376968
000040 42 dc 31 3e 84 3c 2a be 27 07 c5 3c cf 31 ea 3c
       0.17369178 -0.16624647 0.024051262 0.028588204
000050 5d a8 37 be 43 77 e8 3c e2 42 1e be 04 10 89 3a
       -0.17935319 0.02837718 -0.15455201 0.0010457044
000060 00 c6 13 3c c3 0b 09 bd 2d 20 04 3e f6 84 ae 3d
       0.009019375 -0.033458482 0.12902899 0.08521454
000070 c9 2d dc 3d 49 0c c2 bd f6 fd ab 3d bf 9e 80 3d
       0.1075092 -0.094749995 0.083980486 0.062802784
000080 18 18 f5 bd 1f c1 1b 3e aa a9 36 be cd ee 25 be
       -0.11967486 0.15210389 -0.17838159 -0.16204377
000090 4b b9 69 3d b3 50 3b bc 82 46 cd bd 73 2f 09 3e
       0.057061475 -0.011432814 -0.10023214 0.13397007
0000a0 7c 08 0a 3c c7 6e e8 bc a8 71 fb bd e5 c6 c6 bc
       0.008424874 -0.028373135 -0.122775376 -0.024264762
0000b0 b3 1a 15 3e 66 58 60 3d a9 6a 52 bd 92 1b 1d 3d
       0.14560966 0.054771803 -0.05137125 0.03835637
0000c0 09 0d d6 bd 65 f5 e7 bd 5d 0f 1c be b8 5f 2f 3c
       -0.10451705 -0.11326102 -0.15240236 0.0107039735
0000d0 a0 2c 1e be cf da ea bd b0 b3 49 bc 95 d5 2c 3e
       -0.1544671 -0.11467516 -0.012310907 0.1687835
0000e0 98 75 57 3d af 59 13 3e 24 36 b4 3d 75 c7 82 bc
       0.05260238 0.1438968 0.08799389 -0.01596425
0000f0 70 5a 22 be 30 2f f8 bd f6 be 0d 3e c2 b4 5c bd
       -0.15854812 -0.12118375 0.13842377 -0.05388332
000100 c3 7a 07 3e 1d 5a 02 3e d2 f5 59 3d e6 33 e6 bc
       0.13230424 0.12729688 0.05321295 -0.028100919
000110 a4 be 2a 3e 16 1f 3e 3e aa 2a b5 bd 38 0e 20 3d
       0.16674286 0.18566546 -0.08846028 0.03907606
000120 70 bd 6b 3d 23 0d 6a bc ce e3 23 bd 69 5a 23 bd
       0.05755371 -0.014285359 -0.040012173 -0.039881144
000130 9b 4b b5 bd d8 9c fa bd f0 49 1a 3e 32 73 6b 3d
       -0.08852311 -0.12236947 0.15067267 0.057482906
000140 ef 99 ca 3d 0b c7 0b 3e 99 e1 2c 3d aa 08 cc 3d
       0.09892642 0.13650148 0.042207334 0.0996259
000150 24 a0 46 bd 20 31 58 3e 01 60 55 3d d3 3a 3b 3e
       -0.048492566 0.2111249 0.05209351 0.18284158
000160 a7 bc 9e bd b5 fc 3b be 77 b8 1e be 7f 3b 19 bd
       -0.07750826 -0.18358119 -0.15500055 -0.037410256
000170 4d 29 3a bd 8d 73 0b 3d 27 36 46 3e 95 e6 3b bb
       -0.045449544 0.034045745 0.19356595 -0.0028671373
000180 cd 7d aa bd 24 48 e3 bd ee 86 43 bd 6d 84 96 3d
       -0.08324776 -0.11097744 -0.0477361 0.07349477
000190 db 35 2d 3e 36 6d 67 3e b7 62 2b 3d 24 e9 20 be
       0.16915075 0.22600254 0.04184219 -0.15713936
0001a0 03 58 85 bd 30 92 9f 3c 88 af e0 3d 65 8e c1 bd
       -0.065109275 0.019478887 0.1097098 -0.09450988
0001b0 0d d8 eb 3d f3 2d d2 bd fe 75 67 3c 94 d2 19 be
       0.11515818 -0.1026267 0.014127253 -0.15021735
0001c0 f9 fc 06 be 94 95 70 bd 0f 4e a8 bd 67 7f 11 be
       -0.13182439 -0.0587364 -0.082180135 -0.14208756
0001d0 71 aa 82 3d ed 06 27 3e 0a af db bd 48 14 e9 bd
       0.06380165 0.16311236 -0.107267454 -0.113808215
0001e0 3a 01 e7 bd 6b 62 f4 bc 25 5e 69 bd b4 db 50 3d
       -0.11279531 -0.029832086 -0.05697455 0.050990775
0001f0 f8 33 bc bd 76 0a 0d 3e 52 d1 2e be 52 64 15 3d
       -0.091896 0.13773522 -0.17072037 0.036472626

fc1.weight f4 [16, 32]
000000 4f 7a 83 3b 30 f6 ae 3c e9 d6 c9 3c c5 1b a7 bd
       0.004012383 0.021357626 0.02463861 -0.081595935
000010 7c f4 55 3d 1c c0 04 3e 9f e0 03 be 08 1a e5 bd
       0.05223511 0.12963909 -0.12878655 -0.11186606
000020 c1 10 f2 bc 06 58 a3 3d 4f 1b 24 be 6a 84 29 be
       -0.029549005 0.079757735 -0.16026042 -0.16554418
000030 3f 68 0a be 40 62 07 be 8d 42 a9 bd 98 38 1e be
       -0.13516329 -0.13221073 -0.08264647 -0.15451276
000040 ad cc 04 be 1f 9c 28 bd c1 1c f4 bc fe b0 b3 3d
       -0.12968703 -0.041164514 -0.029798867 0.08773993
000050 61 f5 1d 3e 44 fc 30 3e 16 83 bb 3d 7e 8f cb bd
       0.15425636 0.17283732 0.09155862 -0.09939478
000060 e5 9e 46 3e 70 d8 53 3c 34 df f6 bd 88 97 ae 3d
       0.19396551 0.012930021 -0.12054291 0.08524996
000070 36 33 7f bd 77 9c 17 3e 72 c9 29 be 18 70 fd bd
       -0.062304698 0.1480578 -0.16580752 -0.12374896
000080 13 a0 eb 3d 27 fe 2e be 9d f0 02 3e 37 13 58 bd
       0.11505141 -0.17089139 0.12787099 -0.0527527
000090 e0 0e 8f bc 84 ed 18 3e 5c 71 13 be c1 77 16 3e
       -0.017463148 0.14934355 -0.14398712 0.1469412
0000a0 3b bf 0e 3e c0 6b 41 3b 10 f6 e8 bd 80 97 ac ba
       0.13940136 0.0029513687 -0.11375058 -0.0013167709
0000b0 4e 4e ac 3d b9 03 dc bd ac b4 07 be 31 85 f2 bd
       0.08413373 -0.107428975 -0.13252515 -0.118418105
0000c0 62 f3 c2 3d 6b f5 36 3d 3f aa ab bd e2 54 b5 3d
       0.09519078 0.044667643 -0.08382081 0.08854081
0000d0 7a 45 da bd 3f 14 9b bd f1 e8 b2 3d ea d1 33 bd
       -0.10657783 -0.07572221 0.08735836 -0.04390136
0000e0 f8 99 a4 3c fb dd a3 bd eb a1 3b 3d d6 b2 92 3d
       0.02009295 -0.08001324 0.045808714 0.071630165
0000f0 f3 4a 29 3e 03 9e 0e be 00 4f 55 ba 46 c5 b4 3d
       0.16532497 -0.13927464 -0.0008137077 0.088266894
000100 b2 ea 01 3e d3 6d c1 bd c9 c6 82 3c c9 c9 dd bc
       0.12687185 -0.094447754 0.015963929 -0.027073758
000110 6d d0 00 3e 02 19 13 3e 3f af b8 bd 91 1c e6 bd
       0.12579508 0.14365008 -0.090178005 -0.11235917
000120 40 5d d6 3d a0 39 65 3c 82 2c 1e bd c6 4a ee bd
       0.10467005 0.01399079 -0.038616665 -0.11635356
000130 95 4c 98 bd 63 78 34 be bf 55 9e bc 17 5f 27 be
       -0.07436482 -0.17624049 -0.019327996 -0.16344868
000140 66 91 8f 3d 98 0e 3f be 00 ed 0f 3e 5e 7a 84 bd
       0.070101544 -0.18657911 0.14055252 -0.06468652
000150 7c 96 6f bd 1f 58 90 3d 6c c3 d4 3d 44 d4 1a bd
       -0.058493122 0.07048058 0.10388836 -0.03780009
000160 57 0b 8a 3d f4 14 21 be 63 0b 33 be 7e 3b bb 3d
       0.06740444 -0.15730649 -0.17484812 0.091422066
000170 30 41 81 3c ba 0f ce 3d a7 b2 d5 bd 14 91 00 be
       0.015778154 0.10061593 -0.10434466 -0.12555343
000180 5c 47 91 bc 3d 7f d4 bd eb 11 62 3d 62 0f 86 3d
       -0.017734222 -0.10375831 0.05519287 0.06545903
000190 b8 4f c2 bc 49 c4 cd bd b0 2b 6c 3d a8 9a 18 bd
       -0.023719653 -0.10047204 0.05765885 -0.037256867
0001a0 1a d3 e8 3d 0c 8d 27 3d a3 e2 d6 3c 70 aa a6 bc
       0.113683894 0.040905997 0.026231116 -0.020344943
0001b0 d4 e7 e9 3d d8 43 3a 3c fb dd b2 3c 1b d3 bf 3d
       0.11421171 0.011368714 0.021834364 0.09366437
0001c0 d0 02 a9 bd c7 b3 1e be d5 b0 1c be 00 ec 78 b9
       -0.082524896 -0.15498267 -0.15301831 -0.0002373904
0001d0 b7 73 0f 3e 31 0e a4 3d 44 b1 2d bb 35 a1 53 3e
       0.14008985 0.08010519 -0.0026503364 0.20666964
0001e0 a7 24 d4 3d 93 fb d9 bd 8e 0a dd 3c 7b af 93 3d
       0.103585534 -0.10643687 0.026982572 0.072112046
0001f0 4f 40 a7 bd e0 b2 05 3c 20 91 2b bc 86 7c d5 3d
       -0.08166563 0.008160323 -0.010471612 0.104241416
000200 30 e2 7d 3d 02 14 ec bd b6 8b 01 3e 98 80 4a 3c
       0.061983287 -0.11527254 0.12650952 0.012359761
000210 80 34 94 3a 49 63 06 3d 76 ea b8 bd 60 30 cc bc
       0.001130715 0.03280953 -0.09029095 -0.02492541
000220 88 07 36 3e 39 38 32 3e 51 02 2c bd 78 41 46 3d
       0.1777631 0.1740426 -0.041994397 0.04840228
000230 a7 4a c4 bd b8 22 32 3e d1 7c 30 3d d1 3a 19 3e
       -0.09584551 0.17396057 0.043087784 0.14963843
000240 c8 d0 5d 3d 1d 2c a2 bc 1e 29 bf 3d 2d 72 1d 3e
       0.054154187 -0.019796425 0.09334014 0.15375586
000250 3a ff c1 3d a4 3b e3 3c 74 1f 3b be 90 31 b5 bd
       0.09472509 0.0277384 -0.18273717 -0.08847344
000260 2c 85 87 bb 61 30 89 bd 2c 67 8f 3d da a4 0d 3e
       -0.0041357484 -0.06698681 0.070021 0.13832417
000270 1e d2 ee bd e8 21 93 bc 4e 52 a0 3d 9a ae 19 be
       -0.116611704 -0.017960504 0.078281984 -0.15008011
000280 80 12 83 3a 1b e3 32 be 20 57 30 3d ee 6f c8 3d
       0.001000002 -0.17469446 0.04305184 0.09786974
000290 d2 7e 07 be 94 6f 0c bd f2 3b b9 3d d3 15 33 be
       -0.13231972 -0.034286097 0.09044637 -0.17488794
0002a0 a0 61 93 3c b4 9b cf bd e0 67 8a 3d b2 30 a6 3d
       0.017990887 -0.1013712 0.06758094 0.08114757
0002b0 b1 da 14 3e 00 19 08 3d c5 53 0f 3e f7 92 0a 3e
       0.14536549 0.033226967 0.139968 0.13532625
0002c0 32 51 ec bd 30 21 09 3c e2 0b 84 3d a8 2e 08 be
       -0.11538924 0.008369729 0.06447579 -0.13299048
0002d0 88 24 30 3d 8b 53 18 3e dd a8 15 be 60 27 c0 bd
       0.04300359 0.14875619 -0.14615197 -0.0938251
0002e0 e2 53 62 bd ac d8 f0 bd f0 89 13 bc be b9 1e be
       -0.055255778 -0.11760077 -0.009005055 -0.15500543
0002f0 c0 87 83 3b 0c 96 61 3d 90 69 75 bc 28 3e 0f 3d
       0.0040139854 0.055074736 -0.014978781 0.034971386
000300 59 f5 d4 bd b0 09 ec bd 71 11 3f 3d 79 8e 28 be
       -0.10398359 -0.11525285 0.046647493 -0.16460599
000310 68 c7 24 bd 78 f7 57 3c 14 b4 00 3d 57 c2 31 3e
       -0.04022923 0.01318156 0.031421736 0.17359291
000320 03 76 9e bc d0 6f 7b 3c 77 fc 94 bd fe 6f 67 bd
       -0.019343382 0.015346482 -0.07274716 -0.05650329
000330 3c 4b 28 be ec 24 b4 3b ce 1c 50 3e ac 27 e6 bd
       -0.1643495 0.0054975655 0.20323488 -0.112380356
000340 55 d7 9a bd 4c a6 9c 3d e8 f5 3c be 25 96 28 3e
       -0.075606026 0.07648906 -0.18453181 0.16463526
000350 20 31 31 3d 58 ef dc bd 3b c1 b0 bd 5e 0a bc 3d
       0.04325974 -0.10787839 -0.08630606 0.09181665
000360 00 2a 5b 3e ed 51 0f be e7 c9 16 3d b1 d4 5c 3e
       0.2140274 -0.13996096 0.036813643 0.2156551
000370 ff fb 13 3e 9b 81 23 3e 85 e8 01 3e 7a 2e 18 be
       0.14451598 0.1596741 0.12686355 -0.1486148
000380 80 8b bb bc 53 a4 a4 bd f5 36 1c 3e 6e b4 2b be
       -0.022893667 -0.08039155 0.1525534 -0.16768047
000390 d6 2e 6e bd 6a 71 ac 3d b4 9f 51 3d 25 82 a3 bd
       -0.058150135 0.084200695 0.051177695 -0.079838075
0003a0 18 1a c5 3c f8 c4 53 3d 4c a5 83 3d 90 18 30 bc
       0.024060294 0.051701516 0.06428012 -0.010748044
0003b0 a0 60 12 be 50 5c 3b 3d 5a 56 e5 3d 18 15 82 3d
       -0.14294672 0.045742333 0.11198111 0.063516796
0003c0 e1 84 17 be 0a 43 c3 3d b2 58 99 3d 5b 5e 0b 3e
       -0.14796783 0.09534271 0.074876204 0.13610213
0003d0 87 b5 93 bd 88 4d e8 bc bf 23 90 bd 75 55 96 bd
       -0.07212358 -0.028357282 -0.07038068 -0.073405184
0003e0 58 23 1a bd de d3 f1 3d b0 17 2c 3d 8b 3c fd bd
       -0.037631363 0.118079886 0.042014778 -0.12365063
0003f0 a0 4d d0 bc 58 0f 33 3d b5 21 08 be 5e 40 d8 3d
       -0.02542764 0.043715805 -0.13294108 0.10559152

fc1.bias f4 [16]
000000 ad 7e 29 3e 7e 89 b4 3c 9b 2a 4d 3e bf 4d fd 3d
       0.16552229 0.022038218 0.20035784 0.123683445
000010 39 e4 1d 3d d0 6d 61 bc 02 a0 ad bc 00 c7 da bd
       0.03854773 -0.0137590915 -0.021194462 -0.106824875
000020 0b b1 e8 3c 6e 1d 8b 3d 6c 92 23 be c4 3e b9 bd
       0.028404733 0.06792723 -0.15973824 -0.09045175
000030 22 e0 2e be b4 b5 85 3d 43 b6 d0 3d c8 16 d5 3c
       -0.17077687 0.06528798 0.10191014 0.02601184

out.weight f4 [1, 16]
000000 c6 c3 d0 3d 8d f6 1e be 24 b1 ff 3d c3 a6 9e 3e
       0.10193591 -0.15523739 0.12484959 0.30986604
000010 23 43 25 3e a6 b8 59 be ed 15 21 3e 54 71 ed bd
       0.16138892 -0.21261844 0.1573102 -0.11593881
000020 43 68 c1 3d 12 cc 32 3e a0 eb 9b 3c dc e2 6b be
       0.094437145 0.17460659 0.019033253 -0.23035759
000030 b4 91 22 bd 08 ae 17 3e 2c e1 44 be 8c 8d d7 bd
       -0.039689735 0.14812481 -0.19226521 -0.10525045
