artifacts/territory/lstm/370__1209__0/model.pt (torch, 23217 bytes, 7 tensors)

lstm.weight_ih_l0 f4 [128, 1]
0.13149555 0.13429742 -0.111148275 0.06326384 0.11251198 0.03498494 -0.030692406 0.1006634
-0.0149889765 -0.05381053 -0.16381821 -0.18215784 -0.14431293 0.1562183 -0.11351954 0.04905601
0.034187224 0.091276474 0.0017007418 -0.15367077 0.1379067 0.0071908007 0.028518707 0.0804531
-0.13683191 0.0932656 -0.080345966 -0.06615953 -0.07628162 0.086594336 0.18933713 -0.06416903
0.09957906 0.09804539 -0.10349795 0.00987117 0.15689163 0.07018662 0.0754442 0.022653442
0.031411245 0.115901485 0.08531617 -0.11363136 -0.065086976 0.009856944 -0.12898967 -0.040185004
-0.07440228 -0.09018339 0.17104872 -0.0038296753 -0.16730902 0.18001747 -0.07629385 0.13176863
0.040805466 -0.056041796 0.07555354 -0.044482358 0.033690266 0.16047654 0.17160174 0.073623955
0.10290827 -0.07668831 -0.07744922 -0.063308895 -0.0619657 -0.16715129 -0.09529169 -0.11595686
-0.09237951 -0.0964374 -0.061421696 0.09128663 0.014458151 0.15910056 -0.1186743 0.010101414
-0.09581477 0.13789892 -0.0018704927 -0.033415563 -0.1505439 0.15815973 -0.020385807 -0.050083805
0.10341127 0.09997495 0.0010385449 0.120608926 0.1009344 -0.052448235 0.12611389 -0.10918511
-0.016242446 0.06893811 0.04178069 0.16709903 0.12847827 -0.10047854 -0.100386105 -0.08763712
0.04610611 0.15452085 -0.20149167 0.0688464 -0.0961251 0.06822358 -0.059275802 0.17563742
0.107455924 0.046832375 0.045825154 -0.054572653 0.14044732 0.18359591 -0.013026331 0.10824903
-0.06693516 0.16883281 -0.17233849 0.16908555 0.09217105 0.20719457 0.13269836 0.055958282
00000000: c5a6 063e 4385 093e b5a1 e3bd 7990 813d
00000010: ae6c e63d 5e4c 0f3d a46e fbbc 9d28 ce3d
00000020: 5394 75bc 6e68 5cbd f6bf 27be 9687 3abe
00000030: c5c6 13be b1f7 1f3e ef7c e8bd f4ee 483d
00000040: e707 0c3d 29ef ba3d 6deb de3a df5b 1dbe
00000050: 6a37 0d3e cfa0 eb3b 10a0 e93c 98c4 a43d
00000060: aa1d 0cbe 0902 bf3d 6d8c a4bd a67e 87bd
00000070: 8a39 9cbd 5f58 b13d 98e1 413e 0d6b 83bd
00000080: 1bf0 cb3d 05cc c83d bcf6 d3bd b0ba 213c
00000090: 33a8 203e 01be 8f3d 7d82 9a3d b693 b93c
000000a0: 14a9 003d c25d ed3d 3eba ae3d 8fb7 e8bd
000000b0: 524c 85bd 057f 213c de15 04be 0899 24bd
000000c0: 3960 98bd 12b2 b8bd 6527 2f3e 4afb 7abb
000000d0: 0e53 2bbe 8056 383e f33f 9cbd 5bee 063e
000000e0: a223 273d 158c 65bd d0bb 9a3d 2233 36bd
000000f0: cefe 093d f653 243e 5eb8 2f3e 28c8 963d
00000100: 92c1 d23d c30e 9dbd b29d 9ebd 18a8 81bd
00000110: bfcf 7dbd b529 2bbe 4a28 c3bd ca7a edbd
00000120: 7831 bdbd f980 c5bd 5195 7bbd 7cf4 ba3d
00000130: e1e1 6c3c 42eb 223e 830b f3bd 6780 253c
00000140: 893a c4bd 6035 0d3e 522b f5ba c2de 08bd
00000150: 2e28 1abe a0f4 213e 2300 a7bc ad24 4dbd
00000160: 4ac9 d33d abbf cc3d c91f 883a d001 f73d
00000170: b2b6 ce3d f6d3 56bd 0024 013e 719c dfbd
00000180: e10e 85bc 6c2f 8d3d 3b22 2b3d 021c 2b3e
00000190: cf8f 033e b1c7 cdbd 3b97 cdbd 177b b3bd
000001a0: c3d9 3c3d b73a 1e3e d553 4ebe 57ff 8c3d
000001b0: 3ddd c4bd ceb8 8b3d 2fcb 72bd 4cda 333e
000001c0: da11 dc3d 4ed3 3f3d 28b3 3b3d 9387 5fbd
000001d0: 6cd1 0f3e 9100 3c3e 646c 55bc abb1 dd3d
000001e0: 4d15 89bd 82e2 2c3e 8079 30be c324 2d3e
000001f0: 2dc4 bc3d d02a 543e 14e2 073e 8334 653d

lstm.weight_hh_l0 f4 [128, 32]
0.08745788 0.17365025 0.1412179 0.14786446 -0.10814361 0.029425353 -0.08576275 -0.11350843
0.17545162 0.10144825 0.08539374 0.017197669 -0.12572888 0.01590002 -0.027550176 0.11181714
0.11162732 0.11893389 0.02557959 -0.1121303 -0.08365676 0.11744077 0.08845119 -0.021413216
0.074423596 0.17220128 -0.021459073 -0.039618015 0.17629693 0.0402612 0.03922405 -0.023699313
0.12961303 -0.15561719 -0.13765928 -0.11759986 0.13897692 0.015830532 0.085115686 -0.019608393
0.030737098 0.1713758 -0.12449629 0.095118895 -0.02127944 0.1487651 0.036273986 0.031847488
-0.043624565 -0.114187166 0.16171552 0.12662016 -0.03937912 0.09074018 0.12766142 0.10218416
0.04819502 0.18285857 0.01383841 -0.052695587 0.15292932 0.1357978 0.007375528 -0.09575111
-0.07044798 -0.097075015 -0.0029984147 -0.07548349 -0.029828737 -0.16572227 0.10372858 0.17192937
0.10041877 -0.1414418 -0.011178315 -0.06584046 0.09736262 -0.008722577 0.091800734 0.14177138
-0.0022823275 0.17754976 -0.040774457 0.053720325 0.0056130253 0.13038541 -0.13700221 0.040335428
-0.12191726 -0.06727247 0.15676995 -0.16554375 0.13849159 -0.14561653 -0.07367362 -0.074748814
0.17027132 0.05156575 -0.1528177 0.07285077 -0.13484727 0.11832869 -0.02772282 -0.014384616
-0.031512026 -0.13132782 -0.0039065927 -0.063299574 0.050393686 0.18664491 0.022521794 -0.14102116
0.10562714 0.12214344 -0.1755854 -0.10573533 0.07999994 -0.009951585 -0.10503476 0.017586114
0.06842468 0.038173277 0.14112215 -0.0632205 -0.16000497 0.14477511 0.1548251 -0.03965181
-0.015574506 0.14574401 0.07049507 -0.100616746 -0.12918127 -0.13342617 -0.024803951 0.12867768
0.118857525 -0.017838355 -0.16952486 0.14322655 0.08822583 -0.059031516 -0.16137645 0.051018648
-0.10718684 0.13560745 -0.0638115 0.0587817 -0.0733268 0.039463088 0.1268092 -0.028038379
0.09802665 0.15810631 -0.16586152 0.08378666 -0.018538607 0.08124905 -0.16724989 0.11898704
-0.038250368 -0.14601362 -0.07665083 0.0792438 0.13364771 -0.039674446 0.0694568 -0.025136039
-0.092278816 -0.109487586 -0.057572275 0.0390217 0.16204356 0.17354861 -0.056733727 0.016826672
-0.13529794 0.1602786 -0.17939508 0.1510035 -0.09131117 0.08167318 0.04668504 -0.13022526
-0.08739623 0.13852134 0.08120169 0.08031576 -0.08894271 -0.02019786 -0.00083898375 -0.16713288
0.11610133 -0.07119648 -0.13423884 0.009019379 -0.1068765 0.0133079095 0.014456511 -0.007462951
0.09743731 0.119744875 0.009852156 -0.0077662915 0.1471091 -0.057100438 0.04682134 0.044799928
-0.09128709 0.03725648 -0.23536727 0.11096083 0.06244066 0.15298334 0.07125111 0.08867804
-0.16784652 0.07593104 -0.0761382 -0.012477757 0.084919006 0.035591487 0.0554492 -0.1172485
-0.07548925 -0.13518436 0.09857799 -0.025317868 -0.125684 0.06565514 -0.043141827 -0.15293072
0.15592635 -0.12913741 0.043107376 0.015063196 0.040420383 -0.052672274 0.035598338 0.10788456
0.07856792 0.12786552 -0.0055280146 -0.041250125 0.031226505 0.14147013 -0.11426394 0.17428271
-0.05939856 0.13756225 0.1441126 -0.044821575 0.09048377 -0.09879352 -0.12257848 0.0020820051
00000000: 1e1d b33d 5fd1 313e 6d9b 103e c869 173e
00000010: 667a ddbd 700d f13c 61a4 afbd 1c77 e8bd
00000020: 97a9 333e 1ac4 cf3d eae2 ae3d 20e2 8c3c
00000030: 12bf 00be c240 823c e8b0 e1bc 6200 e53d
00000040: dd9c e43d 9c93 f33d 4a8c d13c 92a4 e5bd
00000050: 3c54 abbd c984 f03d e625 b53d c56a afbc
00000060: 666b 983d 8855 303e f0ca afbc 8046 22bd
00000070: 2f87 343e eee8 243d 66a9 203d 1025 c2bc
00000080: 47b9 043e 1d5a 1fbe 8ef6 0cbe 32d8 f0bd
00000090: f74f 0e3e 08af 813c 2251 ae3d c8a1 a0bc
000000a0: 5ecc fb3c 237d 2f3e e9f7 febd b2cd c23d
000000b0: 3852 aebc e155 183e 0894 143d 8372 023d
000000c0: acaf 32bd f6da e9bd c198 253e b7a8 013e
000000d0: 004c 21bd fdd5 b93d adb9 023e ee45 d13d
000000e0: 2468 453d 473f 3b3e 80ba 623c 54d7 57bd
000000f0: 8199 1c3e 940e 0b3e 6aae f13b 2819 c4bd
00000100: 0847 90bd 44cf c6bd 0d81 44bb 1797 9abd
00000110: 655b f4bc 19b3 29be a66f d43d 410e 303e
00000120: 5ba8 cd3d 1fd6 10be 4025 37bc 5dd7 86bd
00000130: 0e66 c73d 24e9 0ebc 0602 bc3d 842c 113e
00000140: 1a93 15bb 9bcf 353e 1e03 27bd d809 5c3d
00000150: 78ed b73b c183 053e 4f4a 0cbe c336 253d
00000160: c2af f9bd 26c6 89bd 4d88 203e 4d84 29be
00000170: bdd0 0d3e 801c 15be 32e2 96bd e815 99bd
00000180: 9b5b 2e3e 9c36 533d 3e7c 1cbe c932 953d
00000190: 6715 0abe 5056 f23d f81a e3bc 74ad 6bbc
000001a0: c112 01bd cd7a 06be e002 80bb 35a3 81bd
000001b0: 9c69 4e3d d81f 3f3e a07f b83c da67 10be
000001c0: 0b53 d83d 5726 fa3d a9cc 33be c48b d8bd
000001d0: 02d7 a33d f90b 23bc 771c d7bd c110 903c
000001e0: 3d22 8c3d 955b 1c3d 5382 103e c079 81bd
000001f0: 58d8 23be ed3f 143e 798a 1e3e f069 22bd
00000200: 362c 7fbc eb3d 153e b85f 903d 2710 cebd
00000210: 1848 04be dfa0 08be a831 cbbc 15c4 033e
00000220: 936b f33d be21 92bc ed97 2dbe fba9 123e
00000230: beaf b43d 08cb 71bd de3f 25be eef8 503d
00000240: c684 dbbd aedc 0a3e 9baf 82bd 14c5 703d
00000250: 5c2c 96bd 0ca4 213d 45da 013e beb0 e5bc
00000260: 32c2 c83d 9fe6 213e 9ad7 29be 5798 ab3d
00000270: 47de 97bc e765 a63d 8e43 2bbe 7aaf f33d
00000280: 6bac 1cbd 9884 15be 1cfb 9cbd 934a a23d
00000290: f2da 083e ac81 22bd 5e3f 8e3d 18ea cdbc
000002a0: adfc bcbd 073b e0bd e8d0 6bbd 38d5 1f3d
000002b0: bfee 253e bab6 313e a061 68bd 17d8 893c
000002c0: 8b8b 0abe 1320 243e 58b3 37be a9a0 1a3e
000002d0: 5a01 bbbd 4544 a73d d038 3f3d c559 05be
000002e0: cbfc b2bd 8ad8 0d3e 124d a63d 977c a43d
000002f0: 9827 b6bd fc75 a5bc 3fef 5bba e224 2bbe
00000300: 89c6 ed3d 76cf 91bd e875 09be 04c6 133c
00000310: 11e2 dabd 6b09 5a3c 00db 6c3c c58b f4bb
00000320: 368d c73d cd3c f53d f06a 213c 607c febb
00000330: c5a3 163e 26e2 69bd bcc7 3f3d 2180 373d
00000340: baf4 babd 409a 183d 1e04 71be 6e3f e33d
00000350: c7c1 7f3d aaa7 1c3e 1aec 913d d59c b53d
00000360: f5df 2bbe bc81 9b3d 58ee 9bbd 826f 4cbc
00000370: 04ea ad3d 61c8 113d b31e 633d fb1f f0bd
00000380: 1c9a 9abd c56d 0abe 42e3 c93d 6b67 cfbc
00000390: 4eb3 00be 3476 863d 7cb5 30bd df99 1cbe
000003a0: 28ab 1f3e 993c 04be 5c91 303d a0cb 763c
000003b0: d88f 253d e2be 57bd 90cf 113d 95f2 dc3d
000003c0: 38e8 a03d 2eef 023e 5924 b5bb e4f5 28bd
000003d0: bace ff3c 8cdd 103e 3603 eabd 2b77 323e
000003e0: e84b 73bd 1edd 0c3e 4192 133e d496 37bd
000003f0: 8e4f b93d 4254 cabd 6d0a fbbd 4072 083b

lstm.bias_ih_l0 f4 [128]
0.05200734 -0.15773368 -0.12143487 0.1263407 -0.051503494 -0.041112047 -0.120688595 0.14164333
-0.032946773 0.085799634 -0.1880299 -0.14185053 -0.1873996 0.09392125 -0.14644773 0.04151723
-0.0819463 0.16449805 -0.024527477 0.13090609 -0.19293001 0.19202928 0.041695807 -0.0006239263
-0.14936507 0.20618777 0.10605951 -0.16896077 0.1496142 0.008968527 -0.004697645 -0.008104702
0.16870509 0.04704238 -0.12504776 -0.13640061 -0.074402995 0.07468552 0.15386036 0.036789455
0.15088007 -0.114742175 -0.11994986 0.019540623 0.16834135 0.07943302 -0.068373755 -0.13122702
-0.051390965 0.09996028 -0.12615733 -0.11049539 0.06069075 0.050679978 0.15499231 -0.027499238
-0.1499223 -0.018134378 -0.00081800483 -0.043168105 0.18248619 0.012452682 0.07662556 0.010837592
-0.064490475 0.15271163 0.06455426 0.077764474 0.14766566 0.06901435 -0.1194081 0.10274783
0.12246895 -0.18059784 0.007390462 -0.0724039 -0.15338492 -0.074689694 -0.024533985 0.16149284
-0.112733364 0.13560358 0.14107579 0.013142922 0.15523219 0.061232906 0.10881813 0.07478968
-0.110845625 -0.020307062 -0.16485836 0.1774006 0.16885354 0.0048940284 0.07500405 -0.11767456
-0.15741101 -0.019912481 0.16381644 -0.048953407 -0.1013925 0.069389634 0.19456597 0.0039246115
-0.11991481 -0.12030444 0.10760103 -0.112393074 0.113041654 0.086071596 -0.02346875 -0.083429545
0.0844523 0.06791332 -0.10376031 -0.010246084 0.030300763 -0.014044229 -0.009564421 -0.11931375
-0.121016145 0.08503744 0.0092337765 -0.030726125 0.0060965233 0.014523513 0.106222644 -0.07161548
00000000: a605 553d f084 21be d8b2 f8bd 755f 013e
00000010: 54f5 52bd 1b65 28bd 952b f7bd f30a 113e
00000020: 32f3 06bd b8b7 af3d e98a 40be 4441 11be
00000030: aee5 3fbe c959 c03d 65f6 15be f90d 2a3d
00000040: 76d3 a7bd 2d72 283e d9ed c8bc 3f0c 063e
00000050: 728f 45be 53a3 443e 39c9 2a3d fc8e 23ba
00000060: 28f3 18be e322 533e ba35 d93d 0d04 2dbe
00000070: 7734 193e bbf0 123c b4ee 99bb 96c9 04bc
00000080: 07c1 2c3e 83af 403d 850c 00be 9aac 0bbe
00000090: 9960 98bd b9f4 983d 928d 1d3e 8ab0 163d
000000a0: 4e80 1a3e f2fd eabd 46a8 f5bd a813 a03c
000000b0: ad61 2c3e c7ad a23d 8a07 8cbd 6060 06be
000000c0: 557f 52bd fab7 cc3d 632f 01be 684b e2bd
000000d0: dd96 783d cf95 4f3d 4eb6 1e3e 1546 e1bc
000000e0: 3b85 19be 8c8e 94bc 606f 56ba 0ad1 30bd
000000f0: a9dd 3a3e 5506 4c3c dded 9c3d 2890 313c
00000100: 9513 84bd 7060 1c3e 0635 843d fb42 9f3d
00000110: ab35 173e 6557 8d3d 3c8c f4bd 746d d23d
00000120: 00d1 fa3d a4ee 38be b02b f23b 7f48 94bd
00000130: f010 1dbe e9f6 98bd 7ffb c8bc 615e 253e
00000140: c0e0 e6bd aadb 0a3e 2c76 103e 6955 573c
00000150: 30f5 1e3e 5bcf 7a3d 0adc de3d 552b 993d
00000160: 0803 e3bd ff5a a6bc a1d0 28be 81a8 353e
00000170: f1e7 2c3e 165e a03b b99b 993d 5cff f0bd
00000180: 5a30 21be 801f a3bc 7fbf 273e 5e83 48bd
00000190: dfa6 cfbd 271c 8e3d 4d3c 473e 079a 803b
000001a0: e595 f5bd 2d62 f6bd ee5d dc3d 572e e6bd
000001b0: 6282 e73d 4e46 b03d 8941 c0bc 1cdd aabd
000001c0: 54f5 ac3d 2416 8b3d 4980 d4bd 31df 27bc
000001d0: 4e39 f83c c419 66bc 17b4 1cbc c45a f4bd
000001e0: 50d7 f7bd 1c28 ae3d 4449 173c 5bb5 fbbc
000001f0: 58c5 c73b 07f4 6d3c 428b d93d 23ab 92bd

lstm.bias_hh_l0 f4 [128]
0.107144855 -0.10452532 0.05102281 0.12945303 0.043135665 -0.1364443 -0.1369775 0.0077864924
0.14627063 0.0054717963 0.029732186 0.1515591 0.10511488 0.11992694 -0.0809545 -0.042860072
0.06005648 0.004429477 0.10015672 -0.1807844 0.008156148 -0.1401365 0.14192842 -0.1281902
-0.11326835 0.031246731 -0.052439872 0.13567589 -0.016354132 -0.030931953 0.15217268 0.064784095
-0.15508325 -0.08701604 -0.08242784 0.07573636 -0.11803245 0.17134418 0.058020417 0.049439736
0.11746268 0.024802031 0.078349605 0.11572145 0.06255469 0.037404474 -0.0045398623 -0.07587012
0.23182729 0.15926306 -0.039529648 0.07928826 -0.07834646 -0.069784015 -0.042582925 -0.024994964
0.12087323 0.003661617 -0.0746097 -0.09859563 -0.09183758 0.14937328 -0.06750192 -0.1135718
0.096173175 0.10435444 -0.12743543 0.028511584 0.045360185 -0.13620406 0.07143549 -0.14177859
0.099791214 0.07522493 0.08885388 0.1223852 -0.14885008 0.16706605 0.09690583 -0.085112914
-0.082019225 -0.065762304 0.037611894 0.10256413 0.10549668 0.10396816 -0.067849785 -0.09823591
-0.1401524 -0.018451942 -0.06560552 -0.1519359 -0.0050112195 -0.16309117 0.012242788 0.04669361
0.02328619 0.12643975 0.02057242 0.009959431 0.15722038 0.10600271 0.063420914 0.004605826
0.030609129 0.07339867 -0.15549323 0.01205115 -0.0731382 0.02592987 0.07870843 -0.0087408135
0.07411165 0.16435567 -0.14063545 -0.051360797 -0.19581065 0.107353546 -0.12818994 0.012905807
0.06918047 -0.043286163 -0.16092528 -0.036052458 0.0478298 -0.13115057 -0.053008214 -0.12774462
00000000: c36e db3d 5f11 d6bd 4bfd 503d 568f 043e
00000010: 06af 303d 0eb8 0bbe d443 0cbe d525 ff3b
00000020: f8c7 153e c14c b33b ea90 f33c 4f32 1b3e
00000030: 7846 d73d 419c f53d 79cb a5bd 0b8e 2fbd
00000040: c9fd 753d 2525 913b f71e cd3d 8c1f 39be
00000050: 5da1 053c f17f 0fbe af55 113e 4b44 03be
00000060: 3df9 e7bd 25f9 ff3c 31cb 56bd 9fee 0a3e
00000070: 1af9 85bc 0265 fdbc 28d3 1b3e 86ad 843d
00000080: 25ce 1ebe 7735 b2bd edcf a8bd aa1b 9b3d
00000090: ffba f1bd d974 2f3e d1a6 6d3d 5281 4a3d
000000a0: 4690 f03d a12d cb3c c275 a03d 5eff ec3d
000000b0: ac1c 803d 6f35 193d 20c3 94bb cb61 9bbd
000000c0: 2264 6d3e db15 233e d7e9 21bd e261 a23d
000000d0: 1c74 a0bd ecea 8ebd 6f6b 2ebd 3dc2 ccbc
000000e0: 628c f73d bdf7 6f3b f8cc 98bd 81ec c9bd
000000f0: 5715 bcbd 4ff5 183e 723e 8abd 5598 e8bd
00000100: 71f6 c43d c8b7 d53d 6f7e 02be 2091 e93c
00000110: 9acb 393d 1479 0bbe c54c 923d 682e 11be
00000120: 565f cc3d 870f 9a3d 06f9 b53d 17a5 fa3d
00000130: 286c 18be 5d13 2b3e 9076 c63d ae4f aebd
00000140: b2f9 a7bd 63ae 86bd ee0e 1a3d 250d d23d
00000150: a50e d83d 42ed d43d d4f4 8abd e92f c9bd
00000160: 1c84 0fbe 8728 97bc 305c 86bd 1695 1bbe
00000170: 2835 a4bb 5f01 27be fa95 483c cc41 3f3d
00000180: aec2 be3c 6c79 013e 7e87 a83c e22c 233c
00000190: 61fe 203e f317 d93d d3e2 813d 78ec 963b
000001a0: ffbf fa3c 0b52 963d 9e39 1fbe 3072 453c
000001b0: 7bc9 95bd e16a d43c e331 a13d a135 0fbc
000001c0: d9c7 973d da4c 283e bd02 10be b35f 52bd
000001d0: 9682 48be 2ddc db3d 3944 03be e172 533c
000001e0: 7eae 8d3d d54c 31bd 99c9 24be beab 13bd
000001f0: 2ee9 433d 564c 06be 241f 59bd 7ccf 02be

fc1.weight f4 [16, 32]
0.111892186 -0.13647012 -0.15093143 -0.009712657 -0.003999125 -0.03693214 0.046102222 -0.008097595
-0.1134014 -0.027898356 0.1004469 0.067285165 -0.008733677 0.04954326 -0.038503096 0.16976622
0.023522105 0.0870405 0.04378811 -0.16575444 -0.20121618 0.11687991 0.05878593 -0.1477185
-0.08037405 0.20731689 -0.066427596 0.012723978 0.053137343 0.07785739 0.091379344 -0.16334093
0.07534003 -0.18458697 -0.07876046 -0.21011 -0.22114749 -0.034332097 0.0863084 -0.10859495
0.072521634 -0.19471514 -0.12668115 -0.0758856 0.076123066 0.11463969 -0.06586151 0.18039228
-0.13773806 0.061047938 0.052267034 0.049565006 -0.07873528 0.037775274 -0.15967762 -0.18751852
0.073704995 0.22206037 0.17775552 0.08430175 0.13999555 -0.106690064 0.21363902 -0.16374382
0.10400312 0.034758404 0.081573024 0.12149708 0.124312595 -0.10799479 -0.1570223 0.13447429
0.019193932 0.11604194 0.1608511 0.015822545 0.06996167 -0.10975509 -0.093247116 -0.052683264
-0.119913116 -0.10145477 0.004675314 -0.12945364 0.05135435 0.16116656 0.13028012 0.07991989
-0.1194873 -0.1586652 0.1365576 0.088265106 -0.06549532 -0.15469548 0.16215415 -0.002754569
-0.11992802 0.14401917 -0.13037446 0.025457934 -0.112629004 0.13553552 -0.026586235 0.13961847
-0.038590014 0.12764163 -0.024337113 -0.110373154 -0.05938518 0.020975351 0.13315882 0.00875394
-0.050719053 0.011791527 0.102608934 -0.0013606697 -0.03756918 -0.15365887 0.023837179 -0.0073913783
-0.16188867 -0.0069136024 -0.15762511 0.17063694 0.15126462 0.064747795 -0.11963558 0.009864181
-0.11379741 0.1573007 0.018098861 -0.07672774 0.065897 -0.099895045 -0.02520293 -0.08317339
-0.03509426 0.1536821 0.15867515 -0.034999624 -0.041047722 0.1489498 -0.08546972 -0.11210654
0.15760638 -0.10163831 -0.022974659 -0.15596373 0.006669079 -0.0898407 -0.15240054 -0.08324857
-0.015821487 -0.095349535 -0.018444493 -0.088727735 -0.1159173 -0.13436258 0.15585653 0.07506143
-0.142722 -0.17879678 0.10985942 -0.21722996 -0.14702228 -0.06773941 0.08667324 -0.2186161
-0.03761476 0.105339825 -0.03529362 -0.12544674 0.05762177 0.021192757 -0.12148538 -0.08988067
-0.030797435 0.21755299 -0.03730561 -0.0016311968 0.004708199 0.17342176 -0.011080173 -0.21908467
-0.028566148 0.13398266 0.10753285 0.065562345 0.09145944 -0.080167316 0.022776602 -0.12824266
-0.09726118 0.13031022 0.027587742 0.0036247969 0.17009331 -0.048774034 -0.107158616 0.07696842
-0.1290587 0.016941532 -0.10957601 0.17084776 0.1417882 -0.103604436 -0.045359433 0.076181576
-0.044817865 -0.11151156 0.13343273 0.030333936 -0.14832523 0.06126438 0.12564145 0.07977803
0.08707388 -0.063434966 -0.11744158 0.011061445 -0.1017257 -0.052984655 -0.08204223 0.001736179
0.12878533 -0.0014776886 0.030843869 0.014569119 0.17332773 -0.109042935 -0.05024372 0.0037539154
0.04548785 0.04658419 -0.115319 0.15174498 -0.13692299 -0.11805524 -0.07676524 0.16662122
0.14366041 0.0115211755 0.018110797 -0.024438411 0.009685382 -0.059360586 0.08109696 0.058200374
0.11654623 -0.11041408 0.1297829 0.041665614 -0.15112956 -0.08489039 -0.013876811 0.022127047
00000000: bb27 e53d d3be 0bbe c58d 1abe d621 1fbc
00000010: 180b 83bb 2846 17bd afd5 3c3d c6ab 04bc
00000020: fe3e e8bd 188b e4bc 1bb7 cd3d cecc 893d
00000030: b217 0fbc e0ed 4a3d 6cb5 1dbd 32d7 2d3e
00000040: 6eb1 c03c 4a42 b23d 295b 333d 88bb 29be
00000050: 9d0b 4ebe bc5e ef3d 84c9 703d 8543 17be
00000060: 269b a4bd e14a 543e 310b 88bd 3b78 503c
00000070: 8ba6 593d b273 9f3d 1825 bb3d d842 27be
00000080: e04b 9a3d 5e04 3dbe 2a4d a1bd 1327 57be
00000090: 7d74 62be d09f 0cbd 75c2 b03d 0767 debd
000000a0: 3986 943d 6863 47be b4b8 01be e969 9bbd
000000b0: 69e6 9b3d 37c8 ea3d 66e2 86bd c1b8 383e
000000c0: 350b 0dbe 670d 7a3d f515 563d ad04 4b3d
000000d0: f63f a1bd 3fba 1a3d 8882 23be db04 40be
000000e0: a5f2 963d cb63 633e 8b05 363e 65a6 ac3d
000000f0: fe5a 0f3e 5280 dabd 30c4 5a3e 76ac 27be
00000100: 96ff d43d d45e 0e3d c20f a73d 76d3 f83d
00000110: 9a97 fe3d 5f2c ddbd 74ca 20be a1b3 093e
00000120: 983c 9d3c 66a7 ed3d 27b6 243e 489e 813c
00000130: 1048 8f3d 47c7 e0bd 58f8 bebd 68ca 57bd
00000140: 0295 f5bd 85c7 cfbd 6033 993b 7f8f 04be
00000150: f058 523d d908 253e 2768 053e 0aad a33d
00000160: c2b5 f4bd 2179 22be c1d5 0b3e 56c4 b43d
00000170: 6922 86bd 7e68 1ebe bd0b 263e 0086 34bb
00000180: d29c f5bd c379 133e e280 05be 288d d03c
00000190: 09aa e6bd d3c9 0a3e 60cb d9bc 25f8 0e3e
000001a0: 9010 1ebd 7db4 023e a05e c7bc 520b e2bd
000001b0: e03d 73bd 80d4 ab3c c95a 083e b06c 0f3c
000001c0: c8be 4fbd 4031 413c a224 d23d 8058 b2ba
000001d0: 24e2 19bd c058 1dbe 3046 c33c 6033 f2bb
000001e0: 25c6 25be 808b e2bb 7a68 21be 73bb 2e3e
000001f0: 1de5 1a3e 7e9a 843d 8003 f5bd 609d 213c
00000200: 9e0e e9bd 6f13 213e 1044 943c 6f23 9dbd
00000210: 02f5 863d c695 ccbd 6076 cebc cf56 aabd
00000220: 00bf 0fbd d75e 1d3e bd7b 223e c45b 0fbd
00000230: a821 28bd 4c86 183e c00a afbd 1d98 e5bd
00000240: 9163 213e bf27 d0bd 5a35 bcbc f5b4 1fbe
00000250: 4a88 da3b 67fe b7bd e30e 1cbe 3a7e aabd
00000260: 109c 81bc 9e46 c3bd e818 97bc e3b6 b5bd
00000270: 0d66 edbd 5896 09be db98 1f3e cfb9 993d
00000280: b725 12be 8116 37be fafd e03d 8871 5ebe
00000290: 028d 16be f6ba 8abd bd81 b13d e6dc 5fbe
000002a0: ef11 1abd 68bc d73d 0b90 10bd 1c75 00be
000002b0: ce04 6c3d 6f9c ad3c 54cd f8bd 5b13 b8bd
000002c0: e74a fcbc 36c6 5e3e c4cd 18bd e2cd d5ba
000002d0: 3c47 9a3b 7995 313e 9d89 35bc bb57 60be
000002e0: 8e03 eabc c032 093e 2f3a dc3d 8d45 863d
000002f0: 164f bb3d c32e a4bd ff95 ba3c 0b52 03be
00000300: df30 c7bd 0b70 053e b0ff e13c 008e 6d3b
00000310: f12c 2e3e 48c7 47bd fa75 dbbd 9ea1 9d3d
00000320: f727 04be f8c8 8a3c 6369 e0bd b7f2 2e3e
00000330: ed30 113e 902e d4bd d0ca 39bd 1605 9c3d
00000340: f092 37bd 2c60 e4bd 97a2 083e e07e f83c
00000350: 92e2 17be 5cf0 7a3d 27a8 003e aa62 a33d
00000360: ca53 b23d 31ea 81bd 3685 f0bd 103b 353c
00000370: 9055 d0bd 7006 59bd c205 a8bd 8090 e33a
00000380: 4de0 033e 00af c1ba 48ac fc3c 50b3 6e3c
00000390: d37c 313e e751 dfbd 5ccc 4dbd 4004 763b
000003a0: 7851 3a3d 10cf 3e3d 5e2c ecbd 0963 1b3e
000003b0: 8a35 0cbe f2c6 f1bd 1837 9dbd c19e 2a3e
000003c0: b71b 133e 50c3 3c3c 185d 943c 1033 c8bc
000003d0: 70af 1e3c 1624 73bd 2a16 a63d 8463 6e3d
000003e0: caaf ee3d c720 e2bd cfe5 043e 90a9 2a3d
000003f0: b5c1 1abe 03db adbd 905b 63bc c843 b53c

fc1.bias f4 [16]
0.08730556 0.12878896 -0.000120565295 -0.116705276 -0.06676291 0.096257046 0.06225954 0.13099073
-0.045025554 0.21738438 -0.033335 -0.16244848 0.1432237 0.224177 0.064354606 0.07579098
00000000: 42cd b23d 41e1 033e 00d8 fcb8 2d03 efbd
00000010: feba 88bd 6a22 c53d dc03 7f3d 6f22 063e
00000020: b76c 38bd 039a 5e3e 488a 08bd e558 26be
00000030: 3ca9 123e a88e 653e 59cc 833d 4d38 9b3d

out.weight f4 [1, 16]
0.07547709 0.2153754 -0.0565449 0.20906824 0.077115 0.25037086 0.10950911 -0.08935395
-0.22040197 0.29281354 -0.15679067 -0.036193237 -0.20353009 0.26343518 0.14670163 0.13931963
00000000: bc93 9a3d 5e8b 5c3e a09b 67bd fc15 563e
00000010: 78ee 9d3d 9c30 803e 5046 e03d 34ff b6bd
00000020: 0eb1 61be a8eb 953e bc8d 20be 5c3f 14bd
00000030: 316a 50be fae0 863e f438 163e cea9 0e3e
